Saved Models/I3_ULA_trainable_10_beam_probing_codebook_128_beam_classifier_noiseless.pt (torch, 24487 bytes, 7 tensors)

codebook.theta f4 [64, 10]
000000 50 9c 75 40 56 6f db 40 35 b4 39 40 83 f0 88 40
       3.8376656 6.857341 2.901624 4.2793593
000010 e1 4b 05 40 62 85 2e 40 0c 38 f2 40 47 96 32 40
       2.0827563 2.726891 7.5693417 2.7904222
000020 10 62 b1 3e 9b 69 78 40 ab f1 9b 40 d8 ff 4c 3f
       0.34645128 3.8814456 4.8732505 0.80077887
000030 43 ad 0f 40 9b 3f 22 40 ff 5c ed 3f 8c 44 ba 3f
       2.24495 2.5351322 1.8544005 1.4552169
000040 a7 0b 60 40 23 8e bf 3f a0 6a bd 40 fc 88 86 40
       3.5007112 1.4965252 5.9192657 4.2042217
000050 9b d5 cb 40 b3 31 d9 3f 87 36 d7 3f 89 43 d5 40
       6.369825 1.6968292 1.6813515 6.664494
000060 de 3e 00 40 d8 9f b2 3f ab 19 b9 40 97 ea 21 3f
       2.003837 1.395503 5.7843833 0.6324858
000070 0c 65 8f bf a0 6f e2 40 a9 59 95 40 34 32 1f 40
       -1.1202712 7.076126 4.667195 2.4874392
000080 64 1c 0c 40 63 c5 b2 40 3f a4 17 40 4b e7 15 40
       2.1892328 5.586595 2.3693998 2.342242
000090 14 a9 92 40 87 c5 90 40 95 f4 a3 40 4e 8e 32 3f
       4.5831394 4.524112 5.123606 0.6974839
0000a0 1f fa a6 40 3e f6 3a 40 f1 2a ab 40 7d 8b b5 40
       5.2180324 2.9212794 5.348992 5.6732774
0000b0 4e 4c 25 40 c3 cb a7 40 66 33 99 40 7e a7 3d 40
       2.5827823 5.2436233 4.787524 2.963348
0000c0 32 12 9d 40 d6 9e 92 bf ea 86 c5 40 61 72 7d 40
       4.908471 -1.1454723 6.172719 3.9601061
0000d0 e9 94 2e bf 6a f3 21 40 0a 55 db 40 77 f3 94 40
       -0.6819597 2.5304818 6.8541307 4.65472
0000e0 5b e4 33 3d bc 1f b1 3f 69 a5 89 40 9a 01 0b 40
       0.04391895 1.383781 4.3014417 2.1719728
0000f0 41 26 f1 3f 5e b7 85 40 87 31 d8 40 2d 19 00 40
       1.8839799 4.1786337 6.756046 2.0015366
000100 b5 7c 1a 3e 95 43 1e 40 02 dc 05 40 74 aa 55 be
       0.15086634 2.4728749 2.0915532 -0.20865804
000110 f2 f5 4d 40 c2 cd 55 40 22 13 5a 40 1f 73 8c 40
       3.2181363 3.3406835 3.4074178 4.389053
000120 df 3d ab 40 20 bc 41 40 64 50 99 40 3b 54 1a 40
       5.3513026 3.0271072 4.7910633 2.411391
000130 24 ad 1f 40 5b 74 83 40 be e1 e6 3f 7a 87 ac 40
       2.4949427 4.1079535 1.8037641 5.3915377
000140 21 e0 9a 40 c1 f4 be 40 12 67 b2 40 55 14 4b 40
       4.8398595 5.967377 5.575082 3.173116
000150 e2 14 96 40 a7 5e 12 40 13 29 ff 3f 7a 70 28 40
       4.690049 2.2870271 1.993441 2.631865
000160 3f 4e a8 40 d0 2b dc 40 ec 9d c4 3f 2f 40 30 be
       5.2595515 6.880348 1.5360694 -0.17211984
000170 a3 e4 40 3f 27 87 f0 3f 53 e5 82 40 7a cc 07 40
       0.7534887 1.8791245 4.0904937 2.1218553
000180 be 88 7e 40 22 5e 79 3f fd 4d 3a 40 d7 b5 0e 40
       3.977096 0.9740926 2.91101 2.2298486
000190 a9 5e bd 3f c1 4f 41 bf 2c 6d 15 40 34 d7 8f 40
       1.4794513 -0.7551232 2.3347883 4.49502
0001a0 29 75 20 40 61 bc 60 40 63 e9 63 3e e1 67 8d 40
       2.507151 3.5114977 0.22256999 4.4189305
0001b0 b0 62 a6 3e 39 47 da 40 4c 8b 25 41 25 22 83 40
       0.32497168 6.821194 10.346508 4.097918
0001c0 c0 a7 29 40 f1 fc 5b 40 dd 95 9a 40 86 c3 83 40
       2.6508636 3.4373133 4.830794 4.1176176
0001d0 82 f2 d6 40 cf 4e 48 40 47 a0 ba 40 9b ab 60 40
       6.717103 3.12981 5.832065 3.510474
0001e0 71 ca c0 3f f7 53 80 3f c9 a3 b8 40 3d bf 14 be
       1.506178 1.0025624 5.7699933 -0.14526077
0001f0 1e 7f a0 40 b5 02 64 40 02 a7 c5 40 56 84 b3 3f
       5.015517 3.5626652 6.1766367 1.4024761
000200 d1 1d f3 3f 94 3b 66 40 de ef 59 40 24 c2 8d be
       1.8993474 3.5973864 3.4052653 -0.2768718
000210 3f 94 41 40 c9 34 9a 3e 72 3b 43 3f dc f5 2b 40
       3.0246732 0.30118397 0.7626258 2.686881
000220 cf ae 00 41 f7 ac a0 40 0c 29 e3 40 2e 37 52 40
       8.042678 5.021114 7.0987606 3.284618
000230 02 8c 40 40 09 fa 5b 3f 44 69 6a 40 a8 2a cb 40
       3.0085454 0.859284 3.662675 6.348957
000240 1f 4c cf 3f 33 1d 18 3f 2b ae 75 40 d8 d7 68 40
       1.6195105 0.59419554 3.8387554 3.638174
000250 b7 09 0d 3e 18 ff 8d 3f 0e f6 c6 40 69 10 9c be
       0.13773237 1.1093473 6.217536 -0.3048127
000260 f9 a4 6b 40 3b 44 3b 40 42 8b 0c 41 ed bd be 3f
       3.6819441 2.9260395 8.7839985 1.4901711
000270 86 57 8b 40 0b e0 4d 40 9c f5 97 40 22 9c 9c bb
       4.354434 3.2167995 4.7487316 -0.0047793547
000280 0e 55 d8 40 1c 67 42 40 60 f5 5e 3f ac 0a 14 40
       6.7603827 3.0375433 0.8709316 2.3131514
000290 21 96 fc 40 3d 26 f1 40 90 24 39 40 c2 d0 6e 3f
       7.8933263 7.5359178 2.8928566 0.9328729
0002a0 bd 55 94 40 72 70 73 40 f1 dc b6 3f 47 6e 1a 40
       4.635466 3.803738 1.4286176 2.4129808
0002b0 d9 b7 a8 3f 46 a7 b1 3f 65 83 83 40 bd 3e ae 40
       1.3181106 1.3879173 4.1097894 5.4451585
0002c0 c8 c9 1f 41 aa 6f bc 40 b0 ce f4 40 f6 22 4d 40
       9.986763 5.888631 7.6502304 3.2052588
0002d0 62 8d f2 3f f4 93 cc be dc 48 be 3f 23 80 fe be
       1.8949397 -0.3995663 1.4865985 -0.49707136
0002e0 56 f2 5b 40 a6 0d a2 40 93 7a f7 40 b9 14 94 40
       3.436666 5.064166 7.7337127 4.6275296
0002f0 f4 38 43 bf 68 d0 5e 3f 7b 3c 23 40 70 17 a0 40
       -0.7625878 0.8703675 2.5505664 5.002861
000300 48 9d c6 40 35 a1 5e 40 9d 95 9f 40 d7 bf b8 40
       6.2066994 3.4785893 4.9870133 5.773418
000310 34 e6 0d 40 37 e3 03 40 1b 18 33 40 8a 21 ba 3d
       2.2171755 2.060743 2.7983463 0.09088428
000320 d0 ab 59 40 37 69 cd 40 7b e1 cf 3e 09 6c 9d 40
       3.4011116 6.4190936 0.40601715 4.919438
000330 67 6c ac 40 37 0e ad 40 e5 b1 bf 40 65 55 48 40
       5.3882327 5.407985 5.9904656 3.130212
000340 c8 f5 9d 3f ca 4b 71 bf 14 64 9b 40 f3 fb 10 bf
       1.2340631 -0.9425627 4.8559666 -0.56634444
000350 0a 12 14 3f 64 b4 a9 40 56 36 de 40 e2 67 b1 40
       0.57840025 5.3032703 6.944133 5.543931
000360 65 a0 c7 40 8c dc 14 40 6c 7c cd 40 f3 74 19 40
       6.2383294 2.325961 6.421438 2.397763
000370 ee e2 b2 40 7a cd 0f 40 f0 f3 83 40 97 14 33 3f
       5.5902014 2.2469163 4.1235275 0.6995329
000380 b2 cf d7 40 2c e3 06 bd 8e 09 93 40 1a cf f9 40
       6.7441034 -0.03293149 4.5949163 7.806531
000390 4a 27 b6 40 26 04 bc 3f c7 93 d7 40 ec d9 82 40
       5.692296 1.4688766 6.736789 4.089102
0003a0 2d 40 f8 3f 97 25 f3 40 4a d2 a8 40 e8 ee e7 40
       1.9394585 7.5983386 5.27567 7.2479134
0003b0 37 88 bd 40 fd ec 88 40 dd 9d 8f 40 6f 89 8a 40
       5.922878 4.278929 4.4880204 4.3292766
0003c0 0a d7 b1 40 43 51 7a 40 96 33 a7 3f c5 c7 af 3c
       5.5575 3.9112098 1.3062618 0.021457562
0003d0 43 3e 9f 40 48 14 8a 3f b4 75 89 40 3e f0 38 40
       4.9763503 1.0787439 4.295618 2.8896632
0003e0 72 01 e9 40 1b c3 52 40 5f f5 9e 40 f5 db 9f 40
       7.2814264 3.2931583 4.9674525 4.9956
0003f0 42 58 47 40 f1 a1 77 40 36 65 75 40 54 b7 f5 3e
       3.1147618 3.869259 3.8343024 0.4799143

dense1.weight f4 [20, 10]
000000 57 08 23 40 79 5a 2b 40 c6 5b fc bf 63 c7 a2 3e
       2.547384 2.677397 -1.9715507 0.31792745
000010 75 63 e9 bf 80 c8 4b 3f 0e 0f bd 3e 6f cc 51 40
       -1.8233477 0.79602814 0.36925548 3.2781026
000020 55 5b ef 3f a4 c0 77 c0 c5 8e 3c bf ee 32 1f 40
       1.8699747 -3.8711329 -0.7365535 2.4874835
000030 73 e6 8e 3f 1f e3 7c 3f 86 ff b3 3f b8 51 79 c1
       1.1164078 0.9878406 1.4062355 -15.582451
000040 8c e2 82 3f 31 53 47 3f 8d 34 c4 3f 51 c4 c8 bf
       1.0225387 0.77861315 1.5328537 -1.5684911
000050 2c aa ce be 2a ba f9 be 1b c2 22 3d 01 ce 9b be
       -0.40364206 -0.48774844 0.039735895 -0.30430606
000060 9f 4c ae 3c 8e b7 b7 be 30 90 7e be 03 55 be be
       0.02127677 -0.3588223 -0.2485969 -0.37174234
000070 7a 4c 39 3e 57 8a d4 be 6e 44 ff bf b6 be ea 3f
       0.1809558 -0.41511795 -1.9942758 1.833945
000080 d3 b0 e9 bd 0b 92 de bf 4a b9 b6 40 32 3f 47 3f
       -0.1141068 -1.7388319 5.7101183 0.77830803
000090 f9 9b 1a c0 19 0b e0 3f 77 d6 24 3e a6 63 02 40
       -2.4157698 1.7503387 0.16097437 2.037332
0000a0 c5 e6 4c 3f 5b bf b0 3f 12 ef 8c 3f b2 fe 13 3e
       0.80039626 1.3808397 1.1010458 0.14452627
0000b0 6a d4 36 40 d9 97 d4 3f f5 46 39 bf bc f7 45 c1
       2.8567147 1.660884 -0.72373897 -12.372982
0000c0 ca f6 30 c0 82 81 f8 3e db 4c b2 bf 3e 20 fa 3f
       -2.7650628 0.48536307 -1.3929704 1.954109
0000d0 58 b3 c1 be f3 a3 57 3e 2c 28 31 40 ab 85 82 3f
       -0.3783214 0.21058635 2.768077 1.0197042
0000e0 e2 3c 17 bd f7 51 ed be 8f 6e 32 40 3a dd 3d c1
       -0.036923297 -0.46351597 2.787998 -11.86651
0000f0 bf 70 61 c0 1f 26 b3 bf 3e a1 43 bf 26 d9 33 c1
       -3.5225065 -1.3996009 -0.7641791 -11.240515
000100 1c af 9b be 82 c4 04 40 a0 72 02 40 d7 f5 a1 3f
       -0.30407035 2.074494 2.0382462 1.2653149
000110 40 c6 2f 40 af 56 31 3f b2 cd 8b 3f d9 f7 db bf
       2.7464752 0.69272894 1.0922148 -1.7185012
000120 99 1d a7 bf 5d 2d 22 40 19 ec d8 3f 0d b2 43 40
       -1.3055907 2.5340188 1.6947051 3.0577424
000130 67 2c d7 be 78 45 cf bf 45 21 91 be 61 1e 16 40
       -0.42026064 -1.6193075 -0.28345695 2.3456042
000140 2c fb 29 c1 78 44 13 bf f8 48 51 bf 95 58 1a 40
       -10.623821 -0.5752635 -0.81751966 2.4116566
000150 b0 6c d6 3f 09 63 bc 3f 54 eb 91 3f 98 ee 24 40
       1.6751919 1.4717723 1.1399941 2.5770626
000160 b1 7b 80 3f 28 17 94 3f e0 f8 95 bf 68 4a 53 c1
       1.0037748 1.1569567 -1.1716576 -13.205666
000170 a7 eb b4 3f ed 67 87 3f 81 4c 01 40 0c 71 a7 bf
       1.4134415 1.0578591 2.0202944 -1.3081374
000180 05 48 6a c0 85 7a bd 3f 92 55 b7 3f 24 13 f1 3f
       -3.6606457 1.4803015 1.4322989 1.8833966
000190 40 dc 3d 3f f7 93 cb c0 c5 03 0e 40 49 98 a8 3e
       0.741642 -6.361812 2.21898 0.32928684
0001a0 0f aa 0c bf 2f 40 8e 3f 83 f8 e2 3f db 90 b2 bd
       -0.5494699 1.1113337 1.773209 -0.08719035
0001b0 83 51 79 40 70 64 25 40 5d 38 1d 40 16 8a 29 be
       3.8956 2.5842552 2.4565651 -0.16556582
0001c0 4e f0 4c be 9f 27 1f c1 05 d5 79 3f c5 64 63 40
       -0.20013544 -9.947173 0.97590667 3.5530255
0001d0 40 f2 8a 3e e3 22 7c bf 0a 6e 6b 3f 94 d0 d1 be
       0.27137947 -0.9849073 0.9196478 -0.40979445
0001e0 52 b8 1f 40 35 8c 82 bf 21 d7 d9 3e 13 a3 06 3f
       2.495625 -1.0199038 0.42546943 0.5259258
0001f0 b1 74 d0 3f 55 6f 21 c0 95 1a 5e 3f 2c 70 86 c0
       1.6285611 -2.5224202 0.8675931 -4.201193
000200 ac a4 b5 40 99 09 ed 3e 69 be c3 3f 35 5e a4 3f
       5.6763515 0.46296385 1.5292484 1.284125
000210 04 c7 84 c0 46 9f 62 be ff a5 0e c1 2f 0a 05 40
       -4.149294 -0.2213107 -8.915526 2.0787466
000220 44 0b eb 3f 93 16 de 3f 53 7b ad 3e 88 42 cc 3f
       1.8362813 1.7350639 0.3388315 1.5957804
000230 06 cc 18 3f 66 75 c2 3f f0 46 9a 3f bc 38 d2 3f
       0.59686315 1.5192077 1.2052898 1.6423564
000240 57 b3 b6 c0 92 8a 9d bf 7e 22 66 c0 08 f7 34 3f
       -5.709392 -1.2307913 -3.5958552 0.7068944
000250 74 7f 15 40 4f 83 57 40 63 f9 57 3f 31 5b f9 3f
       2.3359041 3.3673894 0.8436491 1.9480954
000260 86 ee e3 3f 57 d5 55 40 16 26 98 be e9 08 47 40
       1.7807167 3.3411462 -0.29716557 3.1099188
000270 61 a0 f8 bf 39 21 67 bf 3c 87 52 3f f2 f6 36 bf
       -1.9423944 -0.9028507 0.822376 -0.7147056
000280 55 2f 3a 3d f5 49 35 3d eb c4 1f 3d bf d8 ab be
       0.045455296 0.044259984 0.039006155 -0.33563802
000290 c6 bc a7 be f2 15 b8 bd 1d d0 95 be 3e cb fb 3d
       -0.3276121 -0.08988561 -0.2926034 0.12294625
0002a0 2e 8a e0 be ec cf a4 be df 9e a8 3f 26 02 d3 3f
       -0.43855423 -0.32189882 1.3173484 1.6485031
0002b0 6f bb 59 c0 36 3d 83 3e 8c af 3a bf a5 60 d4 bf
       -3.402065 0.25632638 -0.72924113 -1.6591994
0002c0 98 ef b7 3f 56 f8 6c bf e0 52 2a c1 c9 1c ea 3f
       1.4369993 -0.9256643 -10.645233 1.8290035
0002d0 72 be 3e c0 51 80 f5 3f 96 3b 44 c1 5a aa 96 3f
       -2.9803739 1.9179784 -12.264547 1.1770737
0002e0 20 fe e9 3f 74 a0 e1 3e 97 ab 70 3f f8 5c 7c 3f
       1.8280678 0.4406773 0.94011825 0.9857936
0002f0 f8 80 3d 3f f4 80 e5 3f 44 1a 93 3c f8 31 0f be
       0.74024916 1.7929978 0.01795686 -0.13983905
000300 2c 25 9a 3f ad 98 1b 3f ce 82 a1 be 88 ec 2b 40
       1.2042594 0.6077984 -0.3154511 2.6863117
000310 9f 5c 01 c1 2d 3a 64 3f ba a6 20 40 a2 da b8 bf
       -8.085113 0.8915127 2.5101762 -1.4441721

dense1.bias f4 [20]
000000 ff a6 4c 3e f0 c5 88 3e 52 bd 05 bf 61 d9 39 3e
       0.19985579 0.26713514 -0.52242005 0.1814933
000010 db 7b 54 3e d2 03 9e 3e 65 f4 9e 3e 99 2b 35 3e
       0.20750372 0.3086229 0.31045833 0.17692412
000020 8f 82 30 3e f6 27 a2 3e f3 10 20 3c e3 06 88 3d
       0.17237304 0.31671113 0.009769666 0.066419385
000030 ce fb 6d 3e 60 f8 f2 3d a0 2c 5b 3e 61 a5 47 3e
       0.23240587 0.1186378 0.21403742 0.19496681
000040 eb bb ba be 2e ad d6 3e 16 e0 0b 3e 24 0d 9f 3e
       -0.36471495 0.41929 0.13659701 0.31064713

dense2.weight f4 [30, 20]
000000 63 47 7f 3f 4b 27 96 bf 84 1a 05 3b e9 59 44 3f
       0.997183 -1.1730741 0.0020309994 0.7669969
000010 34 64 42 bf a0 a1 c6 bf 8c 7d a6 3e 04 01 e3 3e
       -0.7593415 -1.5518074 0.3251766 0.44336712
000020 af be 25 c0 0a 1e 28 bf 2f ac 0d c0 11 7b 6a 3f
       -2.5897634 -0.65670836 -2.2136343 0.91594034
000030 54 dc 7b 3e 7b 69 2e be ba 8d 11 40 c3 ed 64 3e
       0.24595767 -0.17032425 2.2742753 0.22356324
000040 8e 0a 46 be f5 48 d0 be 44 19 50 be 28 43 04 40
       -0.19339964 -0.40680662 -0.20322138 2.066599
000050 e6 13 5b bf d2 05 36 40 92 09 12 3d d5 60 2f bf
       -0.8557724 2.8441052 0.03565366 -0.6850713
000060 7b 4d c0 3f 97 e1 08 40 03 13 24 c0 6d 48 b1 3e
       1.5023645 2.138769 -2.5636604 0.3462557
000070 e0 f0 b3 3f 14 67 ea bf a5 82 15 c0 55 0a 9b c0
       1.4057884 -1.8312707 -2.336099 -4.845011
000080 e4 95 31 3f 8f ac 7a bf fc 66 26 bf 99 0c 42 3f
       0.6936934 -0.97919554 -0.6500089 0.7580047
000090 42 37 b2 bd f5 ab 0a 40 a7 40 9b bf 9c 51 de bf
       -0.08701946 2.1667454 -1.2129105 -1.7368655
0000a0 a6 ba 1c 3d ad 69 bb be 44 80 67 bd cc 98 97 3c
       0.03826394 -0.36604062 -0.056518808 0.018505476
0000b0 97 50 c9 be 46 00 18 be 6e 7c 35 be 7c eb b5 3d
       -0.39319298 -0.14843854 -0.17723247 0.08882806
0000c0 77 4d ba be 4c 0a 3b be 27 2d 85 bd b2 93 a8 be
       -0.36387226 -0.18265647 -0.06502753 -0.32925183
0000d0 85 90 73 bb d7 31 83 be 6e b2 cc be 23 18 74 be
       -0.0037164998 -0.25623962 -0.3997988 -0.23837332
0000e0 48 d5 5a 3d 18 1e a9 bd 18 63 be be e7 68 9c be
       0.053426057 -0.08257693 -0.37184978 -0.30548784
0000f0 ed 72 0d be 2c 35 db bd 8c 34 27 3e 1b 1a fb be
       -0.13813372 -0.10703501 0.16328639 -0.49043354
000100 47 18 68 be 9d ad c5 bd aa c9 97 bd 05 95 08 be
       -0.22665511 -0.09652255 -0.07411511 -0.13338096
000110 44 e1 76 be 86 4b dd be 3e 3a 70 be 43 05 eb be
       -0.2410937 -0.43221682 -0.23459718 -0.45902452
000120 3a 75 9d bd b8 7f 4e be e8 93 a6 be cd 3b f5 bd
       -0.07688375 -0.20165908 -0.3253472 -0.11974297
000130 70 b6 02 3d 1c 2f 80 be 34 02 8f 3d 25 3c 9f be
       0.031912267 -0.25035942 0.06982842 -0.31100574
000140 8a ca 68 bc 0f 4b ea be e4 2c 9b 3d 75 87 17 3f
       -0.014208445 -0.4576039 0.075769216 0.59191066
000150 76 12 4c bf 82 ac d7 bf 2e 7a 17 40 21 f2 d5 bf
       -0.7971567 -1.684952 2.3668323 -1.6714517
000160 dd b0 ee 3f 70 60 1d 40 4d a6 81 3f ea 15 d4 3e
       1.8647724 2.459011 1.0128876 0.4142297
000170 6f 63 ad bf 2b 05 14 3e 08 5a 01 40 cb 65 93 be
       -1.354597 0.14455096 2.02112 -0.287886
000180 c9 7a f9 bd dc 17 1c c0 62 65 4a c0 da d6 08 40
       -0.121816225 -2.4389563 -3.162438 2.1381135
000190 50 73 98 bd f2 41 eb be 11 2b 28 be db 2b 16 3e
       -0.07443869 -0.4594875 -0.16422679 0.14665167
0001a0 3f f2 12 bf 53 24 1c bf 2d 1b e3 be 24 3b 85 bd
       -0.5740089 -0.60992926 -0.4435667 -0.06505421
0001b0 57 db a1 bd 53 83 3f be c9 ad 32 bd 86 69 85 bd
       -0.07903164 -0.1870244 -0.043622766 -0.065142676
0001c0 85 39 35 bf d6 1f e4 be ea 4e 27 be e9 8c 7c be
       -0.7079089 -0.4455554 -0.16338697 -0.24663128
0001d0 f4 a4 d2 3d 6c ff ad 3d 65 4a aa bc 9b 89 0e bf
       0.102853686 0.084959835 -0.020787427 -0.5567872
0001e0 d6 51 1d 3f fa b7 e2 bf 63 89 51 3e 11 f5 a0 3f
       0.61452997 -1.7712395 0.20462565 1.2574788
0001f0 bf c4 aa 3e 1f 68 c2 3e da ef 31 40 a5 34 dd be
       0.3335323 0.37970063 2.7802644 -0.43204227
000200 16 a3 28 be b8 5c 15 c0 59 8d 8a c0 3b c6 d5 3f
       -0.16468462 -2.333784 -4.3297544 1.670112
000210 75 d2 a8 c0 56 ef 79 3f 06 e6 5b bf c8 1a c3 bf
       -5.2756906 0.9763082 -0.8589786 -1.5242548
000220 e1 79 46 3e 54 69 5e 40 16 a8 60 3f 35 4f 55 bf
       0.1938243 3.4751787 0.8775648 -0.83323985
000230 5e c4 de bd 7b 24 04 c0 b5 d2 e2 3e 0d 37 34 3d
       -0.10877298 -2.0647266 0.44301382 0.043997813
000240 ce 1b f9 3e 04 90 75 3f 96 fe 1b 40 9f d8 6c 3f
       0.48654026 0.95922875 2.4374137 0.9251804
000250 0a 33 62 3e 69 63 18 be 33 9e d1 3d 51 39 f3 3f
       0.22089782 -0.14881672 0.10235252 1.9001867
000260 e9 64 8d bf 8e 1a ef bf 71 11 23 c0 65 86 8c 3f
       -1.104642 -1.8679979 -2.5479395 1.0978514
000270 96 d2 03 be 15 26 98 bf e4 32 cf 3f 40 97 8d be
       -0.12873301 -1.1886622 1.6187406 -0.27654457
000280 e6 df 04 40 c0 a5 91 3f 42 fc 7a bd fc 29 4d be
       2.0761657 1.1378708 -0.061275728 -0.20035547
000290 cb 06 19 3f 98 76 69 40 3e 8e 61 3e 47 ad 6b c0
       0.5977599 3.6478634 0.22026917 -3.682451
0002a0 6b 40 2e c0 9c 65 25 c0 02 6f 54 c0 0f f1 0d bf
       -2.7226818 -2.5843267 -3.3192754 -0.5544595
0002b0 a9 26 c0 be 21 69 e3 be 1a b7 82 bf c0 3f d6 3f
       -0.37529495 -0.44416144 -1.0212128 1.6738205
0002c0 cb ae 94 3d 13 23 f1 bf 72 96 51 bd 27 4d d6 3f
       0.072599016 -1.8838829 -0.051168866 1.6742295
0002d0 74 ce b8 3d f7 3d a5 be 78 b0 2e bd 8b 93 b8 be
       0.09023753 -0.32273838 -0.042648762 -0.36050066
0002e0 17 8c 9c bb 8d 85 a9 be 4c 81 9f 3c 78 73 4b 3c
       -0.004777442 -0.33109704 0.019470833 0.012417667
0002f0 fb 9b 43 bb 91 d4 e6 bd 74 5d 20 be 49 d1 df bd
       -0.002984761 -0.112710126 -0.1566065 -0.1092859
000300 ce 5d 35 be ec 23 9e be ad 04 21 3d 01 4b a1 be
       -0.17711565 -0.3088678 0.0393111 -0.31502536
000310 84 a7 45 be 6b 6b 97 bc 6d 7b 1d be 87 77 95 be
       -0.19302183 -0.018483838 -0.15379114 -0.29192755
000320 92 e5 bf 3f 94 e8 43 c0 df 3b c2 bd e4 88 82 3f
       1.4991934 -3.0610704 -0.09484076 1.0198026
000330 bc e0 00 c0 33 15 c8 3d 1a 9d bd be 90 ca cf 3e
       -2.0137167 0.097696684 -0.3703392 0.4058423
000340 3a 97 04 3e 11 48 d9 bf f1 6a 2a bf ca df 7a 3e
       0.12948313 -1.6975118 -0.6656943 0.24499431
000350 38 00 0c 3e 6a fc 79 3f e4 93 ee be d0 c0 5a 3f
       0.13671958 0.9765078 -0.46597207 0.8545046
000360 f1 39 4f 3d cc 41 54 be fa 7b a6 3f b6 80 ad 3f
       0.050592367 -0.20728225 1.3006585 1.3554904
000370 7e 5b c8 3f 03 b5 18 3f 00 19 99 3e 4a 99 90 3f
       1.5652921 0.596512 0.29901886 1.129678
000380 6a e0 fd bf 53 10 1d bf 8b cd 43 40 f6 e4 ac 3f
       -1.9834111 -0.61353034 3.0594203 1.3507373
000390 c6 b1 d0 bf f1 eb 2a 3e 13 ff 9b 3e 4a ea 90 3f
       -1.6304252 0.16691567 0.30468044 1.1321499
0003a0 75 46 bd 3e 66 42 8e bf 08 28 28 c0 54 2c 2b c0
       0.36967817 -1.1114013 -2.6274433 -2.6745806
0003b0 31 42 73 bd 4d ce cc 3f 8a fc c2 3f d9 6f 27 c0
       -0.059389297 1.6000458 1.5233319 -2.6162016
0003c0 29 1f e6 3e a0 ca 76 bf ae 89 66 3e e7 0b af bf
       0.44945648 -0.9640293 0.22513458 -1.3675507
0003d0 84 dd 40 3f 12 2f a7 3f 81 7d 6d bf 0a b1 35 3f
       0.75338006 1.306124 -0.9276963 0.70973265
0003e0 92 34 80 c0 4c b9 e3 3e 9a 11 c4 3e f5 3c 92 3f
       -4.0064173 0.44477308 0.3829468 1.1424853
0003f0 fa 7f 11 bf cd d7 d8 bf 56 7a ab bf c1 84 d6 3e
       -0.568359 -1.6940857 -1.3396709 0.41898158

dense2.bias f4 [30]
000000 65 f1 b6 3e 52 b5 ae 3e 65 89 d2 be 80 2d a0 bd
       0.35731044 0.3412271 -0.4112045 -0.078211784
000010 48 d1 55 3f 9c fe 30 be 9e ef 98 3f 6c 48 38 3f
       0.8352246 -0.17284626 1.1948125 0.71985507
000020 29 14 6b 3f 3d a2 cf be 4f 58 87 3f c4 d5 40 3f
       0.91827637 -0.40553465 1.0573825 0.7532618
000030 f7 c5 20 40 eb a4 03 40 81 fb eb 3e 10 ce 03 3f
       2.5120828 2.0569408 0.4609032 0.514863
000040 d1 17 8b 3e bb 06 02 40 cc 73 bf 3f 9c cc 43 bd
       0.27166608 2.0316608 1.4957213 -0.047802553
000050 f3 d0 23 3f 13 11 0f bf 1c 2b e0 3f 16 9c 3e 40
       0.63990706 -0.5588543 1.7513156 2.9782767
000060 b8 00 f1 3c da 42 54 3f 83 6d a6 3f 1f b0 81 3f
       0.029419288 0.8291451 1.300217 1.0131873
000070 ac 59 ec 3e 29 bd e0 3f
       0.46162164 1.7557727

dense3.weight f4 [128, 30]
000000 70 07 37 bf 86 d7 55 bf b6 0c 29 be 58 4c 6b bd
       -0.71495724 -0.8353199 -0.16508755 -0.057445854
000010 4e 22 9b c0 83 aa d9 bd 4b a4 75 bf ce 9e 2e bf
       -4.8479376 -0.10628226 -0.95953816 -0.68211067
000020 33 2a d5 be 6c dc c9 3d df ca 5a c0 91 a3 81 bf
       -0.41633758 0.09856495 -3.4186323 -1.0128042
000030 fd 1a 8a bf d7 ae af bf c5 c6 b0 bf c3 9a 43 bf
       -1.0789486 -1.3725232 -1.381066 -0.7640802
000040 ce 38 1d bf 3b 20 05 bf 65 af 75 bf 6e dc cf bd
       -0.614148 -0.52002305 -0.95970756 -0.101494655
000050 ff 0d 85 bf 28 16 15 3d 29 d6 c1 bf 78 82 e3 bf
       -1.0394896 0.036398083 -1.5143481 -1.7774191
000060 ab 60 39 bf fe 89 08 c0 74 c9 a5 bf f9 91 c0 bf
       -0.7241313 -2.1334224 -1.2952104 -1.5044547
000070 fe f9 a1 bf d7 03 23 bf 33 19 74 bf 15 d8 5a bf
       -1.2654417 -0.63677734 -0.9535095 -0.85485965
000080 8c e2 8e 3d a3 26 4f ba 3b 25 ad c0 19 f4 6e bc
       0.06976804 -0.00079021807 -5.4107947 -0.014584565
000090 0e 1a 66 bf 66 cb 26 bf e5 27 fb be 9e 9a 82 3d
       -0.89883506 -0.6515411 -0.49053875 0.06377147
0000a0 05 fd 7e c0 ce 9d 5e bf ff fa 83 bf 50 57 8d bf
       -3.984193 -0.8695954 -1.0310973 -1.1042271
0000b0 f2 f5 b5 bf 59 7a 3c bf 49 76 26 bf 85 6d 03 bf
       -1.4215682 -0.7362419 -0.6502424 -0.5133899
0000c0 e5 7a 89 bf 8e a3 c2 3c 1b 31 7a bf 7c 4f c2 3d
       -1.074063 0.02375963 -0.9773118 0.09487817
0000d0 3b 17 c1 bf d5 61 f3 bf 11 3d 40 bf 79 ad 00 c0
       -1.5085214 -1.9014231 -0.7509318 -2.010588
0000e0 78 5a 8f bf 6f 7a b5 bf af da a3 bf 25 87 f4 be
       -1.1199484 -1.4177989 -1.2801112 -0.47759357
0000f0 d7 d5 34 bf 0b 09 88 bf 16 5d 9a bd b0 55 cb ba
       -0.70638794 -1.062776 -0.07537286 -0.0015513208
000100 0a 51 94 c0 ae 61 d8 3d 6d 8a 8e bf 66 74 34 bf
       -4.6348925 0.10565506 -1.1135994 -0.7049011
000110 9a 57 00 bf 1e 86 c4 3d cc cf 43 c0 d0 bc 90 bf
       -0.5013367 0.09595893 -3.059558 -1.1307621
000120 6c 3b 81 bf b3 cc bf bf be 7f bf bf cb f7 22 bf
       -1.0096259 -1.4984344 -1.4960859 -0.6365935
000130 e3 d2 08 bf 7c da 27 bf 66 2e 76 bf d2 66 cf bd
       -0.5344679 -0.65567756 -0.9616455 -0.10127033
000140 76 66 70 bf eb c0 1b be 8d e3 a7 bf cd 23 00 c0
       -0.93906343 -0.15210311 -1.3116318 -2.002185
000150 53 b8 0b bf 75 ac 13 c0 6e 0d bd bf c8 17 9f bf
       -0.5457813 -2.307401 -1.4769723 -1.2429132
000160 08 60 82 bf e3 a8 0e bf b2 69 69 bf c1 ab 3d bf
       -1.0185556 -0.5572645 -0.91176903 -0.740902
000170 b4 fd 00 3e c2 ae b9 3c 5f 7c aa c0 db 73 b9 bd
       0.1259678 0.022666339 -5.327682 -0.09055301
000180 2a 74 94 bf c2 c6 37 bf d7 88 08 bf 95 4e ac 3d
       -1.159795 -0.71787655 -0.533338 0.08413426
000190 03 e6 74 c0 8a f1 8e bf e5 9c 91 bf 4a 3b a1 bf
       -3.8265388 -1.1167462 -1.1376005 -1.2596219
0001a0 f5 7d a7 bf b9 b3 43 bf cb 98 15 bf 53 29 05 bf
       -1.3085314 -0.7644611 -0.5843627 -0.5201618
0001b0 f1 a3 8d bf ae 7e fe bd 12 88 87 bf f0 58 61 3c
       -1.1065656 -0.12426506 -1.05884 0.0137541145
0001c0 70 21 b3 bf 15 a4 e7 bf 29 61 60 bf fd 7d 08 c0
       -1.3994579 -1.8096949 -0.87648255 -2.1326897
0001d0 1f 95 92 bf cd cf a3 bf 50 04 7a bf 29 71 05 bf
       -1.1451758 -1.2797791 -0.9766283 -0.52125794
0001e0 c9 f8 3c bf 41 b7 63 bf a0 5d 84 bc 07 d9 9e bd
       -0.73817116 -0.889515 -0.016157925 -0.077562384
0001f0 a0 88 a5 c0 2b 3d 82 bd ab 61 60 bf da ed 04 bf
       -5.172928 -0.06359323 -0.8764903 -0.5192543
000200 84 38 1f bf 03 04 99 bd 4f 8b 5e c0 ef e5 7a bf
       -0.6219561 -0.07471468 -3.4772527 -0.980071
000210 d2 78 90 bf 48 d8 af bf 61 01 a3 bf 73 7e 2c bf
       -1.1286871 -1.3737879 -1.2734796 -0.67380446
000220 79 a6 12 bf ad 3a 31 bf c5 f5 92 bf c5 eb 4e bd
       -0.5728527 -0.6923016 -1.1481253 -0.050517816
000230 df 56 3f bf cb 46 20 be 4c 7d c3 bf c6 05 d6 bf
       -0.7474193 -0.15652005 -1.5272613 -1.6720512
000240 de d0 2d bf c1 b3 0d c0 bf 11 9c bf d9 1c bf bf
       -0.6789683 -2.2140963 -1.2192916 -1.4930679
000250 d4 70 9c bf fe 15 21 bf ff 20 49 bf ce e5 6a bf
       -1.2221932 -0.6292418 -0.78565973 -0.91756904
000260 b4 1b 2e 3d bc 31 d0 bd 85 ed a6 c0 f3 8d e2 bd
       0.04250689 -0.10165736 -5.216494 -0.11062231
000270 51 cc 8e bf 56 fc 17 bf f8 e7 0e bf 0a ac f5 bd
       -1.1156102 -0.5936941 -0.55822706 -0.119957045
000280 94 4e 70 c0 38 09 69 bf 00 e0 8a bf 10 89 a0 bf
       -3.754796 -0.9102969 -1.0849609 -1.2541828
000290 70 86 be bf 28 6d 5b bf 2c a7 2a bf 65 e5 27 bf
       -1.4884777 -0.85713434 -0.66661334 -0.65584403
0002a0 bf d9 86 bf 05 c9 05 be c1 e5 34 bf 1e 23 35 3e
       -1.0535201 -0.13064964 -0.70663077 0.17689177
0002b0 b7 f9 a9 bf b2 6b e5 bf f9 d1 53 bf d3 79 f9 bf
       -1.3279332 -1.7923491 -0.8274227 -1.9490303
0002c0 87 96 b8 bf 40 0f c8 bf b7 d1 80 bf 94 85 2c bf
       -1.4420937 -1.5629654 -1.0064 -0.67391324
0002d0 0c c7 1f bf ab d4 79 bf fe fd 01 be 57 12 45 3b
       -0.62413096 -0.9759013 -0.12694547 0.0030070746
0002e0 ae c2 9d c0 e6 f0 04 3e 3d 68 57 bf 76 06 52 bf
       -4.9300146 0.1298252 -0.8414343 -0.8204111
0002f0 9c d0 dd be d8 94 52 bd 5b dc 56 c0 9b 5b 8a bf
       -0.4332322 -0.05141148 -3.3571994 -1.0809206
000300 9b 5a 8f bf 9f 04 b3 bf cd 83 aa bf 45 f1 43 bf
       -1.1199526 -1.3985785 -1.3321472 -0.76540023
000310 6e 0f 3b bf 3b cf 01 bf c2 6f 8b bf 36 e8 e8 bd
       -0.7307042 -0.50706834 -1.0893481 -0.11372416
000320 f1 b1 4b bf 16 0d 2f be 18 6d b6 bf a9 9f eb bf
       -0.7956839 -0.17094836 -1.4252043 -1.84081
000330 1c 84 61 bf 30 54 12 c0 4c 68 9a bf aa 06 c0 bf
       -0.8809221 -2.2863884 -1.2063079 -1.5002034
000340 ce b2 84 bf af cb c0 be 5a 0c 76 bf 66 ee 5d bf
       -1.0367067 -0.37655398 -0.96112597 -0.8669189
000350 f6 e3 e0 bd 75 be 0f be 47 d9 9d c0 9d bd 5d 3d
       -0.1098098 -0.14037497 -4.932773 0.054135907
000360 7b e4 7e bf 4a 7e 49 bf 23 85 1c bf 82 73 4e 3d
       -0.99567384 -0.78708327 -0.6114065 0.050403126
000370 8e d2 73 c0 8b 14 78 bf fc c3 82 bf e0 30 96 bf
       -3.8097262 -0.96906346 -1.021606 -1.1733665
000380 01 98 be bf 01 3d 0d bf 30 0b 3a bf f4 26 08 bf
       -1.4890138 -0.5517121 -0.7267332 -0.5318444
000390 36 9b 81 bf 0d 3d f8 bc 50 5b 49 bf 44 dd b9 3d
       -1.0125492 -0.030302549 -0.78654957 0.09075406
0003a0 b0 4f aa bf 84 9d df bf 16 c7 3a bf ef c2 05 c0
       -1.3305569 -1.7469945 -0.7296003 -2.0900228
0003b0 95 31 ab bf 94 0d c5 bf 18 bd a8 bf 34 08 06 bf
       -1.3374506 -1.5394769 -1.3182707 -0.52356267
0003c0 35 e6 93 c0 0f 87 40 40 d5 cd 38 be cb 6b 2f be
       -4.6218514 3.0082433 -0.18047269 -0.17130964
0003d0 b2 45 64 c0 9f 31 fc bc a0 55 b1 be e6 25 d6 c0
       -3.5667539 -0.03078538 -0.3463564 -6.6921263
0003e0 75 d3 63 bf 64 b0 e5 bd d7 cb 11 c1 fc a5 b8 3f
       -0.8899453 -0.112152845 -9.112266 1.4425654
0003f0 32 5b 6a 3f e3 7d c3 bf d6 19 4f be 27 13 33 c0
       0.91545403 -1.5272793 -0.202247 -2.798044

dense3.bias f4 [128]
000000 6a 75 bc be f8 28 bd be 51 34 00 bf ee 70 87 be
       -0.3680833 -0.3694532 -0.5007983 -0.26453346
000010 f7 a6 88 be 8e 59 8f be 62 d8 cb be e8 07 22 bf
       -0.26689884 -0.27998012 -0.39813524 -0.63293314
000020 e1 e8 3b bf 37 9a 95 bd d1 d4 9f be 0c b7 84 be
       -0.7340222 -0.07304805 -0.31217054 -0.25920904
000030 ac 86 0c bf 66 ac 6d 3f 3b 1a d4 3d 6a 35 8f 3f
       -0.5489299 0.92841184 0.103565656 1.1188176
000040 04 f5 dc 3e cc 56 ba 3e 85 e8 bb 3e a4 25 1d 3f
       0.43155682 0.36394346 0.36700836 0.6138556
000050 fc 50 bc be 4c 0a 03 bf f8 60 03 bf a8 67 0b bf
       -0.36780536 -0.51187587 -0.5131984 -0.5445504
000060 01 c4 14 bf a3 dc 21 be e9 6d 16 3f a9 e9 e0 3e
       -0.5811158 -0.15806822 0.5876146 0.4392827
000070 19 3b b3 3e 75 68 4b 3e 76 e1 ad be f9 72 1c 3f
       0.35006025 0.19864066 -0.33961076 0.61112934
000080 41 b0 4e 3f b7 bf 6a 3f a4 8b 7f be 0c 7e 6d 3f
       0.8073769 0.91698784 -0.24955612 0.9277046
000090 80 5e 95 40 ff c7 a4 40 36 a4 b1 3f 3e 4e 3e 40
       4.6677856 5.1494136 1.3878238 2.9735255
0000a0 76 ff 45 3e bd e0 1a bf 3b d0 e5 be 3f eb 9d be
       0.19335732 -0.60499173 -0.4488543 -0.3084354
0000b0 3d 18 29 bf 99 a5 dc bf 4c 49 f2 bb 90 e9 c4 3f
       -0.6605261 -1.7238036 -0.0073939916 1.5383778
0000c0 7a e9 b8 bf c3 51 8e 3e 65 6c 04 bf 5c 54 50 bf
       -1.4446251 0.27796754 -0.51727897 -0.8137872
0000d0 cf 1f 64 be 93 27 9a bf 81 ca 62 40 7f c9 11 c0
       -0.22277759 -1.2043327 3.5436099 -2.2779233
0000e0 fb aa 15 c0 1b e4 f2 3e c8 54 0e 3f d1 b7 22 3e
       -2.3385608 0.47439656 0.55598116 0.15890433
0000f0 21 da 52 c0 76 22 c9 bf 2a 71 68 c0 53 08 e7 3d
       -3.2945635 -1.5713642 -3.631907 0.112808846
000100 a5 6f 89 3f 3e eb df be b3 94 4c 3f a8 a0 33 3e
       1.0737196 -0.43734163 0.79914397 0.17541754
000110 3e 6f 9a bf 37 36 29 c0 66 4e 4a 3f 56 fa 03 c0
       -1.2065198 -2.643934 0.79025877 -2.0621543
000120 2a d4 aa be 9a cd 21 40 8c 18 f7 3f 5e 22 24 be
       -0.33364993 2.528174 1.9304366 -0.16028735
000130 16 c6 2b 40 c5 76 7a c0 9d 4c 12 40 90 8e 41 40
       2.6839652 -3.913499 2.285926 3.0243263
000140 4d 5e 24 40 a3 ff 02 c0 ef 69 3a c0 92 a5 56 40
       2.5682557 -2.0468528 -2.9127157 3.3538556
000150 9b ce a2 bf b3 7f 0c 40 1c 1e 85 40 e7 b9 ea bf
       -1.2719301 2.1952941 4.1599255 -1.8337983
000160 b1 f5 87 3f 17 49 22 c0 e0 2c 51 c0 a4 0a 4d c0
       1.0621854 -2.535711 -3.268364 -3.2037745
000170 91 46 e7 3f e1 b4 54 40 78 f8 dc bf c7 ec 6d 40
       1.806841 3.32354 -1.7263327 3.7175767
000180 8b af 4a 3e f8 a3 6f bf ee 2c 79 3f db 01 8e bf
       0.19793527 -0.9360957 0.9733418 -1.1094316
000190 62 54 63 3b 70 ef cb bf 5e 06 24 3f 5d 44 89 bf
       0.0034687747 -1.5932446 0.64072216 -1.0723988
0001a0 63 d9 15 c0 3a 45 bd be f7 9f 9a be 9c ce 12 bf
       -2.3413932 -0.36966878 -0.30200168 -0.5734651
0001b0 c2 f2 f9 be 99 5f 0a bf 00 77 02 bf 11 06 ab be
       -0.48818022 -0.5405212 -0.5096283 -0.33403066
0001c0 f7 ab 18 bf dc 79 bc be 08 07 17 bf 08 71 8b be
       -0.596374 -0.3681172 -0.58995104 -0.27234674
0001d0 a4 e6 01 bf 99 b6 a2 be a6 50 93 be 79 a2 e0 be
       -0.50742555 -0.31779936 -0.28772467 -0.43873957
0001e0 42 6f f5 be 6d b4 a7 be b1 55 d6 be 93 27 9b be
       -0.47936445 -0.3275484 -0.41862252 -0.3030363
0001f0 16 f9 ed be f7 27 0f bf 1b eb b3 be ef 68 d9 3f
       -0.464791 -0.55920357 -0.3514031 1.6985148
