Saved Models/I3_ULA_trainable_4_beam_probing_codebook_128_beam_classifier_noise_-94_dBm.pt (torch, 10919 bytes, 7 tensors)

codebook.theta f4 [64, 4]
000000 e1 8b 77 3e d6 65 f6 3f 8a ea f0 3e 0b a5 7f 3f
       0.24174453 1.9249828 0.4705394 0.9986121
000010 8f 22 bb 40 8e f9 a0 40 b0 9b ab 40 82 57 ce 40
       5.8479686 5.030463 5.362755 6.448182
000020 32 14 b6 40 4f 6d b1 40 4e 89 6b 40 f7 8f 84 40
       5.6899652 5.5445933 3.6802554 4.142574
000030 b7 eb a6 40 6e e5 b9 40 46 71 d7 3f ce e6 2c 40
       5.216274 5.8092566 1.6831443 2.7015872
000040 cd bf 7f 40 80 6a 9c 40 2b 9e a7 3f 91 b1 e3 3f
       3.9960816 4.8880005 1.3095144 1.7788564
000050 49 3a bb 40 b7 17 69 40 a2 c3 f9 40 2e 35 f0 3f
       5.850865 3.6420724 7.805131 1.8766229
000060 26 cb b8 40 4a 72 3e 40 04 30 5a 3f a3 b0 c9 3f
       5.7747984 2.9757257 0.85229516 1.575703
000070 e8 66 8e 40 c7 b2 5e 40 a2 9a 41 40 82 64 0b 40
       4.450062 3.4796617 3.025063 2.1780095
000080 f8 c7 98 40 ba 36 02 41 06 3a 07 40 5d fa 01 40
       4.7744102 8.138361 2.1129165 2.030906
000090 57 9a 1c 40 1c 70 e1 40 56 36 c3 40 74 2e 7a 40
       2.4469202 7.044935 6.100383 3.9090853
0000a0 1f 6d b5 3f 0c df e0 3f 44 b8 9d 40 d1 20 31 40
       1.4173926 1.7568069 4.9287434 2.767628
0000b0 d0 45 8c 3e 49 e9 4b 40 78 30 b3 40 00 1e dc 3f
       0.27397013 3.1861136 5.5996666 1.7196655
0000c0 9d 0f c2 40 fc 47 bc be 09 e1 90 3f 6d 03 80 40
       6.064406 -0.3677367 1.1318675 4.000418
0000d0 c0 ad 84 bf c0 da a9 40 57 a0 16 40 b0 30 5e 40
       -1.0365524 5.307953 2.3535364 3.4717216
0000e0 4b 66 2c 3f 85 05 b9 40 96 bc 22 40 ad 70 60 40
       0.67343587 5.781924 2.5427604 3.5068772
0000f0 07 2d ce 40 d7 81 c8 40 73 10 50 40 16 27 70 40
       6.4429965 6.2658496 3.251004 3.7523856
000100 35 dd be 3e f5 43 b8 3f cb 23 85 40 90 e0 97 40
       0.37278143 1.4395739 4.1606193 4.7461624
000110 a7 0a 40 3e a4 d3 44 40 bf 7c 92 40 98 fc 58 40
       0.18754064 3.0754175 4.577728 3.390417
000120 92 fd 99 40 98 e7 6b 40 ca 68 ae 40 bb f2 0b 40
       4.8122034 3.6860104 5.4502916 2.18669
000130 05 38 19 40 8c db 62 40 96 d9 e1 be ec 0b d7 40
       2.3940442 3.54465 -0.44111317 6.7202053
000140 d6 69 21 40 f2 fb 01 41 51 ee 9c 3f f1 ba 47 bf
       2.5220847 8.12401 1.2260228 -0.78019625
000150 74 92 3a 40 16 75 e7 40 0a 2b bf 3f 87 52 4a 40
       2.9151888 7.2330427 1.493501 3.161287
000160 03 16 09 40 f4 62 cc 40 32 c2 f3 40 c2 08 d2 3f
       2.1419685 6.3870792 7.6174555 1.6408923
000170 ca e5 74 40 4a 5d 40 40 7b 6f 9e 40 14 2a ce 3e
       3.8265252 3.005694 4.9511085 0.40266478
000180 ab f4 7b 40 f1 6e 4d 40 32 42 9f 40 ac 17 72 40
       3.9368083 3.2098963 4.9768305 3.7826948
000190 3b e6 6c 40 2e 39 4d 40 8c 5b 78 bf b7 6e 11 40
       3.7015522 3.206615 -0.9701469 2.2723825
0001a0 6a a1 a0 40 72 7f b1 3f 62 3b 09 be 9f d5 86 3f
       5.019704 1.3867018 -0.13401559 1.0533942
0001b0 c2 53 3f bf 0d c4 cd 3f c0 30 66 3f d1 b3 4a 3f
       -0.7473718 1.6075455 0.89918137 0.7918063
0001c0 66 26 3e bf 8a 63 ec 3f ef 53 88 40 5e ed f6 bd
       -0.7427734 1.8467877 4.260246 -0.12056993
0001d0 50 7f cb 40 f6 d8 f8 3f 8e 47 72 40 11 46 91 40
       6.359291 1.9441211 3.7856174 4.539803
0001e0 6d 47 51 3f 06 37 22 40 3c de 0f 40 dc 88 53 40
       0.8174961 2.5346084 2.247939 3.3052282
0001f0 ad ac 83 3f 01 f6 44 40 ca f8 63 bf f1 8d c4 3f
       1.0287071 3.077515 -0.89051497 1.5355817
000200 2f 35 ae 3e 0c c4 9e 3e 71 7b d6 40 50 c4 cb 40
       0.3402495 0.31008947 6.7025685 6.367714
000210 44 ef 8b 40 d3 fb 49 3f 46 aa f3 3f 2c 15 ba 3c
       4.372957 0.7889988 1.9036338 0.022715174
000220 26 2a 95 40 4e 4d bf 40 de a4 ee 3f 0a f7 aa 40
       4.661395 5.9781866 1.8644063 5.342656
000230 6b 85 77 40 a2 89 63 40 d9 bb d0 3f ea d2 92 40
       3.8675182 3.5552754 1.6307327 4.5882463
000240 66 9d 7d 40 96 7a 49 40 c6 63 15 c0 d4 0f 8c 40
       3.9627318 3.148107 -2.3342147 4.376932
000250 ce cc 0b 40 b0 e7 31 40 60 aa 94 40 cb 2c 42 40
       2.1843753 2.779766 4.6457977 3.033984
000260 2e d6 11 40 cc ec 01 3e a1 1f a5 40 65 9f ea 40
       2.2786975 0.12687987 5.160111 7.3319573
000270 93 40 0e 40 08 76 c2 40 cd f0 fa be 06 51 b9 40
       2.2226913 6.076908 -0.4901184 5.7911406
000280 ee c0 32 40 d3 d0 bc 3e a0 92 ce 40 64 8d 89 40
       2.7930255 0.3687807 6.4553986 4.2985096
000290 0d 60 74 40 5f 31 b4 3e ba 2f 1b 40 dc 63 6b 40
       3.8183625 0.35193917 2.424788 3.67797
0002a0 2a 88 92 40 ce 02 8b 3e 3c 05 e2 3f 2e a8 74 40
       4.5791216 0.27150577 1.7657847 3.8227649
0002b0 ab c4 35 40 02 b5 e1 40 43 54 64 40 ca bf f6 40
       2.8401287 7.0533457 3.567643 7.7109118
0002c0 55 83 37 3e 00 2f 48 be 93 55 12 c0 7c 8a c1 40
       0.17921193 -0.19549179 -2.286473 6.048155
0002d0 20 12 eb 40 cc 54 d3 3f c1 fe 88 40 45 13 86 40
       7.3459625 1.6510253 4.281098 4.189852
0002e0 ac 03 97 3f 1d 84 c3 40 d4 23 4d 40 ac ad 19 40
       1.1797996 6.109877 3.2053118 2.401225
0002f0 a0 df 7e 3f df c0 92 40 4c 65 83 3f 48 4b e2 40
       0.99559975 4.586044 1.0265288 7.0716896
000300 6f 6a 25 40 b7 6c 98 40 dc 35 d8 40 92 8b 7d bf
       2.5846212 4.763271 6.7565746 -0.9904109
000310 88 ca 92 40 ef 09 9e 40 88 63 9b 3e 2a fb 3d 40
       4.587223 4.9387126 0.30349374 2.9684548
000320 3a 74 91 40 91 46 7d be 56 f5 bd 40 69 39 fd 3f
       4.545438 -0.2473395 5.936198 1.9783145
000330 32 6c dd bf ac 41 a1 40 bc d8 4f 40 c5 56 94 3f
       -1.7298644 5.0392666 3.2476034 1.158898
000340 bd de a6 40 a3 02 05 c0 44 02 57 40 48 8b b1 40
       5.2146897 -2.078286 3.3595133 5.548252
000350 a5 01 3e 3f 0f 9e 62 40 9e 9b 03 40 3c cf 8f 40
       0.7422126 3.5408971 2.0563731 4.494047
000360 56 01 bc 40 08 61 41 40 83 1a c6 40 5f 4f 62 40
       5.875163 3.0215473 6.1907363 3.5360944
000370 5a 01 f0 3f 97 47 0b 40 0f e6 9b 40 ad fc 1d 40
       1.8750412 2.1762445 4.8718333 2.468547
000380 73 14 d7 3f c3 f8 87 40 12 6d dd 40 36 83 ff 40
       1.6803116 4.2491164 6.9195642 7.984767
000390 b3 c7 6f 40 8f 47 65 40 2b 0d 9c 40 1f 9c d7 40
       3.7465637 3.5824926 4.8766074 6.7378078
0003a0 38 46 45 40 27 c4 8b 40 d0 e5 46 40 7e 44 ad 40
       3.0824108 4.3676944 3.1077766 5.414611
0003b0 60 3b 8a 40 8d ea 90 40 5b 40 c6 3f be c7 8f 40
       4.319748 4.5286317 1.548839 4.4931326
0003c0 6f 62 4a 40 91 b6 11 3f 9b 21 13 41 bc d9 6a 40
       3.162258 0.569192 9.195704 3.6695395
0003d0 cd 47 d1 3f fa 77 36 3f eb fa bf 3f 1f 5e f2 3f
       1.6350037 0.7127682 1.4998449 1.8934973
0003e0 cf 1d 83 bd a8 fb 1b 3f 01 2a c0 40 49 5c f9 3e
       -0.0640217 0.6093087 6.0051274 0.4870322
0003f0 f1 f0 6a 3f 3a 4b 11 3f f4 5b 81 40 94 b9 aa be
       0.917739 0.5675541 4.0424747 -0.3334471

dense1.weight f4 [8, 4]
000000 d2 92 ac bf 8e 0b 0c 41 41 76 30 40 72 5f 36 40
       -1.3482306 8.752821 2.7572176 2.8495755
000010 d6 da ba 40 11 a1 d6 40 5a ef 7a c0 87 51 ae bf
       5.8392134 6.7071614 -3.9208589 -1.361863
000020 7e fb b7 3e 38 d2 f3 be 27 d8 2a bf 63 5c 48 41
       0.3593406 -0.47621322 -0.6673607 12.522555
000030 4d 16 cc bf cf fa 70 40 5d 42 d6 40 4d 5a 6a 40
       -1.5944306 3.7653081 6.695601 3.6617615
000040 71 f6 43 41 ad 24 1f 40 38 c1 6e 40 06 f1 50 40
       12.247666 2.4866135 3.7305431 3.264711
000050 31 ec a3 40 f5 f6 0b c0 08 64 9b 40 69 c4 60 40
       5.122582 -2.186948 4.855961 3.511988
000060 25 a7 77 3e bb 3f d5 be 89 4e 08 41 3b a0 2d c0
       0.24184854 -0.41650185 8.519174 -2.7129047
000070 d1 ec 24 bc 4f 80 07 be 82 25 1e bd 5b 8b f0 3c
       -0.010066227 -0.1323254 -0.03860999 0.029363325

dense1.bias f4 [8]
000000 1f e8 5e 3b 0f 93 ab 3f de 12 c4 3e 3e 2c 14 3f
       0.0034012867 1.3404254 0.38295645 0.5788001
000010 23 27 a4 3d 95 f5 53 3f 97 48 3a 3f 00 ae 46 be
       0.08015277 0.82796603 0.72767013 -0.19402313

dense2.weight f4 [12, 8]
000000 73 0a a2 be 75 af f8 bf 21 cb 8d bd 0b 79 8d 40
       -0.31648597 -1.9428545 -0.069235094 4.4210258
000010 84 b9 71 c0 69 aa a1 3f 21 a0 79 bf 4a 3b 2f be
       -3.776948 1.263013 -0.9750996 -0.1711246
000020 27 26 44 3f 52 5b e1 3f cc 70 2d c1 e6 a1 83 bf
       0.76620716 1.7605994 -10.840038 -1.0283782
000030 34 dc 19 3d 05 de 02 bf 7a 5b 85 40 08 78 78 3e
       0.037563518 -0.51120025 4.1674166 0.24264538
000040 9e 92 29 c0 3e 12 d2 3f a3 d7 2b 3f 40 f5 20 c0
       -2.6495738 1.6411817 0.6712591 -2.5149689
000050 f3 5a 58 bf c0 4a da 3f 8d 4c 19 3f 5c ad a0 bd
       -0.8451378 1.7054062 0.5988243 -0.07845566
000060 67 5b 94 bf 63 c7 0e 40 83 a4 b0 be 5b 9e 71 c0
       -1.1590394 2.2309196 -0.34500512 -3.7752903
000070 f3 ed b0 40 dc 81 b0 3f 8e 95 89 bf 6f fd 59 3c
       5.5290465 1.378963 -1.0748765 0.013305052
000080 b0 95 11 40 f7 e0 03 c0 50 c2 3d 40 77 49 35 40
       2.2747612 -2.0606058 2.964985 2.832609
000090 fd 0f 1e 40 a7 84 09 40 30 ec 22 c0 4f 1e 75 3e
       2.4697258 2.1487215 -2.5456657 0.23937343
0000a0 7e fc 64 40 fb cb 25 40 23 a0 28 bd 7e ec 15 40
       3.577911 2.590575 -0.041168343 2.3425593
0000b0 18 5d 02 bf f7 60 4d c0 bf a5 f9 bf a1 22 c8 bd
       -0.509233 -3.2090433 -1.9503707 -0.0977223
0000c0 04 0c 52 bf ca 90 32 40 63 b4 1f 40 11 9b 2b bf
       -0.82049584 2.7900872 2.495385 -0.6703349
0000d0 d4 69 f7 bf 63 5d 9a bf e5 fa e6 bf 77 aa 87 3e
       -1.9329171 -1.2059749 -1.8045317 0.26497242
0000e0 b0 3f 52 bd b6 dd 5b be 80 5a 7c be 00 fd c8 3d
       -0.05133027 -0.21471295 -0.24643898 0.09813881
0000f0 03 31 a9 be 6b f4 63 be c4 c3 9a be 38 0f e8 3d
       -0.33045205 -0.22261207 -0.30227482 0.11331028
000100 f8 3c 9d 3f 04 df 4f c0 e4 a2 a7 bf 00 1c d1 3f
       1.2284231 -3.2479868 -1.3096585 1.633667
000110 b7 9b 2b 40 60 58 e3 3f 55 2a 8f 40 09 91 18 bd
       2.681379 1.7761345 4.4739175 -0.03724769
000120 27 ae d0 c0 12 eb 1d bf 4b 9b 32 be e1 35 43 c0
       -6.521259 -0.61686814 -0.17442052 -3.0501635
000130 b6 8a 9c 3f 9c 46 4f 40 f9 89 90 3f 1b 73 9f be
       1.2229831 3.2386847 1.1292106 -0.31142506
000140 8b 52 20 40 f9 56 e6 3f 74 f9 05 c0 1c 01 25 40
       2.505038 1.7995292 -2.0933504 2.5781927
000150 c9 61 25 3f 29 9a fa bf c7 f9 32 3f df 97 99 3e
       0.64602333 -1.9578296 0.6991238 0.2999868
000160 5e bc a2 be ac b0 e5 3d 94 2b b3 3d 48 60 5c bd
       -0.31784338 0.11215338 0.08748546 -0.05380276
000170 60 42 c8 bd 28 0e 5a be b8 50 6a be 4b e1 81 3e
       -0.09778285 -0.21294463 -0.22882354 0.25367197

dense2.bias f4 [12]
000000 a8 b4 1e 40 d1 19 13 3f d2 56 c3 3f 2e 81 83 bf
       2.4797764 0.5746127 1.526087 -1.0273798
000010 f1 c7 f2 be cc a2 4d be e5 cc eb 3f 53 6b 86 be
       -0.47418168 -0.20081633 1.8421904 -0.26253757
000020 0e 47 85 bf 51 6c b2 3f 03 37 21 be 3a 83 97 be
       -1.0412309 1.3939306 -0.15743642 -0.29592305

dense3.weight f4 [128, 12]
000000 e0 66 b6 bf 8c 6d 3d bf 7e 93 ee bf 07 06 14 bf
       -1.4250145 -0.7399528 -1.8638761 -0.57821697
000010 3b 8f 14 bf 14 2a 4e c0 76 71 6f bf 45 db 87 be
       -0.5803105 -3.2213182 -0.935325 -0.26534477
000020 0f 72 46 bf fc 97 50 bf b6 5d 88 bf ec 53 0e 3e
       -0.7751779 -0.8148191 -1.0653598 0.13899201
000030 1c e9 ae bf 1c 01 60 bf fa f5 d9 bf f8 da 15 bf
       -1.3664889 -0.8750169 -1.7028191 -0.58537245
000040 aa 91 00 bf 74 9d 1f c0 e3 c1 93 bf e0 41 b7 bd
       -0.50222266 -2.4939852 -1.1543545 -0.089481115
000050 ef 8e 3f bf 3d 2c 7b bf 6c 95 78 bf 04 f8 34 3e
       -0.74827474 -0.9811438 -0.97103 0.17672735
000060 02 a1 93 bf 98 6f 76 bf 91 b0 f1 bf 1b fc 35 bf
       -1.1533511 -0.9626403 -1.8882009 -0.7108781
000070 8e 97 55 bf c4 48 3e c0 f6 13 90 bf 18 04 49 3d
       -0.8343438 -2.9731913 -1.1256092 0.04907617
000080 c0 0c 56 bf bd 5e 48 bf c8 f6 6f bf 54 c2 6d 3e
       -0.83613205 -0.7826956 -0.93735933 0.23218662
000090 d9 50 7c bf af 8c 4c bf b8 35 eb bf b4 b8 0f bf
       -0.98560864 -0.79902166 -1.8375769 -0.5614121
0000a0 d7 70 14 bf 6e cf 2c c0 89 e8 af bf d4 b5 c5 bd
       -0.5798468 -2.7001605 -1.3742839 -0.096538216
0000b0 b6 6d 1b bf da 97 61 bf e5 af 5e bf a0 18 e5 bc
       -0.6071428 -0.8812233 -0.86987144 -0.027965844
0000c0 d5 95 ae bf e3 39 77 bf bb 6b bf bf 37 80 46 bf
       -1.3639475 -0.96572703 -1.4954752 -0.7753939
0000d0 f8 80 f9 be 5c a4 21 c0 0d 7e 8e bf f5 2f 3f be
       -0.48731208 -2.5256567 -1.1132218 -0.18670638
0000e0 82 95 26 bf b8 d3 82 bf b6 e9 b4 bf a0 e6 a3 bc
       -0.6507188 -1.0220861 -1.4133823 -0.020007432
0000f0 90 e8 70 bf e8 a2 81 bf e2 a2 e8 bf 0f db e8 be
       -0.9410486 -1.012784 -1.8174708 -0.45479628
000100 4b 4b fc be 79 6e 42 c0 15 ce ac bf f0 82 6a 3e
       -0.49276194 -3.0379927 -1.3500391 0.22901511
000110 20 c8 c5 be 80 87 63 bf 25 cf 7d bf ec f2 36 3e
       -0.38629246 -0.8887863 -0.991442 0.17866105
000120 2d 87 bd bf 00 7f fc be e0 2f e2 bf 0f a6 f2 be
       -1.4806877 -0.49315643 -1.767086 -0.47392318
000130 75 b0 59 bf 04 a5 33 c0 02 49 87 bf a9 e5 0c be
       -0.8503488 -2.8069468 -1.0569155 -0.13759483
000140 c3 2e 33 bf 15 16 5a bf 9c 2f 96 bf b0 9b ec 3c
       -0.6999323 -0.85189945 -1.1733279 0.028882831
000150 fc 4d 69 bf 79 90 75 bf e1 0f 02 c0 b5 6e b1 be
       -0.9113462 -0.9592357 -2.0322192 -0.34654775
000160 bd 92 67 bf d6 cc 32 c0 2d fe 9b bf 56 98 f0 bd
       -0.9045828 -2.7937522 -1.2186943 -0.11747806
000170 77 82 14 bf 71 e9 1e bf 0d 99 78 bf 70 a9 cf 3d
       -0.58011574 -0.62074953 -0.97108537 0.101397395
000180 05 42 8f bf ca a4 a7 bf 66 fb 25 3f 80 01 2c 40
       -1.1192023 -1.3097165 0.6483673 2.6875916
000190 1a da 3b c1 86 fa 7a c0 18 5b d3 3d ce c3 8b 3e
       -11.740747 -3.9215407 0.10320109 0.27297825
0001a0 12 9a b3 c0 77 34 9f 3f ee bb 48 c0 02 b3 71 be
       -5.6125574 1.2437886 -3.1364703 -0.23603442
0001b0 7d fd 80 bb 9e 10 fc 3f 65 4a a2 3f 35 99 00 c0
       -0.003936468 1.9692571 1.2678953 -2.009351
0001c0 55 96 df c2 01 c5 e4 c0 a0 e0 97 3e 50 32 5e 3e
       -111.79362 -7.1490483 0.29663563 0.2169888
0001d0 36 f6 9a c1 e6 b1 12 40 b4 09 85 c0 e6 fd 2f be
       -19.37022 2.292108 -4.1574345 -0.17186698
0001e0 37 2a 93 3e 0c 68 aa bf b3 45 ab 3e a9 43 8a c0
       0.28743145 -1.3313003 0.33451614 -4.3207593
0001f0 6a 65 82 c0 c9 bd a7 bf 4a 80 05 3f d8 8b cb bd
       -4.0748796 -1.3104793 0.5214888 -0.099387825
000200 c9 e9 46 c1 20 02 b6 3e 27 4f fa bf 48 53 6d 3d
       -12.432076 0.35548496 -1.9555405 0.05794075
000210 ba d5 da 3e 06 92 de bf ce 1d f3 3e 2b d8 81 c0
       0.42741185 -1.7388313 0.47483677 -4.0576377
000220 7e 7c 84 c1 84 14 47 bf fe 84 5c 3f 18 a8 6a be
       -16.560787 -0.7776568 0.8614043 -0.22915685
000230 86 7c 53 c1 6f f9 4f bf ca c0 b2 bf 16 3b 92 bd
       -13.217901 -0.8123998 -1.3965085 -0.07140176
000240 72 30 a8 bf fe 23 22 bf 51 49 cb bf ba 18 2b bf
       -1.3139784 -0.6333617 -1.5881749 -0.66834605
000250 68 80 2f bf eb 7f 45 c0 83 a6 7b bf 74 d6 6f 3e
       -0.6855531 -3.0859325 -0.9830095 0.23421651
000260 10 2b 52 bf 7b 65 69 bf fc 3c bb bf bd 8e 23 be
       -0.8209696 -0.9117047 -1.4627986 -0.15972419
000270 bf 78 64 bf 7b 24 51 c0 88 bc 46 3f 25 dd 7a 40
       -0.89246744 -3.2678516 0.77631426 3.9197476
000280 76 35 cc c1 14 3d fa c0 10 25 5f be f8 05 00 3d
       -25.526104 -7.819956 -0.21791482 0.031255692
000290 59 0b 91 40 1c 14 01 40 ca e9 05 c0 c4 8d 3f 3e
       4.532635 2.0168524 -2.0923944 0.18706423
0002a0 b0 b4 e9 be 1c 8b c9 bf e0 79 98 3f 63 ec 56 40
       -0.45645666 -1.5745578 1.1912193 3.358178
0002b0 48 fd dd c1 f1 03 5e c1 51 67 f2 bd b1 6f 01 be
       -27.748672 -13.875962 -0.11836112 -0.12640263
0002c0 08 77 b0 40 53 cb 8a 40 ac 75 af c0 f7 7f 93 be
       5.51453 4.33732 -5.4831142 -0.28808567
0002d0 84 40 30 be dd 2a d0 3e 51 ab 8f 3e 97 0d 0c 40
       -0.17212111 0.40657702 0.28060392 2.1883295
0002e0 61 b5 8b c1 0a ca 07 c0 6e e2 b2 be 2c d0 6a 3e
       -17.463564 -2.1217065 -0.34938377 0.22930974
0002f0 1f a0 71 40 f3 b6 65 bc fe a3 d7 be 80 1a b7 3c
       3.775398 -0.014020669 -0.42117304 0.022351503
000300 99 bd 19 3f 20 f7 95 40 3b 54 99 3e e4 90 a6 c0
       0.6005493 4.6864166 0.29947075 -5.205187
000310 89 c5 fe c2 0b 5c b9 c0 dd 18 d4 be 10 85 41 3e
       -127.38581 -5.7924857 -0.4142522 0.18898416
000320 ed 37 bb bf f2 1d a3 3f 10 c2 03 c0 a8 75 0d be
       -1.4626442 1.2743514 -2.0587196 -0.13814414
000330 00 77 09 be 1b 17 11 40 00 d7 5a 3e 0d 88 04 3f
       -0.13424301 2.2670352 0.21371078 0.51770097
000340 1e 55 f9 c0 9a b2 2d 40 fb 35 3c c0 28 fa 86 3e
       -7.7916403 2.714026 -2.9407947 0.2636273
000350 28 d8 2e 40 39 2a 9a 3f e7 57 c5 be 30 d3 ce 3d
       2.7319431 1.2044135 -0.38543627 0.100988746
000360 ef d8 74 3e ac 08 69 3f 16 10 18 3f 88 66 24 c0
       0.23910879 0.9102886 0.59399545 -2.568758
000370 3d e2 07 c1 ae 9b a5 c0 ac 61 ba 3e 00 bc 7d be
       -8.492734 -5.175254 0.36402643 -0.24778748
000380 99 0c ce c0 a1 1d c3 3f 37 21 5a c0 4a f5 92 3e
       -6.439038 1.5243417 -3.4082773 0.28702766
000390 44 7f 9a 3e 37 2a a8 3e 87 c2 7b be f9 f1 ff bf
       0.3017522 0.32844707 -0.24585925 -1.9995719
0003a0 e3 5c 63 c0 f6 f0 53 3e ca 31 d3 bf 20 3e fc bc
       -3.5525444 0.20697388 -1.649957 -0.030791342
0003b0 d2 27 d0 3f 34 0c dd 3e d2 71 11 3f 80 d5 63 3b
       1.6262152 0.43173373 0.568143 0.0034764707
0003c0 d7 3d 9f bf 74 33 50 bf 15 f2 fa bf 81 c0 ba be
       -1.2440747 -0.8132851 -1.9605128 -0.36474994
0003d0 21 95 1e bf 82 19 33 c0 b1 84 61 bf 18 73 7d bd
       -0.619463 -2.7984319 -0.88093096 -0.06187734
0003e0 49 28 00 bf c4 c9 56 bf ce b5 a1 bf 40 1d bf 3d
       -0.5006147 -0.8390162 -1.2633607 0.09331751
0003f0 38 a1 7e bf 11 6b 43 bf 49 f8 f5 bf f0 91 1d bf
       -0.9946475 -0.76335245 -1.9216396 -0.6155081

dense3.bias f4 [128]
000000 90 43 4a be 8d 81 dd be 3b 4f 84 be c1 7d ea be
       -0.19752336 -0.43262902 -0.25841698 -0.45799068
000010 98 86 90 be ee fa 8e be b2 71 7c be 3f 52 26 bf
       -0.28227687 -0.2792582 -0.24652746 -0.6496925
000020 c2 ee cf be e9 4c 7e 3e e9 c8 47 be 66 38 2e 3d
       -0.40611845 0.24834026 -0.19510235 0.042534254
000030 43 a5 18 bf ec 13 57 3e 7b 48 d7 3e 94 30 8e 3d
       -0.5962717 0.21003693 0.42047486 0.06942859
000040 58 37 15 3e 79 72 38 3d 51 f7 1f 3e 90 2b 6e be
       0.14571893 0.045031045 0.15621687 -0.23258805
000050 6e c9 b7 be e6 f0 17 bf fc 9e c9 be 30 0e 6f be
       -0.35895866 -0.59351957 -0.39379108 -0.23345256
000060 15 05 b4 be 09 4c 1a bd aa d8 61 3e 8d 4f e5 3e
       -0.35160127 -0.03767017 0.22055307 0.44787255
000070 a2 08 3c 3f 97 e1 f3 3e 42 3f 08 3e 24 ab 4c 3d
       0.7345067 0.4763305 0.13305381 0.0499679
000080 fc e7 e9 bd 14 cb 7d be 4d ee e2 bd 4b 5d f1 be
       -0.11421201 -0.247845 -0.110806085 -0.4714149
000090 1c ef 83 40 ef 8d 66 40 1c 03 ce 40 13 8a b1 40
       4.122938 3.602413 6.4378796 5.548105
0000a0 db 1f 66 40 6d 0c d5 3f 8e dc 19 3f 2b d6 36 3f
       3.5956943 1.6644417 0.60102165 0.71420544
0000b0 ce 60 27 3d 1e f2 26 40 9f 0d 48 c0 6f cf 46 c0
       0.040863805 2.6085277 -3.1258314 -3.1064107
0000c0 cd 7c 9b bf 56 d1 b3 be cf 86 47 3f 75 4c 43 3f
       -1.2147461 -0.35120648 0.77940077 0.7628854
0000d0 45 58 e6 3e 5c 1b cd bf ca 01 8f 3d e6 4d 78 3d
       0.4498922 -1.6023974 0.06982763 0.060621165
0000e0 65 c0 37 40 86 f6 b4 c0 41 0f b5 bf 57 1a 6a 40
       2.8711178 -5.655093 -1.414528 3.6578577
0000f0 dc 19 04 41 d4 56 97 40 f0 f1 68 bf 72 df 88 40
       8.256313 4.729349 -0.9099417 4.277276
000100 d5 1b 69 40 c3 a0 3a c0 29 91 8e bf 35 b8 14 c0
       3.6423237 -2.916062 -1.1138049 -2.323743
000110 b4 c1 18 c0 06 94 96 c0 29 1d 8c c0 b7 b2 10 c0
       -2.3868227 -4.7055693 -4.3785596 -2.260908
000120 35 1e 95 40 5e a8 02 40 51 98 8b 40 22 1f 35 40
       4.6599374 2.0415263 4.3623433 2.8300252
000130 68 94 97 bf 45 1b 56 be 2e 5f 0e 40 b8 5a 5b 40
       -1.1842165 -0.2090884 2.2245593 3.427412
000140 96 5f 3d 3d 97 40 3b 40 68 56 ac 40 6a 5e 9b c0
       0.046233736 2.9258173 5.3855476 -4.855275
000150 c0 87 35 c1 bb 21 f6 c0 81 c3 fb c0 7f 43 99 c1
       -11.345642 -7.6916175 -7.867615 -19.157957
000160 48 94 84 c0 9f e8 9c c0 14 24 48 c0 9b ef 29 c0
       -4.1431007 -4.903396 -3.127202 -2.6552494
000170 c9 f5 99 c0 b8 b1 85 c0 71 82 39 40 11 b3 ab 40
       -4.811253 -4.177944 2.8985865 5.3656087
000180 36 57 ba 3f 55 4f 11 bf 86 ee 96 40 76 0c 08 be
       1.4557865 -0.56761676 4.7166166 -0.13286003
000190 08 ff 82 be 57 78 c0 3f a1 2a 39 3f 06 cf ee 3e
       -0.25585198 1.5036725 0.7233067 0.4664232
0001a0 55 a9 61 3f 68 8c f5 bd 0f c8 c7 be 3e bd 21 bf
       0.88149005 -0.11989671 -0.3901982 -0.63179386
0001b0 1c e7 40 be 59 22 80 be 50 a2 92 be 8d 8f 11 bf
       -0.18838161 -0.25026205 -0.2863946 -0.56859666
0001c0 65 67 95 be 8a 03 8b be ef 8d c5 be 16 fa 2a bf
       -0.29180446 -0.27151138 -0.3858485 -0.6678785
0001d0 2f 0b 13 be 45 e5 2e bf d0 f1 13 bf 57 d0 05 bf
       -0.14359735 -0.6831859 -0.5779085 -0.52271026
0001e0 7e 2b 85 be c7 3d a8 be 46 ff 11 bf ca 1a 80 be
       -0.26009744 -0.32859632 -0.5703014 -0.25020438
0001f0 4f 7b c5 be 96 48 1e bf 6c 9b 63 be b9 e3 0c 3f
       -0.3857064 -0.6182951 -0.22227257 0.5503498
