Saved Models/I3_ULA_DFT_8_beam_probing_codebook_128_beam_classifier_noiseless.pt (torch, 17375 bytes, 6 tensors)

dense1.weight f4 [16, 8]
0	0x3eaefa3f	0.34175298
1	0xc02dfa05	-2.718385
2	0x3ffd5c5d	1.9793812
3	0xc1f3a0fb	-30.453604
4	0x3ea75615	0.32682863
5	0x3f1ed1cd	0.6203888
6	0xc1a7f135	-20.992777
7	0x3e8541b6	0.26026696
8	0x3e608416	0.21925387
9	0x408247b2	4.071252
10	0x406aa2fa	3.6661973
11	0xc0c4b54a	-6.14713
12	0xc04f0217	-3.2345026
13	0x3fe4a8bb	1.7863992
14	0x409f7f13	4.984262
15	0x3d97102d	0.07376132
16	0x3d3dc488	0.046330005
17	0x3d642138	0.055695742
18	0xbd6bcfe8	-0.05757132
19	0xbe70c458	-0.23512399
20	0xbe0665e7	-0.1312481
21	0xbe40dddd	-0.18834634
22	0xbc275200	-0.010212421
23	0x3b801340	0.003908545
24	0xbe923928	-0.28559232
25	0xbee079ec	-0.4384302
26	0xbd7a5ecd	-0.061125565
27	0xbdbd2f78	-0.092375696
28	0xbe7aa2b3	-0.24476127
29	0xbeb50c55	-0.3536097
30	0xbe445ae9	-0.19175304
31	0xbd4bb228	-0.04973045
32	0x3d961a22	0.07329203
33	0x3e67351a	0.2257885
34	0x40a9db3a	5.308011
35	0xbbe09c14	-0.0068545435
36	0xc1d1453a	-26.158802
37	0xc084b8b4	-4.147547
38	0xc0e85764	-7.260668
39	0x3d032957	0.032021847
40	0xc13dc798	-11.861229
41	0xbf582908	-0.8443761
42	0x3e686483	0.22694592
43	0xbd1ccd7c	-0.038281903
44	0xbe5c1533	-0.21492462
45	0xbc3f760e	-0.011685861
46	0xbe87dfce	-0.26537937
47	0xbedc8865	-0.4307281
48	0x3e3fe049	0.18737902
49	0xc200300f	-32.046932
50	0xbfcbfd0c	-1.5936599
51	0x3ffb504b	1.9633878
52	0xc1193366	-9.575048
53	0xc10638c9	-8.388864
54	0x4104e383	8.305545
55	0x3e966a9c	0.29378211
56	0x3f1946d1	0.5987368
57	0x4108f0f3	8.5588255
58	0x401fb7e8	2.4955997
59	0x3fe4f998	1.788867
60	0xbe791dde	-0.243278
61	0xbed70ae8	-0.42000508
62	0x40c48363	6.1410384
63	0x3ed658a1	0.41864493
64	0x3e0fa0af	0.1402614
65	0x3ebfe12d	0.37476483
66	0x40320ec8	2.7821522
67	0xbd3981ec	-0.04528992
68	0x3f943cf9	1.1581107
69	0xc1716b22	-15.088655
70	0x406f5ed4	3.7401628
71	0x3e3aecdc	0.18254417
72	0x3cdb98fc	0.026806347
73	0x409c4472	4.883355
74	0x3fb106b4	1.3830171
75	0x409a54a9	4.8228345
76	0xc2844c71	-66.1493
77	0xc191bbee	-18.216763
78	0x4046799e	3.101173
79	0xbf2e7376	-0.6814493
80	0x3eabf842	0.33587843
81	0xbff0ad11	-1.8802816
82	0xc08203b9	-4.0629544
83	0xbee751f5	-0.45179716
84	0xbe41f126	-0.18939647
85	0xbdd0a5bc	-0.10187861
86	0x3feb0ab4	1.8362641
87	0xbe0773eb	-0.13227813
88	0x3e574817	0.21023594
89	0x40a20c75	5.0640206
90	0x4041f5d3	3.030629
91	0x3ff78df5	1.9340197
92	0xc05b9a4e	-3.431293
93	0xc0a88c15	-5.2671
94	0x412a1570	10.630234
95	0x3d8192f4	0.06326857
96	0xbdb320d2	-0.08746494
97	0x3ffccbcb	1.9749693
98	0x3ed56b4e	0.4168343
99	0xc210e04f	-36.21905
100	0xc0b8107f	-5.7520137
101	0xbf0a1f6d	-0.539542
102	0x40ecedef	7.4040446
103	0x3e5bb15d	0.21454377
104	0x3d5a7619	0.053335283
105	0x4014df9b	2.3261478
106	0x3f7f893d	0.99818784
107	0x4078b521	3.8860552
108	0x3e62c7cd	0.2214653
109	0xc1fd8aee	-31.692837
110	0x40038aad	2.055339
111	0x3d81557f	0.06315135
112	0x3e4f5b39	0.20249642
113	0x3ed04d0a	0.40683776
114	0xc22051d5	-40.079914
115	0x3edc3d69	0.43015602
116	0xbe8f3361	-0.27968886
117	0x3f38237d	0.7192915
118	0xc021f8d2	-2.5308118
119	0xbd2c4280	-0.042055607
120	0xbeaef600	-0.34172058
121	0x3fe4c21f	1.7871741
122	0x3e21036a	0.15723959
123	0xc24c5d95	-51.09139
124	0xbe653181	-0.22382165
125	0x3dc54e8c	0.09634122
126	0x41379edc	11.476284
127	0xc1fae995	-31.364054

dense1.bias f4 [16]
0	0x3f6cf257	0.9255728
1	0x3ef468c5	0.47736183
2	0xbdc1916c	-0.09451565
3	0xbebb1ed0	-0.36546946
4	0x3eba0aed	0.3633646
5	0x3f483c66	0.7821716
6	0x3ef62e63	0.48082265
7	0x3f25a843	0.6470987
8	0x3eb57c60	0.35446453
9	0x3d82804b	0.06372126
10	0x3fab15dc	1.3366046
11	0x3f7efb90	0.99602604
12	0x3eaef289	0.34169415
13	0x3e7891b8	0.24274337
14	0x3f188527	0.59578174
15	0x3da7c0a0	0.08191037

dense2.weight f4 [24, 16]
0	0xc0863782	-4.194276
1	0xbf062fb1	-0.5241652
2	0xbe139cec	-0.1441533
3	0xbe144c20	-0.14482164
4	0x3fff8062	1.9961054
5	0x3fa423af	1.282339
6	0xc019c3fb	-2.4025867
7	0x3fc736d9	1.5563613
8	0xc07a7537	-3.9134042
9	0x3f77c2ec	0.967818
10	0x400a6da1	2.1629412
11	0x3ef7e853	0.48419437
12	0xc02ca538	-2.6975842
13	0xbfba3811	-1.454836
14	0x3fdf25ed	1.7433449
15	0xc1532daa	-13.198648
16	0xc09731f2	-4.724847
17	0x3fcddfd0	1.6083927
18	0xbd58a9e0	-0.05289638
19	0x3e299902	0.16562274
20	0x3e25f366	0.1620613
21	0x3d60f4a0	0.054920793
22	0x3f413681	0.7547379
23	0x3fd3ec1e	1.6556432
24	0xc07fa12a	-3.9942117
25	0xc09a93c2	-4.830537
26	0x3f8a5cf7	1.0809621
27	0x40044491	2.066685
28	0x3f3590a0	0.70923805
29	0xc069b039	-3.6513808
30	0xbf6bcf78	-0.9211345
31	0xc02bccad	-2.6843674
32	0xbdff67f0	-0.124709964
33	0x3d7a1c50	0.061062157
34	0xbe0ea246	-0.1392909
35	0xbd0fec90	-0.035137713
36	0xbb5ef6b8	-0.0034021568
37	0xbcb78361	-0.022401514
38	0xbeb63aa9	-0.3559163
39	0x3d56a898	0.052406877
40	0xbe56eef6	-0.20989594
41	0xbe054014	-0.13012725
42	0xbe8a58ba	-0.27020818
43	0xbdfc0139	-0.12304921
44	0xbd693397	-0.056933966
45	0xbe688fa4	-0.22711045
46	0xbe008d18	-0.12553823
47	0xbd6a36ee	-0.05718129
48	0xbe912ef5	-0.28356138
49	0x3ef42eb4	0.47691882
50	0xbcc85300	-0.02445364
51	0x3e343be8	0.17600977
52	0xc0415ae7	-3.0211732
53	0xbe694d9b	-0.2278351
54	0x3e9956b4	0.29948962
55	0x3ec6a868	0.3880036
56	0x3f2c8f6b	0.6740634
57	0xc16cc321	-14.797639
58	0x3f47395d	0.77821904
59	0x3eb31d9a	0.34983522
60	0x3fc25f9a	1.5185425
61	0xc0a2c5b4	-5.0866337
62	0x3eb22ff0	0.34802198
63	0xc0483b57	-3.1286218
64	0xc090a020	-4.5195465
65	0xbef255a7	-0.47330973
66	0x3e34b1e8	0.17645991
67	0xbd04498b	-0.0322967
68	0x3f9fd9d4	1.2488351
69	0x3e497f9c	0.19677585
70	0x3f175913	0.5912029
71	0x4013b3c0	2.307846
72	0xbdebcf0f	-0.11514103
73	0xbe9a78ea	-0.30170375
74	0x3f99a868	1.2004519
75	0x3e1819b4	0.14853555
76	0xbf99a3c8	-1.2003107
77	0xbf93593c	-1.1511607
78	0xbfd45980	-1.6589813
79	0xbf3ba5c2	-0.732998
80	0x3f91ef3c	1.1401134
81	0x3efed0db	0.4976872
82	0xbe6a4a80	-0.22879982
83	0x3ebb45c1	0.36576656
84	0xbda50262	-0.08057095
85	0x3c38dc7f	0.011283039
86	0xc00e511e	-2.223701
87	0xbf4c14c8	-0.7971921
88	0x401772f6	2.3663917
89	0x3fae25c7	1.3605279
90	0x3f82ca35	1.0217959
91	0xc02a298b	-2.6587856
92	0xbdb0a8ea	-0.08625968
93	0x400f371d	2.2377388
94	0x3cd6b287	0.026208175
95	0x40241b84	2.5641794
96	0xc0960026	-4.687518
97	0xc036bcdd	-2.8552773
98	0x3e2b8e66	0.1675354
99	0x3e4fd722	0.2029691
100	0x3e7e548f	0.24836944
101	0x3e418609	0.18898787
102	0xbf0e8aec	-0.5568073
103	0x402c269d	2.6898568
104	0x3f6f4212	0.9346019
105	0xc00ab50f	-2.167301
106	0x3fab3436	1.3375309
107	0x3ff846e8	1.9396639
108	0xbfb25516	-1.3932216
109	0x3f3c0c9a	0.7345673
110	0xbeb9e1b9	-0.36305025
111	0xbfa4cf82	-1.2875826
112	0xbf23b139	-0.63942295
113	0xc09b7030	-4.857445
114	0x3e754db6	0.23955426
115	0xbdb90da3	-0.09035804
116	0x406ccf79	3.7001631
117	0x408fe1bf	4.496307
118	0x3f96d65f	1.1784171
119	0xbfff21c8	-1.9932184
120	0x3f123795	0.5711606
121	0x3f9cf887	1.2263345
122	0xbed55e2c	-0.4167341
123	0xba1fef8c	-0.0006101064
124	0xbf99203d	-1.1962963
125	0xbfbbf8c1	-1.4685289
126	0x3f585dbb	0.8451802
127	0x4032cd26	2.7937713
128	0xc043cc7b	-3.0593555
129	0x3f86c620	1.0529213
130	0xbddde4fc	-0.10834691
131	0x3dcbd3dd	0.09952519
132	0xbf738637	-0.9512667
133	0x3f8c1dcd	1.0946594
134	0xc081a7c0	-4.0517273
135	0x3f60f0da	0.8786751
136	0x3f7de8b9	0.9918323
137	0xc03df408	-2.9680195
138	0x3fa24f44	1.268044
139	0xbf69043a	-0.91022074
140	0x3f8f8b91	1.1214467
141	0x3f8f0af1	1.1175214
142	0xbf59fdb2	-0.85152733
143	0x40210825	2.516122
144	0xbf3fd6ee	-0.7493733
145	0xc013e7a2	-2.3110127
146	0xbcbe4310	-0.023225337
147	0xbd06cba0	-0.032909036
148	0xbeaef52e	-0.34171432
149	0x3ea600e7	0.32422563
150	0xc015a0ed	-2.3379471
151	0x3e496494	0.19667274
152	0x3e1d845a	0.1538252
153	0x3d86ad50	0.065760255
154	0x3fff6761	1.9953424
155	0xbf8f7f33	-1.1210693
156	0xc02282c2	-2.5392308
157	0x3fb3f08f	1.4057788
158	0x4017733c	2.3664083
159	0xc146a107	-12.414313
160	0x3ff0ce4a	1.8812954
161	0xbe88b220	-0.266984
162	0xbd682998	-0.056680292
163	0x3dd14328	0.10217887
164	0x3e0d95a6	0.13826618
165	0x401e8cf7	2.4773538
166	0xc0527888	-3.2886066
167	0xbf389e6c	-0.7211673
168	0xbf147b89	-0.58001
169	0xc145c904	-12.361576
170	0x3f90355c	1.1266284
171	0xbfbd2fa3	-1.4780163
172	0xbfc81496	-1.5631282
173	0xbe61c503	-0.2204781
174	0xbf8912eb	-1.0708898
175	0xc0a0ac77	-5.021053
176	0x3f2399bb	0.6390645
177	0xbf80e6b7	-1.0070409
178	0xbe397f3a	-0.1811494
179	0x3d1f64b4	0.038914397
180	0xc0af9b34	-5.4876957
181	0x3f63daf0	0.8900595
182	0xc01c1884	-2.4389963
183	0x3f6f0731	0.9337035
184	0x3f40bb23	0.7528555
185	0xc16836aa	-14.513346
186	0x3fa34a92	1.2757132
187	0xbc5abd02	-0.013350727
188	0x3ff7b67e	1.9352567
189	0xc0132302	-2.2990117
190	0xbf108960	-0.5645962
191	0x408a7bfd	4.3276353
192	0xbe82da20	-0.2555704
193	0xbd45f2ff	-0.048327442
194	0xbe5076d2	-0.20357826
195	0x3d975155	0.0738856
196	0x3f5d109b	0.8635346
197	0x3fb1938b	1.3873152
198	0xbf29ac3b	-0.6627843
199	0x40231939	2.5484145
200	0xbf59b6b3	-0.850444
201	0xc00f1b17	-2.2360284
202	0xbe013402	-0.12617496
203	0xbfd28df0	-1.6449566
204	0x3fd68a9f	1.6761054
205	0xbfcd0fd2	-1.6020453
206	0xc08ac8a1	-4.336991
207	0xbed4f2de	-0.41591543
208	0x4042b1c5	3.0421002
209	0x3ed3dab2	0.4137779
210	0x3db11e9c	0.086484164
211	0x3909e800	0.00013151765
212	0xbf0dfcb4	-0.5546372
213	0x3f9a79dc	1.2068439
214	0xc0160287	-2.3439043
215	0x3f3fa67a	0.748634
216	0xbfa47ee4	-1.2851224
217	0x3d5be52a	0.053685345
218	0x3ea2167d	0.31657782
219	0xbf8ee121	-1.1162454
220	0x3f251bc1	0.64495474
221	0xc0d0c797	-6.524364
222	0xbff82469	-1.9386111
223	0x40609e0b	3.5096462
224	0x3fb34928	1.40067
225	0xbf6da783	-0.9283373
226	0xbddb42d0	-0.10706103
227	0xbe3a6dc4	-0.18205935
228	0x3ffddfdb	1.983394
229	0x3f4752cf	0.7786073
230	0xbf28bc6b	-0.65912503
231	0xbe089546	-0.13338193
232	0xbfa86a8f	-1.3157519
233	0xc0521159	-3.2823088
234	0x3f858695	1.0431696
235	0x3e6774ac	0.226031
236	0xc0a928ef	-5.286247
237	0xc05c2e82	-3.4403386
238	0xbf614cd3	-0.8800785
239	0xbfdefd5a	-1.7421067
240	0xbfd49105	-1.6606756
241	0x3df83018	0.12118548
242	0xbd585260	-0.052812934
243	0x3dc5651e	0.09638427
244	0x3e250c0c	0.16117877
245	0x3f957bca	1.1678402
246	0xc0bba05a	-5.863324
247	0x3f98b169	1.1929141
248	0xbfbf85e2	-1.4962733
249	0xbf7d5f2e	-0.9897336
250	0x3e185473	0.14875965
251	0x3fa68671	1.3009778
252	0x3f8930ad	1.071798
253	0xbf74d11d	-0.9563158
254	0xbf684472	-0.9072944
255	0xbfdbb42c	-1.7164359

dense2.bias f4 [24]
0	0x40401f92	3.001927
1	0x3faa0d6d	1.3285347
2	0xbe937011	-0.28796437
3	0x3fc60204	1.5469365
4	0x4018ce68	2.387598
5	0x3dc82d83	0.09774306
6	0x3f5ca2c3	0.86185855
7	0x3edb37fa	0.42816144
8	0x40022ee9	2.0341132
9	0x3f9cf27f	1.2261504
10	0x3fbb9f3e	1.4657972
11	0x3f588f94	0.8459408
12	0x400bb790	2.1830788
13	0x3fbdd28f	1.4829882
14	0x3fa59926	1.2937362
15	0x40228f03	2.5399787
16	0xbed37a3d	-0.41304198
17	0x4000f674	2.0150423
18	0x3fab3ea1	1.3378488
19	0x3d9e8c06	0.07741551
20	0x3f2f66bf	0.68516153
21	0x3f204f31	0.62620836
22	0x3da01fd8	0.07818574
23	0x3fc13309	1.50937

dense3.weight f4 [128, 24]
0	0xbf8e460b	-1.1115125
1	0xbed1366c	-0.40861833
2	0xbc58ce1f	-0.013232737
3	0xc051e042	-3.2793126
4	0xbf41d9f2	-0.75723183
5	0xbf6090d2	-0.8772098
6	0xc09ccb61	-4.8998265
7	0xbee28583	-0.44242486
8	0xbea94c73	-0.3306614
9	0xc000b6b6	-2.0111518
10	0xbe894e33	-0.26817474
11	0xbfbab596	-1.4586666
12	0xbe97246b	-0.29519972
13	0xc1213841	-10.076234
14	0xc055f673	-3.343167
15	0xbf096c77	-0.5368113
16	0xbd3b011c	-0.045655355
17	0xbf0653a1	-0.5247136
18	0xbf4093fb	-0.752258
19	0xbfa2407b	-1.2675928
20	0xbfba037d	-1.4532315
21	0xbf07e90e	-0.5308999
22	0xbf8dbe18	-1.1073637
23	0xc00f29bf	-2.236923
24	0xbfaa0367	-1.3282288
25	0xbf0c5e04	-0.54830956
26	0xbe45bc30	-0.19310069
27	0xc046edae	-3.1082568
28	0xbf60ad8c	-0.8776481
29	0xbf3d7255	-0.7400258
30	0xc0957cd4	-4.671488
31	0xbedf478f	-0.43609282
32	0xbee20294	-0.44142592
33	0xbffd8dfd	-1.9808956
34	0xbe7ea9d5	-0.24869473
35	0xbfed7732	-1.8552
36	0xbe9d117d	-0.30677405
37	0xc127dc1d	-10.491239
38	0xc03c9e18	-2.9471493
39	0xbef18e1f	-0.47178742
40	0x3d46c270	0.048525274
41	0xbf2cbba0	-0.67473793
42	0xbf230a0c	-0.63687205
43	0xbfa9bf6d	-1.3261544
44	0xbfbd7d09	-1.4803783
45	0xbea03ecc	-0.3129791
46	0xbf88dc78	-1.0692282
47	0xc0235d67	-2.5525758
48	0xbf90a921	-1.1301614
49	0xbf31d165	-0.69460136
50	0xbe5b2fe4	-0.21404988
51	0xc064cbc3	-3.5749366
52	0xbf12974d	-0.57262117
53	0xbf10806a	-0.56445944
54	0xc098ca63	-4.7747054
55	0xbf16a565	-0.5884612
56	0xbed387bc	-0.41314495
57	0xc009fcf1	-2.1560633
58	0xbf04c5e6	-0.5186447
59	0xbfd0e429	-1.6319629
60	0xbe986df4	-0.29771388
61	0xc12c53f4	-10.770496
62	0xc027cf07	-2.622011
63	0xbf05c972	-0.52260506
64	0xbe4d3a73	-0.20041828
65	0xbf3569b6	-0.7086443
66	0xbf4471d4	-0.7673619
67	0xbf90f602	-1.1325076
68	0xbf959049	-1.1684657
69	0xbefd3cfa	-0.49460584
70	0xbf89d221	-1.0767251
71	0xc01e9fa2	-2.4784932
72	0xbf94d07a	-1.1626122
73	0xbf1f30ff	-0.6218414
74	0x3df589ab	0.11989149
75	0xc0628443	-3.5393226
76	0xbf3bc549	-0.7334791
77	0xbf34da9a	-0.7064606
78	0xc0928a77	-4.5794024
79	0xbecc1e2f	-0.39866778
80	0xbf2af8cf	-0.667859
81	0xc0042da3	-2.0652854
82	0xbeeec685	-0.46635833
83	0xbfc43af9	-1.5330497
84	0xbedf9fee	-0.43676704
85	0xc1315665	-11.083592
86	0xc0328dd5	-2.7899067
87	0xbeb23e9b	-0.3481339
88	0xbce63e08	-0.02810575
89	0xbf564102	-0.83692944
90	0xbf566984	-0.83754754
91	0xbfa58779	-1.2931968
92	0xbfa0c75c	-1.256084
93	0xbe566662	-0.20937493
94	0xbf4cfad2	-0.8007022
95	0xc021ba4c	-2.5269957
96	0xbf975fef	-1.1826152
97	0xbf302f1a	-0.6882187
98	0xbe81fc62	-0.25387865
99	0xc05d210b	-3.4551418
100	0xbf319d38	-0.6938052
101	0xbf228e37	-0.6349825
102	0xc0957b0e	-4.6712713
103	0xbf14f15b	-0.5818078
104	0xbee0c22d	-0.43898144
105	0xc007404e	-2.1132998
106	0xbe84d458	-0.25943255
107	0xbfbbfefa	-1.4687188
108	0xbeccf4ee	-0.40030617
109	0xc1276de9	-10.464334
110	0xc04616f1	-3.0951502
111	0xbf17370e	-0.5906838
112	0xbe1ac595	-0.15114434
113	0xbf66c518	-0.9014449
114	0xbf25af6c	-0.647208
115	0xbfa1fdb8	-1.2655554
116	0xbfb037e5	-1.3767058
117	0xbe93bb21	-0.28853706
118	0xbf88fb0d	-1.0701615
119	0xc016e32a	-2.357615
120	0xbfab3634	-1.3375916
121	0xbf19a68a	-0.60019743
122	0xbdf967f0	-0.12178028
123	0xc048da8f	-3.1383398
124	0xbf0fe986	-0.56215703
125	0xbf4aad0d	-0.79170305
126	0xc0a49f76	-5.1444654
127	0xbeaf946a	-0.34292918
128	0xbebc4585	-0.3677179
129	0xbff3eff9	-1.9057609
130	0xbf15eacf	-0.58561414
131	0xbfacb398	-1.3492308
132	0xbe950f34	-0.29113162
133	0xc12adfce	-10.67964
134	0xc05dd100	-3.4658813
135	0xbef3c9c5	-0.47614875
136	0x3cd86328	0.026414469
137	0xbf21ff45	-0.63280135
138	0xbf5981c5	-0.8496364
139	0xbfc0fb9c	-1.5076785
140	0xbf92cae6	-1.146817
141	0xbe9f4499	-0.31107023
142	0xbf5c7a8e	-0.86124504
143	0xc019c996	-2.4029288
144	0xbf8db466	-1.1070678
145	0xbf036895	-0.51331455
146	0xbe25ffee	-0.1621091
147	0xc04d5b0d	-3.2086823
148	0xbf1b006c	-0.6054752
149	0xbf56d11e	-0.8391284
150	0xc0a6f615	-5.2175393
151	0xbebfa496	-0.37430257
152	0xbec6d16d	-0.38831654
153	0xbff2c674	-1.8966813
154	0xbeb659a1	-0.35615256
155	0xbfb85f70	-1.4404125
156	0xbf071b25	-0.52775794
157	0xc11ec079	-9.92199
158	0xc0775449	-3.8645194
159	0xbf18c0d0	-0.5966921
160	0xbcfb5cc0	-0.030683875
161	0xbf05f8f5	-0.52333003
162	0xbf3cb3bc	-0.7371175
163	0xbfa2e6c6	-1.2726676
164	0xbfd13def	-1.6347026
165	0xbea431a3	-0.3206912
166	0xbf7b326c	-0.9812381
167	0xc00b1de0	-2.1736984
168	0xbf84ff66	-1.0390441
169	0xbeff3294	-0.49843276
170	0xbe09482d	-0.13406439
171	0xc04fc0dd	-3.2461464
172	0xbf1cdc13	-0.61273307
173	0xbf5770fb	-0.8415677
174	0xc0990266	-4.781543
175	0xbf1149f6	-0.5675348
176	0xbf22ed2b	-0.6364314
177	0xc00d2b0f	-2.205753
178	0xbe856edc	-0.26061141
179	0xbfc203d4	-1.5157418
180	0xbf1b4e66	-0.606665
181	0xc12b061a	-10.68899
182	0xc030070e	-2.7504306
183	0xbf025f44	-0.50926614
184	0xbe115284	-0.14191633
185	0xbf33b9ba	-0.7020527
186	0xbf3b18b8	-0.7308459
187	0xbfaf188a	-1.3679364
188	0xbf9da62c	-1.2316337
189	0xbe87c248	-0.26515412
190	0xbf87aec9	-1.0600215
191	0xc022eb6b	-2.5456188
192	0x40299285	2.6495678
193	0xc134fc4e	-11.311598
194	0x3de5558d	0.11197958
195	0xc049d965	-3.1538937
196	0x3f57585c	0.841192
197	0x3f18b3cb	0.5964934
198	0xbfc612a3	-1.5474437
199	0xc21c2cde	-39.043816
200	0xc237ec0f	-45.980526
201	0xc146a194	-12.414448
202	0xc16c7057	-14.777427
203	0xc20d883a	-35.383034
204	0xc0c1c01e	-6.054702
205	0xbe081baa	-0.13291803
206	0xc003b419	-2.0578673
207	0xc19bab52	-19.458652
208	0xbdfbdadc	-0.122976035
209	0xbf7fed3b	-0.9997136
210	0x3efa2b96	0.48861378
211	0xbf0c0b8b	-0.54705113
212	0xbe8c0dcb	-0.27354273
213	0xc106a4d5	-8.415242
214	0x3f3ee1bf	0.7456321
215	0xc0140a88	-2.3131428
216	0x403a762f	2.9134634
217	0xc1d780f2	-26.937962
218	0xbd9cbe26	-0.076534554
219	0xbff9e078	-1.9521627
220	0x3f950ad4	1.164393
221	0xbd701e21	-0.058622483
222	0x3f2b8d6f	0.67012686
223	0xc016f74b	-2.3588436
224	0x3f1e096c	0.61733127
225	0xc0b4cd81	-5.650086
226	0xc1056af4	-8.338612
227	0xc0270f3c	-2.6103048
228	0xc110ac5a	-9.042078
229	0xbf9de51e	-1.2335546
230	0xbf9fc0c5	-1.2480704
231	0x3ef04074	0.46924174
232	0x3d9548b8	0.072892606
233	0xc0b289fb	-5.5793433
234	0xbd3d2cfd	-0.046185482
235	0xbdcd05d1	-0.10010875
236	0x3e260b9e	0.16215369
237	0xc07cf9b2	-3.9527402
238	0xbe854432	-0.2602859
239	0xc1415cf8	-12.085197
240	0xbfe1b895	-1.7634455
241	0xbf2a2ac2	-0.66471493
242	0x3ddab5ec	0.1067923
243	0xc009449a	-2.144812
244	0xbfaf3f10	-1.369112
245	0xc0f82bdb	-7.7553535
246	0xbf856f6c	-1.0424628
247	0x4012e566	2.2952514
248	0x3d6c3643	0.057668936
249	0xc0885ecd	-4.2615724
250	0x3dcbff05	0.099607505
251	0xbf0ddecb	-0.5541808
252	0xc01d2ca9	-2.4558508
253	0xbf4a9536	-0.7913393
254	0xc081b4bd	-4.053313
255	0xc06970b7	-3.6475046

dense3.bias f4 [128]
0	0xbf59a419	-0.8501602
1	0xbf1c3661	-0.61020476
2	0xbf48624d	-0.78274995
3	0xbf3baf46	-0.7331432
4	0xbf1c7e4a	-0.611302
5	0xbf1729e4	-0.59048295
6	0xbf40ec7d	-0.7536085
7	0xbf65325b	-0.8952996
8	0x3ef5ec18	0.48031688
9	0x3ec98869	0.39361885
10	0xbf9b8dac	-1.215261
11	0xbefd7ff5	-0.49511686
12	0xbf4adb98	-0.79241323
13	0x3f5a18dc	0.8519418
14	0x400a882e	2.1645617
15	0x4003a844	2.057145
16	0x3ff189c3	1.8870167
17	0xbf13f7ef	-0.5780019
18	0xbf219307	-0.6311497
19	0xbfa64b62	-1.2991755
20	0xbf04f8c5	-0.5194209
21	0xbf31f88c	-0.6951988
22	0xbf0ec955	-0.5577596
23	0xbf558a27	-0.8341393
24	0xbf4de9e2	-0.80435
25	0xbefe037d	-0.49612036
26	0x3cf49597	0.029856486
27	0x3dc29dc8	0.09502751
28	0x3df91a8e	0.12163268
29	0x3f842a1c	1.0325351
30	0x3f0c831e	0.5488757
31	0xbe19f7c6	-0.15035924
32	0x4026497b	2.598235
33	0x3fe4a629	1.7863208
34	0x3f0e2b5d	0.5553492
35	0xbf4dad12	-0.8034221
36	0xbfbf8eae	-1.4965417
37	0x3feb9f37	1.8407964
38	0x40a59263	5.1741195
39	0xc08ecaa8	-4.4622383
40	0xbf7936b6	-0.9734911
41	0x40a8a1c8	5.2697487
42	0x3f819c47	1.0125817
43	0xbe2e69e5	-0.17032583
44	0x3f53ddc7	0.8276028
45	0x4004ebc8	2.076891
46	0xbf178165	-0.59181815
47	0x3ef5ab11	0.47982076
48	0x3fe6659c	1.7999759
49	0xbf522b3b	-0.82097214
50	0xbe68c721	-0.22732212
51	0xbf9afb38	-1.2107916
52	0xbfdde31a	-1.7334931
53	0x3cdaf5ac	0.026728474
54	0x400bd536	2.1848884
55	0xc0008d74	-2.0086336
56	0x3f2b1778	0.66832685
57	0xbe6c92bb	-0.23102848
58	0xbf9a635c	-1.2061572
59	0xbf11e7e7	-0.5699448
60	0xbfaf6f92	-1.3705924
61	0xbfa735f9	-1.3063346
62	0xc0024af9	-2.035826
63	0xc04425a9	-3.0647986
64	0x3f5532cb	0.8328063
65	0x3fd2990f	1.645296
66	0x3f81ec20	1.0150185
67	0x3fc2b85e	1.5212514
68	0x3fada3ef	1.3565654
69	0xbe19d36c	-0.15022057
70	0x40354830	2.832531
71	0xbf76eff8	-0.96459913
72	0xc09e28c0	-4.9424744
73	0x3ce6af55	0.028159777
74	0xbe2e4567	-0.17018662
75	0x3f28d082	0.6594316
76	0xbf7f8005	-0.9980472
77	0x3eab2842	0.33429152
78	0xbf5f2823	-0.8717062
79	0x3f1ca0bc	0.6118276
80	0x3f3e90f1	0.74439913
81	0x3db03476	0.08603756
82	0xbf7de35d	-0.99175054
83	0xbfc9c96e	-1.5764596
84	0x3ee2c949	0.44294193
85	0x3df3f054	0.11911073
86	0xbf0741cb	-0.5283477
87	0xc0a4c61c	-5.1491833
88	0x3f083a7c	0.5321424
89	0x400de862	2.2173085
90	0x3f16793e	0.5877875
91	0xbf294f85	-0.6613696
92	0xbf9c7ae3	-1.2225002
93	0x400efed0	2.2343025
94	0x4023901a	2.5556703
95	0xbdbb703b	-0.09152266
96	0xc01f55c8	-2.4896107
97	0xbf8ce9a7	-1.1008805
98	0x3ea775bf	0.3270702
99	0x3f52df3d	0.82371885
100	0x3fe56254	1.7920632
101	0xbe659931	-0.22421719
102	0x3ee38953	0.44440708
103	0xc0b84926	-5.7589293
104	0xc096e0d1	-4.7149434
105	0xbe7cf94e	-0.24704477
106	0xbf00b1d5	-0.5027135
107	0xbf04fbe8	-0.5194688
108	0xbf3cd7fb	-0.7376706
109	0xbf029129	-0.51002747
110	0xbf0d2b70	-0.55144405
111	0xbf61395c	-0.8797815
112	0xbf189739	-0.5960575
113	0xbf217116	-0.6306318
114	0xbf039386	-0.5139698
115	0xbf0a9025	-0.541262
116	0xbf2071ab	-0.62673444
117	0xbf212fc8	-0.62963533
118	0xbf600f74	-0.8752358
119	0xbf0ad96c	-0.5423801
120	0xbf02f004	-0.51147485
121	0xbf1096fa	-0.5648037
122	0xbf084b2a	-0.5323969
123	0xbf389d1b	-0.72114724
124	0xbf437a5e	-0.7635859
125	0xbf3f4baa	-0.7472483
126	0xbf39d83e	-0.72595584
127	0x4001b7d0	2.026844
