Saved Models/I3_ULA_AMCF_12_beam_probing_codebook_128_beam_classifier_noise_-94_dBm.pt (torch, 26143 bytes, 6 tensors)

dense1.weight f4 [24, 12]
000000 2b f5 43 3f 69 6f e3 c1 31 6a c4 be a0 af 3d be
       0.7654597 -28.4294 -0.38362268 -0.18524027
000010 ce 55 e6 bd 84 1f 1d bf c7 0e 62 3e 3e 3f 3e be
       -0.11246835 -0.61376214 0.2207595 -0.18578812
000020 4d 4b f8 be 71 16 bc c0 9f dd 93 40 57 a7 4d 3f
       -0.4849495 -5.8777394 4.6208034 0.80333465
000030 b7 7d ab 3d 92 4c 05 c1 2c 6e 1e be 32 9d ac c1
       0.083735876 -8.331194 -0.15471715 -21.576756
000040 c9 b7 76 3f af 84 b0 3f 1c 1e 73 3f 0c a2 71 3e
       0.96374184 1.3790492 0.9496782 0.23596972
000050 5b 01 e5 be 06 36 33 c0 4a b5 b7 be c4 ba 33 3e
       -0.44727597 -2.8001723 -0.358805 0.17551714
000060 7a cc fb be e0 21 e0 3f 22 b7 9b 3f da 57 c9 3e
       -0.4917944 1.7510338 1.2165263 0.39324838
000070 e1 73 f8 3e 18 cd 62 3f 9e 51 90 3e df d5 ec 3c
       0.4852591 0.885942 0.2818727 0.028910575
000080 fc e1 3f c2 08 72 8b 3f 38 ee 09 40 6e 08 74 be
       -47.970688 1.0894175 2.1551647 -0.2383134
000090 6d 5a 47 3f 69 55 45 3e 2c ce 02 c0 72 98 b6 3e
       0.77872354 0.19270863 -2.0438337 0.35663182
0000a0 28 be e2 3e 74 e5 4a c1 cd 77 00 3f 41 2c c1 bd
       0.44285703 -12.681019 0.501828 -0.09432269
0000b0 57 3d 27 3f 8c 9e 7b c1 53 2a e1 bf 02 5b 3d 3e
       0.6532797 -15.726208 -1.7591041 0.18491748
0000c0 68 a4 2b 3f c9 fc 1b c0 a2 20 87 3e 77 44 23 ba
       0.6704774 -2.4373038 0.26392084 -0.00062281586
0000d0 0a a9 19 3f 74 f3 33 bf 05 0d 76 c0 24 7c 8c bf
       0.6002356 -0.70293355 -3.8445446 -1.0975385
0000e0 63 c7 dc be 7f 31 d2 bf 47 46 1e 40 59 16 a5 3e
       -0.4312087 -1.6421355 2.4730394 0.32243612
0000f0 c9 f2 11 bf 69 b7 49 c0 1d a5 ac 3d 2d 57 6b 3e
       -0.57011086 -3.1518195 0.0842993 0.22982474
000100 98 2b 0e 3f 84 57 ac 3d db f4 81 c2 d5 0e f1 3c
       0.5553527 0.0841513 -64.97823 0.029426018
000110 48 d4 84 bf 5f 5c c6 be 2b e5 b0 3e 0c 64 e4 3d
       -1.0377283 -0.3874235 0.3454984 0.11151895
000120 4b f9 49 be f0 18 91 c0 cd 67 a7 bf 57 8e b0 c0
       -0.19724004 -4.534294 -1.3078552 -5.5173755
000130 7e 77 3f 3f 06 14 d9 3f dc 1b 47 3f c5 6c a3 c0
       0.74791706 1.6959236 0.77776885 -5.1070275
000140 ff 24 6a 3f f0 cf 52 40 4d 70 9e bf 43 ec de 3d
       0.914627 3.2939415 -1.2378021 0.10884907
000150 f6 58 cc 3c 56 ca 97 c1 7a 53 50 c1 be f4 77 3f
       0.024944764 -18.973797 -13.02038 0.9685782
000160 ce 2a 25 c1 9f 84 39 3f c6 68 8c 3f 1f 03 46 3d
       -10.32295 0.7246799 1.0969474 0.04834282
000170 87 62 a1 3f de 6b ae be 34 55 37 40 cf 84 c4 3e
       1.2608193 -0.3406667 2.8645754 0.38382575
000180 0f c3 94 3f 72 2d 93 41 b6 0d b4 bd 1f 97 1e 3f
       1.1622027 18.39719 -0.08791678 0.6194934
000190 d6 e1 e3 bf 47 b0 18 c0 c3 d2 b8 3e 9c 6f ce bd
       -1.7803295 -2.385759 0.36098298 -0.100798815
0001a0 ff 7c 0e 3f de f4 a6 bf a4 36 7e be ef 9a 37 3f
       0.5565948 -1.3043478 -0.24825531 0.71720785
0001b0 82 7f 4b 3e be 61 92 3f 6b c3 d2 bf c9 c2 07 3f
       0.19872859 1.1436079 -1.6465887 0.53031594
0001c0 bf ac 3f c2 77 04 41 c1 6c 46 70 3f ca 9d 87 bd
       -47.918697 -12.06359 0.93857455 -0.06621893
0001d0 15 1d 45 3e 4b 4f 27 bf fd 59 94 3e 81 c1 8a 3d
       0.19249375 -0.65355366 0.28974906 0.06775189
0001e0 77 8a 5d bf b7 d8 e1 c0 74 80 31 bf 2f e9 3c 3f
       -0.86539406 -7.0577044 -0.6933663 0.7379331
0001f0 41 78 9b 3f 54 aa 86 c0 2f 55 8e c0 94 33 2a 3f
       1.2146074 -4.208292 -4.4478984 0.6648495
000200 c0 69 b5 3f f5 09 ce 3f 34 4e 9b 40 6a 03 aa 3b
       1.4172897 1.6096789 4.8532963 0.0051883953
000210 d5 f1 4d 3f fc 84 0d c1 43 c4 2c 3e 10 4c f6 bd
       0.8044713 -8.844967 0.16871743 -0.120262265
000220 ca 30 4b be 91 8d 8c 3f ec 19 21 c1 ba 2b a6 3e
       -0.1984283 1.0980703 -10.068829 0.32455236
000230 77 cf b1 3f ca 64 62 3c 0b dd e9 c0 f3 30 54 3e
       1.3891438 0.013817975 -7.308233 0.20721798
000240 9b a4 19 bd 04 2c c4 41 19 d9 bb bf c7 d6 ae bf
       -0.037510496 24.521492 -1.4675628 -1.3659295
000250 59 9f 2b bf ba 20 81 3f d1 11 a3 be 29 4f b2 be
       -0.6704002 1.0088112 -0.3184953 -0.3482602
000260 06 ba eb be ac 50 06 3f 22 aa 70 3f cf e5 0e 3f
       -0.46040362 0.52466846 0.940096 0.5581941
000270 27 19 5a c0 c3 03 87 41 a4 f5 28 3f 3f 68 d5 bd
       -3.4077852 16.876837 0.6599982 -0.10420274
000280 c6 d4 89 be ab fe 42 bf 21 bb 59 3f 26 bb 48 c2
       -0.26920146 -0.7616984 0.8505116 -50.182762
000290 67 66 c5 bf 60 61 b5 bf 5e 7b 92 bf 50 08 0a bd
       -1.5421876 -1.4170341 -1.1443899 -0.033699334
0002a0 fe ae 05 3f ea d1 0d 41 0f 9f 9d be 71 9a 7d c2
       0.5222014 8.863749 -0.30785415 -63.40082
0002b0 6b a5 10 c1 ef 30 3b 3f 6c 1f 1e 3f a4 83 64 3f
       -9.040385 0.7312154 0.61766696 0.8926337
0002c0 39 9d b7 3d 38 d9 ff be 2c 59 d4 bf 64 91 7c 3d
       0.08965535 -0.49970412 -1.6589713 0.061662093
0002d0 7b 37 b5 bf b0 bf d8 41 08 dc 92 3f 4c cc a4 c1
       -1.4157556 27.093597 1.1473398 -20.599754
0002e0 aa 32 98 bf d6 97 b5 3d 86 ed 00 3d 54 6a c5 be
       -1.1890461 0.08866851 0.03147652 -0.38557684
0002f0 a0 e8 32 bb a6 e1 b7 3f 00 e1 aa 40 99 f3 04 3e
       -0.00272993 1.4365737 5.339966 0.1298355
000300 16 66 dd be 03 3e 99 c1 22 04 ce 3f bb d0 02 c0
       -0.43241948 -19.15528 1.6095011 -2.04399
000310 60 c1 ae c0 4a 6c ab 3e bf 93 e5 3e ed 92 0e bc
       -5.4611053 0.33481055 0.44839284 -0.008702022
000320 b6 a6 22 be b7 aa 8c c1 86 79 3d bf 76 16 09 be
       -0.15883908 -17.583357 -0.74013555 -0.13387474
000330 e4 3d 8d 3e 54 c7 2e 41 ac ba 04 3f 15 01 41 3f
       0.2758628 10.923664 0.5184734 0.75392276
000340 f8 5a 23 be b1 0d d1 3f 71 c1 c5 c1 da b6 0c 3e
       -0.1595267 1.6332303 -24.719454 0.13741627
000350 9a a1 a5 3f 39 1b dc 3f 84 28 2d 3f 13 e1 6f bd
       1.2939942 1.7195808 0.67639947 -0.058564257
000360 a1 c6 d1 3f 9b d0 05 c0 b1 60 51 bd 44 5b 40 be
       1.6388742 -2.0908573 -0.051117603 -0.18784815
000370 c0 ae 48 be 34 43 67 bf 06 9a 41 c1 32 49 aa 3e
       -0.19597912 -0.9033692 -12.100103 0.3325897
000380 db d0 96 c1 b8 97 a5 40 e5 6b 88 3f 43 c5 b7 3e
       -18.85198 5.1747704 1.0657927 0.35892686
000390 8e b2 4b 3e fe 53 38 c1 60 8c 71 3f 18 95 53 bf
       0.19892332 -11.520506 0.9435482 -0.82649374
0003a0 ad 02 ff 3c c3 3a 42 c2 ef 96 6a 3f 4c 32 fd 3e
       0.031129206 -48.557384 0.91636556 0.49452436
0003b0 1f d6 f5 be 84 fa e5 bf 2b 5a 74 bf 5f 88 a1 3d
       -0.48014924 -1.7967076 -0.95450085 0.07887339
0003c0 64 de 42 be 92 5b 73 c1 13 f4 8a bf e9 57 b5 be
       -0.19030148 -15.209856 -1.0855736 -0.35418633
0003d0 93 41 b7 c0 f5 82 26 be 30 ad 48 3d 98 c6 93 be
       -5.7267547 -0.16260894 0.04899329 -0.28862453
0003e0 9d 9d 89 be 0e 1a a9 40 74 e8 f6 c0 b1 3e d4 bd
       -0.26878062 5.2844305 -7.7158756 -0.1036352
0003f0 5c 36 6f 3e cc 7e 77 3e 70 3a 38 be 20 74 10 bd
       0.2336058 0.24169463 -0.17991042 -0.035266995

dense1.bias f4 [24]
000000 2f ca 15 3f 3a 70 06 3f cf 42 f1 3d fa 36 e7 3e
       0.5851163 0.52514994 0.11780321 0.4515913
000010 af 82 9e 3f cf 2e 36 3e 70 df f9 3e ce f4 57 3d
       1.2383631 0.17791294 0.48803282 0.0527237
000020 4d 2d 2d 3f 9a 4e 85 3e 88 45 00 3f 10 18 fa 3e
       0.6764725 0.2603653 0.50106096 0.48846483
000030 6a d2 41 3f 1f 00 62 3e 3a c5 0f 3e b0 8e 9b 3e
       0.7571169 0.22070359 0.1404008 0.303823
000040 25 07 fc 3e af a2 15 3e a7 09 2c 3f 11 b2 12 3e
       0.492242 0.1461284 0.6720223 0.1432574
000050 d8 37 5c 3f 01 22 77 be a4 87 dd 3d 96 1f 19 3f
       0.8602271 -0.24134065 0.10816887 0.5981382

dense2.weight f4 [36, 24]
000000 97 07 2c bf 87 1c 21 be 10 ae 79 3f 68 f5 3b 3f
       -0.6719908 -0.15733539 0.97531223 0.73421335
000010 9b 82 e1 be 8f 8d 50 40 2a 1a 43 bf 5e 42 f0 bf
       -0.44044957 3.25864 -0.762118 -1.8770254
000020 2b 6f b8 3f fc 00 ab 3f 89 15 85 be 4e 1d 99 bf
       1.4408926 1.3359675 -0.25992993 -1.1962068
000030 a5 78 c6 3f a1 e0 ac be 7b 4e d4 3f 03 08 fc 3e
       1.5505568 -0.33765128 1.658645 0.49224862
000040 37 bd 53 3e 53 0c 48 40 20 fa 25 c0 dc f8 16 c0
       0.20677648 3.1257522 -2.5933914 -2.3589392
000050 9c b1 bd 3e 44 c0 36 bd 3a c0 c4 c0 51 ad f1 3e
       0.37049568 -0.044616953 -6.148465 0.47202542
000060 55 ee 04 bf 6b bc 8f bf 99 75 0d bf b9 b1 4e 3e
       -0.51926166 -1.1229376 -0.55257565 0.20184983
000070 e7 43 34 bf 04 ee 5f 3f dd 07 87 3f 3b 38 b5 be
       -0.7041611 0.8747256 1.0549275 -0.35394463
000080 b1 40 3a be 17 e6 0f 3e a6 c4 ce bd ca 88 eb 3e
       -0.1818874 0.14052616 -0.100961015 0.460028
000090 62 c8 2c be 78 82 8c be 69 fd cb bf 7e 51 05 3f
       -0.16873315 -0.2744329 -1.593671 0.5207747
0000a0 40 6a da bf aa 08 2c bf 52 33 ce 3f b5 52 66 40
       -1.7063675 -0.6720072 1.6109412 3.598798
0000b0 c4 34 01 40 fc ee f2 3d 65 4e 56 3e 1d 1d c8 bf
       2.0188456 0.11861989 0.20928343 -1.5633885
0000c0 d8 3e d9 be 4c 62 6b be 50 a0 89 be 32 23 e6 be
       -0.42430758 -0.22986716 -0.2688012 -0.44948727
0000d0 63 8c 3d be ac 0d 03 bd eb 96 cf be 9e 71 ae be
       -0.18510585 -0.03199546 -0.4054483 -0.34071058
0000e0 be 96 ff be 75 cf 2b be 8c ec 72 bd a6 88 80 bd
       -0.49919695 -0.16778357 -0.05930762 -0.062760636
0000f0 00 16 d7 be c6 d6 65 be e2 90 9e be 21 7c ef be
       -0.42008972 -0.22445211 -0.30969912 -0.4677439
000100 34 ca e7 bd f2 2f da bd 74 b0 00 be 68 5d 37 be
       -0.11317864 -0.10653676 -0.12567312 -0.17906725
000110 ca 5d 70 be 9a 80 25 3e 39 9c c3 bd f8 1e 53 be
       -0.23473278 0.16162339 -0.095512815 -0.20617282
000120 ea 12 06 bf a5 b4 0d bf 28 81 41 bd 17 c0 0c bf
       -0.5237261 -0.55353767 -0.047242314 -0.54980606
000130 b9 15 92 bd cc 19 b6 bd 23 05 81 be 4a 65 51 be
       -0.071330495 -0.08891639 -0.25199232 -0.20448795
000140 4b 0a 06 bf 47 5b 8c be 80 c7 82 be 5c 48 3d 3d
       -0.52359456 -0.2741339 -0.2554283 0.046211585
000150 fe 81 0e bf 03 1a 13 3d 00 52 9b be b8 30 b8 be
       -0.556671 0.03591348 -0.30336 -0.3597467
000160 19 9d 86 be d4 2c 2a be e5 d3 59 be d9 d0 d1 3c
       -0.2629173 -0.16618663 -0.21272238 0.025612282
000170 6c 2c cf be 84 57 85 3d 26 5c 71 be 3c 27 31 be
       -0.4046358 0.06510833 -0.23570308 -0.17300123
000180 b4 ca 8f 3e 41 d1 80 bc 1b b5 77 40 7e 0a 99 3e
       0.28084338 -0.01572478 3.8704288 0.29890817
000190 5a 69 a9 bd 18 62 3c 3f a0 62 a2 be d1 a3 5f 3e
       -0.08272047 0.7358718 -0.3171587 0.21839835
0001a0 94 c4 29 3f d9 0b 9a be c5 a8 80 bf 00 e1 2b 3f
       0.6631558 -0.30087164 -1.0051504 0.671402
0001b0 62 00 76 3f eb e7 09 40 3a 1f 12 c0 a5 c5 00 be
       0.96094334 2.1547801 -2.283156 -0.12575395
0001c0 7c 99 c7 bf 00 4e c5 bf 86 3d 29 40 bf 5e 8e 40
       -1.5593715 -1.5414429 2.64438 4.4490657
0001d0 70 3a 05 c0 44 e5 97 bd 50 88 7e bf 36 35 aa 3f
       -2.0816917 -0.07416776 -0.99426746 1.3297489
0001e0 c8 36 15 bf c1 a0 8a bf 84 84 8f bf 6e 45 df 3f
       -0.58286715 -1.0830308 -1.1212316 1.7443063
0001f0 72 03 70 3f f4 92 9a 3e cf c6 1e be e4 cb 0e bf
       0.9375526 0.3019024 -0.15505527 -0.5577986
000200 ee c9 09 3f 6c cb ac 3f 4f 98 77 3f d9 82 50 3e
       0.53823745 1.349958 0.9671678 0.20362414
000210 75 9c f7 bf a6 49 2c c0 47 4e 5a 3d 35 99 09 bd
       -1.9344622 -2.6919951 0.053297307 -0.033593375
000220 ad 95 11 40 16 21 05 c0 e0 8a c2 3f af c8 16 40
       2.2747605 -2.0801444 1.5198631 2.3559988
000230 87 91 18 bf 20 bb 80 bc 00 b0 26 c0 88 24 f6 bf
       -0.5959706 -0.015714228 -2.6044922 -1.9229898
000240 ce 73 93 be b6 c0 65 be 8e 06 96 bc 0c dc 34 be
       -0.2879929 -0.22436795 -0.018313672 -0.17662066
000250 e4 70 28 be 6a 22 1e 3e a5 e0 53 be 3f ec cc bd
       -0.16449314 0.15442815 -0.20691164 -0.10005998
000260 75 55 72 bc 7b 95 e1 bd 63 be 4b be 7b 48 24 bc
       -0.014790882 -0.11014839 -0.19896846 -0.010027046
000270 20 0b 94 be dd 95 72 be bf 06 9e be 96 e8 0f bf
       -0.28914738 -0.23689981 -0.30864522 -0.5621427
000280 26 a2 16 be 45 d4 1a be 87 17 27 be 93 2e 7c bd
       -0.14710292 -0.15120037 -0.16317569 -0.061567854
000290 20 63 0d bf c0 03 39 3b c4 c6 26 bd 6c 55 e8 be
       -0.5522938 0.0028230995 -0.0407169 -0.45377672
0002a0 92 44 91 3f dc d3 f3 bf 86 49 9e bf 25 16 2b bf
       1.1349051 -1.9049029 -1.2366188 -0.66830665
0002b0 b8 ff b1 3d a6 f7 a9 40 20 1f 30 bf 07 5c f5 3e
       0.086913526 5.3114805 -0.68797493 0.47921774
0002c0 cd 6d a6 be 85 2f 88 40 59 bd 2a be 81 17 0f be
       -0.32505646 4.2558007 -0.16673793 -0.1397381
0002d0 bd 88 8a bc d6 d4 b2 3f 2b 52 64 3f 9f 14 e6 be
       -0.016910905 1.3971202 0.8918788 -0.44937608
0002e0 31 01 a2 3f 3d ea d0 bd 46 69 39 bf c1 78 f7 bf
       1.2656614 -0.102009274 -0.7242626 -1.9333726
0002f0 43 c8 88 39 74 1a d1 3d 2c df 8e 3f 69 d1 d7 3e
       0.00026089148 0.10210124 1.1161857 0.42151955
000300 c4 5e 30 3f 05 62 15 40 91 26 0e bf dc d8 0b 3f
       0.688946 2.3341076 -0.555276 0.54627776
000310 ba dc 1c be 91 1b 31 c0 bd 17 e7 3e b8 4c d5 bf
       -0.15318576 -2.7673075 0.45135298 -1.6664038
000320 08 7a 09 c0 0a 46 54 c0 3d 89 71 bf 25 27 11 be
       -2.1480732 -3.3167748 -0.94350034 -0.14175089
000330 cd 51 09 3f fb da 8a bf 1f a2 50 40 db b8 9b 40
       0.53640443 -1.0848078 3.259895 4.8663154
000340 09 9b a2 3e a2 ac 36 c0 ce ab 57 3e 4a cf 69 bf
       0.31758907 -2.8542867 0.21061632 -0.91331923
000350 3c c2 87 3f 3a bd 37 be c1 81 f0 bf df 8e 8b bf
       1.0606151 -0.17943278 -1.8789598 -1.0902976
000360 82 73 ca 3e 27 84 18 40 cd 9b 31 40 e6 5a 41 bf
       0.3954125 2.383066 2.7751343 -0.75529325
000370 42 7c 56 3f ba 71 b5 c0 0f 24 40 3f 76 35 58 bf
       0.8378335 -5.6701326 0.7505502 -0.84456575
000380 41 81 89 bf ac 35 da bf 3a 36 59 bf c6 ac 1d 3f
       -1.074257 -1.7047629 -0.8484837 0.61591756
000390 32 df e6 be 6a 34 3b 3f be 30 d5 3f e6 7c 83 bf
       -0.4509216 0.7312685 1.66555 -1.0272491
0003a0 14 8a 88 bd 4e 46 7e c0 cc 4b aa 3f 68 27 10 bf
       -0.06666961 -3.973041 1.3304381 -0.5631013
0003b0 14 8e fb 3d b5 5d 28 be d7 a8 4f bf 1d 9a b1 3f
       0.122829586 -0.16441996 -0.81117004 1.3875157
0003c0 35 aa 87 3e 82 a7 cb 3f df 36 f1 be 6e ea 23 40
       0.26497045 1.5910494 -0.47112176 2.5611835
0003d0 84 c1 df 3e f1 1b a4 3f 3f 20 f3 be d3 1c 65 3f
       0.43702328 1.2821027 -0.4748554 0.8949711
0003e0 f9 79 e2 3f ea d2 6c c0 7c bd 4d 3f 4b e6 4e bf
       1.7693473 -3.7003732 0.80367255 -0.8082015
0003f0 ab 8f 11 c0 1d c9 6d c0 5e 19 23 3f 2c 04 cd 3f
       -2.2743938 -3.7154 0.6371058 1.6016898

dense2.bias f4 [36]
000000 05 d7 a9 3e 3a 52 ba 3f 5a a6 f3 be e5 ef 77 be
       0.3317186 1.4556344 -0.47587854 -0.24212606
000010 f6 56 cf be 32 36 b9 3e b6 6b 95 be 26 8d 29 3f
       -0.40496033 0.3617416 -0.2918374 0.66231
000020 d4 4d 58 3a ea d1 9d b9 7d a4 a3 bd 24 5f c0 3f
       0.00082513434 -0.00030101772 -0.07990358 1.5029035
000030 d0 f6 34 be ea 8c e5 3e ca c2 3e be da 40 0a 40
       -0.17672276 0.4483407 -0.18628994 2.1602082
000040 2f 9e bf 3f 37 37 9b be 8b 08 8d 3f d2 da 2e be
       1.4970149 -0.30315563 1.1018232 -0.17075661
000050 62 63 ae 3e a2 f9 0d 3e db 5b c1 3e 9e 0a 95 be
       0.34060198 0.13864759 0.37765393 -0.29109663
000060 3e 18 0d 3d 91 ed 7e be 5b c6 89 bf d8 f9 a7 3f
       0.034446947 -0.24895312 -1.0763658 1.3123121
000070 97 d8 2b 40 95 90 8d be d3 42 84 3f 4d 39 1a c0
       2.6850946 -0.2764937 1.0332893 -2.4097474
000080 47 75 03 40 9d 20 8f be 09 02 03 40 27 9e 09 40
       2.054033 -0.2795457 2.0469992 2.1502779

dense3.weight f4 [128, 36]
000000 ea 6b ef be 36 52 78 bf ea 64 28 be e6 06 aa bd
       -0.4676202 -0.97000444 -0.16444746 -0.08302097
000010 3b 80 0f bf 0f ac aa be 2f 76 26 bd fd 8e 48 bf
       -0.5605504 -0.33334395 -0.040640052 -0.7834318
000020 3d e7 e4 be 5e f5 3b bf 70 28 69 bf 2a 07 be be
       -0.4470767 -0.73421276 -0.9107733 -0.3711484
000030 4b d6 1e bd 0e e0 fe bf 48 a3 aa bf 8e 69 f1 be
       -0.038778584 -1.9912126 -1.333108 -0.47150844
000040 f6 69 02 bf 04 88 cb 3d f9 c6 d6 be 14 5e 1b 3d
       -0.50942934 0.09938052 -0.4194868 0.037931517
000050 bc 8c d0 be 37 1e 7d bf 5e 37 8a be 70 11 b7 be
       -0.40732372 -0.9887423 -0.26995367 -0.3575549
000060 9e 3a 4b bf 3d 4c 6c bc 0c 3f 0f c0 26 e0 11 bf
       -0.7938632 -0.0144224735 -2.238223 -0.5698265
000070 e1 3a 22 bf 82 6e cf be 3e d1 12 be 40 da 74 bf
       -0.6337109 -0.40513998 -0.14337632 -0.95645523
000080 a8 06 d2 be 22 b6 56 be 59 f1 8a be 85 55 69 c0
       -0.41020703 -0.20967916 -0.2713726 -3.6458447
000090 2e e3 bd be a1 36 88 bf 2c 5a 72 bd 22 f8 3a be
       -0.37087387 -1.0641671 -0.059168026 -0.18258718
0000a0 6e 40 16 bf 78 d7 e2 be 90 4d f4 3d 5d b5 3f bf
       -0.5869206 -0.44305015 0.119288564 -0.74886113
0000b0 68 a2 ee be 46 62 17 bf 3a ce 77 bf 80 4f 02 bf
       -0.4660828 -0.5913433 -0.9679905 -0.5090256
0000c0 1c a7 62 3d cf f5 db bf f5 2c af bf 7b 95 ff be
       0.05533515 -1.718439 -1.3685595 -0.49918732
0000d0 bb 92 25 bf 7a 1f 63 3d 63 09 f1 be cb c5 16 3e
       -0.6467702 0.05544994 -0.47077474 0.1472389
0000e0 49 3d c3 be 55 7d 76 bf 9a 47 a8 be c0 a1 84 be
       -0.38132694 -0.9628499 -0.32867128 -0.25904655
0000f0 77 8e 1c bf dd ba a2 3d 09 ce 1e c0 6b af 0a bf
       -0.61154884 0.079457976 -2.4813254 -0.54173917
000100 fd 91 ea be fb 97 fa be 55 04 14 be c6 48 7b bf
       -0.45814505 -0.48944077 -0.14454778 -0.9815792
000110 df 22 0e bf 81 dc 8e bd 60 3a 90 be 77 31 6f c0
       -0.5552196 -0.069756515 -0.28169537 -3.737394
000120 b8 6c 11 bf c0 13 71 bf 72 6a ea 3d ec 10 1c 3c
       -0.56806517 -0.9417076 0.11446084 0.009525519
000130 5a b2 1c bf 80 d1 99 be fc 86 09 bd 9f a6 42 bf
       -0.6120964 -0.30042648 -0.033575997 -0.76035494
000140 d1 fd b4 be ce d6 21 bf 6a 68 72 bf 68 36 15 bf
       -0.35349897 -0.6321839 -0.94690573 -0.5828614
000150 05 3e 2d be 42 38 fa bf 50 8f 8d bf d9 9b 80 be
       -0.1691819 -1.9548419 -1.105936 -0.25118902
000160 3a 31 30 bf a5 d1 98 3d bc 27 ea be 9b f1 08 be
       -0.68825114 0.074618615 -0.4573344 -0.13373415
000170 8e d7 12 bf a7 29 51 bf 6d bc 09 be d1 d3 54 bb
       -0.5736016 -0.8170418 -0.13450785 -0.0032474885
000180 20 75 2c bf ce bd 3b be 5b 7e 19 c0 90 4d 24 bf
       -0.6736622 -0.18334123 -2.3983371 -0.6418085
000190 00 1e df be 6e 4d 17 bf c6 31 8b be 61 b2 5b bf
       -0.43577576 -0.59102523 -0.27186412 -0.8581906
0001a0 8c 0a 10 bf 4c de 70 3d c5 75 ff be 50 9d 5f c0
       -0.56266093 0.05880575 -0.4989454 -3.4939766
0001b0 e7 0f 12 bf df a1 7d bf 18 77 b8 bd 3a fd a3 3d
       -0.57055515 -0.9907512 -0.0900709 0.080072835
0001c0 8f 1b c0 be 57 f1 00 bf d5 b3 43 bd 34 73 6e bf
       -0.37521026 -0.50368255 -0.047778923 -0.93144536
0001d0 a1 d1 e9 be 74 2e 22 bf 83 73 81 bf 41 25 d7 be
       -0.45667747 -0.6335213 -1.0113376 -0.4202061
0001e0 65 0f 15 bd af 98 d2 bf 2e 7f 8f bf 2e eb ed be
       -0.036391634 -1.6452845 -1.1210687 -0.4646849
0001f0 04 70 11 bf 16 16 7d bd 3c 79 0f bf ca a6 20 be
       -0.5681155 -0.06178864 -0.56044364 -0.15688625
000200 11 69 b6 be 53 68 81 bf 56 c3 74 be 4d 11 80 be
       -0.35627034 -1.0109962 -0.2390264 -0.250132
000210 70 01 1d bf d1 54 ac 3c 37 3c 21 c0 66 e1 09 bf
       -0.6133032 0.021036537 -2.5193002 -0.53859556
000220 07 46 e6 be 68 6c 15 bf 8f 2a a5 be f1 e8 31 bf
       -0.44975302 -0.5836854 -0.32259032 -0.69496065
000230 8c 87 d6 be 72 a1 31 be d1 69 d3 be be 5a 72 c0
       -0.4190029 -0.17346743 -0.4129167 -3.7867885
000240 6f a9 01 bf 4f ac 72 bf c3 0d 82 bd f5 e4 e6 bc
       -0.5064916 -0.9479417 -0.06350281 -0.028185347
000250 10 e9 b8 be 09 4b f9 be 7b b4 78 3d 7b 07 70 bf
       -0.36115313 -0.4869006 0.060718995 -0.93761414
000260 84 ff 1b bf 88 7a 43 bf fe a9 84 bf 59 77 fa be
       -0.6093676 -0.7635884 -1.0364377 -0.4891918
000270 ce fd 58 be 4d 6e de bf 31 4f 87 bf 0b 65 f6 be
       -0.21190569 -1.7377411 -1.0571042 -0.48123965
000280 4b 51 49 bf c3 ad a7 3d 40 6c 02 bf 05 17 1d 3e
       -0.7863967 0.08187439 -0.50946426 0.15340813
000290 24 dd f2 be 2b 31 55 bf ec 8f 40 be 4d 9f 21 bd
       -0.47434342 -0.8327815 -0.18804902 -0.03945856
0002a0 6d b4 36 bf 5d 23 c1 bd 1b 2b 29 c0 91 df 19 bf
       -0.7136906 -0.09430573 -2.643256 -0.6010676
0002b0 a8 37 03 bf 67 88 a7 be 89 ce 40 be 24 49 58 bf
       -0.512568 -0.32721254 -0.18828787 -0.84486604
0002c0 2c ca ab be 74 eb 85 bb c9 57 fb be ba 76 62 c0
       -0.33552682 -0.004086906 -0.49090412 -3.5384965
0002d0 62 6f d2 be 45 42 78 bf 56 fb cc bd 18 1e 21 be
       -0.41100603 -0.9697612 -0.10008876 -0.15734136
0002e0 80 1f f2 be 05 85 bb be 65 b5 20 be 6f 46 57 bf
       -0.47289658 -0.36624923 -0.15694197 -0.8409185
0002f0 42 1d b8 be d4 55 19 bf 62 8d 50 bf a8 05 00 bf
       -0.35959822 -0.5989659 -0.81465733 -0.5000863
000300 aa 3b 42 be 9d 58 f4 bf ef da a6 bf 46 98 c8 be
       -0.18968073 -1.9089543 -1.3035563 -0.39178675
000310 0e a4 41 bf c7 d6 05 bd 63 6c 0b bf e9 6d 13 3e
       -0.7564095 -0.03267553 -0.5446226 0.14397396
000320 5e 24 f2 be d7 6d 4b bf b1 58 50 be 70 5f c7 bd
       -0.4729337 -0.7946448 -0.20346333 -0.09735
000330 c9 24 2a bf dc 9c 38 3d af fa 09 c0 b4 ef 25 bf
       -0.6646238 0.045071468 -2.1559255 -0.6481888
000340 17 46 bd be 70 01 1d bf ee 03 92 be a3 a7 50 bf
       -0.36967537 -0.6133032 -0.28518623 -0.81505793
000350 19 65 18 bf 54 f1 59 be 50 ff b3 be e1 5e 78 c0
       -0.5952926 -0.21283466 -0.35155725 -3.880791
000360 2a c9 fc be 93 dd 5c bf 50 bb 67 3c da a3 02 be
       -0.49372226 -0.86275595 0.01414378 -0.12757817
000370 c1 cb f3 be d9 86 d8 be f5 ab 1c be aa 38 48 bf
       -0.4761639 -0.4229038 -0.15299971 -0.7821146
000380 d9 5d 17 bf f2 67 18 bf 84 e3 86 bf e2 cc bd be
       -0.59127575 -0.5953361 -1.0538182 -0.37070376
000390 6a ce 50 be 73 12 ed bf ae 53 b6 bf 97 45 d2 be
       -0.2039124 -1.8521255 -1.4244287 -0.41068718
0003a0 ab d0 47 bf 62 88 47 be d3 24 d8 be 56 86 53 bd
       -0.7805278 -0.1948562 -0.42215595 -0.051641785
0003b0 60 13 d3 be e8 31 79 bf 71 be b3 be ab 1a e3 bd
       -0.4122572 -0.97341776 -0.35106233 -0.11089071
0003c0 22 2e 49 bf 60 ef 0b be 11 cf 27 c0 3b ff 0d bf
       -0.7858602 -0.13665533 -2.6220133 -0.55467576
0003d0 dc 34 c1 be 20 63 b9 be 43 0a 44 be cf c9 4c bf
       -0.3773564 -0.3620844 -0.1914454 -0.79995435
0003e0 bc 0d 0f bf b0 1c 3d be e5 63 15 bf 45 fe 63 c0
       -0.5588033 -0.18467975 -0.5835555 -3.5623944
0003f0 31 f7 cb be 5a a4 74 bf 50 bd 35 3d c3 46 f6 bc
       -0.3983703 -0.9556328 0.044369996 -0.030063039

dense3.bias f4 [128]
000000 de fc 4f be 84 a7 31 be 57 b9 bf be f0 bb 9a be
       -0.20311305 -0.17349058 -0.3744609 -0.3022151
000010 e8 31 d4 be cd 61 13 be d2 2e 0f be 70 2c 0a be
       -0.41444325 -0.14392777 -0.13982704 -0.13493514
000020 0b 97 5b bd de 5c bb be 31 55 0f bf 6e 49 41 bf
       -0.053610843 -0.3659429 -0.55989367 -0.7550267
000030 ae 26 b6 be 3d b9 0e bf 54 92 0b 3f 5a fa da 3e
       -0.35576385 -0.557514 0.54520154 0.42769128
000040 09 9e ee 3e 7f 09 c8 3d f6 a3 a5 bc cb 7e 84 3e
       0.46604946 0.09767436 -0.020219784 0.25877985
000050 dd f5 cf be df 44 74 be 5f f5 05 be ed 63 e6 be
       -0.40617266 -0.23854397 -0.13081883 -0.44998112
000060 5e ce a7 be be 27 a3 be 41 b5 8d bd de b1 90 bc
       -0.32774633 -0.31866258 -0.06919337 -0.017662939
000070 7a 24 c8 3d be 22 d7 be b8 62 ab be 37 a8 dd 3e
       0.09772582 -0.42018694 -0.33473754 0.432924
000080 fd 4c 1e 3f 60 45 83 3c 09 92 a8 bd 34 fb be be
       0.61836225 0.016024292 -0.08230979 -0.37301028
000090 f9 11 9b bf 82 67 84 bf 53 f7 a2 3c 0b 4e f5 3e
       -1.211486 -1.0344088 0.019893324 0.47911105
0000a0 6e 64 3e 40 71 60 06 bf ff 86 32 bf 8d fa 63 bf
       2.9748797 -0.5249091 -0.6973724 -0.89054185
0000b0 cd f5 e2 be 6d b1 98 bf 26 5e 80 3e 6b 3f bd 3f
       -0.44328156 -1.1929146 0.2507183 1.4784979
0000c0 08 3b 8f 3f 30 82 e1 bf 7a de 22 3e 07 cf ce 3f
       1.118989 -1.7617855 0.1590518 1.615693
0000d0 e8 b9 77 3f 97 f0 f8 3c 72 6a 26 3f 40 d8 a5 bf
       0.96768045 0.03038816 0.6500617 -1.2956619
0000e0 18 44 1c c0 7a 8c c9 3e 0d cd fc 3e 7f f2 06 40
       -2.441656 0.39364988 0.4937519 2.1085508
0000f0 9e b2 f0 bf e5 65 cc be af bc 9d 3f 2f b0 aa 3f
       -1.880451 -0.3992149 1.2323207 1.3335017
000100 bc f9 2f 40 f8 6a 8e 3f 94 a7 8c bf 04 9a 39 c0
       2.7496176 1.1126394 -1.0988641 -2.9000254
000110 4a cd 86 3d 0c 6e be 3f 49 55 03 40 64 9c fc bf
       0.065821245 1.4877334 2.0520804 -1.9735227
000120 d3 ea bc be a3 2a 05 3f 30 4c 0c 40 8e 4e f0 3e
       -0.36897907 0.52018183 2.19215 0.46934932
000130 7d 2a 78 bf b5 39 6a be c4 e0 15 3e 79 51 71 3f
       -0.9693983 -0.22873576 0.14636523 0.9426494
000140 89 ca c3 be e1 48 b7 be fe 08 88 bf 83 db 35 3f
       -0.3824046 -0.3579779 -1.0627744 0.71038073
000150 ef 17 cd 3f d7 24 1e 3e c8 4b cc 3f 9b bb 0f 3f
       1.6022929 0.15443741 1.5960627 0.5614564
000160 e7 e1 98 3f b8 19 db bf 5d 69 25 3f 4a ba 4e bd
       1.194394 -1.7117224 0.64613897 -0.050470628
000170 02 05 4a c0 2c 90 aa 3f 9b 99 ea 3f ed 95 af bf
       -3.1565557 1.3325248 1.8328127 -1.3717629
000180 32 91 42 3e bc c1 d6 3e 2a 67 0b bf 14 a4 cb bd
       0.190007 0.41944683 -0.5445429 -0.09943405
000190 5d 07 33 3f 50 c9 fa bd 59 94 88 bf 8c 47 78 bf
       0.6993311 -0.122454286 -1.0670272 -0.9698417
0001a0 28 10 c1 bf b1 83 24 bf f2 d1 5d be 29 53 80 be
       -1.5083055 -0.64263445 -0.21662119 -0.25063446
0001b0 be a7 d9 be 6b e5 3c be 2b a0 bd be 40 a6 18 be
       -0.4251079 -0.18446891 -0.3703626 -0.1490717
0001c0 58 6b e3 be bb e1 c0 be 72 58 89 be 61 a6 bd be
       -0.44417834 -0.3767222 -0.2682529 -0.37041
0001d0 20 e9 d8 be 71 4b a6 be d2 ce ea be f5 2e c5 be
       -0.4236536 -0.32479432 -0.45860916 -0.38512388
0001e0 27 a9 0f be 1e a5 9d be 11 22 c0 be 1f 78 75 be
       -0.1402937 -0.30790037 -0.3752599 -0.23971604
0001f0 4d 82 be be 68 64 cd be a0 08 e4 be 79 60 0f c0
       -0.37208787 -0.40115666 -0.4453783 -2.2402632
