Saved Models/I3_ULA_trainable_16_beam_probing_codebook_128_beam_classifier_noiseless.pt (torch, 40423 bytes, 7 tensors)

codebook.theta f4 [64, 16]
0	0x40bc52e9	5.885121
1	0x40478b09	3.117861
2	0x400280de	2.0391154
3	0x3faa3992	1.3298819
4	0x402ef414	2.7336473
5	0x40a92bee	5.2866125
6	0x40dedd93	6.9645476
7	0x3f160866	0.58606565
8	0x40841afe	4.128295
9	0x406e99e4	3.7281427
10	0x3efb18a1	0.49042228
11	0x40a41810	5.1279373
12	0x40c4fc24	6.155779
13	0x3fd3eaee	1.655607
14	0xbe8a89cf	-0.27058265
15	0x406a106e	3.6572528
16	0x3ee1829b	0.44044957
17	0x40174990	2.363865
18	0x4006bfe8	2.105463
19	0x3fc42f0e	1.532686
20	0x4088662b	4.2624717
21	0x403ac323	2.9181602
22	0x3e2b4edf	0.16729306
23	0x40c2755c	6.076826
24	0x40932295	4.5979714
25	0x4040a770	3.0102196
26	0x3f876cfd	1.0580136
27	0x40dc1841	6.8779607
28	0x40e9c936	7.305812
29	0x40c936d8	6.287945
30	0x3feedd8f	1.8661364
31	0x3f9cfd16	1.2264736
32	0x3f8a5c81	1.080948
33	0x40f36efa	7.607297
34	0x3ee35538	0.44400954
35	0x4037703d	2.8662255
36	0x40a9f3ec	5.3110256
37	0x40f55fa3	7.6679244
38	0x3f9154b3	1.1353973
39	0x40c77850	6.2334366
40	0x405c6243	3.4434974
41	0x40d2d563	6.588548
42	0x3fb09d20	1.3797951
43	0x40ecd3e9	7.400868
44	0x405ce35c	3.451377
45	0x404dba45	3.214494
46	0x4039d80c	2.9038115
47	0xbf08bf72	-0.5341712
48	0xbf767f12	-0.96287644
49	0x3ff4a36e	1.9112375
50	0xbf174dab	-0.59102887
51	0xbfc59be0	-1.5438194
52	0x40a77563	5.2330794
53	0x3e9bc940	0.3042698
54	0x4010606c	2.2558851
55	0x400c20ae	2.1894946
56	0x3fd972b4	1.698813
57	0x40a37e7d	5.1091905
58	0x40f7e2e0	7.7464447
59	0x40659e10	3.5877724
60	0x40077059	2.1162322
61	0x40ea3acb	7.319677
62	0x40a6eabe	5.216155
63	0x4065bf7f	3.589813
64	0x3f88238a	1.0635846
65	0x3f96f4fe	1.1793516
66	0x4077290e	3.8618808
67	0x40b1de06	5.5583525
68	0x40410943	3.0161903
69	0x403bd986	2.9351516
70	0x403aeca1	2.9206927
71	0x404b7a77	3.1793497
72	0x3e06ec16	0.13175997
73	0x40908af6	4.516963
74	0x402d8956	2.7115073
75	0x40719986	3.7749953
76	0x40dcb649	6.8972516
77	0xbe85eefb	-0.2615889
78	0x40e1f11a	7.0606813
79	0x402dd69e	2.7162242
80	0x4082e10d	4.089972
81	0x40f4c3ab	7.6488853
82	0x409fe980	4.9972534
83	0x40b6dbb8	5.714321
84	0x3ee54308	0.44777703
85	0x40186743	2.3813026
86	0x3fcde06f	1.6084117
87	0x40001de3	2.0018241
88	0x40660510	3.594059
89	0x40c23a84	6.069643
90	0x4020593b	2.5054462
91	0x40765d81	3.849457
92	0xbf921eb6	-1.1415622
93	0x4030d727	2.7631319
94	0x3fc93d10	1.572176
95	0x40c9b1dd	6.302962
96	0x3f899c72	1.0750868
97	0x3fa3fc30	1.2811337
98	0x4099f355	4.8109536
99	0x40b77512	5.733041
100	0xbf29caab	-0.6632487
101	0x40a1e887	5.0596347
102	0x40da6bec	6.825674
103	0x40130b8e	2.2975802
104	0x40428a82	3.0397038
105	0x40ab5089	5.353581
106	0x3f9d59ce	1.2293031
107	0x402241a4	2.5352564
108	0x3f6cc28a	0.92484343
109	0x4005d72a	2.0912576
110	0xbfa39cb1	-1.2782193
111	0x40a60e1b	5.189222
112	0x3f755b9e	0.9584292
113	0x3ed11a36	0.4084031
114	0x400b6ad5	2.1783955
115	0x409b0b90	4.8451614
116	0x3fea6f96	1.8315303
117	0xbfaf35a8	-1.368825
118	0x40a00f1a	5.0018435
119	0xbf21698c	-0.63051677
120	0x407681fc	3.8516836
121	0x3f9deb39	1.2337409
122	0x3fcc2f07	1.5951852
123	0x40c8eade	6.2786703
124	0x40169794	2.3530016
125	0x4000af0e	2.0106845
126	0x40d9da3a	6.807889
127	0x40d953d6	6.791484
128	0x4098ab6e	4.7709265
129	0x4095745c	4.670454
130	0x3fe12501	1.7589418
131	0x4022ffbf	2.5468595
132	0x402afd70	2.6717186
133	0x408373a8	4.107868
134	0x40b2e806	5.590823
135	0x40cc1643	6.3777175
136	0x40884e95	4.2595925
137	0x3f2299da	0.6351601
138	0x4076fb28	3.8590794
139	0x3d966d3a	0.07345052
140	0x3f8657fc	1.0495601
141	0x40009679	2.0091841
142	0x40b32c9b	5.599195
143	0x40ebbd5f	7.3668666
144	0x4099c9f9	4.805905
145	0x407bcc95	3.9343617
146	0x403a3e7b	2.9100635
147	0x40560f0c	3.3446684
148	0x404da835	3.2133915
149	0x3f8079a9	1.0037128
150	0x40cbfa2e	6.3742895
151	0xbf82b516	-1.0211513
152	0x4092e0db	4.589948
153	0x3fc274a8	1.5191851
154	0x404a05e8	3.1566105
155	0x3fc8ae14	1.5678124
156	0x4028ddd7	2.63854
157	0xbd994f72	-0.07485856
158	0xbfbfefe6	-1.4995086
159	0x3fc67a79	1.5506126
160	0x408006c4	4.000826
161	0x40815d16	4.042613
162	0x40446970	3.0689354
163	0x406a023c	3.6563864
164	0x409769dc	4.7316723
165	0xbd2a6278	-0.041597813
166	0x40453bd7	3.0817773
167	0x40b67d65	5.702807
168	0x4077ec76	3.8738074
169	0x3ffa1cba	1.9540017
170	0x400b3677	2.1751993
171	0x4018fcd5	2.3904316
172	0x40833f26	4.1014585
173	0xbf99a6ef	-1.2004069
174	0x40abc2b3	5.367517
175	0x404a487b	3.1606739
176	0x409bae41	4.865021
177	0x4079b330	3.9015617
178	0x40cef2d6	6.467143
179	0x4087c49d	4.2427506
180	0x401923a2	2.3927999
181	0x40a0a6b4	5.0203495
182	0x4071ba32	3.7769895
183	0x40ba54ca	5.82285
184	0x3f176830	0.5914335
185	0x405084bb	3.2581012
186	0x40ce2f08	6.443241
187	0x40495ced	3.1462967
188	0x3db2b1a2	0.08725287
189	0xbfc2a478	-1.5206442
190	0x40b00c0e	5.5014715
191	0x4004b1f5	2.0733616
192	0x407279b6	3.7886786
193	0x408624ea	4.192006
194	0xbd005672	-0.03133244
195	0x40057157	2.0850427
196	0x3fcff989	1.6248027
197	0x40acc6dc	5.399275
198	0x40aee976	5.4659986
199	0x3f8b573c	1.0885997
200	0x40ba59ef	5.823478
201	0x4062b723	3.5424278
202	0x409e216b	4.9415793
203	0xbe8d5cce	-0.27609867
204	0x3fbb0a37	1.4612492
205	0x40713c52	3.7693067
206	0x406e1124	3.7197962
207	0xbe1f1754	-0.15536243
208	0x402925fe	2.6429439
209	0x4082278f	4.067329
210	0x40951304	4.6585712
211	0x3fa44732	1.2834227
212	0xbfa0dac8	-1.2566767
213	0x3e780463	0.24220423
214	0x40cd660c	6.418707
215	0x3fb41c04	1.407105
216	0xbf85857d	-1.0431362
217	0x40adcc20	5.4311676
218	0x40517582	3.272797
219	0xbed71ca9	-0.42014053
220	0x40af3bf1	5.476067
221	0x40714037	3.7695444
222	0x4085b401	4.178223
223	0xbfd68b06	-1.6761177
224	0xbd791fcb	-0.060821336
225	0x4082a7bb	4.082975
226	0x40a8bb07	5.2728305
227	0x41003c6b	8.0147505
228	0x4098db33	4.7767577
229	0x3ffdea93	1.9837211
230	0x409cb69c	4.897291
231	0x405714a0	3.3606339
232	0x40ade443	5.434114
233	0x40a00f0a	5.001836
234	0x40a466dd	5.1375566
235	0x40c156d6	6.04185
236	0x402ee880	2.7329407
237	0x4097b2ad	4.740561
238	0x40933f87	4.601505
239	0x40537367	3.3039186
240	0x4090db53	4.526773
241	0x4083dfe2	4.1210794
242	0x40b66e23	5.7009444
243	0x409f1f5f	4.9725795
244	0x40e2573a	7.073148
245	0x3feabfb1	1.833975
246	0x4086a30b	4.2074027
247	0x3fd95070	1.6977673
248	0x40862253	4.19169
249	0x3fdc98f3	1.7234176
250	0x406320cd	3.548877
251	0x409a4eb4	4.8221073
252	0x403b3c93	2.9255722
253	0x408320a5	4.097735
254	0x40243aaf	2.5660818
255	0x3f9b5487	1.2135171

dense1.weight f4 [32, 16]
0	0x3fe4a96c	1.7864203
1	0x3e9d0d00	0.3067398
2	0x3feef1df	1.8667563
3	0xc08de2cd	-4.4339356
4	0x400b488a	2.1763024
5	0xbe10304a	-0.14080921
6	0x3dea2cb4	0.11434308
7	0xbf13b6bd	-0.5770071
8	0xc085997f	-4.1749873
9	0x3ff80eed	1.9379555
10	0x400f1851	2.2358592
11	0x3f9a2307	1.204194
12	0xbf5a6d48	-0.85323
13	0x3f1dd183	0.61647815
14	0xc0a1a429	-5.051289
15	0x402d58a3	2.708535
16	0x3f04767d	0.517433
17	0xbfde2662	-1.7355464
18	0x3ed42613	0.41435298
19	0x3fcffda7	1.6249284
20	0xbfd1eff6	-1.6401355
21	0x3f814604	1.0099492
22	0x4037c561	2.871422
23	0xc05c6bda	-3.4440827
24	0x3f05e65f	0.52304643
25	0x3faffd2e	1.3749139
26	0x3fabfec6	1.3437126
27	0x3fb86277	1.4405049
28	0xc0bf6909	-5.9815717
29	0x3f0e41b3	0.55569
30	0xc02ccdcb	-2.7000606
31	0x3f0c39e3	0.5477583
32	0xbf2087f2	-0.62707436
33	0xc04ff5f7	-3.2493875
34	0xc0918d5c	-4.548506
35	0x3fe2eadc	1.7727923
36	0xbc566abb	-0.01308697
37	0xc0e976c7	-7.295749
38	0x4028b1f4	2.6358614
39	0xbfb4b733	-1.4118408
40	0xbed9057f	-0.42387006
41	0x3fa3247d	1.274551
42	0x3fc5ccfd	1.5453182
43	0xbe2d0dad	-0.16899748
44	0x40195d1c	2.396308
45	0xc10bfa8a	-8.748667
46	0xbe92ff60	-0.2871046
47	0x3eddd7b3	0.43328628
48	0x40324f73	2.7860992
49	0x4043c7a7	3.0590608
50	0x3f316fa8	0.69311
51	0xbfe5f2dc	-1.796474
52	0x3fadf058	1.3588972
53	0x3f3f7f04	0.74803185
54	0x400b015c	2.171958
55	0x3f788f9f	0.9709415
56	0x3f884807	1.0646981
57	0x3f1649c8	0.5870633
58	0x3fcc57d6	1.5964305
59	0xbf9e535e	-1.2369192
60	0x3efc674c	0.4929756
61	0xbf302d3c	-0.6881902
62	0xbe1d4ce9	-0.1536137
63	0xc0643faf	-3.566387
64	0x3e014f35	0.12627871
65	0x402535a3	2.5813987
66	0xc03de244	-2.9669352
67	0x3fb9b7cc	1.4509215
68	0xc045488b	-3.0825527
69	0x40043512	2.0657392
70	0xc0314072	-2.7695584
71	0x40103fe2	2.253899
72	0x3f1743a4	0.59087586
73	0xc0bd77ae	-5.9208593
74	0xbfdb3397	-1.7125119
75	0xbfc115fa	-1.5084832
76	0xbe61b369	-0.22041096
77	0x40068868	2.1020756
78	0x40065c58	2.0993862
79	0x4002316a	2.034266
80	0x40445baa	3.0680947
81	0x3ff71203	1.9302372
82	0x3f8442fb	1.0332941
83	0xc0d024c0	-6.504486
84	0xc06ea827	-3.7290132
85	0x3f659084	0.8967364
86	0x3e8a3733	0.2699524
87	0xbf86bb14	-1.0525842
88	0x401005c0	2.250351
89	0x3e428f6c	0.19000024
90	0xc023c04d	-2.558612
91	0x3e0bcbe4	0.13651997
92	0x405117da	3.2670808
93	0x3f8327e2	1.0246546
94	0x3f369d64	0.7133391
95	0x3e0af507	0.13570033
96	0xbd1d22ee	-0.03836339
97	0xc055794a	-3.335528
98	0xc001c8f2	-2.0278897
99	0x3e65363f	0.22383974
100	0x3f781638	0.96908903
101	0x40691588	3.6419392
102	0x4002fdad	2.0467331
103	0x3e4408d2	0.1914399
104	0xc120611a	-10.023706
105	0x3fc7603e	1.5576246
106	0x3f624fe7	0.8840317
107	0x3fbe0f12	1.4848349
108	0x3fa4d32e	1.2876947
109	0x3eaf7efd	0.34276572
110	0x3f43e490	0.76520634
111	0xbff11f95	-1.8837763
112	0xc0124c2a	-2.2858987
113	0x3df284ad	0.11841712
114	0x3f4ef254	0.80838513
115	0xc101933c	-8.098446
116	0x3ecc01f1	0.3984523
117	0x40160c5b	2.344504
118	0xc0121a1e	-2.282844
119	0xbeb36021	-0.35034278
120	0xbf2146bf	-0.62998575
121	0x3f759dff	0.9594421
122	0x401f6b4d	2.4909241
123	0x3fe5c8e3	1.7951931
124	0x3f4c81e8	0.7988572
125	0x3fe85c18	1.8153105
126	0x4055cba9	3.3405554
127	0x3e9b3121	0.3031092
128	0x402ed8ef	2.7319906
129	0xbf9198f8	-1.1374807
130	0x3db00386	0.08594422
131	0xc04130ef	-3.0186117
132	0x3ee66a46	0.45002955
133	0x3faf5f87	1.3701028
134	0xc082e5b6	-4.090541
135	0x402a32e3	2.6593559
136	0x3e9df911	0.30854085
137	0xbf34e87b	-0.7066724
138	0x3f7dad98	0.9909301
139	0x3e91fadb	0.285117
140	0xc0a04311	-5.008187
141	0x406ed161	3.7315295
142	0x407c74f4	3.9446383
143	0xbf0a3d3f	-0.53999704
144	0x3fddf81f	1.7341346
145	0x3f84129c	1.0318179
146	0xbf548f9f	-0.8303165
147	0x3ef9e790	0.4880948
148	0x40273eaa	2.6131997
149	0x40498230	3.148571
150	0xc082d7d3	-4.0888457
151	0x3f91cf44	1.1391377
152	0xbf6805b7	-0.9063372
153	0xc0ed6cdd	-7.419539
154	0xbf51053b	-0.81648606
155	0xc0635ba8	-3.5524693
156	0x3eaeca44	0.3413869
157	0x3f7bff8d	0.98436815
158	0xbfdefe44	-1.7421346
159	0x3f9bd957	1.2175702
160	0xbf24ca59	-0.6437126
161	0x3fbcff92	1.4765494
162	0x3e0400e6	0.12890968
163	0x3f5de6e8	0.8668046
164	0xbe830fa3	-0.25597867
165	0xc04d8669	-3.2113287
166	0x3f050d0b	0.51973027
167	0xbebdd04b	-0.37072977
168	0xbe437920	-0.19089174
169	0xc0093d48	-2.1443653
170	0x40a910eb	5.283315
171	0x3f65d592	0.8977901
172	0x40194af3	2.3951995
173	0x3f5461f1	0.82961947
174	0xbfa5b464	-1.2945676
175	0xbfb35110	-1.4009113
176	0x40967912	4.702279
177	0xbf3dfde6	-0.74215543
178	0xc03409a3	-2.8130882
179	0xbfd2cd4e	-1.6468904
180	0xbe3dc367	-0.18531571
181	0xbf86780e	-1.0505388
182	0x40155f92	2.3339581
183	0x3fa6d0e0	1.3032494
184	0x400e3ab6	2.2223334
185	0xc0abcc4d	-5.368689
186	0xbff5b35d	-1.9195362
187	0x3f693b49	0.91106087
188	0x3e79d2c8	0.24396813
189	0x3e2ef248	0.1708461
190	0xbfb02411	-1.3761007
191	0xc0d2a1f4	-6.5822697
192	0x40df757e	6.9830923
193	0xc15101a4	-13.062901
194	0x3f8e0044	1.1093831
195	0xc031620a	-2.7716088
196	0xbfe9dc33	-1.8270324
197	0xbff64177	-1.9238728
198	0x3fc86dc2	1.5658495
199	0x3eb8bec8	0.36083055
200	0x3f31f807	0.69519085
201	0x3fc46003	1.53418
202	0xbec62cf8	-0.38706183
203	0xbe02d6a3	-0.1277719
204	0xbec0a6c3	-0.3762723
205	0xc0377a5f	-2.866844
206	0xc100950b	-8.036387
207	0xbfa3241a	-1.2745392
208	0xbf401306	-0.7502903
209	0xbf860620	-1.0470619
210	0x403bf3bf	2.936752
211	0x401edd46	2.4822555
212	0x3fe5daa0	1.7957344
213	0xc040c431	-3.0119746
214	0x3f23c49f	0.63971895
215	0x4037712a	2.866282
216	0xc0426cc1	-3.0378878
217	0x3f418c6e	0.75604904
218	0xbeadd587	-0.3395197
219	0x3feedd2f	1.866125
220	0x3ede948e	0.43472713
221	0x3fe8d9e7	1.8191499
222	0x400e6bf5	2.2253392
223	0xc075bae4	-3.839532
224	0xc02548a2	-2.5825582
225	0xc085542b	-4.1665244
226	0xc02feba8	-2.7487583
227	0x3fabc7c2	1.3420336
228	0xc0cbe376	-6.371516
229	0x3ff2bc69	1.8963748
230	0xc020d678	-2.5130901
231	0x3fbef2ae	1.491781
232	0x4077896c	3.8677626
233	0x3f023c64	0.508734
234	0x3fcc9571	1.5983106
235	0x3fd0ca51	1.6311742
236	0x3ea8fbb8	0.33004546
237	0x3f40eea7	0.75364155
238	0x3f6289ee	0.88491714
239	0x3d8585f0	0.06519687
240	0xbf951c55	-1.1649271
241	0x40042622	2.0648274
242	0xbfb265e2	-1.3937342
243	0xbe8d660b	-0.27616915
244	0xc04b87c5	-3.1801617
245	0x3fbfe89f	1.4992865
246	0x3fdf8c59	1.7464706
247	0xbf7d8dc8	-0.99044466
248	0x3f9a3e78	1.2050314
249	0x40454c1d	3.0827706
250	0x3ef907c5	0.4863874
251	0xc131e834	-11.11919
252	0x3f9ae410	1.2100849
253	0xc013c3f1	-2.3088343
254	0xc03745fe	-2.863647
255	0x3fd7ad92	1.6849844

dense1.bias f4 [32]
0	0x3dc6de6b	0.097103916
1	0x3e6fd371	0.23420502
2	0x3e9de44f	0.30838248
3	0x3cc85250	0.024453312
4	0x3e1de4ad	0.15419264
5	0x3e0493d5	0.12947018
6	0x3e6977a3	0.22799544
7	0x3d6f12b1	0.058367435
8	0x3e5f264c	0.21791953
9	0x3e03571f	0.12826203
10	0x3dd5fe8e	0.10448943
11	0x3e949a1a	0.2902382
12	0x3e779cce	0.2418091
13	0x3e479de6	0.19493827
14	0x3e45f8b0	0.19333148
15	0x3e42a527	0.19008313
16	0x3e8dc213	0.2768713
17	0xbe8b0458	-0.27151752
18	0x3e2b8e1c	0.16753429
19	0x3e558ff9	0.20855702
20	0x3dc05ca6	0.09392671
21	0x3e0df8a4	0.1386438
22	0xbe60c757	-0.21951042
23	0x3d90875f	0.0705707
24	0xbfb04438	-1.3770819
25	0x3e3cd82f	0.18441842
26	0x3d21784c	0.039421365
27	0x3e1eb33f	0.15498064
28	0x3e835066	0.25647277
29	0x3eb91368	0.36147618
30	0xbf9c877e	-1.2228849
31	0x3e08c5fa	0.13356772

dense2.weight f4 [48, 32]
0	0xbf016e9b	-0.50559396
1	0xbea551ec	-0.32289064
2	0xbe391f1a	-0.1807827
3	0xbe426bbb	-0.18986408
4	0x3e28e76f	0.16494535
5	0x3e0e0795	0.1387008
6	0xbeba2df4	-0.36363184
7	0xbe58806a	-0.21142736
8	0x3e06d45b	0.13166945
9	0x3ea4a1a9	0.32154587
10	0xbd9c5f5b	-0.07635375
11	0xbef3ea16	-0.4763953
12	0xbd62a054	-0.055328682
13	0xbe9f74c1	-0.31143764
14	0x3e87c0bc	0.26514232
15	0xbe873563	-0.26407918
16	0xbe8db8d3	-0.27680072
17	0x3d917cb2	0.07103862
18	0xbec066eb	-0.3757852
19	0xbd9da053	-0.07696595
20	0xbedef355	-0.43545023
21	0xbf158bde	-0.58416545
22	0xbe2b1a6a	-0.16709295
23	0x3e30ef5a	0.17278805
24	0x3d18dd90	0.037320673
25	0x3e1beaac	0.15226239
26	0xbd7be6d7	-0.061499443
27	0xbd91ca45	-0.07118658
28	0xbe3f10b5	-0.18658717
29	0xbde80940	-0.11329889
30	0xbebfbcb9	-0.3744867
31	0xbe36a9ae	-0.17838165
32	0xbdbbd073	-0.09170618
33	0x3e243e94	0.16039497
34	0x4013020e	2.2970004
35	0xbf45f929	-0.77333313
36	0xbea9e9b6	-0.3318612
37	0xbf9b39d2	-1.212702
38	0x3fadc51a	1.3575776
39	0xbfce8ee5	-1.6137358
40	0xbecec234	-0.4038254
41	0xc06d097d	-3.703704
42	0xbef1a49b	-0.47195897
43	0x3e1e63c2	0.15467742
44	0x3f0604b6	0.5235094
45	0x3c685574	0.01418053
46	0x3f00b10f	0.5027017
47	0xbfb912fa	-1.4458916
48	0xbffd81b4	-1.9805207
49	0x3e0f4e7f	0.13994788
50	0x3f775b0a	0.9662329
51	0xbf05dae2	-0.52287114
52	0x3fc23d91	1.5175039
53	0xbc5c0beb	-0.013430576
54	0x3dd6566a	0.10465701
55	0x3f614e7c	0.8801038
56	0xbfd669f0	-1.675108
57	0x3e8e7815	0.2782599
58	0x3ef045e5	0.46928325
59	0xc07483e4	-3.82055
60	0xbf6c46a7	-0.92295307
61	0x3fe56fb9	1.792472
62	0xbf5c3d6e	-0.86031234
63	0xbeb5d49f	-0.3551378
64	0xbf5ed310	-0.87040806
65	0xbfa2cb81	-1.2718354
66	0x3fd9ce29	1.701604
67	0xc084e02d	-4.152365
68	0x3e949398	0.29018855
69	0xbeaa6af5	-0.33284727
70	0x3fed643c	1.8546214
71	0xbebb477f	-0.36577985
72	0x3ce98aae	0.02850851
73	0xbed0b114	-0.407601
74	0xc00fe793	-2.2485092
75	0x3f9c3e4f	1.2206515
76	0x3fbef1aa	1.49175
77	0xc00a815c	-2.1641455
78	0x401eba09	2.4801047
79	0x3fb1e27c	1.3897243
80	0x3e942986	0.2893793
81	0x3de2825e	0.11060022
82	0x4012752d	2.2884018
83	0xbffa94cd	-1.957666
84	0xbe11a38f	-0.14222549
85	0x3ea11735	0.31463018
86	0xbda28bb7	-0.07936805
87	0x3fa1e679	1.264846
88	0xbf7a8668	-0.9786134
89	0xbe0defcd	-0.13861008
90	0xbebe1d71	-0.37131837
91	0x3f53da57	0.82755035
92	0xc03944f1	-2.8948328
93	0xbf325f1b	-0.6967637
94	0xc007995c	-2.1187353
95	0x400d60ae	2.2090259
96	0x3ef58595	0.47953478
97	0x3dab98b2	0.08378734
98	0x3ea28502	0.31742102
99	0x3e13c7b1	0.14431645
100	0xc026bd90	-2.60532
101	0xbf9cb47c	-1.224258
102	0xbfb44a1e	-1.4085119
103	0xbef0b531	-0.47013238
104	0x4012f993	2.2964828
105	0xc028e55f	-2.6389997
106	0xbf03043a	-0.51178324
107	0xbea3589d	-0.31903544
108	0x3ffb04af	1.9610804
109	0x3f02d161	0.51100737
110	0x3efe2948	0.4964087
111	0x3f240135	0.6406434
112	0xbfe4f6b0	-1.7887783
113	0x3daeb257	0.085301094
114	0xbfee1aee	-1.8601968
115	0x402caabd	2.697921
116	0x3f896bb4	1.0735993
117	0x3facc424	1.3497357
118	0x3e443723	0.19161658
119	0x400aa828	2.1665134
120	0xc00d0d33	-2.2039306
121	0xc0001dae	-2.0018115
122	0xbff556d8	-1.9167128
123	0x3f92bfee	1.1464822
124	0xc0428085	-3.0390942
125	0x3ffd27b8	1.9777746
126	0xc0255ca3	-2.583779
127	0xbf47b329	-0.7800775
128	0x3f883d85	1.0643774
129	0x3d585056	0.05281099
130	0x3fa14fba	1.2602456
131	0x3e9956b5	0.29948965
132	0xc009743c	-2.1477194
133	0xbd5e9a5e	-0.054346435
134	0xbfb6356c	-1.4235053
135	0xbf6d14fb	-0.9261014
136	0xc05a74cf	-3.4133794
137	0x3ecd138e	0.40053982
138	0x3f9a7aae	1.2068689
139	0xbfb49017	-1.4106473
140	0xbccaadc8	-0.024741068
141	0xbf3af84d	-0.73035127
142	0xbf5bfc0e	-0.8593148
143	0x3f6ee2b8	0.93314695
144	0x3ff10608	1.8829966
145	0x3c730978	0.0148338005
146	0xbfa75ab2	-1.3074553
147	0x3f842e34	1.03266
148	0xbefbb975	-0.4916493
149	0x3fd28e2a	1.6449635
150	0x3d95c7ff	0.07313537
151	0xbfdf660a	-1.7453015
152	0xbf06173b	-0.52379197
153	0xbf5c11f8	-0.8596492
154	0x3f26807f	0.6503982
155	0x3e5413ea	0.20710722
156	0x3fc3bcd1	1.5291997
157	0xbf9af6b1	-1.2106534
158	0xbfbc3d71	-1.470625
159	0x3f23942e	0.6389798
160	0xbe77b52b	-0.24190204
161	0xbf21caef	-0.6320028
162	0x3fa17e56	1.261668
163	0xbfd8cd29	-1.693761
164	0xbfc69439	-1.5513984
165	0xbf2f1343	-0.68388766
166	0x3ed6de9e	0.41966718
167	0xbf5ada1d	-0.85489064
168	0x3eba7022	0.36413676
169	0x3f67a87a	0.9049145
170	0x3f881084	1.063004
171	0xbe3c742e	-0.18403694
172	0x3f399ebc	0.72507834
173	0x400c18fc	2.189025
174	0xbf9281cc	-1.1445861
175	0xbfc95d8a	-1.5731671
176	0xc029fdf9	-2.6561263
177	0xbda0c430	-0.0784992
178	0xbee1146f	-0.43960902
179	0x3d2eb54f	0.042653378
180	0x3e957b07	0.29195425
181	0xbef802f9	-0.48439768
182	0xbe2923a3	-0.165175
183	0xbeaa121b	-0.33216938
184	0xc0190420	-2.3908768
185	0xbf48da20	-0.7845783
186	0x3f215dc3	0.63033694
187	0x3fc1c7f0	1.5139141
188	0xbf705a5a	-0.93887866
189	0xbea3bbe4	-0.31979287
190	0xbf4fb3fd	-0.81134015
191	0xbfea50c9	-1.8305904
192	0x3f8ea37e	1.1143644
193	0x3d26725d	0.04063641
194	0xbf93aa38	-1.1536322
195	0xbf512825	-0.8170188
196	0x401c8963	2.4458854
197	0x3f665796	0.89977396
198	0xbf79c29b	-0.9756257
199	0x3eb02b4e	0.3440804
200	0x3e891cc7	0.26779768
201	0x3ff4584f	1.908945
202	0x3d848318	0.06470317
203	0xbf862215	-1.0479151
204	0x3fd248ed	1.6428505
205	0xbf6abf41	-0.9169808
206	0x3ff80096	1.9375179
207	0x3f923640	1.1422806
208	0xbdef1bd0	-0.11675227
209	0x3d06402a	0.032776035
210	0xbf949854	-1.1608987
211	0xbf555db4	-0.83346105
212	0xbf63b981	-0.8895493
213	0xbdcb3d1d	-0.09923766
214	0x3c251ba0	0.010077387
215	0x3fa05da4	1.2528577
216	0xc00b2455	-2.1740925
217	0xbf1a213a	-0.6020695
218	0x3fa45c72	1.2840712
219	0x3efbeac2	0.49202543
220	0x3ed99065	0.42492977
221	0xbf6a71df	-0.91580003
222	0xbfd43383	-1.657822
223	0xbfdb1d1c	-1.7118258
224	0xc01eb884	-2.480012
225	0x3f04f03f	0.51929086
226	0x3ffb287b	1.9621729
227	0x3f3dd524	0.7415335
228	0x3f1ce368	0.61284494
229	0xbe4e6887	-0.20157062
230	0xbfec6010	-1.8466816
231	0xbfa14707	-1.2599801
232	0xbf979986	-1.1843727
233	0xbe818a21	-0.25300696
234	0x3f281990	0.65664005
235	0x3ee941d3	0.45558032
236	0xbf6f8267	-0.93558353
237	0xbf9b24d2	-1.2120612
238	0x3f8c351b	1.0953707
239	0x3f95c5b8	1.1700964
240	0x3fed91de	1.856014
241	0x3db31005	0.0874329
242	0x3f8e8bb9	1.113639
243	0xbd1424f8	-0.03616807
244	0x3e6b2848	0.22964585
245	0x3f60a6b1	0.8775435
246	0xbabe114a	-0.0014501002
247	0x3e78799b	0.24265139
248	0xc04345e2	-3.0511403
249	0x3b73756a	0.0037148842
250	0x3fa60d03	1.2972721
251	0xbded5148	-0.11587769
252	0xbfede089	-1.8584148
253	0xc026ea90	-2.6080666
254	0xbfa5bf46	-1.2948997
255	0x3f9127b0	1.1340237

dense2.bias f4 [48]
0	0xbedac17c	-0.42725742
1	0x3f9df23b	1.2339548
2	0x3e578175	0.21045478
3	0x3f4e0059	0.8046928
4	0x3fa2caa8	1.2718096
5	0x3fdc7e54	1.7226052
6	0x3f049639	0.5179172
7	0x3f5e4eb5	0.8683885
8	0x3f221074	0.63306355
9	0xbe9a01c1	-0.30079463
10	0xbe9d000d	-0.306641
11	0xbd7bff5b	-0.061522823
12	0x3f74ad21	0.95576674
13	0x3fa8f4ef	1.3199748
14	0x3f942e9e	1.1576726
15	0x3f8926d8	1.0714979
16	0x3f3b9121	0.73268324
17	0x3ecb6f2a	0.3973325
18	0x3da449a5	0.08021859
19	0xbe3a7b2e	-0.18211052
20	0x3eebb6af	0.46037814
21	0x3f8280e3	1.0195583
22	0x3f7b3732	0.98131096
23	0x3f18ac97	0.5963835
24	0x3e94e08f	0.29077575
25	0x3f2507c6	0.64464986
26	0x3fb892c2	1.4419787
27	0x3f4840ac	0.7822368
28	0x3f28a3e2	0.65875065
29	0x3e9e47e9	0.30914238
30	0x3fa7e4d8	1.3116713
31	0x3f92821d	1.1445957
32	0x3f6a95c8	0.916348
33	0x3f4c981f	0.7991962
34	0x3f4366f6	0.7632898
35	0x3f04bda9	0.518519
36	0x3f601ef5	0.87547237
37	0xbe69dcc6	-0.22838125
38	0xbf312db8	-0.69210386
39	0x3ebf9cad	0.37424222
40	0xbe67fcf4	-0.22655088
41	0x3fc8d783	1.5690769
42	0x3f309027	0.6896996
43	0x3f903f5e	1.1269338
44	0x3fcd1a3a	1.6023629
45	0x3f9f72cd	1.245691
46	0x3fc9f01e	1.5776403
47	0x3f357056	0.70874536

dense3.weight f4 [128, 48]
0	0xbe2e5045	-0.17022808
1	0xbf96ea6a	-1.1790287
2	0xbf252645	-0.6451152
3	0xbeec25b3	-0.46122512
4	0xc0b88992	-5.7667933
5	0xbff0292b	-1.8762563
6	0xc0553ae7	-3.33172
7	0xbf65a93f	-0.89711374
8	0xbee72d8b	-0.45151934
9	0xbddfc355	-0.109259285
10	0xbdabc53d	-0.083872296
11	0xbda79204	-0.08182147
12	0xbf9096a5	-1.1295973
13	0xbed846f9	-0.42241648
14	0xbf1954b9	-0.598949
15	0xbf63d24f	-0.8899278
16	0xbf4c4a59	-0.79800946
17	0xbf461bd6	-0.77386224
18	0xbfe9f7a8	-1.8278704
19	0xbdaea992	-0.08528437
20	0xbfdb4bb0	-1.7132473
21	0xbebc2465	-0.36746517
22	0xbfbb5e78	-1.4638205
23	0xbf1d7524	-0.6150687
24	0xbf15380e	-0.5828866
25	0xbfd6eeef	-1.6791667
26	0xbfcdcd1c	-1.607822
27	0xbf38c265	-0.7217162
28	0xbeb207bb	-0.34771523
29	0xbe846bdc	-0.2586354
30	0xbfd81ec4	-1.6884389
31	0xbeecf580	-0.46281052
32	0xbf032bd1	-0.51238734
33	0xbf1557f9	-0.5833736
34	0xbf4b0374	-0.79302144
35	0xbfc117a8	-1.5085344
36	0xbf340f40	-0.7033577
37	0x3cff2538	0.031145677
38	0x3c904a44	0.017613538
39	0xbee3a872	-0.4446445
40	0xbf072846	-0.5279583
41	0xbecce7b2	-0.4002052
42	0xbfcf414f	-1.6191806
43	0xbee35a12	-0.44404656
44	0xbf7b8cf0	-0.9826193
45	0xbecf74d1	-0.4051881
46	0xbf9f5c1c	-1.2449985
47	0xbe465546	-0.19368467
48	0xbc080bfa	-0.008303637
49	0xbf82d292	-1.0220511
50	0xbf357c02	-0.70892346
51	0xbee59367	-0.44839022
52	0xc0a6e2d9	-5.2151914
53	0xbff76635	-1.9328066
54	0xc07194ca	-3.7747064
55	0xbf295f07	-0.66160625
56	0xbf09769a	-0.53696597
57	0x3e0c5abe	0.1370649
58	0x3d2fdc54	0.04293473
59	0x3da1fb8c	0.07909307
60	0xbf84d3a4	-1.0377088
61	0xbebc5e69	-0.3679078
62	0xbf2f0acc	-0.6837585
63	0xbf7bf071	-0.9841376
64	0xbf4b0d42	-0.79317105
65	0xbf54eab4	-0.8317063
66	0xbfeb31e1	-1.8374597
67	0x3d1f9e8f	0.038969573
68	0xbfc0ddbf	-1.5067672
69	0xbe971ccf	-0.29514167
70	0xbfb9cd59	-1.4515792
71	0xbf265e38	-0.64987516
72	0xbee35afb	-0.4440535
73	0xbff02b01	-1.8763124
74	0xbfcdad06	-1.6068428
75	0xbf3b4efd	-0.731674
76	0xbefa8319	-0.48928145
77	0xbe9a89c2	-0.30183226
78	0xbfe2bf93	-1.7714714
79	0xbee10be1	-0.43954375
80	0xbed8fa85	-0.4237863
81	0xbf3cbef5	-0.7372888
82	0xbf230eef	-0.6369466
83	0xbfa8129a	-1.3130677
84	0xbf389828	-0.7210717
85	0x3cb1b1cd	0.021691227
86	0xbe4312a0	-0.19050074
87	0xbee546d1	-0.4478059
88	0xbeca4a07	-0.39509603
89	0xbe7820d9	-0.2423128
90	0xbfda94f7	-1.707671
91	0xbe80d38a	-0.25161391
92	0xbf6f5bc8	-0.9349942
93	0xbef92775	-0.48662916
94	0xbf9d37ab	-1.2282614
95	0xbeccbe0f	-0.39988753
96	0x3d994d2f	0.07485425
97	0xbf8cc3f3	-1.0997299
98	0xbf17c113	-0.5927898
99	0xbf0d6421	-0.5523091
100	0xc0b1c454	-5.555216
101	0xbfef647b	-1.8702539
102	0xc065447a	-3.5823045
103	0xbf39ee46	-0.726292
104	0xbee38d11	-0.44443563
105	0x3df693df	0.12039923
106	0x3dd92320	0.10602403
107	0x3c4c2be0	0.0124616325
108	0xbf943995	-1.1580073
109	0xbed06628	-0.4070294
110	0xbf2cd140	-0.6750679
111	0xbf716c39	-0.9430576
112	0xbf2084d3	-0.62702674
113	0xbf40eba8	-0.7535958
114	0xbfdbf7eb	-1.7185034
115	0xbe393adf	-0.18088864
116	0xbfd0f792	-1.6325552
117	0xbf04002c	-0.5156276
118	0xbfbcc4c2	-1.4747546
119	0xbf32a7c5	-0.69787246
120	0xbf0a670e	-0.540635
121	0xbfe5be64	-1.7948728
122	0xbfc7d4b9	-1.5611793
123	0xbf1c15a9	-0.6097055
124	0xbeae8eb8	-0.3409326
125	0xbeaed6aa	-0.3414815
126	0xbfe7a154	-1.8096108
127	0xbedb5fb8	-0.42846465
128	0xbe9b3a1e	-0.30317777
129	0xbf0e7b84	-0.5565722
130	0xbf2ab477	-0.6668162
131	0xbfc7c3aa	-1.5606587
132	0xbf2946cf	-0.6612367
133	0xbd963b66	-0.07335548
134	0xbe4536f3	-0.19259243
135	0xbf15b73e	-0.5848273
136	0xbebc33fc	-0.3675841
137	0xbe730348	-0.2373172
138	0xbfc9535b	-1.5728563
139	0xbeaea9dd	-0.3411397
140	0xbf67f4f1	-0.90608126
141	0xbece1057	-0.4024684
142	0xbf9d740a	-1.2301037
143	0xbec1d541	-0.37858012
144	0x3d8827c9	0.066482134
145	0xbf5d947d	-0.865547
146	0xbf1b3dd8	-0.6064124
147	0xbefc5a12	-0.49287468
148	0xc0b7b681	-5.7410283
149	0xbffb0da9	-1.9613544
150	0xc0688704	-3.6332407
151	0xbf6ad590	-0.9173212
152	0xbeb5ab15	-0.35482088
153	0x3c3d2042	0.011543335
154	0xbc62e70d	-0.013849032
155	0xbe20556d	-0.15657587
156	0xbf95458f	-1.1661853
157	0xbe9320fa	-0.28736097
158	0xbf096829	-0.5367456
159	0xbf5c154c	-0.85969996
160	0xbf29ad16	-0.66279733
161	0xbf2b08df	-0.6681041
162	0xbfd079cb	-1.6287168
163	0xbdf0f6cc	-0.11765823
164	0xbfc841d5	-1.564509
165	0xbeecc2e0	-0.46242428
166	0xbfc98ac2	-1.574547
167	0xbf1c060c	-0.60946727
168	0xbf0c1c90	-0.5473108
169	0xbfd9a126	-1.7002304
170	0xbfd0a61b	-1.6300691
171	0xbf3407c8	-0.70324373
172	0xbea16f79	-0.3153036
173	0xbebf05a6	-0.37308997
174	0xbfdc2c45	-1.720101
175	0xbf199636	-0.5999483
176	0xbf080df1	-0.5314627
177	0xbf4782c1	-0.7793389
178	0xbf0a7ae9	-0.54093796
179	0xbfac9f32	-1.3486083
180	0xbf42b0ad	-0.76050836
181	0xbc708b3c	-0.014681634
182	0xbd9d44b4	-0.0767912
183	0xbf15b727	-0.58482593
184	0xbea94740	-0.33062172
185	0xbea8b9bc	-0.32954204
186	0xbfd3f96d	-1.6560494
187	0xbeaaad38	-0.3333528
188	0xbf919dcb	-1.137628
189	0xbee3ac6e	-0.4446749
190	0xbfb0b651	-1.3805639
191	0xbea16fa4	-0.31530488
192	0xbe310dd0	-0.17290425
193	0xbf7de9bb	-0.9918477
194	0xbf0db001	-0.55346686
195	0xbea02039	-0.31274584
196	0xc0b6da16	-5.714122
197	0xc003959e	-2.056007
198	0xc0691b0d	-3.642276
199	0xbf782b6f	-0.96941274
200	0xbf05c3a8	-0.5225167
201	0x3caec368	0.021333411
202	0xbdcb8b31	-0.09938658
203	0x3d4ee666	0.050512694
204	0xbf9a4faf	-1.2055568
205	0xbee66a17	-0.45002815
206	0xbf046996	-0.5172361
207	0xbf4e96af	-0.80698675
208	0xbf3f4997	-0.74721664
209	0xbf46e6e6	-0.77696073
210	0xbfe8e66b	-1.8195318
211	0x3d281030	0.041031063
212	0xbfd45a11	-1.6589986
213	0xbeae1216	-0.33998173
214	0xbfaeac0f	-1.3646258
215	0xbf5a3a6f	-0.8524541
216	0xbecf2c87	-0.4046366
217	0xbfd56c23	-1.6673626
218	0xbfbef39b	-1.4918092
219	0xbf2e30e4	-0.6804335
220	0xbec606ed	-0.3867716
221	0xbec41825	-0.3829967
222	0xbfd94cfa	-1.6976616
223	0xbf094771	-0.53624636
224	0xbe8d0aef	-0.27547404
225	0xbf39b835	-0.725467
226	0xbf301081	-0.6877518
227	0xbfbff9cd	-1.4998108
228	0xbf343d03	-0.70405596
229	0xbdf313d5	-0.11869017
230	0xbe60b81f	-0.21945237
231	0xbf185221	-0.5950032
232	0xbed77b46	-0.42086238
233	0xbe831afc	-0.25606525
234	0xbfcacaf9	-1.5843192
235	0xbebc285f	-0.3674955
236	0xbf8a5bc0	-1.080925
237	0xbefaaade	-0.48958486
238	0xbf9a6518	-1.2062101
239	0xbea96005	-0.3308107
240	0xbd4c1e8a	-0.04983381
241	0xbf6f05d5	-0.93368274
242	0xbf3494ff	-0.7053985
243	0xbe9d2c23	-0.30697736
244	0xc0bdac93	-5.927316
245	0xc005782b	-2.0854595
246	0xc06572d2	-3.585133
247	0xbf2ecd60	-0.6828213
248	0xbf019b4a	-0.5062758
249	0x3b0cffbe	0.002151474
250	0xbc6754d6	-0.014119348
251	0xbbf51a4a	-0.0074799405
252	0xbf8b7635	-1.0895449
253	0xbebf6f8e	-0.37389797
254	0xbf28b38a	-0.65898955
255	0xbf640d41	-0.89082724

dense3.bias f4 [128]
0	0xbf1e09ae	-0.6173352
1	0xbf1760f7	-0.5913233
2	0xbf4028aa	-0.7506205
3	0xbf1be5f4	-0.60897756
4	0xbf2398f7	-0.6390528
5	0xbf0e04d3	-0.5547611
6	0xbf1a89ae	-0.6036633
7	0xbf210538	-0.6289859
8	0xbf315f1e	-0.6928576
9	0x3e7962a8	0.2435404
10	0xbe8bb57c	-0.272869
11	0xbe669485	-0.22517593
12	0xbf0c0320	-0.5469227
13	0x3f1617af	0.5862989
14	0x3e348b11	0.17631175
15	0xbd8dade1	-0.069179304
16	0xbdb7141f	-0.08939385
17	0x3e512671	0.2042482
18	0x3f1299e2	0.57266057
19	0x3f60ac69	0.8776308
20	0xbf26f532	-0.6521789
21	0xbf0989af	-0.53725713
22	0xbf136e27	-0.57589954
23	0xbf353456	-0.70782983
24	0xbf3403e4	-0.70318437
25	0xbe9c314f	-0.3050637
26	0x3e944d5a	0.28965265
27	0x3f35556d	0.70833474
28	0x3f09a2b4	0.5376389
29	0xbe9143c9	-0.28372028
30	0xbd9385eb	-0.07203277
31	0x3f85c417	1.0450467
32	0xbebd82c3	-0.37013826
33	0x3ecee720	0.4041071
34	0x3f261468	0.6487489
35	0x3ff4dfd4	1.9130807
36	0xbcd148a5	-0.025547335
37	0x3f9cc60a	1.2247937
38	0x3f4a5079	0.7902904
39	0xbe7f2790	-0.24917436
40	0x40046158	2.0684414
41	0xbe02b94b	-0.12765996
42	0x3f4f87d3	0.81066626
43	0x3fecf903	1.8513492
44	0xbef5c4b7	-0.48001644
45	0xbe8f4cbb	-0.27988228
46	0xbfa4906d	-1.2856575
47	0x4052996e	3.2906146
48	0xbf14ad74	-0.5807717
49	0xbfc635b1	-1.5485135
50	0x3eba256b	0.36356673
51	0xbe9f85be	-0.31156725
52	0xbf50c810	-0.8155527
53	0xbf85ccb5	-1.0453097
54	0xbf8c94f2	-1.0982955
55	0x3f6b3089	0.91870934
56	0xbedfa6b8	-0.43681884
57	0x3f93481f	1.1506385
58	0x3fceb2b1	1.6148282
59	0x3fb28975	1.3948199
60	0xbe618c5d	-0.220262
61	0x3ffb593c	1.9636607
62	0xbfebd9c5	-1.8425833
63	0x3ed8650c	0.42264593
64	0x3e61687d	0.22012515
65	0x3ec0035c	0.37502563
66	0xbf8ccd5f	-1.1000174
67	0xbf2b243d	-0.6685217
68	0xbfb87040	-1.4409256
69	0xbe0ed08c	-0.13946742
70	0x3ee2cf2c	0.44298685
71	0x3fa32e58	1.2748518
72	0xbfa9a1a1	-1.325245
73	0x3e0d44de	0.13795802
74	0xbec79fae	-0.38989013
75	0xbeec37e8	-0.46136403
76	0x3f569dca	0.83834517
77	0xbfaf0c60	-1.3675652
78	0xbf11b2b0	-0.5691328
79	0x3f267e28	0.6503625
80	0x40261dfe	2.5955806
81	0xbf92b739	-1.1462165
82	0x3ec5ad39	0.3860872
83	0x40133c72	2.3005643
84	0x3f90e3ad	1.1319481
85	0x3fd5da17	1.6707181
86	0x4015f7c0	2.3432465
87	0x3f445477	0.76691383
88	0x3ed27bd4	0.41110098
89	0x3d57dca8	0.05270067
90	0x3f1de5a3	0.6167852
91	0x3eece18f	0.46265838
92	0x3df638ab	0.12022527
93	0xc0164f1c	-2.3485785
94	0x3fe5ea18	1.7962065
95	0x40914193	4.5392547
96	0xc025878c	-2.5863981
97	0xbd530598	-0.051519006
98	0xbfa0c2ad	-1.255941
99	0xbf1646cc	-0.5870178
100	0xbedd3943	-0.4320775
101	0xbf832d95	-1.0248286
102	0xbf0be8b2	-0.5465194
103	0xbeeb5290	-0.45961428
104	0xbff4d260	-1.9126701
105	0xbf0153ca	-0.50518477
106	0xbf0f9fe4	-0.5610335
107	0xbf2eb918	-0.6825118
108	0xbf19a10e	-0.60011375
109	0xbf3f0e53	-0.7463123
110	0xbf0f8070	-0.56055355
111	0xbf1effb2	-0.6210891
112	0xbf217157	-0.6306357
113	0xbf308f4f	-0.6896867
114	0xbf0f9ac5	-0.56095535
115	0xbf02f164	-0.5114958
116	0xbf37ea88	-0.7184224
117	0xbf032238	-0.5122409
118	0xbf0b7b75	-0.54485255
119	0xbf1c9e4e	-0.61179054
120	0xbf0e311b	-0.5554368
121	0xbf3805db	-0.71883935
122	0xbf0bba10	-0.54580784
123	0xbf0f59c9	-0.55996376
124	0xbf3e59ad	-0.74355584
125	0xbf18655e	-0.59529674
126	0xbf452a4e	-0.77017677
127	0x400ec3f5	2.2307103
