Saved Models/O28_ULA_trainable_16_beam_probing_codebook_128_beam_classifier_noise_-94_dBm.pt (torch, 40423 bytes, 7 tensors)

codebook.theta f4 [64, 16]
00000000: 8b5a 303f 081e 4440 4fe3 0f40 4284 bd40
00000010: f3db 8f40 916b 1140 2bef a440 9e31 9340
00000020: 43f2 9940 071a a140 38d2 51be 41df df3f
00000030: a779 c640 5279 b740 797d 8540 ba7f b6bf
00000040: 2970 8240 1398 1fbf eaf3 3340 1265 ec3f
00000050: ebc0 0540 c047 ebbd a4d3 7fbf 6687 9d40
00000060: 72b3 4640 afc0 cc3e f9d1 ee3f 9e7e 7d3f
00000070: 89b8 e640 d2bb dd3f 4b98 5540 b7f2 8340
00000080: 5968 993f e474 ab40 04f2 7640 4aec be40
00000090: 5884 783f 3f08 ec3f 2d2d ad40 86e7 4540
000000a0: 5f16 2640 672d 1f40 a3fb 7540 8b38 9f40
000000b0: abd2 3e40 e935 1240 b697 5840 86f7 9e40
000000c0: 9369 2340 9339 ad40 593c 8540 acfd 4140
000000d0: f86a 3240 df55 9f40 5fc3 5a40 0eff 763f
000000e0: c1fb 8a40 bf0e ed3d a7b0 be40 6d0b ed40
000000f0: 4226 3840 4763 6140 703a 25bf 2b77 9140
00000100: e938 7540 8e6a 8540 325c fe3f 864f 1740
00000110: 242d aa3f 8896 133f c773 0f40 53a8 0140
00000120: 9f69 9a40 9d08 9640 4ec1 4c40 0b46 7840
00000130: e58f a23f 66cd ad40 e316 17c0 7537 303f
00000140: 3e2d bf40 9e83 1d3e d54e 0640 2813 b6be
00000150: c33f 4640 42fb a03f f2bf 573f 6997 2340
00000160: 3f54 7040 4e35 893f bbb0 b140 e008 b840
00000170: e8a4 8d3b 8f72 843f 6835 bc40 dca5 9dbe
00000180: 9baa 023f 6bfe 0d40 fd25 8040 5696 6440
00000190: 5441 9a40 7963 7240 8fc1 ab3f 8495 9f40
000001a0: 980a 9340 de24 b73f c2b1 6440 5e82 4c40
000001b0: 09ba 6440 a215 c940 0d24 f73f 8aad 4140
000001c0: ba11 9040 1ed1 4c40 35d6 da40 75d7 8140
000001d0: a427 7a3f a177 8e40 506d 7940 49c8 a040
000001e0: 3040 833f 6b6f d63f dca8 9f40 23ce a640
000001f0: db86 9e40 bffc 7040 c0ee b640 383e 11bf
00000200: f6cd 3440 a7b6 473e a7d5 0a40 70ed b540
00000210: 784c ef3f 044b 0241 a9b6 833f 216a 4140
00000220: 8e6d 0a40 b19e 8a40 8fd9 1340 351d 2a40
00000230: 2ed5 7140 0ec2 cd3f ba8f 8140 b89d 373f
00000240: d108 d93f 126b bf3f dac2 893f 4ab4 a340
00000250: 1f94 8d40 e340 9840 aafa 2d40 1736 53be
00000260: 2e60 e33f 20b8 b940 a9f2 8740 7348 5740
00000270: 4682 473f 4d7e 5240 8d96 a840 5f0f 95bd
00000280: d1fb 8a40 a7f1 4340 e9f7 3740 bc22 0d40
00000290: ff1c 5f40 39d4 19bf 304e bb40 3e12 d03f
000002a0: 60dd 7940 b766 0c40 945b ab40 db03 b940
000002b0: 582a 89bf 8902 9140 f44a ab40 4bed 1c40
000002c0: b4ba 5440 111f 7f3e 0a2b 3140 5312 5a40
000002d0: 1bbf 3a40 4ece b240 f5db 7140 05ae 843f
000002e0: 37dd 123f 84be 8340 faad 693f ccfd 8940
000002f0: 75b8 e83f bf0e a440 f6c6 1b40 7a79 3f40
00000300: eb60 8e40 76f7 4740 40a4 6040 17db 9b40
00000310: 229a 033f 204d a63f 1841 cd40 c634 da40
00000320: ef32 92bf 3384 9040 7f5a 8d40 1430 41bd
00000330: 762c 2940 4032 6240 2fe3 2940 5502 dc3f
00000340: 61b9 6140 10d7 9340 e17c b240 48c4 b740
00000350: 58eb be40 2a70 9c40 ff24 a940 a9dd 0040
00000360: dd2a 173f 1d2b 4740 d8dd 1cbf 514f 4d40
00000370: d106 3340 fbb4 ca3f 3c75 0940 44a7 b840
00000380: 5008 3040 26fd 563e 4021 b63f d333 af40
00000390: 4b15 cf40 ef50 563f ac4a 8340 d68b a63f
000003a0: 8035 a23e 1b67 8140 bde1 8040 8ed9 fe3e
000003b0: 4cf9 8540 a667 7a40 11cc 33bf 2976 12bf
000003c0: 259b f93f f0cd a53f d51d 463f 14b2 3540
000003d0: c8ec 3c40 17e9 1540 2d93 ba3f 2ec3 d340
000003e0: 8f62 973e 8a12 d340 a591 9840 f704 81be
000003f0: 09e0 8840 4953 833f f5d3 5140 b4d6 f13f
0.6888816 3.064333 2.2482488 5.9223948 4.4955993 2.2721903 5.1541953 4.599807
4.810823 5.034427 -0.20490348 1.7490007 6.20235 5.7335596 4.1715665 -1.4257729
4.0761914 -0.6234142 2.8117623 1.8468344 2.0898998 -0.114882946 -0.9993231 4.922778
3.1047025 0.39990756 1.8657829 0.9902133 7.2100263 1.7322943 3.3374202 4.1233783
1.1984969 5.358019 3.8585215 5.966344 0.9707694 1.8440017 5.4117646 3.092256
2.5951154 2.4871461 3.8434837 4.975652 2.9816082 2.2845404 3.3842597 4.9677153
2.5533187 5.413278 4.1636167 3.031108 2.7877789 4.9792323 3.4181745 0.9648293
4.3432317 0.11575078 5.959064 7.4076447 2.877335 3.5216844 -0.64542294 4.545797
3.8315985 4.169257 1.9871886 2.3642287 1.3295026 0.5765157 2.2414415 2.0258987
4.825393 4.6885514 3.1992984 3.879275 1.2700163 5.431323 -2.360772 0.6883462
5.9742727 0.15382239 2.0985615 -0.3556149 3.0976417 1.2576678 0.8427726 2.5561163
3.755142 1.0719392 5.5528235 5.7510834 0.004322637 1.034746 5.8815193 -0.30790603
0.51041573 2.2186534 4.0046372 3.5716758 4.8204746 3.7873213 1.3418444 4.9870014
4.595043 1.4308126 3.5733495 3.195457 3.5738547 6.2838907 1.9307877 3.026217
4.502164 3.2002635 6.8386483 4.057551 0.97716737 4.452103 3.897297 5.024449
1.0253963 1.6752752 4.9893627 5.212663 4.953962 3.7654264 5.7166443 -0.56735563
2.8250709 0.1950327 2.1692903 5.685234 1.8695211 8.143314 1.0290118 3.0221026
2.1629367 4.3318715 2.3101537 2.6580327 3.7786365 1.6074846 4.0487947 0.71725035
1.6955816 1.495455 1.0762589 5.115758 4.424331 4.7579207 2.7184243 -0.20626102
1.7763727 5.803726 4.2483716 3.363797 0.77933156 3.2889588 5.268378 -0.072783224
4.3432393 3.0616243 2.8745062 2.205245 3.4861448 -0.6008945 5.8532944 1.6255567
3.9041367 2.1937692 5.354929 5.7817206 -1.0716047 4.5315595 5.3528996 2.4519832
3.3238955 0.24914195 2.768252 3.4073684 2.9179142 5.5876837 3.77905 1.0365607
0.573688 4.1170063 0.9128109 4.312231 1.8181292 5.1268 2.4340186 2.9917893
4.449331 3.1244788 3.510025 4.8704944 0.51407063 1.2992287 6.414196 6.818942
-1.1421794 4.5161376 4.417297 -0.04716499 2.6433387 3.534317 2.6544912 1.7188212
3.5269396 4.6200027 5.577744 5.74271 5.9662285 4.888692 5.285766 2.013529
0.5904978 3.1120064 -0.61276007 3.207966 2.797291 1.5836481 2.1477804 5.770418
2.7505074 0.20995006 1.4228897 5.475076 6.4713492 0.83717245 4.102865 1.3011425
0.31681442 4.043836 4.027556 0.49775356 4.1866817 3.9125762 -0.70233256 -0.5721155
1.9500471 1.2953472 0.7738927 2.838994 2.951952 2.3423517 1.4576164 6.6175756
0.29567382 6.596013 4.767779 -0.251991 4.277348 1.0259792 3.2785618 1.8893647

dense1.weight f4 [32, 16]
00000000: a3d1 313c 33ff 11be 2db5 ddbd c8db a2be
00000010: 6e39 f73d ef58 b43d 64ac f93d e4bf a4be
00000020: 3039 a2be d2d1 b6bd cd56 1bbe 4eb5 60be
00000030: f45f 983d a592 30be 64e0 75be 5ecf 833c
00000040: 8092 b33f 1d78 48be 4369 dfbe b4df e23f
00000050: 6122 c7bf 126e 1540 cdd8 483f 7a65 8a3f
00000060: 9374 b63f 6eda 97c0 1857 7b3d 0edb 10c0
00000070: 0cc8 5fbf ae9a bf3e 7c41 a93f 3891 17c0
00000080: 53af d93e 8ebb 923f 3e66 483f 2d77 713f
00000090: 2d2f f7bf 2870 11c0 c89d 893f 8b6e 803f
000000a0: 3798 94c0 235c 2bbf ea25 463f fa45 e83e
000000b0: bb88 373e 0924 ac3e ecc0 d03e 1ede 753f
000000c0: 68c2 32bf 722f 81bf b024 ba3f a249 0a3d
000000d0: e81c 863d ac82 efbd cf26 b4be 9f60 cf3f
000000e0: 30ba e43e 239d 21c0 934e 553f 2777 153f
000000f0: 9a4b 8e3f 00f1 ebbf 1490 5540 d72b 983f
00000100: 4167 a0bf 55ad 0240 7d47 ffbe 6b27 eb3c
00000110: 755d 023f a072 c43f 79bf 743f 67e7 85bf
00000120: f201 b2bf ee16 713f 4841 19bf 8990 2ac0
00000130: 3887 6f3f 6e13 38bf 3aa6 4cc0 aab4 e13f
00000140: aa2f 54c0 1dd1 db3f 508f 8b3f 013c 03bf
00000150: 21d2 0e3e e4d8 84be b0a5 70be 1f12 b2bf
00000160: d6ce 1840 8c5f a43f c4d0 61be 01c7 203f
00000170: b4b1 67c0 1b47 15be dd74 ca3f 562e 853f
00000180: 7678 513f 4d8d 713f 4a23 84bf 6ab3 883e
00000190: ab42 963e e2f4 083f 4c28 fdbe 2912 573f
000001a0: 69a9 a8bf 491d 19c0 5651 8cbe b4b0 5dc0
000001b0: cb63 0640 1c77 e43f cfa1 883f 17e0 8a3f
000001c0: d493 8a3e 14fa df3f ebf4 16bf a193 293f
000001d0: 70d2 bb3e 2625 c73f d229 853f 92fd a43f
000001e0: 0889 af3e 0db0 1fbf 9f46 23c0 c474 e5be
000001f0: 6377 79bf a1af 63bf 09ea 8a3d 49fa 973f
00000200: 9e4d 90be a173 efbf fcad 363f 88c4 f8bf
00000210: c3b5 3cbe dfc3 78c0 b66a 19c0 e516 543f
00000220: 1cdf 273d 4c2b 33bd 8b47 383f 8e6c 923f
00000230: 7a73 dd3f 60e6 793f e899 ee3e 7855 9b3f
00000240: 7d8f e13e b0b3 a0c0 2be5 f43e 384d 25bf
00000250: 1729 10c0 23c7 5bc0 9f9b 823f d943 4e3f
00000260: 3134 a23f 8f3b 0a3f 2e89 db3f 9a11 c53f
00000270: c76f dcbe 81b3 c7be b424 21c0 bcd2 c8bc
00000280: 9346 1040 cc41 5b3f 234d 1cc0 8b0d ef3e
00000290: a361 b8be d538 b4be 8b31 88bd bf9b e5be
000002a0: c6f4 183f d31e 433f 65be a63e cf2d 54bf
000002b0: c8b1 453f a232 abbf e8bd c03f 1ed8 80bf
000002c0: 748e 85c0 e923 06bf f8f6 063f 15f4 4d3f
000002d0: 9fae 52bf 919d 5ebf 7196 8a3f 323e b83c
000002e0: ebbf d43f 91c7 49bf f70e a43f 470e 95bf
000002f0: 9edf 8f3e 0fdd 4d3f a691 953f 60b8 a93e
00000300: 4bc3 923f 4995 f3be 151a cb3d 8d00 80bf
00000310: 1a4e 8e3f 1758 37bf 5e94 d63f f2a2 fe3e
00000320: 0b5e b33f 1fd5 c6be 1b4c 54c0 1a02 ad3f
00000330: eb21 30c0 0cf8 57c0 654a d93f 2f19 22bf
00000340: ef7e e33f 1bea efbf edc4 2b3f 9b68 1340
00000350: 293a e03f b1a1 89bf a83f afbf d438 5f3e
00000360: 6cfd 703f c082 cfbf 19c9 3fbf b5a0 5a3f
00000370: 0fbe 0abf 7833 ee3c 8e43 883f 798c 88c0
00000380: 0c7a b53f d858 66bd 3772 893e 6481 3fc0
00000390: e45f b0be 28e9 923f 74f8 97c0 3ede 593f
000003a0: b4ce 173f fe5b 07c0 071f b03f c312 2540
000003b0: bf12 16be dfca 14bf 2cda afbf 758a 96be
000003c0: 3ab0 72c0 da08 13c0 2e3a 0d3f b255 20be
000003d0: f751 c63f eb9e f33f d3f1 f5bf a9fa c53f
000003e0: f552 f43f 7bff 09c0 d6d0 c7bf 3de4 3d3e
000003f0: 9613 3d3f e67d 6a3f 3dd8 dd3d 8dfd f93f
0.010853204 -0.14257507 -0.10825572 -0.31808305 0.12071501 0.08806025 0.12191084 -0.3217765
-0.31684256 -0.08926739 -0.1516983 -0.21944162 0.074401766 -0.1724344 -0.2401138 0.016090091
1.4029083 -0.1957707 -0.43634996 1.7724519 -1.5557367 2.3348432 0.7845581 1.0812218
1.4254326 -4.745414 0.061362356 -2.26337 -0.8741462 0.374227 1.3223109 -2.3682384
0.42516574 1.1463487 0.7828101 0.9432247 -1.9311272 -2.2724705 1.0751276 1.0033735
-4.643581 -0.66937464 0.774016 0.45365888 0.17923252 0.33621243 0.40772188 0.9604205
-0.6982789 -1.0092604 1.4542446 0.033761628 0.06548482 -0.116948456 -0.3518586 1.6201361
0.446733 -2.5252159 0.8332302 0.5838494 1.1116822 -1.8432922 3.3369188 1.1888379
-1.253151 2.0418293 -0.4985923 0.02870532 0.50923854 1.5347481 0.95604664 -1.0461243
-1.3906844 0.9417561 -0.59865236 -2.6650717 0.935657 -0.7190465 -3.1976457 1.7633259
-3.3154092 1.7173191 1.090311 -0.51263434 0.13947345 -0.25946724 -0.23500705 -1.391178
2.3876243 1.2841659 -0.22052294 0.62803656 -3.6202211 -0.14577906 1.5816914 1.0404766
0.81824434 0.9435623 -1.0323269 0.26699382 0.2934774 0.5349866 -0.49444807 0.84012085
-1.31767 -2.3924124 -0.27405804 -3.46391 2.0998409 1.7848849 1.067438 1.0849637
0.2706591 1.7498193 -0.58967465 0.6624089 0.3668399 1.5558212 1.0403388 1.2889884
0.34284234 -0.6237801 -2.5511854 -0.44815648 -0.97447795 -0.88939863 0.0678292 1.1873256
-0.28184217 -1.8707162 0.7135923 -1.9434977 -0.18428712 -3.886955 -2.397138 0.82847434
0.040984258 -0.043742463 0.71984166 1.1439378 1.7300866 0.9761715 0.46601796 1.2135458
0.44054785 -5.0219345 0.4783109 -0.6457095 -2.252508 -3.4340293 1.0203742 0.8057228
1.2672178 0.5399713 1.7151239 1.5395997 -0.4305403 -0.39004138 -2.5178652 -0.024514548
2.2543075 0.85647273 -2.442208 0.4669002 -0.3601199 -0.3519961 -0.066500746 -0.44845387
0.59748495 0.7621891 0.32567134 -0.828824 0.772244 -1.3374827 1.5057955 -1.0065954
-4.1736393 -0.52398545 0.52720594 0.80450565 -0.822977 -0.8695918 1.0827161 0.022490595
1.6621069 -0.7882014 1.2817067 -1.1644982 0.28100294 0.80415434 1.1685073 0.3314848
1.1465849 -0.47574833 0.09917084 -1.0000168 1.1117585 -0.7161879 1.6764028 0.49733692
1.4013075 -0.38834473 -3.317145 1.3516266 -2.7520702 -3.3745146 1.6975828 -0.6331968
1.7773112 -1.8743318 0.6709736 2.3032596 1.7517749 -1.0752469 -1.3691301 0.21799022
0.9413669 -1.6211777 -0.74916226 0.8540147 -0.54196256 0.029077277 1.0645616 -4.2671475
1.4177871 -0.05623707 0.26844952 -2.9922724 -0.3444816 1.1477404 -4.7490788 0.8510474
0.5929978 -2.1149898 1.3759469 2.5792701 -0.14655589 -0.58122057 -1.3738456 -0.2940251
-3.792006 -2.2974153 0.551669 -0.1565769 1.5493764 1.9032873 -1.9214424 1.546712
1.9087816 -2.1562183 -1.5610607 0.18544097 0.7385801 0.91598356 0.1083226 1.9530503

dense1.bias f4 [32]
00000000: 43d1 60be 98a2 123e 7deb 343e 54b3 493d
00000010: 24ad d93e 74cc 843e d75f 973e b27d 4b3d
00000020: eb19 b43e b528 8f3e c83b f83d 2c25 8f3e
00000030: 9168 893e 4049 013e 9425 1d3e 97c3 1e3e
00000040: f6a1 773e 1a4f 713e aa37 6a3e d549 e63d
00000050: 2790 b03d 23ef df3d a8df b73e 626a 823e
00000060: 13c9 fd3d be81 ad3e 38fc ad3e 201d 703e
00000070: 29e0 013e c394 b03e 2233 383e 7831 393e
-0.21954827 0.14319837 0.17667957 0.049243286 0.42514908 0.25937235 0.29565307 0.04968042
0.35176024 0.27960745 0.12120777 0.27958047 0.2683759 0.12625599 0.15346366 0.15504299
0.24182877 0.23565331 0.22872797 0.11244551 0.08621245 0.109342836 0.35912824 0.2547179
0.123918675 0.33888048 0.3398149 0.2344861 0.12683167 0.34488496 0.17988256 0.18085277

dense2.weight f4 [48, 32]
00000000: 7f53 47be bfa9 953f fbe8 15c0 f843 e1bf
00000010: 45c9 c73f 1bcb e03f 35f8 8fbf 2bca 293f
00000020: 16a8 b8bf 4a10 5a3f a58f ddbe 9535 26bf
00000030: f61e d03f 8ed1 04c0 085d 243e 2fda 3a3e
00000040: b1e5 e6be 7f09 153f 3595 99bf b3ef 87bf
00000050: 8d1f 513f 72d9 35be fac0 583f ccf8 903e
00000060: 39bd 86be 8094 4fbf d927 1c3f 5f1b 8bbf
00000070: 6b6a e5bf 5d33 d23e c000 a6bf 70f4 943f
00000080: 0c1a 20be 2b8f 88bc 85d5 c53d c240 92bd
00000090: afd7 a93d 5343 fb3d fb8b b13c 60ff 2cbe
000000a0: 1e82 a4bc f1d3 01be 4c50 d33d 1b91 f9bd
000000b0: 00d6 9eba f3d7 c0bd 7eb0 84bd e8c9 bb3d
000000c0: 0118 1e3d 6ae8 47bd c31a cf3d d829 4dbe
000000d0: 1f78 2ebe 1ecf cbbc 306f 63bc 0eee abbd
000000e0: d614 62be fdf9 3bbd 8990 febd c4ad 3dbe
000000f0: 9546 25be 3512 3e3b a9d5 ab3b 80b7 4c3d
00000100: 8003 c23c dba8 e3be 80c9 5fc0 f886 64c0
00000110: 86ef 85be b23c 7cbe b40d 81bf 83c8 2dbf
00000120: 5c74 a5be c5ac 623f 1a8c 90be feaf 5dbf
00000130: b311 09bf 2097 123f c77b 913f e15e 213f
00000140: d8c3 aa3f 6420 3ebf b40a a33f c1cf adbe
00000150: 9ffa 553f 49fc b4bf 905d 4dbf 0503 753f
00000160: 3795 d2bd ed64 6f3f 3097 5b3f ffd1 793d
00000170: 8038 c1bf 7587 3dbf 1879 2bbd 25ef 813e
00000180: 118d 0c3e 063a 5fbe 7b35 26be 092d 2cbe
00000190: 4466 18bd a898 20be 45bd 01bd ea6d 54be
000001a0: ff7a 943d 5ec9 80be 1aaf 223d 986b 6fbe
000001b0: f760 80be c986 b9bd 8aff 523c cc62 98bc
000001c0: 1275 2ebe dceb 87be 0d82 06be 0469 4fbe
000001d0: dfbd 84be 76b7 3dbd d089 07bd 996a 34be
000001e0: fe51 4dbd 42b6 833d 5fbd b9bd 5fe9 d3bd
000001f0: 8c88 67be f520 77be 1468 863d 26dd 8ebe
00000200: 92c8 013e 5be4 273f b2e8 2b3f 1158 29be
00000210: b045 28bf 807c 4cbc 689f 513f 4bc7 2e3f
00000220: e764 3abf 0c27 c2bf 22a3 52be 1818 ee3e
00000230: 7291 c83f 11ae 5d3e a63e 3dc0 ab1a b43b
00000240: 3e55 a33c e067 6bbf e71c 903e e567 80bf
00000250: 05a4 4bc0 d74f 553f 64cf 933f 06ed 9dbf
00000260: f7f3 cbbf 8bee 873e 543f 2ebe be3e 403f
00000270: 2e0c 623f 3241 8bbf 2b73 acbf 53bc 19bf
00000280: 0502 90bd 2a7d c3be 5aba 693e ceab 283f
00000290: 987b 903f 5c49 453e 78c4 b4bf d349 a13b
000002a0: 7f38 c03e 9d1c 0840 00d5 2fbf 802d ef3f
000002b0: c557 c2bf 4db4 4a3d 931e 513e 2458 923f
000002c0: 6032 2fbf e0ee 323f a50e 3e3f 5e28 a33f
000002d0: bf60 d6bf c0b7 84be 3350 43bf d905 323f
000002e0: 47b4 c2bf 5801 f2bf 5e1e 3a3f c547 b5bf
000002f0: 2ca5 c13d 230c 733f b734 133f 694c 89bf
00000300: 8e20 203e d2c0 6a3d e4c7 6dbf e391 dfbd
00000310: 8789 febe 53c7 33bf 3c8f 88bd 6070 d2be
00000320: e886 e73e 6ea5 e23f 64f3 eb3e 3841 a3bf
00000330: 865f 163e 30f0 433f f6d0 fc3e dca7 533e
00000340: 7acc 00c0 14a4 dd3e 8b3e 113f 874d 46be
00000350: 3a57 2dbf bbde b53e 83c0 523f 9abd 37bf
00000360: 4abb 0f3f af47 ae3f 65b5 8d3f adc6 133f
00000370: 45a6 9b3f 66da 86be 4198 0dc0 02c6 6e3f
00000380: b337 02bd ea75 fcbf 5d15 c83e 7669 5abf
00000390: ee68 debe f774 493f 7da4 fc3d f02c b4bf
000003a0: 20fc 4c3f cc58 333f 55c2 c43e 3308 263f
000003b0: 8192 68bf 4e1a 28bf 8a49 14c0 e27c 1ec0
000003c0: 9711 21bf 21e7 8fbe 1e80 52be b7fc b4bd
000003d0: fd7c f5bd 1f92 47be a1ba d33c fe0e 533f
000003e0: 1ba4 ed3e a65f a23f 7afc cabf 4cde ba3f
000003f0: e3be b93f dbae 8ebf f275 a73f b386 273f
-0.19465445 1.1692427 -2.342345 -1.7598867 1.5608298 1.7561983 -1.1247622 0.6632411
-1.4426296 0.85181105 -0.43273655 -0.6492551 1.6259449 -2.0752902 0.16051114 0.18247293
-0.45097116 0.58217615 -1.1998659 -1.0620025 0.8168877 -0.1775873 0.8466946 0.28314817
-0.2631624 -0.8108597 0.609983 -1.0867728 -1.7923101 0.41054812 -1.2968979 1.1637096
-0.15634936 -0.01666983 0.09659866 -0.07141258 0.082930915 0.122687005 0.021673193 -0.16894293
-0.020081576 -0.12678505 0.1031805 -0.1218588 -0.001211822 -0.09416189 -0.06478976 0.0916937
0.03859711 -0.04880563 0.10112526 -0.20035493 -0.1703801 -0.024879035 -0.01388149 -0.08395015
-0.22078261 -0.045892704 -0.12429912 -0.18523318 -0.16140206 0.0029002551 0.005243976 0.049979687
0.02368331 -0.44464764 -3.4966736 -3.5707378 -0.26159304 -0.24632528 -1.0082307 -0.6788408
-0.32315338 0.88544875 -0.2823189 -0.8659667 -0.5354263 0.5726185 1.1365899 0.630354
1.3341017 -0.74268174 1.2737641 -0.33947566 0.8358554 -1.4139491 -0.8022089 0.9570773
-0.10282367 0.93513376 0.8577757 0.060991284 -1.5095367 -0.74034816 -0.04186353 0.25377765
0.13725688 -0.21799478 -0.16231339 -0.16814055 -0.037206903 -0.15683234 -0.031674642 -0.20745054
0.07250022 -0.2515363 0.03971777 -0.23380888 -0.25073978 -0.09058911 0.012878308 -0.018601798
-0.17036846 -0.26547134 -0.13135548 -0.20254904 -0.2592611 -0.04631754 -0.033090413 -0.17618789
-0.050127022 0.06431247 -0.09069323 -0.103472464 -0.22610682 -0.24133666 0.0656282 -0.27903098
0.12674168 0.6558282 0.6715194 -0.16537501 -0.65731335 -0.012480855 0.8188386 0.68272847
-0.72810215 -1.5168166 -0.20570043 0.46502757 1.5669386 0.21648432 -2.9569488 0.005496343
0.019938108 -0.91955376 0.2814705 -1.0031706 -3.181886 0.8332495 1.1547666 -1.2337959
-1.5933827 0.2654918 -0.17016345 0.75095737 0.88299835 -1.0879271 -1.3472646 -0.60052985
-0.07031635 -0.3818143 0.22824994 0.65887153 1.1287718 0.19266266 -1.4122458 0.0049221306
0.37543103 2.1267464 -0.6868439 1.868576 -1.5183035 0.049488354 0.2042182 1.1433148
-0.6843624 0.69895744 0.74241096 1.2746694 -1.6748275 -0.2592144 -0.7629425 0.6954017
-1.5211266 -1.890666 0.72702587 -1.4162527 0.09455332 0.94940394 0.5750231 -1.0726444
0.15637419 0.057312794 -0.92883134 -0.109164976 -0.497143 -0.7022602 -0.06667945 -0.4110136
0.45220113 1.7706735 0.4608413 -1.2754278 0.14684877 0.7653837 0.49378175 0.20669502
-2.0124803 0.43289244 0.5673606 -0.19365512 -0.6771122 0.35521492 0.82325 -0.71773684
0.56145155 1.3615626 1.1070982 0.5772503 1.2160116 -0.263385 -2.2124178 0.93270886
-0.0317914 -1.9723485 0.390788 -0.8531717 -0.4343943 0.786941 0.12336061 -1.4076214
0.8007221 0.7005737 0.38429514 0.6485626 -0.9084855 -0.6566514 -2.3169885 -2.4763722
-0.62917465 -0.28106025 -0.20556685 -0.08837264 -0.1198673 -0.19489335 0.025845828 0.8244475
0.46414265 1.268544 -1.58583 1.459909 1.4511379 -1.1147112 1.3082869 0.6543991

dense2.bias f4 [48]
00000000: 997d b43f 4465 65be 8081 e83f 18a1 fbbd
00000010: 1ed7 0640 8463 283f 2c5c 233e 3a4e 773f
00000020: 5588 ac3f 7612 d23f 8492 7b3f 38db 5ebe
00000030: 8621 6a3f bc0a e0be ac90 823f d3b1 8a3e
00000040: cda8 8e3f 0283 1b3b f57d 6e3f a8fa 413f
00000050: a33d 2e3f 015a 253f 520d 9abe 3133 5b3f
00000060: f949 9e3f 94ef 3fbe 8c30 963f adbb 993f
00000070: f6ec 893f 6765 4e3f f660 bcbd e158 38be
00000080: 25d4 873f b098 323f 3937 b43f ba4e bb3f
00000090: 4639 1bbe 616a 913f 20bc d93f 360e 83be
000000a0: 5a3d a63f 4a29 683f 2e37 973f edf8 543f
000000b0: fe4c 36be 89c8 9d3f 5ee6 af3f e803 0e3f
1.4100829 -0.22401911 1.816452 -0.122865856 2.1068797 0.6577685 0.1595313 0.9660374
1.3479105 1.6411884 0.9827044 -0.21763313 0.914574 -0.4375819 1.02004 0.27088794
1.1145264 0.002372921 0.93160945 0.75773096 0.680628 0.6459046 -0.30088288 0.85624987
1.2366325 -0.18743736 1.1733565 1.2010399 1.077544 0.8062348 -0.09198181 -0.18002655
1.0611616 0.6976423 1.4079353 1.46334 -0.15158567 1.1360589 1.7010536 -0.2559678
1.2987473 0.90688 1.1813715 0.8319233 -0.17802808 1.2326823 1.3742177 0.5547471

dense3.weight f4 [128, 48]
00000000: 8336 1ac0 fa12 89bd a6a8 ccbf 27c1 d0bd
00000010: 1685 2dbd 72ef 18c0 f1f0 0fc0 b3cd 23bf
00000020: b390 8e3f aa0f 103e 3cef 82c0 98bf 12bd
00000030: 6916 3bbf 09e3 06be 125c 103f 617a 853e
00000040: ad85 643f 380c ecbd ce6f 8f3f 83ae 1c3f
00000050: fafb 9dbf d993 7a3f 0cc5 2bbe a4e9 f23e
00000060: efee 09c1 8ed6 2dbe 9acf a6c0 7daa 0bc0
00000070: 2728 80c0 8d41 bdc0 21b3 f63c a75a a63c
00000080: 202b 45be f596 623f 814d 29bf 8db5 9ac0
00000090: 367a 9bbd 4de8 c03e aa06 1d3f 96f8 38be
000000a0: 6e5a 8cbe 8bc7 41c0 4fad 18bf 2c5b 5b3f
000000b0: 2cdb 7ebc 575f 873f 41f2 0dc1 2642 debe
000000c0: 9ada bfc0 b0b9 b2bd 2bf4 943f fd93 00be
000000d0: 705d 60c0 c3ba 0340 b7ae 9ebf 7979 023e
000000e0: ddb2 0bbf 6d54 8a3f b633 acbe c6ab 35be
000000f0: 0949 12bf 1b10 47be 3970 733f 5b81 9d3e
00000100: bf57 7e3d a3af 1ac0 3010 743f 4a91 483f
00000110: 0420 12bf 65c8 86c0 dd71 d43d 50a9 98bf
00000120: 342b 49c1 d8b1 27be d3e8 c5c0 eab8 81be
00000130: d937 1ebf bc9c 3bbf 2e9e e8bc 67fe 5b3d
00000140: 8384 7f3f 2f94 adbf 5c26 063e bfe4 02c1
00000150: e36f 023b 0778 903f 1997 ba3f eae8 2bbe
00000160: 70c4 d9bf 48a3 53c0 f690 74bf f6aa 1fc0
00000170: 0918 debd 280c 113f b20f 3b3f 161e 92bf
00000180: 6ba6 9dbd 08a9 77bd 9740 8b3f b4b0 31bd
00000190: b673 31c1 3446 3bbf 4a0c 023d fa4d 653f
000001a0: 3e8d 763f 89d6 4bc0 e751 19bf f8a1 02be
000001b0: 34dc 2ac0 b3e3 24be 4ddf 7bbe 4ad4 a13d
000001c0: 030f 7abd b76a 21bf f81f c8c0 1594 2f3e
000001d0: 898f 22bf d016 9dc0 85a6 adbd a007 073f
000001e0: c66d c1c0 89b6 8dbc 615a b8be d021 0ac0
000001f0: ac63 b23f 9224 443f 7cae 213d 6670 0abd
00000200: a28d a1bf c263 c3bc c0cc 6f3f abfb a5c0
00000210: ec6a 043d 7323 af3e cff7 c73f 3281 973d
00000220: 0704 adbf d01a f2bf 3927 51bf 4c89 9cbf
00000230: 8ddb 473d d124 2bbf 2c48 83c0 1c75 98bd
00000240: 1090 7d3e 977b c5bc 367f 1c3f 6458 0c3e
00000250: fd22 21c1 02bc 313f f857 1a3f cddf bfbf
00000260: 9619 22c0 986c e8bf 0be1 1a3f f4f7 f3bd
00000270: 5b53 5ec0 6acb 49be 6d5c dcbd 1888 5d3f
00000280: c123 86c0 2b52 c33e 37ec e5bf 3c5e aabe
00000290: 2b1d 81c0 e5ee bebf e7ba 993d e4ad 663f
000002a0: 2116 99c0 be26 8bbc 3057 08be d480 52c0
000002b0: 9134 813e 6be4 3fbe ecb9 563d 4a39 f53c
000002c0: b5ea 64c0 d8af 3ec0 dc13 223f 0328 15bf
000002d0: 2670 c5bd e34c 09c0 7d3d 1a3d 7eec 3cbe
000002e0: ebda 4b3f fdb6 6ebf f277 c2be 92f2 883e
000002f0: 3af6 9fbb f750 98c0 42c9 cfbe 7782 513d
00000300: 6c04 9f3e 8058 7fbd 390f 843f 3d4f 00be
00000310: 2e18 34c0 d536 9bbf 6ba7 533f 322a 073f
00000320: e263 2ec1 87ae debf 58ff 563f de27 5bbe
00000330: 4ca0 fbbe befc 9bbd ef85 243e b583 b83e
00000340: 27cc 01c0 fa85 523f fbd1 11bf e9d2 253f
00000350: 4533 33c0 8bd2 cbbf 4472 36be 9ca3 1abe
00000360: a5cc 83c0 65a0 19be e029 233f f698 b1c0
00000370: b11c 1cbf 8a94 2a3f aaf5 d7bd 7590 e5bc
00000380: b97c fb3d 2c4a 94c0 4c35 a33e fb02 eabd
00000390: 805c 79bb 3187 10c0 85cd 05c0 6a13 52be
000003a0: d11b 0fc1 db92 34be e6ba 503f 77c0 45bf
000003b0: a386 20be 48b2 0ac1 c828 173e 398c febf
000003c0: 64df 933f 30dc e0bd 080e f13e 9058 0a3e
000003d0: a654 17c0 8ec9 f4bf 5556 39be 7c97 e6bf
000003e0: 9ce9 0fc1 9466 74be dfdf ff3d 3b37 1cbe
000003f0: e624 e53e b3e4 cb3c 8427 dcbe f95f 3d3d
-2.4095771 -0.066930726 -1.5988967 -0.10193091 -0.04236325 -2.3896146 -2.249081 -0.6398575
1.1137909 0.14068475 -4.0917034 -0.03582725 -0.7308107 -0.13172545 0.5639049 0.2606993
0.89266473 -0.11525768 1.1205995 0.61203784 -1.2342522 0.9788185 -0.16774386 0.4744388
-8.620833 -0.16976377 -5.212842 -2.1822808 -4.0049014 -5.914252 0.030114712 0.020306898
-0.19254732 0.8851159 -0.66133887 -4.834662 -0.07591669 0.3767723 0.61338294 -0.18063578
-0.27412742 -3.0278041 -0.5963945 0.8568599 -0.015555184 1.057597 -8.871644 -0.43409842
-5.9954348 -0.08726823 1.1637014 -0.12556453 -3.505703 2.058274 -1.2397069 0.1274165
-0.545698 1.0807015 -0.33633202 -0.17741308 -0.5714269 -0.19439737 0.95093113 0.30762753
0.0620954 -2.41697 0.953372 0.78346694 -0.570801 -4.211962 0.1037328 -1.192667
-12.573048 -0.16376436 -6.184671 -0.2533639 -0.61803967 -0.7328603 -0.028395738 0.053709414
0.9981157 -1.3560847 0.1310057 -8.180846 0.0019903115 1.128663 1.4577361 -0.16788068
-1.7013073 -3.306841 -0.9553369 -2.4948096 -0.10844428 0.56659174 0.73070824 -1.1415431
-0.07697757 -0.060463935 1.0879086 -0.043381408 -11.09075 -0.73153996 0.03175 0.8957211
0.9630927 -3.1849692 -0.598906 -0.12757099 -2.6696901 -0.16102485 -0.24596901 0.07901819
-0.061049473 -0.6305346 -6.2539024 0.17146333 -0.6350027 -4.9090347 -0.08479027 0.5274601
-6.04465 -0.017298954 -0.36006454 -2.1583138 1.3936667 0.766183 0.039473042 -0.033798598
-1.2621348 -0.02385128 0.936718 -5.186971 0.03232853 0.34206733 1.56225 0.07397689
-1.3516854 -1.8914433 -0.81700474 -1.22294 0.048793364 -0.6685305 -4.10256 -0.07444212
0.24761987 -0.024106784 0.6113161 0.13705593 -10.071042 0.694275 0.6029048 -1.4990174
-2.5328116 -1.815814 0.6049964 -0.11912528 -3.4738376 -0.19706503 -0.10759816 0.8653579
-4.1918645 0.38148627 -1.7962712 -0.3327502 -4.0348105 -1.4916655 0.07506352 0.90109086
-4.7839513 -0.016986247 -0.1331451 -3.289113 0.25235417 -0.18739478 0.052423403 0.029934544
-3.5768254 -2.9794827 0.63311553 -0.5826418 -0.09640531 -2.1453178 0.037656296 -0.1844959
0.7963092 -0.9324797 -0.37982136 0.26747566 -0.0048816474 -4.7598834 -0.40583235 0.05114981
0.3105806 -0.06234026 1.0317146 -0.12530227 -2.8139758 -1.2126108 0.82677335 0.5279876
-10.899385 -1.7397012 0.83983374 -0.21401927 -0.49145734 -0.07616566 0.16066717 0.36037984
-2.0280855 0.8223568 -0.5696103 0.6477495 -2.8000042 -1.5923628 -0.17817026 -0.15101475
-4.118731 -0.15002592 0.6373577 -5.549922 -0.6098128 0.666329 -0.105449036 -0.028022984
0.12279648 -4.634054 0.318766 -0.1142635 -0.003804952 -2.2582514 -2.090669 -0.20515218
-8.944291 -0.17634146 0.81535184 -0.77246803 -0.1567636 -8.668526 0.1476165 -1.9886543
1.1552548 -0.109794974 0.47081017 0.13510346 -2.3645415 -1.912401 -0.1809934 -1.8014979
-8.994534 -0.23867255 0.12493872 -0.15255444 0.44754714 0.024889326 -0.42998898 0.046234105

dense3.bias f4 [128]
00000000: 8da5 f8bd b778 363f bf38 ccbd 02a5 1ebf
00000010: 8638 78bf 021e 2a3f 4cfb 15be 679c d43e
00000020: 5810 1cbd 728e a6bc 6c28 59bf 15cf c33e
00000030: ea94 44bf 3cfb 7fbf 4052 81be f498 21bf
00000040: ef92 9e3e c037 973d 9877 8fbf 95a3 0f3f
00000050: c930 e53e c33d 213d 891c 4fbf a5e8 27bf
00000060: 5bd2 c1be 3363 013e f77e d3bd 4b24 b1be
00000070: 9f40 2fbf dda8 143f 4db4 6abf 875a 393f
00000080: 46c9 703e f9ab 283f 1355 82bf a3c1 d3bd
00000090: 8527 e23e 6393 a1be 6663 5a3f b6c2 8abe
000000a0: 854d b93e d879 773f e2af 5ebf 9861 da3f
000000b0: 239d 7e3f 5bd1 46bf 830c 253d 0c13 5c3e
000000c0: cbd8 88be 06df ffbd e795 183f 5e5d d3be
000000d0: 9193 2b3f 902b ebbd eab5 b63e 0018 fb3e
000000e0: c88d 11be fab2 e3be 227a efbd c265 edbe
000000f0: 9629 97bf 5f10 803f a590 163f bce2 22bf
00000100: 18e4 1f3f 8132 7a3f 78eb a9bd d5e6 33bf
00000110: d774 9dbc 5731 ad3b 08b5 f03e 57f9 d73f
00000120: 737d 7a3f 617f 1cbf 033c e23e 13d0 b73f
00000130: cbde 01c0 b20c a83e 51e4 f63f 366f cebe
00000140: 5f56 283f 7953 10be e88c dc3e de6e 99be
00000150: 0225 393f 0c88 46bf df81 0c3f 3060 f33e
00000160: 45e2 143f baaf 08bf a05c acbc c304 e93e
00000170: 4ee2 613f fd3f 663f 1bb2 4ebf d45e 783f
00000180: 624c 98bf bdbd 01bf c415 713e beb2 0ebf
00000190: 4c54 66bf a418 afbe e972 233f 0acc 6ebf
000001a0: b161 343e 2931 7b3f 3e6b fa3e 2b83 703f
000001b0: 729a a0be fb1d c3be 497f 763e ded4 0740
000001c0: 42e1 c93e 8bdd b13f 231d 1dbf 0665 1a3f
000001d0: aa88 8dbe 5f73 debf c61f f53c 9be4 32c0
000001e0: 2f08 c13e 9e96 bcbf b81d 633f 03e2 e7be
000001f0: 7453 213e 9ad1 1bbf 59af c4bc bf6e 78be
-0.12140951 0.71277946 -0.09971761 -0.6197053 -0.9696125 0.6645204 -0.14646643 0.41525576
-0.038101524 -0.020331595 -0.84827304 0.3824393 -0.76789725 -0.9999273 -0.25258064 -0.6312401
0.30971476 0.0738368 -1.1208372 0.5610898 0.44763783 0.03936554 -0.80902916 -0.6558936
-0.378558 0.12635498 -0.10326951 -0.34598002 -0.6845798 0.58070165 -0.9168137 0.7240376
0.2351428 0.6588741 -1.0182213 -0.10339668 0.44170776 -0.3155776 0.8530792 -0.27101678
0.36191955 0.96670294 -0.86987126 1.7061033 0.9945852 -0.776632 0.040295135 0.21491641
-0.267279 -0.1249371 0.5960373 -0.4128217 0.67022043 -0.11482918 0.35685664 0.49041748
-0.14214242 -0.44472486 -0.11693217 -0.46366698 -1.1809566 1.0004996 0.5881446 -0.6362722
0.6245742 0.9773331 -0.08296865 -0.70274097 -0.019220753 0.005285423 0.47013116 1.6872967
0.9784767 -0.61131865 0.4418641 1.4360374 -2.0292232 0.32822186 1.9288427 -0.40319222
0.6575679 -0.14094342 0.43076253 -0.29967397 0.72322094 -0.7755134 0.5488567 0.47534323
0.5815776 -0.5339314 -0.02104026 0.45511445 0.8823594 0.8994139 -0.8074052 0.97019696
-1.189831 -0.5068014 0.23543459 -0.5574149 -0.89972377 -0.34198487 0.63847214 -0.9328009
0.17615391 0.9812189 0.48909944 0.93950146 -0.31367832 -0.3810881 0.24071993 2.1223674
0.3942967 1.3895735 -0.61372584 0.603104 -0.2764333 -1.7378958 0.029922377 -2.795203
0.37701556 -1.4733465 0.8871722 -0.4528962 0.15754491 -0.608667 -0.024009394 -0.24260996
