Saved Models/O28_ULA_trainable_4_beam_probing_codebook_128_beam_classifier_noiseless.pt (torch, 10919 bytes, 7 tensors)

codebook.theta f4 [64, 4]
00000000: 9d71 7140 6c91 8740 a1ba 3e40 3743 af40
00000010: 4141 4640 8dd9 3140 a381 8e40 1341 583f
00000020: 776f f6be 7107 ec3f 1143 2abf ce1e 2e40
00000030: ea4d 1b40 b600 a2be b575 6b3f 5c99 ab40
00000040: b959 9840 2339 9c40 8bd1 c03f 3869 c83f
00000050: 1afb 3840 6411 4d40 09cf 8140 a56b b840
00000060: 405b 073e 0980 0b40 1a27 6640 8726 fd3f
00000070: 7321 8140 0ce4 c940 d08f 0bbe 3edf e73f
00000080: fc90 52be 22a1 9840 348f f3be 4289 3640
00000090: 2bcc f63f 80de 8540 2230 ad3f 9338 a340
000000a0: 6cf1 9dbe 7066 0540 f5fc 5040 ccf6 c43f
000000b0: 5318 8640 ddf4 55be df6e 3d40 73b1 5b40
000000c0: 67e3 ee3d ca87 c3bf 9925 bf40 a675 e43f
000000d0: 3eda 8340 31bf 7040 5871 9b40 ae52 aa40
000000e0: 5a40 173e 4e34 2d40 fe03 0b40 7a92 3940
000000f0: 2bb9 a640 a172 a740 7967 a33f 4ac6 7d40
00000100: 8aaf 1f40 7097 d540 660d 5240 a61d d740
00000110: af6e ab40 40bb 0040 f655 9440 0a26 f23f
00000120: 11a1 1940 2222 9540 dd5a 8d40 4ee9 8340
00000130: 0998 f23f d542 913c e805 c23e ca18 a240
00000140: 0ec7 b13f c933 a03f 8de6 9c40 cc88 4040
00000150: 7315 593f 457c c240 2132 f13f 3c4f 9b40
00000160: 9b9f 33be 723e bc40 7484 9d40 d019 f240
00000170: 3c12 363f 839b b9bf 717d 6940 e9ad 12c0
00000180: d6cf 5d40 d534 8640 1186 b840 79ec a73f
00000190: f08f bd40 755c ff3f 37e8 eabf fd0f 8540
000001a0: 0307 6940 4085 1240 1019 1040 2779 d040
000001b0: 9785 3140 641a d33f 45fe 81be f938 1440
000001c0: 4915 9c40 a593 0c40 0190 2940 5c81 50bf
000001d0: 617d 4240 5166 ae40 752c 0540 f22d 8c40
000001e0: 8378 0d40 2b05 ae3f 10cd 8b40 9d1e d540
000001f0: 89f6 6240 c92a 1140 36a5 b440 e3e8 4640
00000200: aca7 723f ca4b 8e40 92be 773f bc8b b5bf
00000210: f88f 9240 d9c4 ad40 6f62 d23f b50f de40
00000220: 2815 bd40 1940 2c40 fa79 8e40 367f 5540
00000230: f78c 2ebf 8cbb 3c40 84ab 5e40 b204 693e
00000240: 7c63 6740 d454 7640 e27b a940 161d 1240
00000250: ea06 973f 1956 a940 542f db40 5407 a5bf
00000260: 0c0f 2640 7a92 183f 3812 e4be 3259 d940
00000270: a217 c040 61c8 3140 dcf5 1940 9790 7b40
00000280: 92cf 9440 0114 9d40 43ce ce3f 4b97 0f40
00000290: 6d2a c840 ba44 db3f 7875 283f 0dd8 633f
000002a0: e3ce 7240 103f 4a40 0daf 9c40 7c26 c240
000002b0: 6a3e 1740 8dfe a640 c651 7d3f b350 5440
000002c0: 69ee d43f 1230 d540 546d 0c40 de96 82bf
000002d0: 5711 3d40 5ec2 1840 934e 9740 89f0 483f
000002e0: 9442 ab40 7868 6740 2025 a440 ae7e 3840
000002f0: c44e 3940 d065 be40 b7b4 9b3f 162d 7040
00000300: 94b9 7940 cf33 b73f 003f 6f40 35dd ca40
00000310: 0502 7940 d098 4540 5a77 9640 77fe 1b40
00000320: 35b4 3b40 c1ba 8f40 ecb8 c640 c1bb ab40
00000330: 07ca aebf f120 903f ab28 1140 d8b4 a93f
00000340: 6460 c340 4ab8 3a40 911b 8b40 3a77 8d40
00000350: 4e18 b140 1ed3 9040 7e6d 6940 6186 e240
00000360: e334 603e 6c0e a040 7b61 60be 6d3c 1640
00000370: 3694 8f3f a710 8c40 5430 8940 60ca e43d
00000380: 1951 bf3f 2eec a140 7500 b840 f3c1 7140
00000390: a00f 2140 9217 d440 be58 903f 1b58 903f
000003a0: 493a 9d40 9084 ae3f a563 ac3f 1385 4440
000003b0: 5ba5 6d40 085e 5d40 35fc 3140 652b b440
000003c0: 24c9 a240 cb71 8a40 a305 3040 65a9 6640
000003d0: a59f 9c40 6fe7 3540 1c16 4840 4649 8f3f
000003e0: 8f22 c240 c81e 6640 f70e 8240 f100 3c40
000003f0: 1c5e 5840 e694 af40 be8b 9940 b56a b540
3.7725594 4.2365017 2.980141 5.476955 3.0977328 2.7789032 4.453325 0.84474295
-0.48131916 1.8439771 -0.66508585 2.7206302 2.4266305 -0.31641167 0.9197648 5.3624706
4.7609525 4.8819747 1.5063947 1.565711 2.890326 3.2041864 4.056523 5.76314
0.13218403 2.1796896 3.5961366 1.9777383 4.035333 6.3090878 -0.13629079 1.8115003
-0.2056312 4.7696695 -0.47570193 2.8521276 1.9281057 4.1834106 1.3530314 5.100656
-0.30848253 2.0843773 3.2654393 1.5387816 4.1904693 -0.20894189 2.959892 3.4327056
0.11664467 -1.5275815 5.9733396 1.7848403 4.120391 3.7616694 4.857586 5.3225927
0.14770642 2.7063174 2.1721187 2.8995652 5.2101035 5.232743 1.2765952 3.9652276
2.495089 6.674736 3.2820678 6.722369 5.357261 2.0114288 4.6354933 1.8917859
2.4004557 4.6604166 4.4173417 4.1222296 1.8952647 0.017732063 0.3789513 5.065526
1.3888872 1.2515804 4.9031434 3.0083494 0.84798354 6.0776696 1.8843423 4.853422
-0.17541353 5.8826227 4.9224186 7.565651 0.71121573 -1.4500583 3.6482813 -2.2918646
3.4658103 4.193949 5.7663655 1.3119041 5.9238205 1.9950091 -1.8352116 4.1582017
3.641053 2.289383 2.2515297 6.514789 2.7737787 1.6492429 -0.25389305 2.3159773
4.8775983 2.1965115 2.6494143 -0.81447387 3.0389025 5.44999 2.0808384 4.3806086
2.2104805 1.3595327 4.368782 6.659987 3.5462973 2.2682364 5.6451674 3.1079643
0.94787097 4.4467516 0.9677516 -1.4183269 4.5800743 5.4302793 1.643629 6.9394174
5.9088326 2.6914122 4.4523897 3.3358893 -0.68183845 2.948947 3.4792185 0.22755697
3.615447 3.8489275 5.2963724 2.2830253 1.1798985 5.29176 6.8495274 -1.2892861
2.5946684 0.59598505 -0.4454515 6.792138 6.002885 2.7778552 2.405631 3.9307
4.650338 4.908692 1.6156696 2.2436092 6.255179 1.7130349 0.65804243 0.8900154
3.7938774 3.160099 4.8963685 6.067198 2.3631845 5.218573 0.989529 3.3174255
1.6635257 6.662118 2.1941729 -1.0202291 2.9541833 2.3868632 4.7283416 0.7849203
5.351877 3.6157513 5.129532 2.882732 2.8954325 5.9499283 1.2164525 3.7527518
3.9019518 1.4312686 3.7382202 6.339503 3.8907483 3.087452 4.7020693 2.4374063
2.932874 4.491547 6.2100735 5.366669 -1.3655404 1.1260053 2.2681072 1.3258314
6.1055164 2.917498 4.347115 4.420804 5.534217 4.525771 3.6473079 7.0789037
0.21895175 5.0017605 -0.21912186 2.347438 1.1217105 4.3770328 4.2871494 0.111714125
1.4946624 5.0600805 5.750056 3.7774627 2.5165787 6.627877 1.1277082 1.1276888
4.913365 1.3634205 1.3467909 3.0706222 3.7132175 3.4588642 2.7810185 5.630297
5.0870533 4.3263907 2.750344 3.604089 4.894488 2.8422506 3.1263494 1.1194236
6.0667186 3.5956287 4.064327 2.9375575 3.380744 5.486926 4.7983084 5.6692758

dense1.weight f4 [8, 4]
00000000: 7fd1 9fbe f9db 1abf 7836 eb3d 92fb 50be
00000010: a95f ee40 f9a0 6f40 a128 263f 9172 71c0
00000020: 3b02 4fbe 1b5e 1241 73ba d4be 1d15 e540
00000030: ca86 1541 d5fe 863f 34f3 49bf 3732 9040
00000040: 814e ddc0 c1fb 1940 0234 27c1 6a8c a840
00000050: 348e 0940 37a4 2540 f509 d640 bde0 2bc1
00000060: da53 a740 d454 a2c0 aff4 a640 fa50 9840
00000070: 82c9 d1be 6afc 8f40 64d4 0e41 6ca5 5240
-0.3121452 -0.604919 0.114849985 -0.20408466 7.4491773 3.7442 0.64905745 -3.7726176
-0.20215695 9.147975 -0.415485 7.1588273 9.3454075 1.0546519 -0.78886724 4.5061297
-6.915833 2.4059908 -10.450197 5.2671404 2.1493044 2.5881479 6.6887155 -10.742368
5.228986 -5.072855 5.2173686 4.759885 -0.4097405 4.4995623 8.926853 3.2913465

dense1.bias f4 [8]
00000000: 4d14 17bf 4ce7 8f3d 457e f53d 6a66 703b
00000010: efa1 9f3d c02b 433d bce0 a83c 6a20 7f3d
-0.5901535 0.07026538 0.119869746 0.0036682137 0.07794558 0.047649145 0.020614974 0.06228677

dense2.weight f4 [12, 8]
00000000: 69f2 17be bd30 8ec0 367c 983f 1429 4cc0
00000010: 9ead da3e 2c8f a6be 3a4c aa40 d477 0a40
00000020: 6658 5dbe 1127 1640 d155 2d40 17dd a33f
00000030: bac3 813f ffdf 0ac0 4d5f 91c0 1ffe f13f
00000040: 4fb5 943e 1775 c2be 7417 23be bbab c8bd
00000050: cebd 45bf 1ebb eabe d56d 87be 5c5f d9be
00000060: 6277 95be c5e5 66c0 c8f2 1f40 ffe6 1f40
00000070: 9993 2dc0 15e8 b2c0 2f89 8e40 ebc1 1f40
00000080: 3a2e 763e f6aa 80c0 9f2e a040 1257 4cc0
00000090: 8054 ce3f ebc2 b6bf 688b 44c0 392a 5340
000000a0: d8df 443e 9c07 f23f 6716 85bf 38e2 48bf
000000b0: d9f3 b0c0 b1c2 3b40 787c 0440 1427 3140
000000c0: 17fb 5a3e 52ab 7c40 98b6 9abf 011a ee3f
000000d0: 64bd 18c0 d5f4 0b40 ef71 0a40 617e edbf
000000e0: fc0e 21bc 8e4a 8e3f f955 58bf 6533 9d3f
000000f0: b796 9ac0 3f2e 37c0 0ef4 d53f 756b 8e40
00000100: d73e b13e 8f51 06c0 ee48 7f40 3e8e 6940
00000110: 5122 9840 4fa4 ecc0 f2ca af3e fcd8 98c0
00000120: 82d1 263e 1cbe 00c0 f04e 9c40 a572 7d40
00000130: e705 03c0 1a05 36c0 90f7 cfc0 3f6e 92bf
00000140: 62f9 7f3e 54a9 7dbf a0bc c3be b887 a340
00000150: e7ca 143f 4b4d 85bf cf59 2040 9517 a8c0
00000160: 0ddf 03be 98c9 2640 4efe 8540 5d1b 05c0
00000170: a973 38bf eda6 c83f e3f9 8bc0 c158 4740
-0.14838566 -4.4434495 1.1912906 -3.1900072 0.42710584 -0.32531106 5.321805 2.1635637
-0.21615753 2.3461344 2.7083628 1.2801846 1.0137856 -2.1699216 -4.5428834 1.8905677
0.29044577 -0.37979957 -0.15926915 -0.0979838 -0.77242744 -0.45845884 -0.26450983 -0.42455566
-0.29192644 -3.607774 2.4991932 2.498474 -2.7121336 -5.5908303 4.454246 2.4962108
0.24041072 -4.0208693 5.005691 -3.1928144 1.6119537 -1.4278234 -3.0710087 3.299452
0.19226015 1.8908572 -1.0397462 -0.7847018 -5.5297666 2.933758 2.070097 2.7680101
0.21384846 3.9479566 -1.2086973 1.8601686 -2.3865595 2.1868184 2.163204 -1.8554193
-0.009830233 1.1116502 -0.84506184 1.2281309 -4.830898 -2.8621976 1.6715105 4.4506173
0.34618255 -2.098728 3.9888263 3.6493068 4.754189 -7.395057 0.34334522 -4.7764874
0.16290858 -2.0116034 4.884636 3.9601223 -2.0472353 -2.8440614 -6.49897 -1.1439894
0.24997476 -0.990865 -0.38229847 5.110317 0.58122104 -1.0414213 2.5054815 -5.2528787
-0.12878056 2.6060543 4.187293 -2.0797951 -0.72051483 1.5675942 -4.3742537 3.114792

dense2.bias f4 [12]
00000000: f43b 343f 9171 a93e c35b b4be 2333 353e
00000010: e7de 71be 7c91 c33e cf8e 143f 20cd 8b3e
00000020: d92f 2a3f 94e0 a43d b37c 273f ac0f efbe
0.7040398 0.33094457 -0.3522626 0.17695288 -0.23620187 0.38196933 0.5803041 0.27304935
0.6647926 0.080506474 0.6542465 -0.46691644

dense3.weight f4 [128, 12]
00000000: 59d2 6d3f 8bc4 8ebf d9e1 6fbf e36f d43e
00000010: c429 da3f 7c71 293f e922 b2bf 1025 cbc0
00000020: 9195 643f d769 353e d92b c63f 7dc1 f0c0
00000030: f2c7 2a3f c6d5 313f 1a45 05be 649e 3b3f
00000040: 9ccd 973f e2bd 08c1 cd8a acc1 18b9 31c1
00000050: fb30 963f 50b6 d53e a44b e63f e3d5 15c1
00000060: caee 15be 3eb4 0e3f 5c8e fbbe b30a 2c3f
00000070: 5210 04bf 766d bcc1 f19f 97c0 1f09 eac0
00000080: 9303 cc3f 088c 693f 6c89 2740 df6b 4fc1
00000090: 79dd fc3f 396b 79bf 2c86 3f3e 8fa9 073f
000000a0: 3c39 ec3d 4dae a7c0 6cb7 0cc0 6470 96c0
000000b0: 19e3 383f 84a8 a6bf bdab 0440 c016 e3c0
000000c0: b600 0d3f 62ab ccbe 40da 153d cea1 b03f
000000d0: a190 8ebf 8fd7 b9c0 1e6f 4dc1 e8bf 9dbe
000000e0: 2a87 0a3f da0c 6a3f edae 8d3f 242a bdc0
000000f0: ea1a b63f d5ca 11bf 2a67 42bf 4736 503f
00000100: c4da 2f3f 5a99 87c0 9c70 70c1 f3d8 ddbe
00000110: eed7 18be 30ec e7be cdda 243f 0dbb 80be
00000120: 2b6a 0640 805e bcbe 06a5 4c3e 0e2d 5c3f
00000130: 333f e33f f8ef 46c0 1750 07c2 5d8c 5ac0
00000140: d8d0 123f a9ec a1bf 2e05 3fc0 25c0 9cbf
00000150: aa45 3040 d7df 88bf 5075 723e 1619 863f
00000160: a7fb ed3f 641c 75bf e215 1bc1 1486 49c0
00000170: a73f 813f 385f 7fc0 11f8 2bc0 5a81 2cc0
00000180: ffad 3240 80da 7dc0 5e88 13be 91f1 bd3f
00000190: 4ea6 303f 89af 9cc0 c38c b83e 9f90 94bf
000001a0: 2b2f 083f d45c 93c0 919d 3a3e 5be7 efc0
000001b0: 1180 753f 1c03 f7be 9396 fabb a964 8d3f
000001c0: e409 6bc0 fbb8 63c1 5e7d 213f a93d 0dc0
000001d0: 56d0 873f 55d3 d43e 54d6 873f c02e b3c1
000001e0: b38e 013f fd3c 04c0 160f 5fbe 34f3 3a3f
000001f0: 266c edc0 768b a8c0 69c4 0d3f 7abe 74c0
00000200: 0851 c83f fbfa 7ebe fe00 1740 4e37 93c1
00000210: abf2 50c0 8ee7 2b3f 8ff8 7f3e ed3a d93e
00000220: 75f3 ecc0 c910 e6c0 4207 16bf f3e5 9cc0
00000230: fd43 3d40 ecdd 1640 9bb9 2f40 c4d3 aec0
00000240: 860a 1cc0 a377 2e3f 01e4 e7be 6325 5e3f
00000250: 7a55 0ac0 5308 0bc1 d09d a2bf 8fe2 29c0
00000260: 72a7 e83f 3b10 0d40 510a ed3f 905f 7ec0
00000270: 3e39 59c0 80d2 0940 82f0 eabe 353f b4bf
00000280: f839 8cbe 51d5 a3c0 9a1b 06c0 b812 edc0
00000290: aecf 1140 cd2a 5440 880e 0d40 0ea6 e2bf
000002a0: a83b 14bf 0f63 403f e0a4 10bf b08a c43e
000002b0: ce90 e53e de20 41c1 9338 08c1 eba4 bdc0
000002c0: f30f 6b3f c9a2 1a40 893f 093f fb1c f6bf
000002d0: 3604 8abe 655d 823f ce0e 133f eaa0 663e
000002e0: 43f8 5b3f 71f4 6bc1 0f66 80c1 cded 57c1
000002f0: 9cb2 a33f 1d84 a63f 61d8 5a3f 3c28 e9bf
00000300: 5404 98be 929b b23f a2c4 213f 6520 7cbf
00000310: ab12 b23f f677 2cc1 2fc5 dbc0 be02 83c1
00000320: d4f4 a03f 092e 3a3f 6702 75bf 15f2 bc3e
00000330: 7f99 26bf 2152 933f 7b5e 9cbd 44b8 a5c0
00000340: 12b1 c83f 0a04 83c0 d135 97bf 305d dec0
00000350: 2372 1c3f 5185 8a3f a26f 75c1 2340 7d3f
00000360: 1890 b4c0 1102 b33f 6194 cebe 52e5 5abf
00000370: 7c3d 0f3f a4a6 66c0 ad74 d6bf 2f86 4dc0
00000380: f1a0 9b3f 203f 383f ddf1 05bd 1419 573f
00000390: b9af 02bf 1bc8 d4bf e7f0 8abe 1935 8a3f
000003a0: 03fd dcbf 7dd6 10c0 037e 93bf 3638 c7be
000003b0: f31f 573f 5626 853f d001 093e c51c 19bf
000003c0: 8269 65c0 a37d 13bf d179 92be be9a 523f
000003d0: 4d85 33c2 4ac8 9bbf ef0a 09bf 1039 82bf
000003e0: 45a0 913f 0633 b53f 7cd5 10be 8918 44c0
000003f0: b46e 98c0 e8c3 0dc0 3758 9a3c 8997 103e
0.9289909 -1.115373 -0.9370399 0.41491613 1.7043996 0.6618879 -1.3916904 -6.348274
0.8929072 0.17716156 1.5482131 -7.523619 0.6671134 0.6946682 -0.13014641 0.7328856
1.1859622 -8.546358 -21.567774 -11.107689 1.1733698 0.41740656 1.7991834 -9.364718
-0.14641872 0.5574378 -0.4913205 0.67203826 -0.515874 -23.553448 -4.738274 -7.3136134
1.5938591 0.91229296 2.6177626 -12.963836 1.9755088 -0.97429234 0.18703526 0.529931
0.11534354 -5.240027 -2.1986952 -4.7012196 0.72221524 -1.3020177 2.072982 -7.096527
0.5507921 -0.39974505 0.036585093 1.3799379 -1.1137887 -5.8075633 -12.839628 -0.30810475
0.54112494 0.9142586 1.1069008 -5.911394 1.4226964 -0.5695012 -0.75938666 0.8133282
0.68693185 -4.2374697 -15.027493 -0.43329582 -0.1492612 -0.45297384 0.64396363 -0.25142708
2.10023 -0.36790848 0.19984826 0.8600625 1.7753662 -3.1083965 -33.828213 -3.414817
0.5734992 -1.2650348 -2.9846911 -1.2246138 2.754252 -1.069331 0.23677564 1.0476406
1.8592423 -0.95746446 -9.6928425 -3.1488085 1.009755 -3.9901867 -2.6870158 -2.695395
2.7918699 -3.9664612 -0.14407489 1.4839345 0.6900376 -4.8964276 0.36044893 -1.1606635
0.5319697 -4.6050816 0.1822417 -7.4969916 0.9589854 -0.4824456 -0.0076473444 1.1046344
-3.6724787 -14.232661 0.6308192 -2.2068884 1.0610454 0.41567484 1.0612283 -22.397827
0.50608367 -2.0662224 -0.21783099 0.7302735 -7.4194517 -5.267024 0.55377823 -3.8241258
1.5649729 -0.24900429 2.3594356 -18.402004 -3.2648113 0.671502 0.24997161 0.4242777
-7.404719 -7.189549 -0.58604825 -4.90307 2.9572747 2.357295 2.7457035 -5.4633503
-2.4381423 0.681513 -0.4529114 0.867758 -2.161467 -8.689532 -1.270441 -2.654453
1.81761 2.2041156 1.8518773 -3.9745827 -3.3941188 2.153473 -0.45886618 -1.4081789
-0.27387977 -5.1197896 -2.0954347 -7.408535 2.2783008 3.3151124 2.204012 -1.7706926
-0.5790353 0.7515115 -0.5650158 0.3838706 0.4483704 -12.070524 -8.513812 -5.9263816
0.9182121 2.4161856 0.5361257 -1.9227594 -0.26956338 1.0184752 0.57444465 0.22522321
0.8592569 -14.747178 -16.049833 -13.495557 1.2788882 1.3009068 0.8548642 -1.8215404
-0.29690802 1.3953726 0.6319066 -0.9848693 1.3911947 -10.779287 -6.8678203 -16.376339
1.2574716 0.72726494 -0.9570679 0.36903444 -0.65077966 1.1509439 -0.07635208 -5.1787434
1.5679038 -4.094243 -1.1813298 -6.9488754 0.6111166 1.0821935 -15.339754 0.9892599
-5.6425896 1.3985006 -0.4034758 -0.85506165 0.5595319 -3.603921 -1.6754357 -3.211315
1.215849 0.7197132 -0.032701362 0.8402264 -0.5104938 -1.6623567 -0.2713692 1.0797454
-1.7264713 -2.2630913 -1.1522831 -0.38910073 0.84033126 1.0402324 0.13379598 -0.59809524
-3.5845647 -0.5761358 -0.28608564 0.8226737 -44.880177 -1.2170498 -0.5353231 -1.0173664
1.1377035 1.4156196 -0.14143938 -3.0639975 -4.7635136 -2.2150822 0.018840892 0.14120306

dense3.bias f4 [128]
00000000: c4e5 45bf 4169 ba3c c55e abbf d0ab e63f
00000010: d18d 173f 0aa4 b1be 040f 91bf 405e d0bf
00000020: b2b1 573e d7bb b93f 8b28 0240 22b1 333f
00000030: 5054 cdbe 0109 5b3e 9b88 263d c20b 323e
00000040: 5eab e53f 5f60 c1bf b41e 503e 88ed e1bf
00000050: 5ddb 46bf c8dd a63f 3160 0bc0 771c 1bc0
00000060: fef1 04c0 d68a 81bf b57a 39bf d5cc bc3f
00000070: 69bc 9dbf 713e 2c3f 315f a63e 71b5 3fbf
00000080: ff68 7d3e 39e1 3f40 fd5c 863f 0d50 84bf
00000090: 45f8 47bf 5476 95bf faa4 1c40 7ec9 11bf
000000a0: c3d1 25be 8ea3 9fbf cdc8 90bf 22fc a0be
000000b0: 73e0 5ebf 9e8a 8dbf ce7d aabe 5c51 8ebf
000000c0: 1258 2d3f ed52 fb3e 93f3 74bf 74a0 f2bf
000000d0: c2da 1ebe df60 8a3e 43ea a53f 5af3 223e
000000e0: 7d38 06c0 09fe e9bf 1215 2dc0 1fee febf
000000f0: 7536 afbf 5a18 a4bb 91a2 703f e9dc 1f40
00000100: 058f 4c3f 5e85 d93f 9d05 b640 3cc0 bd40
00000110: 016f a840 7cc1 9e40 c31d 9c40 4df1 cf3f
00000120: 76d8 9fbf d6d6 92bf d44f dbbf fd2c 3f3d
00000130: daa3 853f 27ea d9bf 1d61 c3bf 2ec7 34bf
00000140: 586d 03bf c62d 183f 1e23 47be 6962 94bf
00000150: c304 29c0 f849 b0bf d287 393e 36ee 3e3c
00000160: 8354 a5bf a13f fb3d 0d71 743f fd3e b23e
00000170: 64b5 df3f db59 8a3e ac5b 313e af9a 4c3d
00000180: ad26 6f3e f2f8 7fbf 79bd 3ebf 37a1 52c0
00000190: c605 3bc0 6e52 80c0 8748 b3be 4e8c 123f
000001a0: c392 0140 ff30 2040 4a15 4540 b8c5 8140
000001b0: 56fa b73f d016 2140 a2e2 ba3f 4754 4640
000001c0: 8f1a 9e3e 8493 48bf 829c 88bc 498f 403f
000001d0: 33fa e13f dd74 843e c740 66bf a686 d4bf
000001e0: bf40 58c0 1035 5ac0 9976 ec3e 6bfd 493e
000001f0: e78d 643e a6f7 13c0 b123 52c0 afe6 77bf
-0.7730372 0.022755267 -1.3388296 1.8021183 0.5920077 -0.34695464 -1.1332707 -1.6278763
0.21063879 1.4510449 2.0337245 0.7019216 -0.40103388 0.21390153 0.04065762 0.17387298
1.7942922 -1.5107535 0.20324212 -1.7650614 -0.7767847 1.3036432 -2.177746 -2.4236124
-2.07727 -1.0120494 -0.7245286 1.475001 -1.2323123 0.6728278 0.324945 -0.7488623
0.24747084 2.9981215 1.0497128 -1.033693 -0.78113204 -1.1676736 2.4475694 -0.5694808
-0.16193299 -1.2471788 -1.131128 -0.31442362 -0.8706123 -1.1057928 -0.33299106 -1.1118579
0.6771251 0.49086705 -0.95684165 -1.8955216 -0.15513137 0.27027032 1.2962116 0.15913144
-2.0971978 -1.828065 -2.704411 -1.9916419 -1.3688494 -0.0050077857 0.93998057 2.4978583
0.7990573 1.6993825 5.688185 5.929716 5.2635503 4.9611187 4.878633 1.6245514
-1.2487934 -1.1471813 -1.7133737 0.046673764 1.0440629 -1.7024583 -1.5264012 -0.70616424
-0.5133872 0.59444845 -0.1944699 -1.1592532 -2.6409156 -1.3772573 0.18118218 0.011653474
-1.2916416 0.122679956 0.95485 0.3481368 1.7477231 0.2702168 0.17320126 0.049952205
0.23354597 -0.99989235 -0.7450786 -3.2910898 -2.9222274 -4.010062 -0.3501627 0.5724534
2.0245826 2.5029905 3.0794244 4.0553856 1.4373271 2.5170174 1.4600413 3.098894
0.30879638 -0.7835009 -0.016676191 0.75218636 1.765448 0.2587041 -0.8994259 -1.6603591
-3.3789518 -3.4094887 0.46184233 0.19725578 0.22319756 -2.3119903 -3.2834284 -0.9683637
