Saved Models/O28B_ULA_DFT_2_beam_probing_codebook_128_beam_classifier.pt (torch, 6047 bytes, 6 tensors)

dense1.weight f4 [4, 2]
000000 e5 15 df bd f2 82 35 c3 c3 71 2f c2 62 5b ed c3
       -0.10892848 -181.5115 -43.861095 -474.71393
000010 78 a1 67 c3 06 7c 86 be b5 c2 2f 3e a1 23 14 c3
       -231.63074 -0.26266497 0.17164119 -148.13918

dense1.bias f4 [4]
000000 f7 ed 3c 3e a9 e0 75 3d 13 2d bf 3e b6 4a e7 3e
       0.18450151 0.060028706 0.37339076 0.45174187

dense2.weight f4 [6, 4]
000000 4b d6 03 c1 aa 58 19 c0 6f 27 12 41 e9 b2 69 c0
       -8.239818 -2.3960366 9.134627 -3.6515448
000010 24 d1 df 40 01 0c 34 3e 9a 8f 13 c1 6f e5 a0 40
       6.99428 0.17582704 -9.222559 5.028007
000020 73 db 09 c0 1e e5 81 c1 a6 e9 60 40 23 dd a7 bc
       -2.154019 -16.236874 3.5142608 -0.020491188
000030 ad 00 53 40 00 95 9b bf 00 f6 5d 40 af 39 cd 3f
       3.2969162 -1.2154846 3.4681396 1.6033229
000040 92 f7 d6 40 61 a8 68 3e 98 41 de c0 29 28 37 40
       6.717721 0.22720481 -6.945507 2.8618262
000050 90 6c 9a bd 2c e1 3a be dc c1 57 be ec 92 d8 be
       -0.07540238 -0.18249959 -0.21070045 -0.42299592

dense2.bias f4 [6]
000000 4f 9b ae ba 88 76 99 3b 95 96 f4 3c 44 20 a5 bf
       -0.0013321432 0.0046833195 0.02985696 -1.2900472
000010 cd 9c 8d 3c 7c e2 a1 be
       0.017286683 -0.31618106

dense3.weight f4 [128, 6]
000000 82 6d 4f 40 84 a6 a6 41 63 96 7f 40 c8 dc 30 bd
       3.2410588 20.831306 3.9935539 -0.043179303
000010 c7 33 da c1 80 71 3f bb 90 62 8b 40 a0 1e 98 41
       -27.275282 -0.0029211938 4.3557816 19.014954
000020 86 cd 85 40 69 5a bb bd 82 fc bc c1 5e c9 9a be
       4.1813383 -0.09148104 -23.623295 -0.30231756
000030 fd b5 7b 40 4c de 82 41 5d 5f 98 40 40 f9 6e bf
       3.9329827 16.358543 4.761641 -0.93349075
000040 00 10 93 c1 0c 48 d4 bd 60 d1 a2 c0 b4 0d c2 40
       -18.382812 -0.10365304 -5.0880585 6.0641727
000050 0c e7 a7 40 85 c4 f6 bf 0a a8 a4 c0 8b 39 66 be
       5.246954 -1.9278723 -5.1455126 -0.22482888
000060 50 3b cb c0 37 fc 8f 40 04 73 b2 40 31 a2 12 c0
       -6.3509903 4.499538 5.57654 -2.2911494
000070 06 9b 36 c0 38 5a 58 3d c7 32 b1 c0 fe 69 9a 40
       -2.8532119 0.052820414 -5.5374484 4.8254385
000080 f7 43 b2 40 ca a5 35 c0 f0 36 4f c0 8a cc cd be
       5.5707965 -2.838244 -3.237728 -0.40195113
000090 be 8d d2 c0 8f 79 80 40 0e 91 ad 40 09 22 28 c0
       -6.5798025 4.0148387 5.423957 -2.6270773
0000a0 b7 4c f3 bf bb ae d0 be f0 cf ba c0 32 44 8c 40
       -1.9007787 -0.4075831 -5.837883 4.3833246
0000b0 1c a3 a0 40 f4 36 3c c0 3f 58 1f c0 44 8e a7 be
       5.019911 -2.940854 -2.489761 -0.32725728
0000c0 79 ba 45 c1 ea 9e ad 40 3f 2f 53 40 2d 03 4c bf
       -12.358026 5.4256487 3.2997587 -0.79692346
0000d0 b6 36 83 c0 90 5f 70 bd 95 58 74 c1 c6 3d b7 40
       -4.1004286 -0.058684886 -15.271626 5.7262907
0000e0 cc 57 33 40 0a 7c cd be d5 08 94 c0 24 bd 14 be
       2.8022337 -0.40133697 -4.626078 -0.14525276
0000f0 b2 c3 89 c1 88 6d aa 40 16 d8 f7 3f 36 47 f8 bd
       -17.220554 5.3258705 1.9362819 -0.121229574
000100 c4 43 7b c0 aa 57 c0 be f1 c0 af c1 09 64 c4 40
       -3.926011 -0.37566882 -21.96921 6.1372113
000110 15 13 3c 3f 2f 71 47 be 9e d5 bb c0 a4 8b 47 3e
       0.73466617 -0.1947677 -5.8698263 0.19486862
000120 9c a8 d8 c1 16 af 00 41 e1 18 0c c1 81 a0 41 bc
       -27.082329 8.042746 -8.756074 -0.011818052
000130 df 52 3e c1 47 b5 81 be c1 84 1e c2 19 81 ae 40
       -11.895232 -0.25333616 -39.629642 5.453259
000140 5c 10 b3 3f a4 5f aa 3f d7 55 1b c1 5b 10 c0 be
       1.3989367 1.3310437 -9.708457 -0.37512478
000150 a0 9a 3c c1 93 42 b4 40 1b 09 26 c0 cc ca e5 be
       -11.78775 5.6331267 -2.5943058 -0.44881284
000160 a7 bc fd c0 00 79 ec ba 84 a5 24 c2 5c 4a ec bd
       -7.929279 -0.0018041432 -41.161636 -0.115376204
000170 bc cf c0 bf ac ae 1b c0 0d c0 06 40 10 e3 4f 3e
       -1.5063396 -2.4325361 2.1054718 0.20301461
000180 54 48 35 c2 1a 79 ce be 3a e1 4d c0 1c fd 15 c0
       -45.320633 -0.40326768 -3.2168717 -2.3435736
000190 fe 0c 0b 40 40 f8 2a bd 20 d9 e2 c2 98 9c 58 3f
       2.172668 -0.041740656 -113.42407 0.84613943
0001a0 74 8d 22 c0 67 b5 13 c0 08 1b f7 3e 98 6d 7a 3d
       -2.5398836 -2.307947 0.4826281 0.061139673
0001b0 71 ee 0b c2 52 c9 0b 40 57 61 ff c0 7e 48 28 c0
       -34.982853 2.1841626 -7.9806323 -2.6294246
0001c0 23 af b8 bf c3 12 53 be 39 77 c0 c2 e3 e8 17 40
       -1.4428447 -0.20612626 -96.23286 2.3735893
0001d0 e4 58 e2 c0 fe b3 14 c0 99 15 09 c0 06 30 71 be
       -7.073351 -2.3234859 -2.1419432 -0.23553476
0001e0 23 d8 1d c2 04 1f fb 3f 18 98 26 c1 6c ca 16 c0
       -39.46107 1.961884 -10.412132 -2.3561049
0001f0 2a 19 cb bf 10 4d 2b be 51 75 44 c2 8a 00 90 40
       -1.5867054 -0.16728616 -49.114567 4.500066
000200 0a bf 30 c2 9a 3b e6 3e e4 5f 06 c1 7e b8 c9 3e
       -44.18656 0.44967347 -8.398411 0.3939857
000210 70 aa 3e c2 06 61 a0 40 2c df 6b c2 05 92 ae 3e
       -47.666443 5.0118437 -58.96794 0.3409578
000220 b2 0d 20 c1 55 43 61 be 3d 1b 8a c2 36 be 81 40
       -10.003344 -0.21998341 -69.0532 4.054469
000230 7c 77 3b c2 2d aa 96 3f 74 0a cb c0 cc a2 01 be
       -46.866684 1.1770684 -6.345026 -0.12659758
000240 45 4d 4e c2 47 46 30 40 29 2d 16 c2 41 9e 0c 40
       -51.57546 2.7542894 -37.5441 2.197159
000250 86 5c e4 bf b8 9f 31 3d ee 8c 13 c2 5d d0 da 3f
       -1.7840736 0.04336521 -36.887627 1.7094837
000260 59 7c 52 c2 7e 6b 77 3f a9 39 ba bf ac 16 cd 3e
       -52.621433 0.96648395 -1.4548846 0.4005636
000270 b0 7f e5 c1 e4 b3 d6 3f d5 a6 8f c2 aa f3 85 3f
       -28.687347 1.6773648 -71.82584 1.0464985
000280 2d 6d 63 c0 00 88 98 39 a4 eb e7 c1 e9 2f 33 c0
       -3.5535386 0.00029093027 -28.990059 -2.7997992
000290 d7 cc 94 c2 ac e6 c4 3f 7d 12 02 40 f0 8c 15 be
       -74.40008 1.5382895 2.0323784 -0.14604545
0002a0 e2 ae d0 c1 fe 72 b5 3f b0 93 a8 c2 f4 05 4c 40
       -26.085392 1.4175718 -84.28845 3.1878633
0002b0 79 ff f9 3f 00 eb d9 bd 82 d8 02 c2 24 03 7f 40
       1.9531089 -0.10640526 -32.711433 3.9845667
0002c0 ee b7 b3 c2 74 bd ad 40 b9 fc 29 bd 70 94 4a 3e
       -89.85924 5.4293766 -0.04150078 0.19783187
0002d0 8c ae 0d c2 05 fb a5 40 d3 39 a6 c2 82 16 06 41
       -35.420456 5.186892 -83.11294 8.380495
0002e0 dc 45 2e 3e f2 a4 81 3e 0e d4 9a c2 20 72 bb 40
       0.17018837 0.25321156 -77.41417 5.8576813
0002f0 68 55 9a c2 d6 96 3f 41 26 d1 0b 40 85 6a 47 be
       -77.16681 11.974325 2.1846404 -0.19474228
000300 a4 34 f9 c2 14 e1 cd 40 a5 21 cc c2 30 7b 14 41
       -124.60281 6.4337254 -102.06571 9.280075
000310 42 76 21 40 14 87 28 3e 6e fd 7a c2 8f 33 2c 41
       2.522843 0.16457778 -62.74749 10.762588
000320 42 53 0a c1 dd 11 bd be 9d 4d 2b c1 80 9c 16 bb
       -8.645327 -0.3692769 -10.706449 -0.0022981465
000330 4b 09 25 c2 82 12 81 40 95 7b 94 c1 33 36 87 c2
       -41.259075 4.0335093 -18.560343 -67.60586
000340 8d 6e e8 c0 95 15 b3 be 8d f2 ff c1 60 b4 84 40
       -7.263495 -0.34977403 -31.993433 4.1470184
000350 29 d4 4b c1 08 21 c6 bf 9a 4e 43 c0 52 1c 65 be
       -12.739297 -1.547883 -3.0516725 -0.22374085
000360 59 35 cf c2 48 51 02 40 93 c6 26 c2 f1 d1 84 3e
       -103.604195 2.036211 -41.69392 0.25941423
000370 13 13 78 bf c0 5f 3d 3d 90 7a 80 c2 71 9d 49 3f
       -0.96904105 0.046233892 -64.23938 0.7875586
000380 09 34 82 c1 f7 5b ad 3f cd ce a3 3f a4 64 12 3e
       -16.275408 1.354369 1.2797486 0.14296204
000390 55 27 12 c2 2d 62 0b 40 7c df 8c c1 3c ea 2d 3e
       -36.53841 2.1778672 -17.609123 0.16983885
0003a0 b3 bf fe bf 90 72 8a be a1 2d 0d 40 3a 58 4b 3f
       -1.9902252 -0.2704053 2.20591 0.794315
0003b0 aa a9 89 c2 87 bc 23 c0 62 27 7e bf d0 ef 5a bd
       -68.831375 -2.5583818 -0.99278843 -0.05345136
0003c0 47 48 8b c0 60 f8 93 c0 9d b2 67 c2 66 84 fc bf
       -4.352573 -4.624069 -57.924427 -1.9727905
0003d0 f0 0d 4e c1 21 44 23 be 81 81 33 c1 2b 60 dd 3e
       -12.878403 -0.15943958 -11.219117 0.43237433
0003e0 c6 f1 fe c1 fc ec 58 c0 2e 5b bb 3e 5c cb 92 3d
       -31.868053 -3.3894644 0.36593002 0.07167694
0003f0 7d d2 31 c1 ba 48 cd 40 fb 0c e7 c1 97 c0 96 c0
       -11.113889 6.4151278 -28.881338 -4.7110095

dense3.bias f4 [128]
000000 8a 0f ba bf 1e e3 f4 bf cf fa 01 c0 3f 6f 9e 3f
       -1.4535992 -1.9131811 -2.0309331 1.23777
000010 e8 b8 92 3f f8 8a 8b 3f 6b ba 68 3f 6b 33 72 3f
       1.1462679 1.0901785 0.9090945 0.9460971
000020 a3 0b 3d 3f 40 bb 4a 3f 3b cf 47 3f 43 2f 5d 3f
       0.7384588 0.7919197 0.78050584 0.8640024
000030 74 6a 5f 3f 6b f4 d0 bd d9 f9 6a bf ed 7f e7 be
       0.8727181 -0.10202869 -0.9178749 -0.45214787
000040 dd 63 bb be bb f5 26 bf c8 7b db be 5e 24 50 bf
       -0.36599627 -0.65218705 -0.42867875 -0.8130549
000050 e6 23 34 bf 55 93 b4 3f 45 69 e3 3f d7 54 97 3f
       -0.70367277 1.4107462 1.7766501 1.1822766
000060 ef 40 9c be df 98 bd 3f 44 72 9c 3f ba 72 8d 3f
       -0.3051829 1.4812278 1.2222371 1.1050637
000070 5c 5f ed bf 50 ba a0 c0 91 83 15 c1 5d 12 7c c1
       -1.8544726 -5.022743 -9.344621 -15.754483
000080 79 9e 99 c1 86 67 9f c0 92 54 13 3c 66 b4 1f c0
       -19.20238 -4.981387 0.008992331 -2.4953856
000090 fc 32 24 bf 71 45 97 bf 48 6d 60 bf 95 29 83 3f
       -0.64140296 -1.1818067 -0.8766675 1.0247065
0000a0 83 73 b8 3e 14 7d 83 be 87 f7 60 3e 3e 5a 54 3d
       0.36025628 -0.25681365 0.21969424 0.051843874
0000b0 b2 bd cb 3d c3 b6 2f bf ca b8 93 3d 42 ea ab bf
       0.09948291 -0.6863825 0.0721298 -1.3430865
0000c0 e0 ef 05 be 19 36 4e be 9b 5d 12 3f e9 fc 50 3e
       -0.13079786 -0.20137824 0.5717408 0.20408978
0000d0 4a b4 55 3f eb 0d 03 3e f5 f5 bb bf 7d 5d 8c 3d
       0.83478224 0.12798278 -1.4684435 0.06853769
0000e0 a0 3e 99 bf d3 70 9e bf 32 e7 4f bf 2e 44 ad bd
       -1.1972237 -1.2378181 -0.8121215 -0.0846027
0000f0 98 9d aa 3e b0 c4 7b c0 1f fc b6 bf 6c 63 35 3f
       0.3332336 -3.9338799 -1.4295691 0.7085483
000100 6e 2f 27 3f a1 ee 97 bf c2 e7 96 be 5f dd da be
       0.65306747 -1.1869699 -0.29473692 -0.42747018
000110 dc 64 45 c0 2e 83 f4 be f2 bc a0 3e 25 69 db bc
       -3.084281 -0.47756332 0.31394154 -0.026783535
000120 4b 4b 80 3f fd ec bd be 25 3e 19 3f 15 5e 3f bf
       1.0022978 -0.3709487 0.5986045 -0.7475293
000130 40 c5 3c bf a5 91 a4 be 25 a1 cd be e2 69 4a bf
       -0.7373848 -0.32142368 -0.40162006 -0.79067814
000140 e3 22 a2 bf 11 1f 4f c0 41 3d 15 c0 97 42 86 bf
       -1.2666897 -3.2362711 -2.3318636 -1.0489072
000150 a5 23 fc be cb 49 6f bf 34 35 d2 bf ba 88 7a bf
       -0.49245945 -0.93471974 -1.6422486 -0.9786488
000160 f2 15 eb be a5 59 3b c0 30 95 75 c0 25 d4 44 c0
       -0.4591518 -2.9273465 -3.8372307 -3.0754483
000170 4e 29 0c bf 62 3f d1 3f 94 ef b5 3e 2d 44 3d 3f
       -0.54750526 1.6347468 0.35534346 0.73932153
000180 e7 50 74 bd ce 2e f9 c0 14 e3 1d c1 cb 7c df c0
       -0.059647467 -7.7869635 -9.867939 -6.9839835
000190 77 82 fa c0 8a 24 98 c0 87 a7 b1 c0 59 d1 d1 c0
       -7.828426 -4.7544603 -5.5517 -6.556805
0001a0 84 63 fc c0 0a 52 cb c0 15 2f 74 c0 cd e7 af c0
       -7.887148 -6.3537645 -3.8153737 -5.497046
0001b0 d6 03 0a c0 d5 79 6b c0 5a b8 7e c0 da e1 1f c0
       -2.1564841 -3.679311 -3.980002 -2.49816
0001c0 fc 67 42 3e e6 ce a6 be 58 c2 be 3f 63 ea b6 3f
       0.1898498 -0.32579726 1.4903059 1.4290279
0001d0 2d 40 00 40 11 47 fb 3f 6a 33 1c 40 66 3b 17 40
       2.003917 1.9631063 2.440638 2.3630004
0001e0 26 5d 2b 40 27 01 31 40 25 ae 47 40 f9 7a 3b 40
       2.6775603 2.7656953 3.120004 2.9293807
0001f0 1d 4c 4a 40 d5 c1 48 40 dc 41 1b 40 48 7e 69 40
       3.1608956 3.1368306 2.4258947 3.6483326
