Saved Models/O28B_ULA_trainable_10_beam_probing_codebook_128_beam_classifier.pt (torch, 24423 bytes, 7 tensors)

codebook.theta f4 [64, 10]
-0.8597118 2.549458 3.1658306 3.3663883 2.3232121 3.1642318 4.440023 3.1105628
8.26113 2.742314 3.777508 0.32964796 7.21571 4.121556 7.055277 2.6199849
3.1112127 4.6229014 3.5225453 3.7961178 4.5940633 0.024129614 2.8980691 2.3919013
3.7686198 4.534022 6.771418 7.0707006 5.88584 3.1980574 3.398185 5.299285
5.4364 3.8130636 5.2869577 0.16504975 0.9062822 4.1707706 2.0049436 -0.9138768
-1.7667136 3.5514405 4.007637 3.8385437 6.486964 6.2347655 0.25161913 4.8734155
3.5495093 1.7075924 4.1730914 0.23600793 6.38045 5.619518 1.8123786 1.8227823
1.8441597 2.733188 1.243938 4.3460555 2.0318513 1.21688 1.6187344 0.6323052
6.7457633 3.7093937 0.4617683 3.8133235 2.5826283 9.705733 5.2039833 2.0481846
0.24230044 5.936241 3.404942 6.959158 5.17852 2.9842954 7.956883 5.1294336
2.9092574 3.1414464 3.5066922 3.3696167 0.39615795 -0.89124924 2.547928 5.047042
3.5770595 -1.3900452 -0.12984985 -0.4283834 -0.016122226 4.51863 5.512098 2.1611404
1.6087807 1.8982139 6.1754217 1.3854897 3.2213812 -2.6411662 2.6803544 1.2700028
0.4724023 4.454814 2.7586546 5.042538 2.3314672 4.549785 3.1695879 9.360832
4.8778915 7.4197927 4.775418 2.9146535 4.2707195 2.2594123 4.8437424 0.50785923
4.791865 2.7855327 3.5886881 1.013839 4.52405 5.5889373 3.3574555 4.970301
1.4785424 5.489614 7.454341 1.294138 0.10141494 -0.49110442 1.0468036 2.0932431
-0.43170023 1.6967974 3.4309146 7.129126 6.7722926 -3.4906707 2.6545103 2.0175579
-2.5080845 4.4935894 1.8179557 3.2037914 1.697157 4.1213174 0.54962283 2.4691238
6.605911 -3.092464 3.0317297 2.079602 7.2383966 7.356707 3.9660134 0.6364415
5.1382546 3.5392795 3.3412833 9.52019 -2.310901 6.2398534 1.3628141 2.1076186
6.8961024 4.833684 2.2571454 0.3543211 5.0049696 4.924447 1.1516497 2.1674383
-0.11072738 6.442334 2.917067 5.8177176 1.9082819 2.6894627 2.2621312 7.5132766
1.4949034 7.9115343 5.487661 2.1921346 5.730486 0.7704532 4.7489166 1.9430751
6.820531 4.4317174 0.56075186 3.8813157 2.836151 5.282018 7.897345 -2.8820336
3.4421382 2.0529666 3.300825 -0.0525386 2.0486991 5.6717806 7.2559237 2.1425233
3.068837 -0.10422339 0.7100294 7.3151903 -0.49571675 5.8909225 0.04412964 3.0240047
3.1560876 -1.3105549 3.2506368 3.614695 -0.079335295 4.4763093 2.6840959 7.0166597
5.2087455 5.4134674 1.9846702 2.137218 4.653528 -0.79547495 3.033052 -1.3385847
5.292629 3.384657 3.4488525 4.278887 0.33735278 2.852995 1.3223063 3.01097
0.76221645 4.036009 3.2752037 1.5190402 6.086895 6.9011765 4.260527 2.3019466
3.7263587 -0.74762654 -1.6573646 1.6897353 6.1017795 5.1746063 4.351904 4.311944
00000000: 1316 5cbf 522a 2340 f89c 4a40 e872 5740
00000010: 82af 1440 c682 4a40 ab14 8e40 7613 4740
00000020: 972d 0441 1382 2f40 b1c2 7140 9ec7 a83e
00000030: 19e7 e640 c9e3 8340 d4c4 e140 d5ad 2740
00000040: 1c1e 4740 cfee 9340 6271 6140 98f3 7240
00000050: 9102 9340 78ab c53c f779 3940 e914 1940
00000060: 1131 7140 b516 9140 75af d840 2e43 e240
00000070: cd58 bc40 f9ac 4c40 dd7b 5940 be93 a940
00000080: fdf6 ad40 3c09 7440 c22e a940 cd02 293e
00000090: 1c02 683f f476 8540 ff50 0040 d4f3 69bf
000000a0: ac23 e2bf cd4a 6340 903e 8040 b3aa 7540
000000b0: 3695 cf40 3383 c740 39d4 803e 05f3 9b40
000000c0: 292b 6340 6392 da3f f789 8540 10ac 713e
000000d0: a52c cc40 17d3 b340 06fc e73f ee50 e93f
000000e0: 6d0d ec3f 8dec 2e40 5c39 9f3f e312 8b40
000000f0: da09 0240 b9c2 9b3f b032 cf3f c1de 213f
00000100: 4bdd d740 b566 6d40 e56c ec3e 7e0d 7440
00000110: c849 2540 af4a 1b41 0887 a640 7515 0340
00000120: 9b1d 783e b0f5 bd40 92ea 5940 6cb1 de40
00000130: 70b6 a540 b2fe 3e40 c99e fe40 5224 a440
00000140: 4631 3a40 750d 4940 a56d 6040 cda7 5740
00000150: 37d5 ca3e e928 64bf 4111 2340 5e81 a140
00000160: 8bee 6440 00ed b1bf 5cf7 04be 1255 dbbe
00000170: c212 84bc 9e98 9040 1b63 b040 2050 0a40
00000180: 87ec cd3f acf8 f23f 0e9d c540 ba57 b13f
00000190: 1c2b 4e40 de08 29c0 ed8a 2b40 748f a23f
000001a0: b7de f13e d68d 8e40 cc8d 3040 795c a140
000001b0: c236 1540 d797 9140 87da 4a40 f8c5 1541
000001c0: b017 9c40 f16e ed40 39d0 9840 af89 3a40
000001d0: bca9 8840 369a 1040 f0ff 9a40 1003 023f
000001e0: f556 9940 2b46 3240 11ad 6540 7ac5 813f
000001f0: 05c5 9040 93d8 b240 8de0 5640 b50c 9f40
00000200: e140 bd3f ebaa af40 f689 ee40 50a6 a53f
00000210: a3b2 cf3d 0a72 fbbe a9fd 853f b2f7 0540
00000220: d007 ddbe a830 d93f 1b94 5b40 cd21 e440
00000230: 9fb6 d840 2667 5fc0 7fe3 2940 ab1f 0140
00000240: 7584 20c0 7ccb 8f40 c6b2 e83f eb0a 4d40
00000250: 713c d93f d5e1 8340 15b4 0c3f 2006 1e40
00000260: 9f63 d340 eeea 45c0 dc07 4240 3318 0540
00000270: f2a0 e740 256a eb40 2ad3 7d40 d5ed 223f
00000280: 956c a440 8e83 6240 96d7 5540 b352 1841
00000290: cde5 13c0 e1ac c740 b170 ae3f 39e3 0640
000002a0: dfac dc40 8aad 9a40 1275 1040 9369 b53e
000002b0: b628 a040 1295 9d40 4269 933f 4fb7 0a40
000002c0: 09c5 e2bd 9a27 ce40 3ab1 3a40 be2a ba40
000002d0: 9542 f43f 2820 2c40 c2c6 1040 c36c f040
000002e0: ff58 bf3f 4a2b fd40 eb9a af40 ef4b 0c40
000002f0: 2460 b740 6c3c 453f 20f7 9740 afb6 f83f
00000300: ca41 da40 a1d0 8d40 6f8d 0f3f 7a67 7840
00000310: 7f83 3540 4b06 a940 0db7 fc40 3d73 38c0
00000320: fe4b 5c40 ce63 0340 b840 5340 b732 57bd
00000330: e31d 0340 3a7f b540 8730 e840 1a1f 0940
00000340: d367 4440 1373 d5bd 7dc4 353f 0a16 ea40
00000350: 96ce fdbe 7082 bc40 48c1 343d 4b89 4140
00000360: 57fd 4940 43c0 a7bf 6f0a 5040 2a57 6740
00000370: 8b7a a2bd ed3d 8f40 3ac8 2b40 7a88 e040
00000380: 0bae a640 203b ad40 ac09 fe3f 2ec8 0840
00000390: b4e9 9440 3fa4 4bbf 861d 4240 be56 abbf
000003a0: 375d a940 389e 5840 00ba 5c40 a4ec 8840
000003b0: 81b9 ac3e 7897 3640 5541 a93f bcb3 4040
000003c0: 9e20 433f fc26 8140 f09c 5140 e96f c23f
000003d0: d8c7 c240 70d6 dc40 3d56 8840 1853 1340
000003e0: a97c 6e40 7464 3fbf 8624 d4bf 3f49 d83f
000003f0: c741 c340 6096 a540 cc42 8b40 72fb 8940

dense1.weight f4 [20, 10]
-3.4519043 -4.995978 0.023978062 7.0410943 -4.418314 0.16113183 -1.5012243 2.6229274
2.6197436 6.1172605 -1.140466 1.4229665 1.6621894 -17.164728 -8.150222 1.3028052
-2.6029086 7.2607074 0.43236405 2.4111567 0.33176687 0.4874567 0.09436001 -0.30917567
9.253652 -3.4245894 9.298958 10.350934 0.07820329 0.032558553 -0.1766563 -0.40590715
-0.64220256 -0.11122557 0.05029447 -0.16336888 0.038351778 -0.2460683 -0.06923394 -0.16559212
4.922419 0.55538946 -1.3903885 2.7588115 -6.713339 4.479469 2.6556056 12.726561
-41.33133 -6.2813354 31.689198 -0.4584165 -1.0173838 3.9886844 2.4706023 0.24421605
5.9546657 6.279322 -1.8081588 0.90161383 -1.0540733 7.3700185 2.8385453 -0.9605424
2.1742318 -0.049418937 2.9285614 -4.935361 -42.45825 5.7846146 5.09744 5.9695754
3.0514984 1.498634 -4.5244575 -13.524317 -7.564843 4.445553 -16.823734 -69.84227
-1.6358867 8.730286 -173.17686 -42.84103 -0.014702693 -84.79493 0.47036064 6.250032
3.9975436 -13.0665455 -0.28661838 -0.27748057 -0.51412153 -0.50765973 -0.2815319 -0.5714939
-0.06176868 -0.56130016 -0.028036749 -0.54028744 3.8664982 -0.99057055 -0.875012 1.913338
5.596301 0.85048413 3.3708692 -13.223638 -73.57238 -1.6200458 -0.20274569 -0.03660228
-0.41112387 -0.0027011367 -0.2885971 -0.09578872 0.0026724462 -0.0048680445 -0.211687 -0.20202741
5.008516 3.4672422 -2.1457272 3.4912472 -131.06174 -2.8207936 -18.308817 4.3611
0.36530006 1.446551 -1.9917023 -1.9727752 -6.021326 0.9541236 0.12372839 0.11849521
-57.953148 7.423004 21.563738 -3.2908893 3.2565868 -14.648202 2.8435354 1.1576053
7.3161964 3.9278839 -0.82458127 -31.163359 2.405693 -0.7068311 -3.1228745 1.3204956
-1.6917797 -3.0612435 5.4861865 2.7477183 4.5630727 0.13248149 4.142782 10.70349
1.0991381 17.24744 -1.7493796 -2.6714401 3.9681141 3.5026944 -15.483034 -8.309352
-3.1165855 -7.4388175 -0.013945302 -0.23271227 -0.39256582 -0.0809508 0.0017725835 0.0919043
-0.19095829 -0.26788387 -0.045724217 -0.38657898 -0.35135704 0.5116376 1.9417986 -1.4663589
-15.169094 -1.2880695 -22.973392 6.7253118 3.8521705 1.5963514 1.1521058 9.766045
-0.6839053 -0.026436819 3.8948975 1.8905438 3.0333538 7.1061015 13.140961 -1.477012
00000000: 00ec 5cc0 0ddf 9fc0 a46d c43c a550 e140
00000010: d462 8dc0 beff 243e 1e28 c0bf 0bde 2740
00000020: e1a9 2740 99c0 c340 cafa 91bf c423 b63f
00000030: 9fc2 d43f 5d51 89c1 4f67 02c1 52c2 a63f
00000040: 0e96 26c0 b757 e840 d25e dd3e 6450 1a40
00000050: 59dd a93e ed93 f93e d23f c13d 464c 9ebe
00000060: f50e 1441 792c 5bc0 88c8 1441 6d9d 2541
00000070: 0c29 a03d 1e5c 053d 64e5 34be 10d3 cfbe
00000080: 6367 24bf 3bca e3bd 9301 4e3d 2c4a 27be
00000090: c116 1d3d 54f9 7bbe 86ca 8dbd fb90 29be
000000a0: 7584 9d40 012e 0e3f 40f8 b1bf 5e90 3040
000000b0: acd3 d6c0 cf57 8f40 71f5 2940 fe9f 4b41
000000c0: 4853 25c2 b300 c9c0 7a83 fd41 91b5 eabe
000000d0: a239 82bf 9b46 7f40 591e 1e40 c613 7a3e
000000e0: 9f8c be40 35f0 c840 bf71 e7bf 2ad0 663f
000000f0: e0eb 86bf 31d7 eb40 baaa 3540 1be6 75bf
00000100: 9d26 0b40 836b 4abd 8d6d 3b40 7aee 9dc0
00000110: 3fd5 29c2 901b b940 3a1e a340 c306 bf40
00000120: c04b 4340 3dd3 bf3f 5bc8 90c0 9a63 58c1
00000130: 3213 f2c0 f841 8e40 0297 86c1 3eaf 8bc2
00000140: bc64 d1bf 40af 0b41 472d 2dc3 375d 2bc2
00000150: 90e3 70bc 0197 a9c2 1cd3 f03e 4300 c840
00000160: c1d7 7f40 9210 51c1 a5bf 92be ef11 8ebe
00000170: 789d 03bf fdf5 01bf f324 90be 6d4d 12bf
00000180: 2801 7dbd 5eb1 0fbf 53ad e5bc 4750 0abf
00000190: b574 7740 0896 7dbf c900 60bf 42e8 f43f
000001a0: e614 b340 54b9 593f 52bc 5740 0594 53c1
000001b0: 0f25 93c2 a95d cfbf 919c 4fbe 46ec 15bd
000001c0: d47e d2be 8e05 31bb 00c3 93be e02c c4bd
000001d0: 3524 2f3b 1e84 9fbb 7ac4 58be 46e0 4ebe
000001e0: c345 a040 4ce7 5d40 9853 09c0 9870 5f40
000001f0: ce0f 03c3 e287 34c0 7578 92c1 228e 8b40
00000200: 9c08 bb3e 9528 b93f 1af0 febf e683 fcbf
00000210: b4ae c0c0 7241 743f 4f65 fd3d 9ead f23d
00000220: 06d0 67c2 4089 ed40 8982 ac41 ee9d 52c0
00000230: eb6b 5040 095f 6ac1 7cfc 3540 692c 943f
00000240: 481e ea40 7362 7b40 c217 53bf 8f4e f9c1
00000250: e0f6 1940 e2f2 34bf 2ddd 47c0 0006 a93f
00000260: 3d8c d8bf 6aeb 43c0 d78e af40 9eda 2f40
00000270: b104 9240 3aa9 073e ac91 8440 7f41 2b41
00000280: 8fb0 8c3f c2fa 8941 aceb dfbf e0f8 2ac0
00000290: 95f5 7d40 252c 6040 82ba 77c1 1bf3 04c1
000002a0: 2376 47c0 cb0a eec0 d67a 64bc 204c 6ebe
000002b0: 63fe c8be 88c9 a5bd 0856 e83a 5238 bc3d
000002c0: 928a 43be 1328 89be 5149 3bbd aeed c5be
000002d0: 12e5 b3be affa 023f db8c f83f a6b1 bbbf
000002e0: 9cb4 72c1 76df a4bf 82c9 b7c1 c135 d740
000002f0: f689 7640 3e55 cc3f 3478 933f b841 1c41
00000300: 6b14 2fbf 0792 d8bc 0046 7940 57fd f13f
00000310: 7822 4240 2f65 e340 6041 5241 bb0e bdbf

dense1.bias f4 [20]
0.12864524 0.32482195 0.061433148 -0.5074474 0.15066642 0.008389806 0.14273344 0.07905145
0.069743566 -0.44105145 0.15746129 -0.23753041 0.09739119 0.06835502 0.10067732 0.015867533
0.10465806 -0.4087225 0.31521988 0.015520206
00000000: 94bb 033e 104f a63e 53a1 7b3d 13e8 01bf
00000010: 4c48 1a3e 6675 093c b728 123e bae5 a13d
00000020: b7d5 8e3d 7fd1 e1be 883d 213e 2c3b 73be
00000030: 0875 c73d b7fd 8b3d e92f ce3d a1fc 813c
00000040: f756 d63d 1344 d1be 8064 a13e 7648 7e3c

dense2.weight f4 [30, 20]
-0.18932754 -0.0040743053 -0.14960092 -0.011024103 -0.15122902 -0.28845096 -0.17657903 -0.07829393
0.054664165 -0.0589903 -0.34528127 0.043456197 -0.16292365 -0.14598382 0.03155259 -0.33323392
-0.13390331 -0.11142739 -0.13670076 -0.17536983 -1.423354 0.51711035 -4.760525 -0.2526808
3.5068643 -1.4309886 -1.7868825 -6.076962 -9.714577 -0.057750106 2.546733 -0.12041905
0.012743881 2.3649507 1.6570299 2.30511 -0.5863083 -0.071186036 0.24228996 -8.069027
-2.4841664 0.6310365 -4.23964 0.0015660455 6.161639 -3.1047764 5.5921297 1.3955395
1.8002474 -0.15115915 5.6481023 0.20609805 1.2451975 -12.629118 -0.08886525 -2.2617655
-0.94238985 0.03612094 -3.97536 -3.089303 -3.595945 6.0922585 0.3700762 0.041785173
0.546805 -0.48510537 1.017618 -4.7692027 -0.057078656 0.0736053 -1.1680788 -0.10311239
0.1247422 0.92266744 -5.0587206 0.5003452 0.5121279 0.095242 -0.86528784 -1.587981
-1.8436663 -0.33014867 -5.200671 0.22946401 -4.8260865 -3.042276 -3.8800755 5.6157875
4.9233212 -0.037933573 -5.711553 0.12768242 12.289706 0.38385007 1.1343018 -6.4817076
1.3976303 -0.17351896 5.0566177 -3.9025934 -1.635266 1.023703 -2.684965 -0.022180963
-3.9695926 -16.176212 0.22127171 -1.2333533 0.27426377 -0.030519962 2.3359432 -0.15853393
-7.6408825 0.7159613 3.9923277 2.9539335 1.603698 0.25701275 1.2802829 -1.631824
0.08607125 -0.6438921 0.50625163 -0.056449547 2.2912352 -9.121154 -3.4260843 -0.57324785
6.9767756 -0.15469877 1.1637168 0.08950776 -5.6314206 2.1326914 -5.1708865 -4.121322
4.0156493 -0.16214846 -1.3503689 -3.539346 2.9130664 -0.35352778 -4.43303 0.09136727
-0.6772251 -15.252345 -0.55398077 -3.1679704 -6.2757196 0.18138054 -0.51435554 -0.04031369
13.412474 -1.4851058 -1.0368321 -0.23439787 -0.9905063 -0.0558152 2.355347 -2.757833
-0.6821149 0.72445047 0.5277872 0.27704307 1.8714089 -0.545102 -1.9993278 -2.1518402
-0.58008695 -0.030489413 0.8301171 -0.15116596 0.72627616 0.78178465 -0.17934608 1.3491529
0.18138607 -0.080356844 -1.1526556 -1.0269806 0.21264572 -0.53289306 0.2593766 -0.06766541
-0.0949532 0.32160723 -1.1899971 -0.39559337 -1.2194798 0.00916136 1.3849567 0.05264919
1.8695323 0.05980553 0.019714173 1.5162762 0.099359974 -0.16020247 0.11604229 -1.1892358
-0.39093524 -0.47170794 -0.44422796 0.15539163 0.009740655 -0.03654347 -0.26315647 -0.16309656
-0.2551414 0.06266266 -0.23797959 0.1309793 -0.39745113 0.13022943 -0.10831558 -0.33602428
0.014621131 0.09125784 -0.051573157 -0.15474384 -4.6292768 2.9594662 0.45969653 0.031529926
-4.5873313 -0.80264854 0.3801454 1.6971437 5.626685 -0.07458252 -1.3269975 -0.011756042
-8.189274 -1.0338273 0.25582 1.3581382 1.5901777 0.035255328 -0.24368115 -5.7873464
-0.99421006 -0.746305 0.30219716 -0.07624235 -1.1102778 -0.064339176 -0.33193356 -0.24217866
-0.79869246 -0.2160436 0.4063596 -0.040250435 -0.7581386 0.5580812 2.0023077 -0.062444195
00000000: 14df 41be c081 85bb fc30 19be 709e 34bc
00000010: c8db 1abe d8af 93be 22d1 34be 9158 a0bd
00000020: 88e7 5f3d d09f 71bd b5c8 b0be 20ff 313d
00000030: 75d5 26be c87c 15be 4a3d 013d a39d aabe
00000040: f31d 09be 0b34 e4bd 49fb 0bbe 2694 33be
00000050: 7730 b6bf 5861 043f 3956 98c0 615f 81be
00000060: 7770 6040 a22a b7bf 91b8 e4bf 7976 c2c0
00000070: e86e 1bc1 608b 6cbd acfd 2240 439e f6bd
00000080: b6cb 503c 5a5b 1740 8e19 d43f ec86 1340
00000090: 4d18 16bf fcc9 91bd dc1a 783e bc1a 01c1
000000a0: 95fc 1ec0 9c8b 213f 22ab 87c0 c443 cd3a
000000b0: 262c c540 a8b4 46c0 baf2 b240 0aa1 b23f
000000c0: 826e e63f 77c9 1abe 41bd b440 5e0b 533e
000000d0: a262 9f3f de10 4ac1 fcfe b5bd c4c0 10c0
000000e0: 7640 71bf 8df3 133d 4c6c 7ec0 24b7 45c0
000000f0: f623 66c0 c8f3 c240 a17a bd3e ee26 2b3d
00000100: 6afb 0b3f bb5f f8be 4e41 823f 4f9d 98c0
00000110: 4fcb 69bd 60be 963d 9b83 95bf 972c d3bd
00000120: d778 ff3d ef33 6c3f 0ae1 a1c0 9f16 003f
00000130: d01a 033f 3d0e c33d 8183 5dbf f642 cbbf
00000140: 42fd ebbf 3f09 a9be e66b a6c0 9df8 6a3e
00000150: 4d6f 9ac0 a6b4 42c0 2853 78c0 88b4 b340
00000160: d98b 9d40 3c60 1bbd 0bc5 b6c0 2ebf 023e
00000170: a3a2 4441 ff87 c43e cd30 913f 266a cfc0
00000180: 8de5 b23f f4ae 31be d0cf a140 17c4 79c0
00000190: 6550 d1bf b308 833f 77d6 2bc0 dab4 b5bc
000001a0: ce0d 7ec0 e268 81c1 0d95 623e 85de 9dbf
000001b0: 4d6c 8c3e 0005 fabc 1880 1540 b856 22be
000001c0: 1c82 f4c0 3d49 373f 4c82 7f40 3f0d 3d40
000001d0: fa45 cd3f 2d97 833e 4fe0 a33f 9cdf d0bf
000001e0: 2046 b03d 1dd6 24bf b599 013f a437 67bd
000001f0: 99a3 1240 3ff0 11c1 f744 5bc0 5fc0 12bf
00000200: bf41 df40 5b69 1ebe acf4 943f d84f b73d
00000210: 9934 b4c0 047e 0840 e777 a5c0 dfe1 83c0
00000220: 3380 8040 3f0a 26be e3d8 acbf a584 62c0
00000230: ae6f 3a40 9801 b5be 62db 8dc0 c31e bb3d
00000240: a05e 2dbf 9b09 74c1 afd1 0dbf 07c0 4ac0
00000250: b2d2 c8c0 d2bb 393e ceac 03bf f81f 25bd
00000260: 7e99 5641 f217 bebf eab6 84bf ff05 70be
00000270: d291 7dbf 7b9e 64bd 01be 1640 5680 30c0
00000280: 159f 2ebf 9675 393f 101d 073f 97d8 8d3e
00000290: 548a ef3f ce8b 0bbf f9e9 ffbf c0b7 09c0
000002a0: 9480 14bf efc4 f9bc 8e82 543f 40cb 1abe
000002b0: 3ced 393f 0a23 483f 80a6 37be 0bb1 ac3f
000002c0: 45bd 393e 2192 a4bd 388a 93bf 1a74 83bf
000002d0: cdbf 593e ae6b 08bf 02cd 843e 2a94 8abd
000002e0: d376 c2bd b4a9 a43e d351 98bf 378b cabe
000002f0: ea17 9cbf 8719 163c 4346 b13f ada6 573d
00000300: d64c ef3f a5f6 743d 9e7f a13c 5715 c23f
00000310: 3e7d cb3d 1e0c 24be 95a7 ed3d e138 98bf
00000320: aa28 c8be b483 f1be d971 e3be fc1e 1f3e
00000330: 4597 1f3c 9bae 15bd 72bc 86be c902 27be
00000340: e5a1 82be 4855 803d ecb0 73be 701f 063e
00000350: b77e cbbe dd5a 053e 8fd4 ddbd 600b acbe
00000360: 788d 6f3c 64e5 ba3d 603e 53bd 2b75 1ebe
00000370: 0923 94c0 e567 3d40 585d eb3e 8625 013d
00000380: 6bcb 92c0 607a 4dbf 6ba2 c23e 013c d93f
00000390: ce0d b440 b8be 98bd 0edb a9bf 6a9c 40bc
000003a0: 4407 03c1 7454 84bf d7fa 823e 79d7 ad3f
000003b0: f18a cb3f e467 103d 8d87 79be f131 b9c0
000003c0: 8d84 7ebf d80d 3fbf 96b9 9a3e f324 9cbd
000003d0: 951d 8ebf 42c4 83bd 32f3 a9be affd 77be
000003e0: 1c77 4cbf 893a 5dbe 5e0e d03e a4dd 24bd
000003f0: 5f15 42bf 69de 0e3f cf25 0040 7cc5 7fbd

dense2.bias f4 [30]
-0.3339399 1.3810035 0.074441314 -0.05578214 -0.2909188 0.5602599 2.6693366 0.23551403
1.2565242 0.45013222 -0.4211997 1.8800578 0.98344404 -0.12886168 0.8246939 1.3666121
-0.72202414 0.42498183 -0.243487 1.4225323 1.4848969 -0.6184813 0.46716774 0.78911555
0.81252986 2.186715 0.69494796 0.6709834 -0.23601691 -0.20607337
00000000: 2cfa aabe b9c4 b03f b074 983d d07b 64bd
00000010: 4ff3 94be 316d 0f3f 69d6 2a40 972a 713e
00000020: c9d5 a03f bb77 e63e 7da7 d7be bca5 f03f
00000030: fdc2 7b3f 51f4 03be 241f 533f 25ed ae3f
00000040: 93d6 38bf 3897 d93e a854 79be 8a15 b63f
00000050: 1a11 be3f ca54 1ebf 9c30 ef3e 7a03 4a3f
00000060: f501 503f 23f3 0b40 1ce8 313f 91c5 2b3f
00000070: 6bae 71be e604 53be

dense3.weight f4 [128, 30]
-0.07657371 -2.1917086 2.4529877 -0.88473874 4.9253807 2.6948328 -7.5850716 3.5894632
-6.8278623 -7.186269 0.053170856 0.12903236 -0.107568815 -0.26737323 2.054946 0.14964987
-0.3563693 -0.24708931 -0.20210667 2.2181463 0.50167406 -0.19741254 -1.3027776 1.980436
0.6925734 1.3386178 2.5306516 1.0351418 -0.13394712 -0.14820197 -0.015325803 -1.4258722
2.0691242 -6.5284147 3.6354022 -1.7456721 -4.257195 3.1485085 -3.9141207 -0.084057294
-0.12741068 -7.1739364 -1.3389595 0.19018053 0.94629776 0.92471117 0.09613138 -0.28699818
-0.104772925 0.9811041 0.9679386 0.017284418 0.49754858 3.5424685 2.1010604 0.7660271
-0.3729296 0.78594875 -0.1999775 -0.099323064 0.102613375 -1.1521395 0.65242916 -3.0563252
2.609996 -11.058311 -1.6269985 -1.3716354 0.4603697 -0.28274408 -0.2200687 -11.987377
-7.085571 0.019246923 0.041882046 0.33482656 -0.30266702 -0.7953447 -0.08730366 -0.65409017
0.934537 -0.07321593 1.2776176 2.2640321 1.8565712 0.47405174 -0.49352232 0.9255411
-0.06717416 -0.27432477 0.03375316 -6.8402066 -12.724956 1.1154331 0.39394936 -48.9217
-1.5528865 -1.2875947 1.5696412 -0.8439784 -0.4507208 -5.5823965 -9.017637 -0.2931058
1.5419352 -0.4647153 -0.40347996 -2.6083958 -0.008416976 0.15345675 0.07921695 -0.13900155
1.6023757 4.386025 -1.4744958 -0.2755139 1.3881552 1.1040865 -0.13073091 0.029591035
0.010080678 -3.6402123 -67.90298 1.8925706 -26.805508 -73.896065 -1.6459473 -65.415924
1.5535371 -10.264565 -0.6637455 -1.1937189 -5.110353 -0.22132552 1.4670594 1.1704789
-0.40907222 -1.8814715 0.006673229 -0.17735736 0.61867124 -0.16746925 0.30434072 1.4193476
-1.771572 0.67192256 0.5932762 1.3851072 -0.075980805 0.14608735 0.035023548 -3.4071236
-41.029247 -0.4585406 0.80252755 0.269241 -1.8026572 -68.78852 0.9594703 -11.821002
-0.62664795 0.22781478 -1.717227 -0.27055174 1.2236282 1.181717 -0.92093456 -1.3715698
-0.07505793 -0.36989287 2.048309 -0.19979729 0.20649222 -49.07922 -2.9834576 2.2089179
-0.5447981 0.89341956 -0.036710422 -0.0832456 0.096727565 -14.94406 -58.08946 1.2067153
-2.2554677 -0.9317704 -0.5292098 -31.531685 1.452135 -9.943727 -0.026633797 0.2059346
-0.9718867 -0.07076483 0.6428053 0.38721457 -0.4257981 -6.2121606 0.039522413 0.15997246
1.613333 0.00083537214 1.5378255 -40.79903 -0.61345094 0.6026682 -0.4972033 -3.8899455
0.016643299 0.12794307 -0.0065080444 -1.235171 -45.982204 0.92211723 -47.285534 -2.9897048
-2.5149932 -28.916382 0.90485495 -0.87389624 -0.23723513 0.43033263 -0.13009359 -0.31673765
-0.8660206 1.5353876 0.025569001 -1.60083 0.020693574 -72.54992 0.30268437 -0.19935593
-0.3039795 -32.442947 -16.424538 0.41509953 -0.3968977 -2.082007 -0.3304267 0.006344357
-0.040136393 -1.5081886 -17.991604 0.5682125 -13.241373 0.722189 -1.334531 2.287102
0.84966403 0.558193 -0.21149953 2.8635557 -0.76459646 -0.52921927 1.5510807 0.70385504
00000000: add2 9cbd f444 0cc0 c0fd 1c40 3d7e 62bf
00000010: b89c 9d40 2478 2c40 e8b8 f2c0 c4b9 6540
00000020: d97d dac0 eaf5 e5c0 afc9 593d 0f21 043e
00000030: 0a4d dcbd 25e5 88be 3c84 0340 d13d 193e
00000040: 0976 b6be fb04 7dbe 0df5 4ebe 1cf6 0d40
00000050: b66d 003f 8326 4abe 6bc1 a6bf ed7e fd3f
00000060: 7e4c 313f d457 ab3f 32f6 2140 877f 843f
00000070: 6f29 09be 42c2 17be 1419 7bbc fb82 b6bf
00000080: 886c 0440 c6e8 d0c0 6eaa 6840 2f72 dfbf
00000090: f13a 88c0 2a81 4940 f480 7ac0 3b26 acbd
000000a0: f277 02be e390 e5c0 0663 abbf afbe 423e
000000b0: 9240 723f dfb9 6c3f 87e0 c43d 6df1 92be
000000c0: 3093 d6bd a329 7b3f d3ca 773f 0d98 8d3c
000000d0: b0be fe3e ceb7 6240 c677 0640 5a1a 443f
000000e0: a1f0 bebe f033 493f e7c6 4cbe e469 cbbd
000000f0: f626 d23d 4f79 93bf 9905 273f d59a 43c0
00000100: 2d0a 2740 d8ee 30c1 7d41 d0bf c091 afbf
00000110: 94b5 eb3e d5c3 90be b059 61be 4ccc 3fc1
00000120: ffbc e2c0 b9ab 9d3c 828c 2b3d 636e ab3e
00000130: 2cf7 9abe b69b 4bbf 43cc b2bd 7472 27bf
00000140: d13d 6f3f 3cf2 95bd f988 a33f e7e5 1040
00000150: 20a4 ed3f e9b6 f23e f5ae fcbe 43f0 6c3f
00000160: 9b92 89bd 4c74 8cbe c140 0a3d f9e2 dac0
00000170: 6b99 4bc1 83c6 8e3f bbb3 c93e d2af 43c2
00000180: fcc4 c6bf e7cf a4bf 01ea c83f f80e 58bf
00000190: e0c4 e6be fea2 b2c0 3e48 10c1 f711 96be
000001a0: 225e c53f 2aef edbe ed94 cebe f5ef 26c0
000001b0: 5be7 09bc c423 1d3e 7f3c a23d 6c56 0ebe
000001c0: a61a cd3f 515a 8c40 47bc bcbf 2810 8dbe
000001d0: 12af b13f b552 8d3f 53de 05be e668 f23c
000001e0: 6e29 253c 3df9 68c0 53ce 87c2 c13f f23f
000001f0: ae71 d6c1 c9ca 93c2 67ae d2bf f4d4 82c2
00000200: 4eda c63f a93b 24c1 3aeb 29bf c8cb 98bf
00000210: 0388 a3c0 28a3 62be 9ac8 bb3f 41d2 953f
00000220: ea71 d1be 0fd4 f0bf 1aab da3b 2b9d 35be
00000230: 3d61 1e3f 0f7d 2bbe 8cd2 9b3e 2fad b53f
00000240: dfc2 e2bf 1e03 2c3f f3e0 173f 314b b13f
00000250: d39b 9bbd ec97 153e da74 0f3d 500e 5ac0
00000260: f31d 24c2 d5c5 eabe 7272 4d3f f5d9 893e
00000270: 79bd e6bf b993 89c2 d89f 753f d322 3dc1
00000280: 006c 20bf 4748 693e 18ce dbbf c285 8abe
00000290: d99f 9c3f 8142 973f 5ec2 6bbf 998f afbf
000002a0: f9b7 99bd 9962 bdbe 7f17 0340 a997 4cbe
000002b0: b272 533e 1f51 44c2 f8f0 3ec0 e95e 0d40
000002c0: e377 0bbf 25b7 643f ab5d 16bd ab7c aabd
000002d0: 1a19 c63d df1a 6fc1 9b5b 68c2 a675 9a3f
000002e0: 9559 10c0 8188 6ebf 4b7a 07bf e440 fcc1
000002f0: 8fdf b93f 8119 1fc1 1f2f dabc 85e0 523e
00000300: 91cd 78bf 27ed 90bd e38e 243f fd40 c63e
00000310: 3502 dabe 05ca c6c0 41e2 213d d2cf 233e
00000320: b281 ce3f e0fc 5a3a 77d7 c43f 3532 23c2
00000330: 1f0b 1dbf 7748 1a3f 6e91 febe def4 78c0
00000340: 8757 883c 8203 033e 6f41 d5bb 151a 9ebf
00000350: c7ed 37c2 e00f 6c3f 6324 3dc2 5357 3fc0
00000360: a6f5 20c0 c054 e7c1 93a4 673f aab7 5fbf
00000370: c4ed 72be 8f54 dc3e 4137 05be 702b a2be
00000380: 87b3 5dbf 9587 c43f 1576 d13c ffe7 ccbf
00000390: 9285 a93c 8f19 91c2 72f9 9a3e f623 4cbe
000003a0: 33a3 9bbe 94c5 01c2 7465 83c1 ed87 d43e
000003b0: 2d36 cbbe 9a3f 05c0 b02d a9be 53e4 cf3b
000003c0: 0f66 24bd 530c c1bf ceee 8fc1 6076 113f
000003d0: aadc 53c1 61e1 383f e9d1 aabf e15f 1240
000003e0: 9583 593f bde5 0e3f 5593 58be 7f44 3740
000003f0: 98bc 43bf ea7a 07bf d089 c63f d82f 343f

dense3.bias f4 [128]
-0.1789468 0.7214214 2.8912277 0.6802948 1.4327728 1.837837 2.3474221 3.0584462
-1.821288 -0.24502775 -3.341572 -1.8048456 -5.5585165 -0.8239615 -0.3240096 -1.7965094
3.800563 2.3202186 4.2060165 0.14570838 -0.21075465 -8.004942 -11.230683 -9.090157
-4.5201244 -5.5431385 -0.5697488 0.44612935 -0.047151387 -0.34142378 -0.19633706 -0.9202095
-5.58438 -9.351151 -4.519564 -2.815982 -1.8227316 -2.549603 -2.1777127 0.9465122
1.1342454 -2.3096833 -1.3042943 0.9188194 1.0393236 -0.65708655 -2.8044858 -0.18462035
4.843642 0.036668047 4.883786 2.3872812 -0.19191815 0.584504 -4.3663173 -6.113132
-6.353455 -3.4997778 2.581111 -1.3190589 -10.695242 0.93604827 -1.4744864 -6.921821
-4.2375364 0.6703769 2.9095623 0.769987 -2.7419596 -5.033968 -5.869158 -1.5712411
-3.1277788 -0.4608227 -3.7156289 -2.121903 -4.2371454 -6.337961 -10.226396 -6.9226584
-8.616988 -5.1265445 -3.652602 -2.730018 -2.8549802 -8.850862 -5.236831 -3.0392907
1.5966189 1.6057048 0.17391433 -1.2077199 1.4044753 1.1670526 1.9730524 1.4877868
1.3486907 2.5312598 1.4687924 -3.5117962 2.537836 5.868063 5.037677 4.9302683
-0.022105286 0.78287065 -0.104480214 -5.43637 -5.965495 0.93667597 2.6968331 -0.87757057
-2.8943882 -0.30299515 1.6375247 3.1445363 1.0116665 0.094615 0.18001398 2.5214965
4.4231505 2.9954615 1.1542634 2.9442868 3.0632439 0.18392307 3.2586422 4.485539
00000000: d43d 37be 13af 383f e009 3940 cd27 2e3f
00000010: 1965 b73f 3e3e eb3f 2a3c 1640 95bd 4340
00000020: f71f e9bf 8ee8 7abe 51dc 55c0 2e05 e7bf
00000030: 5edf b1c0 24ef 52bf 96e4 a5be 05f4 e5bf
00000040: 6d3c 7340 767e 1440 b097 8640 9434 153e
00000050: 11d0 57be 3e14 00c1 e1b0 33c1 4871 11c1
00000060: dca4 90c0 6461 b1c0 0fdb 11bf 116b e43e
00000070: d021 41bd 19cf aebe 950c 49be da92 6bbf
00000080: 3eb3 b2c0 519e 15c1 45a0 90c0 0d39 34c0
00000090: 454f e9bf b22c 23c0 a55f 0bc0 a04e 723f
000000a0: f42e 913f dad1 13c0 1ef3 a6bf c037 6b3f
000000b0: 8e08 853f d336 28bf b27c 33c0 1e0d 3dbe
000000c0: 1eff 9a40 3c31 163d fa47 9c40 37c9 1840
000000d0: 3186 44be 0ea2 153f dfb8 8bc0 c79e c3c0
000000e0: 814f cbc0 5cfc 5fc0 ec30 2540 ecd6 a8bf
000000f0: b61f 2bc1 dca0 6f3f f8bb bcbf 8f7f ddc0
00000100: e699 87c0 d29d 2b3f 4536 3a40 de1d 453f
00000110: 447c 2fc0 4416 a1c0 24d0 bbc0 6e1e c9bf
00000120: 872d 48c0 f4f0 ebbe ddcc 6dc0 42cd 07c0
00000130: b296 87c0 94d0 cac0 519f 23c1 6b86 ddc0
00000140: 2fdf 09c1 a70c a4c0 3bc4 69c0 9db8 2ec0
00000150: ffb7 36c0 219d 0dc1 1f94 a7c0 bd83 42c0
00000160: 025e cc3f bc87 cd3f 9916 323e 9196 9abf
00000170: d9c5 b33f fb61 953f fb8c fc3f cc6f be3f
00000180: e6a1 ac3f 2900 2240 6401 bc3f 45c1 60c0
00000190: e86b 2240 2cc7 bb40 a634 a140 c2c4 9d40
000001a0: 2516 b5bc 366a 483f b9f9 d5bd bef6 adc0
000001b0: 56e5 bec0 ffc9 6f3f ea98 2c40 77a8 60bf
000001c0: a83d 39c0 2e22 9bbe 699a d13f 1540 4940
000001d0: 4a7e 813f 82c5 c13d 9655 383e 3360 2140
000001e0: 738a 8d40 a4b5 3f40 e7be 933f 326f 3c40
000001f0: 300c 4440 5456 3c3e 988d 5040 8989 8f40
