Saved Models/O28B_ULA_AMCF_10_beam_probing_codebook_128_beam_classifier.pt (torch, 21599 bytes, 6 tensors)

dense1.weight f4 [20, 10]
000000 05 2f a6 be c2 e0 85 40 b9 1b 62 41 1f b7 30 42
       -0.32457748 4.1836863 14.131768 44.17883
000010 3a 73 63 41 a4 fa 6e 41 d1 62 5b c1 ff 98 31 c1
       14.2156315 14.936192 -13.711625 -11.099853
000020 1b 07 5a 41 0c 45 76 40 7b 4e 00 3f db 9f 61 40
       13.626735 3.8479643 0.5011975 3.5253818
000030 5e d4 99 40 87 e2 95 40 33 0e 9a 40 1e 46 23 c2
       4.8071737 4.6839023 4.8142333 -40.818474
000040 0c 6d b3 40 96 96 29 c2 51 d5 b7 c2 70 71 24 40
       5.6070614 -42.397057 -91.91663 2.5694237
000050 2b 54 dd be 1f 91 49 c2 f7 6b 85 41 37 4d a6 c0
       -0.43228278 -50.39172 16.677717 -5.1969256
000060 47 dd 2a c2 d3 ee 30 41 16 b4 21 c2 17 5f ba 40
       -42.71609 11.058307 -40.425865 5.8241076
000070 89 86 3f 41 2a 8e 69 40 1d 1d 0d be 4f cf 9c c1
       11.9703455 3.649302 -0.13780637 -19.601225
000080 5b a4 3d c2 66 c3 3d 40 7f 5c ba 41 0c 72 98 40
       -47.410503 2.9650512 23.295164 4.7639217
000090 b6 2b 78 40 7e c0 03 41 94 72 5f 40 58 9f f8 bf
       3.877668 8.234495 3.4913683 -1.9423628
0000a0 96 48 0f c3 43 f2 3c c1 0f d1 93 40 da 6c c6 3f
       -143.28354 -11.809146 4.61927 1.5501969
0000b0 b5 71 08 c0 da 37 b4 c3 5a e6 2c c3 a5 b0 23 c0
       -2.1319401 -360.43634 -172.89981 -2.5576565
0000c0 cf b3 d0 3d 84 33 fd 38 ae 8e d4 bf 0a 80 22 c3
       0.10190546 0.000120735756 -1.6606042 -162.50015
0000d0 15 b8 75 c3 6a e2 73 3d fb 8c a0 40 ea 49 10 c2
       -245.71907 0.059542097 5.0172095 -36.07218
0000e0 71 23 cb c1 b1 8c b6 3f 58 4f d6 c0 ad 1f e4 3d
       -25.392305 1.4261686 -6.6971855 0.11138854
0000f0 04 ce a4 3e 50 ea 3e 40 fb ba 84 3e d8 40 a4 c2
       0.32188427 2.9830513 0.25923905 -82.12665
000100 21 15 11 c1 a7 69 88 c3 73 d1 53 3e 3f 92 8f 40
       -9.067658 -272.8254 0.20685367 4.4866023
000110 b6 b9 94 bf e4 9f e5 3d ab 2c 65 c1 e5 02 ca 3e
       -1.1619174 0.11212137 -14.323405 0.39455333
000120 6e 21 a6 40 4c db 12 41 42 f7 81 40 de 5d c4 c1
       5.191581 9.178539 4.061433 -24.545834
000130 3e 70 2c c3 e7 4b 1c c3 37 4f 86 c0 41 f6 8d 3f
       -172.43845 -156.2965 -4.19717 1.1090776
000140 3c 7c e6 bb 43 c7 62 bd 5b 25 3b c1 20 a7 24 c1
       -0.007033853 -0.055365812 -11.69662 -10.290802
000150 a5 10 a1 c3 9f b0 73 be 33 a5 39 c0 87 b1 ce 40
       -322.13004 -0.23797844 -2.900708 6.459171
000160 c0 22 1b c0 73 63 97 bf 7c b8 07 40 ea 1a a0 40
       -2.423996 -1.1827224 2.120635 5.0032854
000170 bc b0 43 40 27 22 da bf 9d 3b 94 41 3c f4 d9 3f
       3.057662 -1.7041672 18.529108 1.702766
000180 7d 30 5d 41 77 d0 a6 40 9e 05 e4 c1 9a 67 23 c1
       13.824338 5.2129474 -28.502743 -10.212793
000190 df cb b4 3e 40 af c0 be 7e 8b 74 c2 fb 5f 2c c3
       0.3531179 -0.37633705 -61.136223 -172.37492
0001a0 ae 7d 06 41 ae cb bc c2 04 f4 57 41 30 55 48 3f
       8.4056835 -94.39781 13.497074 0.78254986
0001b0 fe e1 86 40 e9 89 84 3f 5a 06 7d 3e b6 fa 13 40
       4.215087 1.0354587 0.24709454 2.3121772
0001c0 47 7d 58 40 6f 56 f0 3f fe 70 98 3f 6e ef 06 c1
       3.3826463 1.8776377 1.1909482 -8.4334545
0001d0 8e 59 68 c3 81 c0 8a c2 c1 97 e8 c0 c3 2d 06 40
       -232.34982 -69.375984 -7.2685246 2.096543
0001e0 8c 89 d9 bc ad 1c 3f bf 82 11 23 c0 7b 71 b0 c0
       -0.026554845 -0.7465313 -2.5479436 -5.5138526
0001f0 5b 71 bc bf 7b 37 50 c3 99 49 ef c1 00 21 e9 c1
       -1.4722093 -208.21672 -29.910936 -29.141113
000200 ae fa 0f c3 0d d7 d1 be f6 f3 e8 3f d6 97 5a 3f
       -143.97922 -0.40984383 1.8199451 0.85387933
000210 a5 70 45 40 b1 a9 cd c0 a8 f2 94 40 7b a7 95 41
       3.0850003 -6.4269643 4.654621 18.706778
000220 ba cc ab 41 9a ef 4b 41 87 a6 b1 c1 73 10 a2 c2
       21.474964 12.745996 -22.206312 -81.03213
000230 01 e7 94 c1 05 22 9f bf 4c f4 f0 c0 10 2b b0 41
       -18.612795 -1.2432257 -7.5298214 22.021027
000240 b3 a2 17 c1 e3 40 a9 c0 75 62 7c 3e ef ac b1 c1
       -9.4772215 -5.2891707 0.24646933 -22.20944
000250 5f db a6 bf fc f6 36 c2 35 cb 3b bf 56 72 89 c1
       -1.3035697 -45.741196 -0.73356944 -17.180828
000260 61 4e 8a c2 ed aa 5c c2 cb 13 7a c3 c3 67 71 40
       -69.15308 -55.16692 -250.07732 3.771958
000270 bc 1d 93 c0 f6 e2 b3 40 57 3a 73 40 01 83 ee 3f
       -4.5973797 5.621455 3.8004358 1.8633729
000280 1d d5 1f 40 bf 14 2e 3f 58 cd f4 40 f4 29 74 41
       2.4973824 0.68000406 7.6500664 15.260242
000290 86 2b 5a 41 f2 b2 80 41 5d ba 8d 41 e2 fa 0b 41
       13.635626 16.087376 17.715998 8.748751
0002a0 4f e9 fa 3f 3a 3c 3b 40 95 80 0a c0 e0 a0 2a 3f
       1.960245 2.925551 -2.164098 0.66651726
0002b0 e3 5b 55 41 40 27 a3 40 31 58 c9 41 13 84 d5 41
       13.334933 5.0985413 25.168062 26.68949
0002c0 b5 27 d2 c1 5f a3 8e c2 60 67 7b c0 d5 51 80 c0
       -26.269388 -71.319084 -3.9281845 -4.0099893
0002d0 18 16 c4 c2 37 ad e5 3f f8 e7 b7 40 3f ae 25 41
       -98.04315 1.7943486 5.7470665 10.355041
0002e0 85 c1 1d 41 f3 df 57 40 d7 3c ec 40 78 b4 47 41
       9.859746 3.3730438 7.3824267 12.48156
0002f0 67 35 45 41 53 0e a0 c2 63 3c ce bf f6 84 59 3e
       12.325538 -80.02798 -1.6112179 0.21242127
000300 3d 50 79 40 c2 86 fd 40 fb 16 bf c1 68 06 82 c3
       3.8955224 7.9227 -23.88622 -260.05005
000310 35 f1 9a c0 2c f5 95 40 b8 51 19 40 43 1f 0c 40
       -4.841944 4.686178 2.3956127 2.189408

dense1.bias f4 [20]
000000 67 25 40 3d ed 7a 9b 3d 3b 25 84 3d f3 6d 82 3e
       0.04691067 0.075918056 0.06452414 0.2547451
000010 dc 12 4c 3d a0 d4 5e 3d 90 92 80 3c 38 63 82 3d
       0.049822673 0.054401994 0.015694886 0.06366581
000020 83 ff 8a 3d ef 1a 9a 3c 24 03 38 3d 35 02 46 3c
       0.06787016 0.018811671 0.04492487 0.012085487
000030 da 56 92 3d 6e 22 29 3d 81 7e 43 3e 26 0c 28 3d
       0.07145472 0.0412926 0.19091226 0.04102721
000040 5a 06 79 bd b4 ec 46 3e fe 83 d7 3c c8 e4 75 3d
       -0.060797073 0.19426233 0.026308056 0.060032636

dense2.weight f4 [30, 20]
000000 fd ad 20 c0 e8 de ae 3d 70 2c 8a 3f 6f fe 01 bf
       -2.5106194 0.0853861 1.0794811 -0.5077886
000010 fa 7b 76 3f 1a be 6a 40 25 e9 6c 40 da 8a f0 bf
       0.96282923 3.6678529 3.70173 -1.8792374
000020 47 b2 14 3f 5d 03 09 3d c1 0e 79 40 ae 5d 01 3c
       0.5808453 0.033450473 3.8915255 0.00789587
000030 b9 99 c4 40 0a 64 26 be 7d ce a6 c0 6d d7 7f 40
       6.143765 -0.162491 -5.212706 3.9975235
000040 25 08 89 bf 0e 8e 67 c0 76 ab f7 c0 73 8d 6c bf
       -1.070561 -3.6180453 -7.7396803 -0.92403334
000050 12 59 8b c0 78 97 d1 3e 07 77 0c c1 ea e9 26 c0
       -4.354623 0.40935874 -8.779059 -2.608027
000060 52 71 dd 40 e7 12 3c 41 41 f1 89 40 15 7d 45 c0
       6.920083 11.754615 4.3107 -3.0857594
000070 bd 1d bc 40 a0 cc ec 3f 73 09 27 40 1e 94 06 c1
       5.87863 1.8499947 2.6099517 -8.411161
000080 0b 0d 0e c1 98 36 1e c0 bf 0d 40 40 75 91 0e 40
       -8.878184 -2.4720821 3.000839 2.227628
000090 59 f7 26 c0 cf a0 be be 92 d5 14 40 38 8e 1b 40
       -2.608847 -0.37232062 2.3255353 2.4305553
0000a0 0b 40 8c c0 c0 f5 3c 40 b3 fc 8b bf 7e c4 76 3f
       -4.3828177 2.9524994 -1.0936493 0.96393573
0000b0 98 29 73 c0 06 0d 3c c1 d1 76 47 3e 26 0e 02 41
       -3.7994137 -11.75318 0.19478919 8.128454
0000c0 cb 26 37 40 e0 d9 ff 3f 91 40 f4 c0 33 b2 29 c0
       2.8617427 1.9988365 -7.6328816 -2.6515014
0000d0 19 4a e5 40 68 a9 23 c0 71 57 63 40 1f ee 4b c0
       7.165295 -2.5572147 3.552212 -3.1864088
0000e0 ed b0 bc c0 97 7d 02 3e ff 3f a3 40 1b a8 37 c0
       -5.8965974 0.12743221 5.101562 -2.8696353
0000f0 76 4d 04 bd 19 07 ad ba d8 e4 02 3e f5 6f 1d be
       -0.032300435 -0.0013200968 0.1278261 -0.1537474
000100 a2 2e 9f bd f0 fb e6 bd cd 2c 35 be f5 73 18 be
       -0.077725664 -0.11278522 -0.17692871 -0.14887984
000110 65 7a ce bd f8 32 96 3c 05 79 61 be aa ce 1e 3c
       -0.10081939 0.01833485 -0.22018822 0.009692827
000120 33 c7 2e be 2b f7 69 be ca 21 54 be 18 17 88 bd
       -0.17068176 -0.22848193 -0.20716015 -0.0664503
000130 8d c3 86 be 5c ef 5b 3d 35 1c 6a be 18 d2 d1 bc
       -0.26321068 0.053695068 -0.22862323 -0.025612876
000140 65 d5 35 be 40 fd eb bc f8 13 55 be bf 2b 5c be
       -0.17757185 -0.028807282 -0.20808399 -0.21501063
000150 29 d2 25 be 2e 31 07 be 40 26 dd 3c ac 01 14 be
       -0.16193451 -0.13202354 0.026995778 -0.14453763
000160 f0 1c 4e be f1 99 63 be b7 60 58 be a3 01 d4 bd
       -0.20128226 -0.22226693 -0.21130644 -0.10351875
000170 b5 91 b0 be fc 65 0d be 22 ff 98 bd a6 44 80 bd
       -0.34486166 -0.13808435 -0.07470538 -0.06263094
000180 a6 90 bf bd 1a 0d 12 3e 2c 15 6c bd 5d 50 bd be
       -0.093537614 0.1426281 -0.05763738 -0.36975375
000190 03 08 a7 c0 87 7d aa be 6c 11 82 40 c2 9f 31 3f
       -5.219728 -0.33298895 4.0646267 0.69384396
0001a0 3d 91 8e 41 52 4d 02 41 b1 45 28 40 a5 13 35 c0
       17.820917 8.143877 2.6292536 -2.829324
0001b0 83 df db bf 65 2f e6 3d 97 90 6d 40 b0 10 cb 3f
       -1.7177585 0.112395085 3.71195 1.5864468
0001c0 d6 1f 34 c0 98 55 bc be 21 71 15 c0 ba a9 d5 3f
       -2.814443 -0.36784053 -2.3350298 1.6692421
0001d0 22 2e 46 c0 36 9a 65 c0 c2 c7 74 c0 0b 2e a4 3f
       -3.0965657 -3.5875373 -3.8246922 1.2826551
0001e0 64 e4 d5 c0 26 5b b0 bf ad 43 f8 3f 2d d4 8c bb
       -6.6841297 -1.3777816 1.9395653 -0.0042977543
0001f0 2e 53 cf c0 73 15 62 be d7 3e 50 41 1f fa 65 c0
       -6.478904 -0.22078495 13.015342 -3.5933912
000200 5c 19 87 c0 8f 5e 0e bf 06 c8 5e 3f 9b 36 ab c0
       -4.2218456 -0.55613035 0.8702396 -5.3504157
000210 2e 62 00 41 d5 da 1a bf 77 6d 02 40 c0 9a bf 3f
       8.02397 -0.6049016 2.0379312 1.4969101
000220 0e cc 08 c0 92 f5 58 c0 a5 2a 35 c0 44 03 87 be
       -2.1374545 -3.3899884 -2.8307278 -0.2636968
000230 24 6c 41 c0 a4 14 12 40 a8 bb de bf 3d 12 ed bf
       -3.0222254 2.2825098 -1.7401018 -1.8521191
000240 3f 64 a3 3f f7 ed 84 40 24 75 60 40 a4 f8 01 41
       1.2764968 4.1540484 3.5071497 8.123203
000250 50 71 97 3e 53 af 9d bf e8 93 48 3c 47 d9 2c be
       0.29578638 -1.231913 0.012242295 -0.1687976
000260 ce 0c 93 c0 8f 78 f9 3e ef a7 e2 3f e6 bc 73 c0
       -4.595313 0.4872479 1.7707499 -3.8084044
000270 ff 83 94 be 18 1d 58 3d a7 d1 bf bf b2 35 e2 3f
       -0.29006955 0.05276212 -1.4985856 1.7672637
000280 a8 5c 27 c0 a9 5a 9c bf a9 c8 25 40 6b 15 30 c0
       -2.6150303 -1.2215167 2.5903723 -2.7513072
000290 24 7d 1d 41 6c 28 31 41 1c 96 41 40 c9 e6 c9 3f
       9.843052 11.072369 3.024787 1.5773555
0002a0 b3 1d 16 40 25 ad e4 bf 54 d2 b7 40 59 88 7d 3b
       2.3455627 -1.786534 5.744425 0.0038686006
0002b0 28 b4 cb c0 c6 75 f2 c1 6c 09 4b 40 ff db 85 c0
       -6.3657417 -30.307507 3.17245 -4.183105
0002c0 26 da 38 c0 75 b2 ef 3e 01 f3 e6 bf ad e9 c7 40
       -2.8883147 0.4681584 -1.8042909 6.247275
0002d0 54 51 87 be ac 48 8a bd 52 8e 24 be 5a f7 83 be
       -0.26429236 -0.06752142 -0.16069916 -0.25774652
0002e0 75 1f f4 be c5 1d 0d bf 7a 15 49 be 03 1c 0d bf
       -0.4768025 -0.5512355 -0.19637099 -0.5512087
0002f0 81 44 20 3e 9d 4d 85 be 4b c3 de be 60 96 b6 be
       0.15651132 -0.26035777 -0.43508372 -0.35661602
000300 2b 0a f1 bd 44 6f 52 bd bf dd 6c be 59 6a fd bd
       -0.117695175 -0.051375642 -0.23131464 -0.123738
000310 4b 1e 80 bd a6 57 97 be 7e df b3 bd a0 a4 b9 be
       -0.06255778 -0.29559058 -0.08782862 -0.3625841
000320 c0 d5 8a bf 7b 10 aa bd 70 bb 49 3e 7b 36 2c bf
       -1.0846481 -0.08303925 0.19700408 -0.6727063
000330 e0 61 bf c0 a7 6b 5f 40 84 cc 3d 40 bd d1 42 be
       -5.9806976 3.4909456 2.9656076 -0.19025321
000340 f2 b0 29 c0 93 7b b0 bf 07 c8 f0 40 3d 56 0c bf
       -2.651425 -1.3787712 7.5244174 -0.5481909
000350 4d 33 26 40 6e 20 3e bf 42 a9 db 3f f0 ff 60 40
       2.5968812 -0.74268234 1.7161028 3.5156212
000360 a8 45 bd 3f 2f 97 a8 3f 84 e7 71 c1 18 a1 af c0
       1.4786882 1.3171138 -15.119022 -5.488415
000370 6b a0 ee be 23 60 e1 bd 24 d1 f1 3d 95 e7 94 be
       -0.46606764 -0.11004665 0.118074685 -0.29082933
000380 00 39 8a be 01 eb 15 3d 76 46 e9 bd 5d f5 d4 be
       -0.26996613 0.03660107 -0.113903925 -0.41593447
000390 92 02 88 be 23 1b c0 bd 42 ff 39 bd 38 49 3f bd
       -0.2656446 -0.09380176 -0.04540945 -0.046700686
0003a0 91 a8 2b be 7e 38 2a 3d 6a bf a1 be 56 86 27 be
       -0.16763522 0.04155778 -0.3159135 -0.16359839
0003b0 1b c4 07 bb 04 77 81 be 7c f7 79 be 65 b2 f3 bc
       -0.0020716253 -0.25286114 -0.24410814 -0.029748151
0003c0 65 87 c9 bf fe 0f c6 3c 48 1a 86 3f 7b 98 7d 40
       -1.5744444 0.024177548 1.047677 3.9624317
0003d0 7e f1 0c c1 cc e0 18 41 f6 e3 ee c0 07 8c 92 3c
       -8.808958 9.554882 -7.4653273 0.017889036
0003e0 a8 fc 32 c1 a9 d9 1a c0 76 20 1f 40 73 98 cd bf
       -11.186684 -2.419535 2.4863563 -1.6062149
0003f0 55 2c ba c0 a8 3e ea 3d 12 34 7d 40 a2 a3 bb bf
       -5.8179116 0.11437732 3.9563031 -1.4659312

dense2.bias f4 [30]
000000 92 d4 9a 3f d8 51 b4 3f 65 30 dd 3e 3d 9c 6f be
       1.2096121 1.4087477 0.43200985 -0.23399444
000010 0c 6c b8 be 3d b4 15 3f 45 3a a5 3f 17 9a df 3f
       -0.36019933 0.58478147 1.2908407 1.74689
000020 23 b7 e3 3e 9f 02 b2 be ab 13 e1 3d 08 bc 22 be
       0.4447566 -0.34767625 0.109900795 -0.1589204
000030 b1 7f 91 3f 2b e0 d8 be 96 cb b7 3f 6e bd 8d 3f
       1.1367093 -0.42358527 1.4359004 1.1073434
000040 72 24 cf 3f 6f 69 6e 3f c0 35 b4 3f 8c fc 06 bf
       1.6182997 0.9312963 1.4078903 -0.52729106
000050 a1 9b af 3f 88 aa cf be fe 1a 12 bf c2 31 e6 3e
       1.3719369 -0.40559793 -0.57072437 0.44959837
000060 56 70 a5 be be 82 65 3f 78 18 4f be 9c 93 4e 3f
       -0.32312268 0.8965262 -0.20224178 0.80693984
000070 8d 7f a5 3f 2d 54 9f 3f
       1.292955 1.2447563

dense3.weight f4 [128, 30]
000000 7a 6e 93 3f d6 f3 e9 bf 56 d6 81 c0 e6 fd 66 be
       1.151809 -1.8277538 -4.057414 -0.22557792
000010 2d f3 0c 3b a3 6e 88 c0 02 0b 9c c0 8a 01 b3 be
       0.0021507249 -4.2635055 -4.8763437 -0.34962112
000020 5b c3 8e bf 1d eb 03 bf 0f ad ff bf d7 f6 1d bf
       -1.1153368 -0.5153063 -1.9974688 -0.6170477
000030 f7 ab a4 3e 9b 6e 2b be f1 ac 86 3f b1 91 bd 3f
       0.3216245 -0.16741411 1.0521528 1.4810086
000040 0a f6 2b be a7 76 2d bf cb 74 b6 c0 0a 25 bf be
       -0.16793075 -0.67759174 -5.701757 -0.37332946
000050 b7 bd 83 3e 3c ad 36 3c 00 f3 2d bf bf 64 13 40
       0.25730678 0.011149701 -0.67948914 2.303024
000060 fb f1 38 3e 10 e3 0e 3f 89 b0 17 3d 06 62 ec bf
       0.18061058 0.5581522 0.03703359 -1.8467414
000070 4d d5 f1 3f 9c 28 19 40 99 1b 8c bf a0 a0 9d c0
       1.8893219 2.3931036 -1.0945922 -4.9258575
000080 5f 17 a3 c0 6c a2 3a be 7f 02 89 3d 44 e3 cc 3f
       -5.096603 -0.18226022 0.06689929 1.6006856
000090 ba 7f 51 3f cf 3c aa bf b4 19 ef 3f b2 48 97 be
       0.8183552 -1.3299807 1.8679719 -0.2954765
0000a0 62 3f 3a 3f 9c 9e 0a bf f0 6e 45 be f9 de 43 be
       0.72752964 -0.5414827 -0.192806 -0.19128026
0000b0 a8 0e d3 3f 7a 09 9d 3f 89 d2 ae bf 11 09 56 c0
       1.6488848 1.2268517 -1.3658 -3.3443034
0000c0 6d 9b 5d c0 08 7c 21 bf d3 4b cb 3e 80 0f 74 be
       -3.4626114 -0.6307988 0.39706287 -0.23834038
0000d0 c6 6d cb be 60 db 10 c1 7b af bf bc 37 4e a1 bf
       -0.39732188 -9.053558 -0.023399105 -1.2601994
0000e0 4c a7 d2 bd e5 11 56 3f 87 d7 ba 3f de 9c 86 3f
       -0.102858156 0.83621055 1.4597024 1.0516622
0000f0 fb df 01 bf 20 8f 8b c0 97 3d 28 c0 c5 c4 36 3d
       -0.5073239 -4.3612213 -2.6287591 0.044621248
000100 03 c1 cf bd b2 7c 33 bf 99 33 f0 bd ee 68 78 c0
       -0.10144236 -0.70112145 -0.117285915 -3.8814044
000110 97 0d 11 3f 5e bc 8c be ed 14 06 40 24 4b 07 bf
       0.5666136 -0.27487463 2.0950272 -0.5284903
000120 7e e3 6e bf c6 4e 8d be dd f3 b7 3f e3 9d 3f bf
       -0.93315876 -0.27599162 1.4371296 -0.7485029
000130 11 d5 c7 bf f5 25 ba c0 47 6b 63 bf e1 0f 9c be
       -1.5611898 -5.8171334 -0.8883557 -0.30480865
000140 e1 82 f0 3f 1b 21 96 3d f2 78 9a 3d d4 ec 88 40
       1.8789941 0.07330533 0.075426 4.2789097
000150 ba 99 49 3e cc b5 3a bd 36 f1 55 bd 3c 0c ee bf
       0.19687548 -0.04558353 -0.05223199 -1.8597484
000160 83 95 b1 40 a2 45 90 3f 32 62 d2 3f dc f2 9f c1
       5.549501 1.127125 1.6436217 -19.993584
000170 07 4c 17 c1 55 89 85 bd af 32 36 bb 10 49 ee 3f
       -9.456061 -0.06520335 -0.0027801206 1.8616047
000180 10 a7 b7 be 6a 40 71 c0 b4 28 28 40 6d e3 b3 be
       -0.35869646 -3.7695565 2.6274843 -0.3513445
000190 b0 5f 90 bf 58 b8 dd be 61 ba bd bf d6 1d 5f bd
       -1.1279202 -0.43304706 -1.4822503 -0.054471813
0001a0 e1 88 ed 3f 64 ef 35 3f 90 62 04 41 6b d7 01 c0
       1.8557397 0.71068406 8.274063 -2.028773
0001b0 b2 89 0d c0 7f 22 13 bf b6 22 89 3f 05 3d c7 3d
       -2.2115293 -0.5747451 1.0713718 0.097284354
0001c0 b3 e8 14 bf 07 1f 54 c0 c2 d3 2e 3e 77 98 f9 bf
       -0.5816757 -3.3143938 0.17072967 -1.9499654
0001d0 72 09 28 3f 8e 5a 56 bd ed 82 27 3f 96 66 41 bf
       0.6563941 -0.052332453 0.6543415 -0.7554716
0001e0 81 45 e4 3f 1d 35 b2 c0 b9 5c ba c0 5d 00 68 bc
       1.7833711 -5.5689836 -5.8238187 -0.014160243
0001f0 c9 49 a0 bd a0 63 a8 be fd 4d 8b c0 7c ee 51 c0
       -0.078265734 -0.32888508 -4.35327 -3.280181
000200 19 a2 2f 3f c4 f3 98 be eb de 03 3f 60 80 70 be
       0.68606716 -0.29873478 0.5151202 -0.23486471
000210 39 13 45 c0 6a 8b 4e be 68 de b1 3f 15 76 4d 3f
       -3.0792983 -0.2017037 1.3895998 0.80258304
000220 a0 12 9d c0 d9 fe 4b c0 14 1a 7c c0 4a 7f c1 be
       -4.9085236 -3.1874297 -3.9390917 -0.37792426
000230 b3 34 4b 40 c3 35 3d be 52 70 67 be 51 e3 7d 40
       3.1750915 -0.1847754 -0.2260144 3.9669993
000240 90 59 2e 3d bc 4d 40 bf 10 56 3a 3e 5f ee 3a c0
       0.042565882 -0.75118613 0.18196893 -2.920799
000250 96 b3 3e 40 bb 6d 53 bf 77 b5 bb be 6a 39 15 c1
       2.979711 -0.8258931 -0.36661884 -9.326517
000260 cc 32 5e c0 4f 86 bc 3d 2d 38 3d be 1b 5c b1 bd
       -3.4718504 0.09205305 -0.1847846 -0.08660146
000270 cb d8 12 3f 8a 31 41 c0 88 72 0a 40 63 ba 0e bf
       0.5736205 -3.0186486 2.1632404 -0.55753154
000280 d4 8f 24 3e c5 6d 97 be 39 07 bb 3f 4d 8a 14 be
       0.16070491 -0.29575935 1.4611579 -0.14505883
000290 53 b3 dc 3f bb 71 99 3e 88 b7 9f 3f 51 1b 79 c0
       1.7242225 0.29969582 1.2477884 -3.8922923
0002a0 d2 a7 1e c0 60 23 dd be e1 02 74 3f 2b d4 de 3d
       -2.478993 -0.4319105 0.9531689 0.108803116
0002b0 38 32 4e 3d 60 74 05 c0 b7 e3 eb 3d 60 b7 8d 3f
       0.05034086 -2.085228 0.115180425 1.1071587
0002c0 9e 68 86 be 16 c8 c1 bf 28 b9 59 be be 19 18 c0
       -0.26251692 -1.5139186 -0.21262038 -2.3765712
0002d0 e8 ac 0f c0 00 67 0e c1 a3 de 7c c1 93 5e aa 3d
       -2.2449284 -8.9001465 -15.804355 0.0831882
0002e0 60 71 26 3e 9a 66 44 c0 a5 da 9c 3f bd b1 7d c0
       0.16254187 -3.0687623 1.2254225 -3.9639733
0002f0 42 4b d6 be 0a f5 90 be 91 7e 58 3f f1 9f 08 bf
       -0.41854292 -0.2831195 0.84568125 -0.5336905
000300 d3 be ec 3e f7 e9 d8 be 54 b2 33 3f 06 dc ca 3f
       0.46239337 -0.42366 0.7019398 1.5848396
000310 b1 b3 3d 3f c8 fd 7d c0 a1 9e 84 c0 8b 34 05 bf
       0.7410231 -3.9686146 -4.144364 -0.520333
000320 2b 20 57 40 02 50 50 bd 62 b6 06 bf f7 9b a0 40
       3.3613384 -0.05085755 -0.52622044 5.0190387
000330 16 65 67 3e 5c c1 bb 3f 53 e0 83 be 93 82 a3 bf
       0.22597155 1.4668384 -0.25757083 -1.2774223
000340 42 7e 86 3f e5 82 ad bf 61 59 fc bd f6 f1 70 c1
       1.0507281 -1.3555571 -0.12321735 -15.0590725
000350 c8 82 1a c1 12 23 1f 3c 4b 6f 71 3c 5e 4b 86 3e
       -9.656929 0.009712951 0.014736007 0.26229376
000360 d0 74 22 40 46 4a 63 c0 5f 49 d9 3f 22 62 04 bf
       2.5383797 -3.5514083 1.6975516 -0.5171224
000370 fb bf 85 3f 05 df b8 be a7 57 96 3f f2 8e 5f be
       1.0449213 -0.3610765 1.1745499 -0.21831873
000380 30 8d f3 3f f8 e8 9a 3e c4 62 39 40 a1 8e 5c c0
       1.9027462 0.30255866 2.8966532 -3.4462054
000390 40 5e 34 c0 71 30 b8 be 29 a7 3d 3d 28 8c 12 be
       -2.8182526 -0.35974458 0.046301994 -0.14311278
0003a0 0e 0e a0 be 8f 77 ea be d6 0b 05 3e 11 c5 80 3f
       -0.31260723 -0.4579434 0.12992796 1.006014
0003b0 0c da 88 3d bf 39 10 c0 74 e7 8b 3b ee 15 44 c0
       0.06682214 -2.2535245 0.0042695347 -3.0638385
0003c0 c2 62 26 3f 59 b9 28 c0 df 51 60 c0 dd eb 47 be
       0.6499444 -2.6363127 -3.504997 -0.19523568
0003d0 d5 29 9f 3a 1c b3 87 3e f7 23 f0 c0 01 ff 1d 40
       0.0012143204 0.26503837 -7.5043902 2.4686892
0003e0 18 4e 8f 3c 0e 56 e6 be 8e a3 3d 40 a1 f1 e5 be
       0.017493293 -0.4498753 2.9631076 -0.4491091
0003f0 12 a5 e2 bf de f6 2c 3c a1 2a c3 3f ac 4c d0 3e
       -1.7706625 0.010556905 1.5247384 0.40683496

dense3.bias f4 [128]
000000 dd 12 ba 3f ae cd 77 3f 27 e4 83 be 3e 27 7f bf
       1.4537007 0.9679822 -0.25760004 -0.99669254
000010 07 79 15 c0 01 d2 44 bf ad 46 54 be 49 1e 1a bf
       -2.335512 -0.7688294 -0.20730086 -0.6020246
000020 ca 08 26 c0 6b db 6a bf f6 c5 70 bf 3e ed 3f bf
       -2.5942864 -0.91741055 -0.94052064 -0.7497138
000030 fb 76 0c c0 cb bc 03 40 f6 fa 0e 40 09 36 28 40
       -2.194762 2.058398 2.2340674 2.628298
000040 ef 4e 24 40 cf 1c 25 40 64 89 0b 40 26 f0 f9 3f
       2.5673177 2.5798833 2.1802607 1.9526412
000050 46 cf 09 40 e2 83 0f 40 e5 21 04 40 c6 10 02 40
       2.153276 2.2424245 2.0645688 2.0322738
000060 f6 c5 b5 3f 4a fc 23 40 04 3a ea 3f 07 2e c4 3f
       1.4201038 2.5622735 1.8298955 1.5326546
000070 2d c3 c9 3f 67 b1 f6 bf 3c 07 c2 3c f0 79 88 3f
       1.5762688 -1.9272889 0.02368509 1.0662212
000080 bd 35 f5 3f fc a1 91 3f 06 34 b1 3f 3d 31 86 bf
       1.9157025 1.1377559 1.3844001 -1.0483776
000090 5e b5 7f 3e e8 08 ca 3e ff 97 7d 3e 3d 73 c9 bf
       0.2497153 0.3945992 0.24765013 -1.5738293
0000a0 a6 4f 34 c0 28 a5 ea bf 4f 7e d4 bf af cc 75 bf
       -2.8173614 -1.8331652 -1.6601046 -0.9601545
0000b0 b8 40 4f bd f9 af db bf a4 2e df bf 4b 97 35 c0
       -0.05059883 -1.7163078 -1.7436109 -2.8373592
0000c0 98 f6 af bf a4 08 01 c0 06 75 9d 3e d7 f9 55 3e
       -1.374713 -2.0161524 0.30753344 0.20896088
0000d0 b9 8b a6 3f 41 8d 28 3f f4 c9 92 3f 56 b0 b9 3f
       1.301139 0.65840536 1.1467881 1.4506938
0000e0 9f e5 ce 3f e9 b6 b9 bd f4 8f ef 3f 27 de 74 3f
       1.6163825 -0.090680905 1.8715806 0.9565148
0000f0 c0 ff 0c 40 84 0e 57 3f e7 73 cd 3f 22 1f a1 3f
       2.2031097 0.84006524 1.6050996 1.2587626
000100 5f 80 ba 3f 69 19 56 bf 7e 61 9f 3f c6 76 f0 3f
       1.4570426 -0.8363252 1.2451627 1.8786247
000110 0b 24 b5 3f 7a a5 c0 3f e0 6e cb 3f fa e0 b5 3f
       1.4151624 1.50505 1.5893211 1.4209282
000120 b3 fd e3 3f b4 56 a7 3f d0 89 a0 3f 9b 0e a0 3f
       1.7811798 1.3073335 1.2542057 1.2504457
000130 56 e2 33 3f 48 72 2e 3f a4 25 d2 3f e2 c1 e7 3f
       0.70267236 0.6814313 1.6417737 1.8106043
000140 60 90 b3 3f cf 67 8e 3f 52 9b d4 3f d3 4a ad 3f
       1.4028435 1.112543 1.66099 1.353846
000150 cf 7d d4 3f dd 32 c1 3f e2 1d be 3f ea 7e b2 3f
       1.6600894 1.5093647 1.485287 1.3944981
000160 98 f5 c8 3f 34 8a 87 3f 69 3c b3 3f 16 48 de 3f
       1.5699949 1.0589051 1.4002811 1.7365749
000170 05 28 e3 3f 3c 43 a0 3f 63 e6 e9 3f 41 27 9e 3f
       1.7746588 1.2520518 1.8273433 1.2355729
000180 8a 52 09 40 de 47 30 40 f8 9d 16 40 27 17 e0 3f
       2.1456628 2.7543864 2.3533916 1.7507066
000190 f1 6d b9 3f 77 97 1e 40 df 25 6c 3f 56 2d 95 bc
       1.4486676 2.4779947 0.92245287 -0.018210094
0001a0 8b 17 51 c0 4a ea d6 bf 8c 97 e0 bf 9a a6 70 c0
       -3.267062 -1.6790249 -1.7546248 -3.7601686
0001b0 16 78 ad c0 9b 32 12 c0 80 33 35 bf f9 2e 0d c0
       -5.420909 -2.2843387 -0.7078171 -2.205992
0001c0 ce 04 a7 c0 09 be 23 c0 7d b8 35 bf b2 5e fa 3e
       -5.2193365 -2.5584738 -0.7098463 0.48900372
0001d0 36 88 a5 bf d7 90 42 c0 6e 23 0c c0 64 1d 6b c0
       -1.2932193 -3.0400903 -2.1896625 -3.6736689
0001e0 cf d8 3c bf 5c 7c 04 3e 1c a2 a5 be b8 65 df be
       -0.73768324 0.12938064 -0.32350242 -0.43632293
0001f0 f6 c6 e0 be 76 50 09 bf f4 e4 de 3f c2 aa a1 3f
       -0.43901795 -0.536384 1.7413621 1.2630236
