Saved Models/O28B_UPA_8x8_DFT_16_beam_probing_codebook_128_beam_classifier.pt (torch, 35999 bytes, 6 tensors)

dense1.weight f4 [32, 16]
000000 59 ad d4 40 b3 8a 89 41 d6 8e 1f be 97 d0 5e 40
       6.6461606 17.192724 -0.15581831 3.4814813
000010 b0 4a ce 40 de 57 9e 41 9b 25 4e 40 7c 23 07 40
       6.446617 19.792904 3.2210453 2.1115408
000020 28 2d df bf 40 c0 f1 40 67 53 8f 40 4a 8a 6f bd
       -1.7435656 7.554718 4.478931 -0.058481492
000030 a2 34 c1 40 56 1f 68 41 2a cc ac 3e dc 7b 72 3f
       6.037675 14.50765 0.33749515 0.94720244
000040 65 f8 c8 c1 6f 43 6a c1 7f 88 58 c1 94 35 3f bf
       -25.121286 -14.641463 -13.533324 -0.7469113
000050 9a 21 b8 c1 39 76 16 c0 c8 ec 92 c0 5e 55 3e 41
       -23.016407 -2.3509657 -4.591404 11.895842
000060 0b 2c ff bd 02 7b 42 40 c3 ab 18 c0 bd 47 29 be
       -0.124595724 3.0387578 -2.3854835 -0.16531272
000070 b3 7d a9 c1 86 da 6b c1 3f 9b 72 c1 8c f0 c2 c0
       -21.186377 -14.74085 -15.162902 -6.0918636
000080 91 5f 2e bc 2c 3b 6a be 7c e5 93 be dd 73 8e be
       -0.010642902 -0.22874135 -0.2888602 -0.27822772
000090 c2 b4 ef 3c 5d 6f 9b bd cb 0f 8e be 25 f7 0c 3e
       0.029260997 -0.075896 -0.27746424 0.13766153
0000a0 ce c9 6a be e5 5c 41 bd 11 17 8d bc 05 49 56 be
       -0.22928545 -0.04720773 -0.017222913 -0.20926292
0000b0 00 6b a0 bd 8c eb 8d 3d 21 da 4b 3c a0 e6 b8 bd
       -0.07832909 0.069296926 0.012442143 -0.09028363
0000c0 c8 13 0d c0 ae aa 28 c0 e3 0c 8c 40 0b 69 1c 41
       -2.2043324 -2.6354175 4.376573 9.775645
0000d0 ba d5 29 40 5a a9 36 bf 13 37 7b 40 5f 75 d4 40
       2.6536698 -0.7135216 3.9252365 6.6393275
0000e0 4f 45 02 bf db cc 8d c0 95 e5 dc 3f f1 67 07 c0
       -0.50887007 -4.431257 1.7257563 -2.115719
0000f0 99 78 df c0 0d c5 ab c0 78 53 bc be 60 4a 16 41
       -6.9834714 -5.367804 -0.36782432 9.393158
000100 e6 3e 33 41 b0 27 e8 40 fa db de 40 8b 96 0d 40
       11.202856 7.2548447 6.9643526 2.2123134
000110 bd 5b 77 41 bb 70 2f 41 dd f8 6b 41 e6 31 07 be
       15.459897 10.965022 14.748258 -0.13202628
000120 bb 0c d2 be 9c 85 60 40 da 6f 4c 40 58 8b 0b bf
       -0.41025338 3.5081549 3.1943269 -0.54509497
000130 ad c0 2a 40 78 1f 96 40 16 6e c0 40 99 0b 8b bf
       2.66801 4.6913414 6.013438 -1.0862914
000140 71 3c 71 bf a1 4a 06 be 3c ad 24 3c f2 f5 1d bf
       -0.9423285 -0.13114406 0.010051068 -0.6170341
000150 ee 69 8f bf 8e 37 02 be 71 55 d0 be cb 05 96 bf
       -1.1204202 -0.12716505 -0.40690187 -1.1720518
000160 0c 69 36 bf 86 25 5a be bb 41 83 bb 68 4b b9 be
       -0.7125404 -0.21303377 -0.0040056384 -0.36190343
000170 a8 8d 80 bf b6 89 12 be 63 71 ea bd b0 25 c2 be
       -1.004323 -0.14310345 -0.11447408 -0.37919378
000180 15 d3 0b 41 51 5b 04 41 4b dd 38 c2 c3 e7 19 c2
       8.739034 8.272294 -46.216106 -38.47633
000190 35 33 83 41 85 91 d1 41 5e 5a 82 c2 68 c5 6a c2
       16.400003 26.196054 -65.1765 -58.69278
0001a0 11 32 88 bd de cf c1 3f f5 bd 98 40 6c 35 2f c1
       -0.066501744 1.5141561 4.773188 -10.950542
0001b0 8b 18 b1 40 29 73 a7 40 d9 8c 0a c2 37 76 f2 c1
       5.534246 5.2328076 -34.637547 -30.307722
0001c0 e8 f7 0e 41 00 57 e0 40 f1 fc b4 bf e2 14 ce 40
       8.935524 7.01062 -1.4139692 6.440049
0001d0 2e 33 46 41 c9 8e 6f 41 09 92 93 c0 56 88 36 41
       12.387495 14.97236 -4.6115766 11.408285
0001e0 4a 16 19 c0 29 e3 b9 c0 7d 0f 2e c1 27 b4 2d c0
       -2.3919854 -5.8089795 -10.878781 -2.7141206
0001f0 37 34 4a 40 b1 b9 5b 40 fb 7c 92 be ff da fc 3f
       3.159437 3.4332087 -0.28610978 1.9754332
000200 e5 fc bd 41 ee 5a ad 40 92 0c e5 c2 4d 44 e3 c2
       23.748484 5.41735 -114.52455 -113.6334
000210 ce ce de 41 55 f1 96 41 6e 64 13 c3 d0 01 fd c2
       27.850979 18.867838 -147.3923 -126.50354
000220 f7 1c 13 c0 9f c9 11 c0 82 51 da c2 39 31 07 c3
       -2.2986429 -2.277931 -109.159195 -135.19228
000230 c1 78 f7 41 b1 f4 ca 3f 1f 87 aa c1 bf 11 ce c2
       30.933962 1.5855924 -21.315977 -103.03466
000240 e9 9c be 40 1d 81 12 bf f2 c9 4b c0 fd 0b ac 40
       5.956654 -0.5722826 -3.1842008 5.3764634
000250 02 37 18 41 65 d4 af 3e cf 71 5d c0 91 8f 24 40
       9.51343 0.34341732 -3.4600713 2.5712626
000260 67 39 c3 c0 d4 e4 8f c1 ec c4 5a c1 23 d2 49 3e
       -6.100757 -17.986732 -13.673077 0.19709067
000270 6d 6f 06 3f ea 71 82 c0 7e c6 aa c0 5c a4 73 40
       0.5251377 -4.0764055 -5.33673 3.8069067
000280 d8 4c 55 c2 00 3f a7 41 29 a5 df 41 8e 98 0f 40
       -53.325043 20.905762 27.955645 2.2436862
000290 a4 47 9b c2 05 df 92 42 51 eb 58 42 70 ce 1a c1
       -77.63992 73.435585 54.2298 -9.6754
0002a0 d6 9a ef c1 45 f2 40 41 45 99 ab 41 8d e8 2d bd
       -29.950603 12.059148 21.449839 -0.042458106
0002b0 63 d3 06 c2 b5 26 a5 40 8f 0c 4f 41 9d d7 69 41
       -33.706432 5.160975 12.940566 14.61514
0002c0 16 77 32 40 83 22 42 41 da c3 23 c1 0d dd 0a 41
       2.7885184 12.133426 -10.235315 8.678967
0002d0 fa e6 b5 40 03 53 3c 41 ee bc b7 c0 1b 43 b0 40
       5.6844454 11.770267 -5.7418127 5.5081916
0002e0 88 00 a5 3f 8c 96 72 3e 43 5f 27 c0 e7 7a 13 3f
       1.2890787 0.23690242 -2.6151893 0.5760941
0002f0 34 11 b8 c0 ec 25 f0 40 11 af 42 c1 46 ee e0 40
       -5.7521 7.504629 -12.167741 7.029086
000300 73 2d 61 41 88 b7 ae 40 72 eb 43 bf c4 45 b5 40
       14.073596 5.4599037 -0.76531136 5.6647663
000310 5d fe c7 41 07 2b 88 41 04 55 26 c0 e2 ff 25 40
       24.9992 17.02101 -2.598939 2.5937428
000320 4f 30 36 c0 2e 8a bd c0 49 2b 06 c1 67 40 02 bf
       -2.8466985 -5.9231176 -8.385568 -0.5087952
000330 40 c1 7d 40 b8 e2 8d c0 54 74 5c c0 f1 7c b1 40
       3.96492 -4.4339256 -3.4446 5.5465016
000340 3d 85 8b 41 6c a4 ee 41 90 0d 2d 41 4f 08 c0 c3
       17.440058 29.830284 10.815811 -384.0649
000350 b0 52 d0 40 94 0b 01 43 d7 a6 b7 40 14 73 d7 c3
       6.5100937 129.04523 5.739116 -430.89905
000360 73 35 aa be cf 18 94 41 1b 25 66 bf b6 8c 9c c3
       -0.33243904 18.512114 -0.8990037 -313.0993
000370 12 b4 af 41 45 f7 77 3e 4f 94 26 41 3a c1 55 c3
       21.962925 0.2421542 10.411208 -213.75479
000380 bc 6c 3e be 7a 1f 5b be de 62 07 be 74 83 10 be
       -0.18596166 -0.21398726 -0.13221309 -0.14112645
000390 c6 3c 47 3e 98 f4 bd bd 28 84 48 3d b0 49 11 bd
       0.19456777 -0.09275168 0.04895416 -0.035470665
0003a0 70 e9 3e bd 28 78 2d bd a8 a1 4b be 8c b4 05 be
       -0.046609342 -0.042350918 -0.19885886 -0.13057154
0003b0 20 5b 55 bc c0 1b d4 3c c0 94 27 3c c0 24 79 bd
       -0.013022214 0.025892138 0.010228336 -0.060826063
0003c0 03 6c 9b 40 7d da c4 c0 e6 20 b8 40 a5 0c 87 40
       4.856935 -6.151671 5.754016 4.2202935
0003d0 26 39 8b 41 04 13 99 bf 65 d7 18 41 8c ba 2c 41
       17.402905 -1.1958928 9.552587 10.795544
0003e0 f6 75 1a 3e c3 1c 0b c0 d3 c5 07 40 4e 4d d5 3d
       0.15084061 -2.1736305 2.1214492 0.10415135
0003f0 71 25 9d c0 29 f0 29 c1 76 14 df 3e b2 db 07 c1
       -4.9108205 -10.621133 0.43570298 -8.491137

dense1.bias f4 [32]
000000 21 60 a8 be 85 81 55 bd f5 6a 68 bd 51 b9 51 bf
       -0.3288584 -0.052125473 -0.056742627 -0.81923395
000010 c8 3d be be 87 58 37 bd 8b 14 d9 3d f3 69 32 be
       -0.3715651 -0.04476216 0.105996214 -0.17423229
000020 b0 72 3e 3d 57 b7 b6 be 81 ce ea 3d 3a 7e 1d be
       0.046496093 -0.35686752 0.11465169 -0.15380183
000030 f5 9d 07 be 4a c4 89 3c d0 61 54 be be 95 09 bf
       -0.1324385 0.01681723 -0.20740438 -0.53744113
000040 fa 5f 7d 3d 2c 86 c4 bc 3c 68 36 bb 01 9c f1 be
       0.06185911 -0.02398976 -0.0027833125 -0.47189334
000050 51 4c c4 3c 5d e1 52 be 35 a3 96 be d1 e4 1c 3d
       0.023962172 -0.20593782 -0.29421392 0.038304154
000060 d9 93 54 3d 3c 49 fc bb 40 e3 b5 bf 21 a9 97 3c
       0.05189881 -0.00769916 -1.4209976 0.018513264
000070 c6 c0 8c 3d 27 50 17 bf e2 cb 3d 3d 2e e2 24 3d
       0.06872706 -0.5910668 0.046337016 0.040254764

dense2.weight f4 [48, 32]
000000 81 9e a5 bf b5 a5 b9 be da e0 04 3e 4d 4b a7 bf
       -1.2938997 -0.36259237 0.12976399 -1.3069855
000010 3b af be bf aa cf 53 3e f2 c5 3d bf 38 96 23 40
       -1.4897226 0.20684686 -0.74130166 2.5560436
000020 bb 13 e6 3e ac f0 82 bd 0a 6f af c0 31 ef c9 bf
       0.44936928 -0.06393561 -5.4823046 -1.577612
000030 eb ae 43 40 18 1b 82 c0 6a 9b ab 3d 4c 72 5f 3f
       3.0575511 -4.0658073 0.08379252 0.8728378
000040 32 7d d0 bf 5f 14 2b 3d bb f7 a4 c0 75 3c 3f 3f
       -1.6288207 0.041767474 -5.1552405 0.74701625
000050 ee 40 24 c1 4a 87 2c 3d 7f f1 7e 3d ee b2 8c 3d
       -10.265852 0.04212121 0.062242027 0.06870066
000060 81 5d e3 3d f3 e4 1e 3f 52 d3 5c c0 fd cc 7a 3e
       0.11101819 0.620681 -3.450398 0.2449226
000070 6c 1c cd 40 84 41 d0 3f 62 d3 49 c0 22 fb a5 3f
       6.4097195 1.6269994 -3.1535268 1.2967265
000080 31 08 fa be 85 d3 c6 c0 a2 12 2e 3e ec b2 d4 c0
       -0.48834375 -6.2133203 0.16999295 -6.646841
000090 c7 e6 98 c0 d6 a5 0b 3e af 3c 88 bf 40 b0 97 40
       -4.778171 0.1363748 -1.0643519 4.740265
0000a0 6a 08 5f c0 2e 9b 9a 40 5d 45 d7 3e 97 99 d2 bf
       -3.4848886 4.831443 0.42045107 -1.6453122
0000b0 85 b0 82 c0 49 8a bb c1 c6 f0 90 3d 61 fc bd bf
       -4.084048 -23.442522 0.07077174 -1.4842645
0000c0 37 ae 1d 3f 9d e6 7c 3d 18 05 8b be 0f d0 53 c1
       0.61593956 0.061743367 -0.27152324 -13.238296
0000d0 d8 58 ed be fc 62 77 bd 68 5e ca bd 38 5f 55 3e
       -0.46356845 -0.060397133 -0.09881288 0.20837104
0000e0 75 c6 0a bf 33 7c b8 3f e0 77 78 c1 68 93 a7 be
       -0.5420907 1.4412903 -15.529266 -0.3272965
0000f0 2d 85 84 3f a0 7e 8f bf 23 4b 4e 3f fc 57 a5 3f
       1.0353142 -1.1210518 0.805834 1.2917476
000100 03 d7 e9 3f a7 8a d5 c0 37 91 1f be 73 2d c1 3f
       1.8268741 -6.6731753 -0.15582739 1.5091995
000110 07 f4 6b 3f ac d6 ac 3d 81 11 91 3f bf 81 28 40
       0.9216923 0.08439383 1.1333467 2.632919
000120 7e 0f 5c c0 97 bd 25 bf f1 d9 b4 bf cf b4 b4 3f
       -3.4384456 -0.64742416 -1.412901 1.4117678
000130 02 af c7 3d 0c 8f c0 c0 08 b1 58 3d ad cd 0a 40
       0.09750177 -6.017462 0.052903205 2.1688035
000140 8b fd 5a 3f a5 93 6f bf c2 a0 c1 3e 88 61 5a bf
       0.85543126 -0.9358466 0.3781796 -0.8530507
000150 f1 d5 1e c1 70 fb d8 bd d5 e5 e7 3d b5 f3 9f bf
       -9.927232 -0.10594833 0.11323134 -1.2496248
000160 88 97 60 c0 3b 53 02 3e e4 fb f0 bf 5a b0 1a 40
       -3.5092487 0.12727062 -1.8826871 2.4170136
000170 22 df 5f 40 08 b1 7b 40 f0 05 6e 3f bb 10 1f 40
       3.497994 3.9326801 0.9297781 2.4853961
000180 f6 65 87 3e 7c f3 37 bf 1d 34 bf bd 14 71 66 c0
       0.26444978 -0.718559 -0.09336112 -3.6006517
000190 07 45 1e c0 94 a2 2a 3d d0 82 8b 3e 3f ec 13 41
       -2.472963 0.041658953 0.2724824 9.245177
0001a0 3b 9f 93 c0 ad d9 fd c0 e5 ec bc be 44 2c 6f c0
       -4.6131873 -7.9328218 -0.36899486 -3.7370768
0001b0 e0 73 81 bc 08 10 4e c2 f8 d2 51 bd fd c4 76 3d
       -0.015802324 -51.515656 -0.051226586 0.060246456
0001c0 bf 6a 8d 3e b6 49 c7 bf a1 97 f9 3d 73 e5 f0 bf
       0.27620503 -1.556937 0.12187124 -1.8820022
0001d0 2b 68 2a 40 b3 cc 2a be 91 3b 2b be e4 56 12 3e
       2.662608 -0.16679649 -0.16721942 0.14290959
0001e0 6e 90 e3 bf cb 13 08 3f b4 aa af bf 61 bc d6 c0
       -1.7778451 0.531552 -1.372397 -6.7104955
0001f0 da 5f 3d be 0e ca e4 3f b4 79 4f 40 34 52 14 40
       -0.18493596 1.7874162 3.2418032 2.3175173
000200 50 35 d5 bc 2f 1b 68 c0 c1 80 77 bd 4d 43 8d c0
       -0.026026398 -3.6266592 -0.060425524 -4.4144654
000210 6d f2 0e c1 1a 93 00 3e 38 f9 b8 bf 6f eb f5 3f
       -8.934186 0.12556115 -1.4451056 1.9212474
000220 b7 da a4 c0 c2 90 74 bf 57 5a 74 bf c1 9a 24 c0
       -5.1516986 -0.9553338 -0.9545035 -2.5719454
000230 e5 df 17 c1 e9 af a6 c1 a3 60 be bd 56 28 11 c0
       -9.492162 -20.835894 -0.09295776 -2.268087
000240 af 70 61 bd c7 64 30 40 e1 df 6a c0 dc 1f b8 3f
       -0.055039104 2.756151 -3.6699145 1.4384723
000250 5a 63 00 41 df f1 27 3e 4a 08 cd 3b 4a fc 5c 3c
       8.024256 0.1640086 0.0062570916 0.013487885
000260 12 c1 d0 c0 f7 54 8f 3d 5e 7b 1a 3f 10 af c1 bf
       -6.523568 0.06998628 0.60344493 -1.513155
000270 4b da dd 40 4b 6c 9b bf 56 dc 1a 40 9f da 59 40
       6.932897 -1.2142423 2.4196982 3.4039686
000280 48 4e cd bf e4 e9 a5 40 04 f1 6a bc 14 fd 79 bf
       -1.6039515 5.184801 -0.014339689 -0.9765179
000290 20 b3 db bf b8 7f 8a bb f1 e0 1d 40 68 7b 3f 41
       -1.716404 -0.004226651 2.4668543 11.9676285
0002a0 c8 76 bf 40 ea 63 07 c0 e7 8c 2d 3f 76 8d d4 c0
       5.9832497 -2.1154733 0.67793125 -6.642268
0002b0 33 83 43 c0 76 49 50 c0 1e ac 08 be 9b d0 e9 c0
       -3.0548828 -3.2544837 -0.13346907 -7.3067145
0002c0 c8 af da bf 2b f9 d5 bf f7 d2 58 bf 74 f3 e1 c0
       -1.7084894 -1.6716665 -0.84696907 -7.0609684
0002d0 3f 29 91 c1 19 9d db 3c 9f 72 87 bd a0 9b ed bf
       -18.14514 0.026808308 -0.06613659 -1.8563118
0002e0 ff 5f 58 40 8a 75 a8 be 18 77 95 c0 a2 c6 24 bf
       3.3808591 -0.32902175 -4.670788 -0.6436559
0002f0 37 53 e2 bf 1a 7c 96 c0 36 75 7a c0 4a c6 e3 bf
       -1.7681645 -4.702649 -3.913404 -1.7794888
000300 3d 33 1c c0 d8 59 3a bf 65 f8 89 bd 3d 54 50 be
       -2.4406273 -0.7279334 -0.067368306 -0.20344634
000310 6a 22 2e bf d2 db 7a 3e 81 8a e6 3d 8b c0 35 bf
       -0.6802126 0.24497917 0.11256886 -0.7099692
000320 4d 7a 94 c0 99 a3 44 bf 9e eb 0a 40 7a de f4 be
       -4.6399293 -0.7681213 2.170631 -0.47825986
000330 d9 1f 56 bd 06 06 9b c1 88 be dd bc f2 f0 85 bd
       -0.052276466 -19.377941 -0.027068391 -0.06540097
000340 e1 3c c6 3e 0b 1f 99 bf 15 60 87 3d 1a 1c 35 c0
       0.38718322 -1.1962599 0.06610123 -2.8298402
000350 c9 d2 1c 40 0e 5b c6 bd bd f9 cf 3d 24 0c 44 bf
       2.4503653 -0.09685336 0.10155056 -0.76581025
000360 18 ad 79 3e 0a 94 e2 bf 4a 64 02 c0 ce 85 bd be
       0.24382436 -1.7701428 -2.0373712 -0.37016147
000370 a2 f1 a0 c0 02 66 9f be 17 d4 56 3f 27 fb 67 bf
       -5.029496 -0.31132513 0.83917373 -0.90617603
000380 90 27 42 c0 d1 dc ef bf 00 20 75 b9 a8 4c 02 c1
       -3.0336647 -1.8739263 -0.00023376942 -8.143715
000390 f6 5d ad 40 17 75 2b 3d 26 be c7 3f a8 b5 b9 bf
       5.41772 0.041859712 1.5604904 -1.4508562
0003a0 18 f4 b4 c0 83 96 30 c0 7d 17 88 bf 12 ae 6b 3f
       -5.6547966 -2.7591865 -1.0632168 0.92062485
0003b0 ed 49 8b c0 e6 9c b7 c0 4e 2b e7 3d b2 85 24 3e
       -4.352774 -5.7379026 0.112875566 0.16066626
0003c0 d3 5e 0d 3f 97 ca c4 be b7 fa 1e c1 1f 0b ee 3f
       0.55222815 -0.38435814 -9.93621 1.8597144
0003d0 4d 7c 31 40 86 f1 df 3d bc 73 ca bd 1d 04 95 c0
       2.7732117 0.10934739 -0.09885356 -4.656752
0003e0 54 ee 69 40 86 89 2e 3f c0 6e d3 c0 c4 26 12 c0
       3.6551714 0.68178594 -6.6072693 -2.283616
0003f0 be c3 e6 3f a2 2d 25 40 f9 e7 05 3f 86 42 d1 40
       1.8028486 2.5809102 0.5230709 6.5393705

dense2.bias f4 [48]
000000 80 39 3b 3f 94 3e 04 3f 07 23 6d 3e 49 66 51 3f
       0.73134613 0.51657987 0.23157893 0.817967
000010 89 75 8a 3e 55 8a 75 3e c4 7f 07 3f cb 83 76 3d
       0.27042797 0.2397855 0.5292933 0.06018428
000020 c6 6a ec 3e 61 1e 24 3f a8 67 9d 3f 14 50 c4 bc
       0.46175212 0.64108855 1.2297258 -0.023963965
000030 9f e5 4e 3f b8 71 fc 3e fb 1a 25 bc eb 82 e4 3e
       0.80819124 0.4930551 -0.010077233 0.44631132
000040 6c 15 30 be b5 cd 42 3f 11 46 13 3f 61 8a 7f be
       -0.17195672 0.76095134 0.5752879 -0.24955131
000050 1e b4 06 3f c5 48 92 3d 24 ed 0c 3f ba 55 7d 3e
       0.52618587 0.07142786 0.5504935 0.24739733
000060 09 b0 34 bd c5 51 ae 3f 30 d5 43 3f fc b5 ab be
       -0.044113193 1.3618704 0.76497173 -0.3353728
000070 96 b8 e9 3e 66 99 c7 be 1d 37 62 be 46 e4 16 be
       0.4564864 -0.3898422 -0.22091337 -0.14735517
000080 75 52 31 bd fa ca 56 bd c2 c1 a4 be b6 c7 09 be
       -0.043291528 -0.052439667 -0.32179075 -0.1345509
000090 e7 0d 6a 3f b0 99 fa be 61 6d a5 bc 84 68 fc 3e
       0.91427463 -0.4894538 -0.020193757 0.4929849
0000a0 d0 93 f9 bd 76 1c b0 bd 5a 76 82 be 23 f5 0d 3d
       -0.12186396 -0.085991785 -0.2548092 0.03465761
0000b0 46 80 76 3f 91 4b c6 3e 70 76 97 be d5 72 79 3e
       0.9628948 0.38729528 -0.29582548 0.24360211

dense3.weight f4 [128, 48]
000000 d5 af 41 bf e8 dd 6d bf 0d a4 87 bf 03 37 a1 bf
       -0.75658923 -0.9291673 -1.0596939 -1.2594913
000010 c3 8d a1 bf ff 08 c5 bf 29 d5 30 bf ef 67 79 c1
       -1.2621387 -1.539337 -0.69075257 -15.587874
000020 e8 a8 49 bf 32 70 78 bf f1 26 93 bf da 6c 48 c0
       -0.78773355 -0.97046196 -1.1496259 -3.1316438
000030 e2 80 ab bf 69 2a 57 bf 46 c0 0d c1 0e f8 a1 bf
       -1.3398707 -0.8404909 -8.859442 -1.2653825
000040 23 35 3d be c7 6f aa bf 25 9b 77 bf ca 2f 6f bd
       -0.18477301 -1.3315362 -0.96721107 -0.058395185
000050 2e 81 14 bf 02 f4 ca c0 f0 c3 b2 bf 5d 08 ca c0
       -0.5800961 -6.342286 -1.3966045 -6.313521
000060 cc 9c 52 bf f5 90 91 bf fa 82 ef bf 34 62 d5 3d
       -0.82270503 -1.1372362 -1.8711846 0.104191214
000070 9e 95 bc c0 5f 50 2d bb 64 1e 08 3e 29 7a 6c c0
       -5.893264 -0.002644561 0.13292843 -3.694956
000080 b4 59 0e bf 20 6b 34 c0 ff 5a 1d bf 86 37 13 be
       -0.55605626 -2.8190384 -0.61466974 -0.1437665
000090 42 f1 d0 bf 51 bf cf be 07 57 9f bd 43 5e 5d bf
       -1.6323626 -0.4057565 -0.07780271 -0.86471957
0000a0 a7 72 0f bf b7 65 27 bf 9e 54 1a be 44 1d 81 bf
       -0.5603432 -0.6538958 -0.15071341 -1.0087056
0000b0 1d b6 c6 bf a8 dc f7 bf 3f 02 93 c1 21 b4 08 bf
       -1.5524327 -1.9364214 -18.376097 -0.53399855
0000c0 2c ed 22 bf d1 11 60 bf 30 61 85 bf e2 49 98 bf
       -0.63643146 -0.87527186 -1.0420284 -1.1897547
0000d0 21 27 8d bf 88 a9 bb bf c1 e5 33 bf f0 a0 83 c1
       -1.1027566 -1.4661112 -0.7027245 -16.453583
0000e0 7d 04 39 bf f2 83 58 bf 14 d8 a0 bf cb e2 4c c0
       -0.72272474 -0.8457633 -1.2565942 -3.2013423
0000f0 a4 21 ad bf 7b 70 56 bf ab 2e 04 c1 87 81 b9 bf
       -1.3525891 -0.8376538 -8.261394 -1.4492654
000100 80 19 2e be 65 b9 a5 bf 52 93 7a bf e3 a8 90 bd
       -0.17001915 -1.2947203 -0.9788104 -0.070634626
000110 13 52 f3 be 07 39 ca c0 c9 01 b1 bf b1 d3 b2 c0
       -0.47523555 -6.3194613 -1.382867 -5.588341
000120 e5 48 51 bf f2 12 8f bf bc 14 08 c0 ee 68 8b 3d
       -0.81751853 -1.1177657 -2.1262655 0.06807123
000130 db 1a c8 c0 55 1f 71 bd fe d3 17 bd 54 05 5a c0
       -6.2532783 -0.05886777 -0.037067406 -3.4065752
000140 79 85 09 bf d3 cd 13 c0 8f 2f d9 be 59 44 7f bc
       -0.5371929 -2.3094375 -0.42419097 -0.01558026
000150 08 64 d4 bf 99 22 08 bf e1 8e 95 ba 34 91 7a bf
       -1.6593027 -0.5317779 -0.0011410379 -0.9787781
000160 24 50 de be 67 7f 37 bf bb 6e 97 be f0 6a 87 bf
       -0.43420517 -0.71678776 -0.29576668 -1.057951
000170 cc 68 e3 bf e9 5e 01 c0 a8 22 86 c1 88 69 1e bf
       -1.7766356 -2.0214179 -16.766922 -0.6187978
000180 30 39 3c bf cf 13 69 bf ba 3f 82 bf ed 1a 9f bf
       -0.7352476 -0.9104585 -1.0175698 -1.2430092
000190 46 5e b2 bf b4 c7 bd bf c6 ac 57 bf 95 34 6e c1
       -1.393502 -1.482657 -0.84248006 -14.887837
0001a0 c9 d4 4f bf 13 45 74 bf ae 4a 8b bf 08 fc 3a c0
       -0.8118406 -0.954179 -1.0882165 -2.9216328
0001b0 1c 32 a2 bf 10 82 2a bf ef 8e 0e c1 c2 38 a6 bf
       -1.2671542 -0.6660471 -8.909896 -1.2986071
0001c0 5d 05 9a 3c 01 8b a3 bf ec 62 6d bf b9 02 ba bd
       0.018801386 -1.2776796 -0.9272907 -0.090825506
0001d0 18 ec 2f bf c9 f3 c7 c0 97 42 be bf 49 9d db c0
       -0.68719625 -6.248509 -1.4864072 -6.86295
0001e0 17 b5 55 bf 3c bd 8a bf 09 fb e9 bf 3d 65 b5 bd
       -0.83479446 -1.0839 -1.8279735 -0.088572
0001f0 20 3a b7 c0 4c 68 68 bc c0 48 98 bc ec 6b 7c c0
       -5.7258453 -0.014185023 -0.018589377 -3.944087
000200 54 40 c9 be 89 e0 32 c0 54 69 e2 be ec 2c 7c be
       -0.3930689 -2.7949545 -0.44220984 -0.24626511
000210 cd 44 cb bf 58 ee 0e bf 86 49 56 bc e0 67 85 bf
       -1.5880371 -0.55832434 -0.013079053 -1.0422325
000220 d1 9b cb be 0a d1 3b bf 51 a6 03 be e9 63 4f bf
       -0.39767316 -0.73365843 -0.12856413 -0.81011826
000230 0a 98 cd bf 7d 82 f9 bf c8 b9 9b c1 96 02 41 bf
       -1.6062024 -1.9492947 -19.465714 -0.7539457
000240 b5 dd 0e bf ae d9 6a bf fc 79 7b bf 35 00 9d bf
       -0.5580705 -0.917384 -0.9823301 -1.2265688
000250 47 02 b2 bf a4 8c c6 bf 33 b5 58 bf 80 ea 5f c1
       -1.3906945 -1.551167 -0.8465149 -13.994751
000260 a4 a6 56 bf 64 02 65 bf 6e 9e 9d bf d2 7f 48 c0
       -0.83848023 -0.8945677 -1.2313974 -3.1328015
000270 40 85 a7 bf 4c 99 68 bf aa 8c 07 c1 ec a5 ae bf
       -1.308754 -0.9085891 -8.471842 -1.3644385
000280 20 e8 5d 3b a3 44 a2 bf 7d 28 6e bf 99 13 2b be
       0.003386028 -1.2677196 -0.9303053 -0.16706695
000290 98 49 0e bf 6d 83 be c0 e1 af c1 bf 4b 23 d1 c0
       -0.55581045 -5.953543 -1.5131799 -6.535558
0002a0 10 98 5e bf 93 3f 97 bf f5 9b 02 c0 0c 23 ac 3d
       -0.8695078 -1.1816276 -2.0407689 0.08405122
0002b0 64 62 bf c0 6f dd 63 bd e4 30 c7 bd c7 73 83 c0
       -5.9807606 -0.055631097 -0.09726122 -4.107883
0002c0 f8 0f dc be 9a 93 34 c0 cd 6a e5 be 92 36 05 bd
       -0.42980933 -2.821509 -0.44808045 -0.032522745
0002d0 6c 1a b0 bf 76 2c 1d bf 78 bd 57 be 79 3e 64 bf
       -1.3758063 -0.61395967 -0.2106837 -0.89157826
0002e0 f6 bc cc be 77 9c 11 bf 15 02 8c be 51 8b 71 bf
       -0.39987916 -0.5687937 -0.27345338 -0.94353205
0002f0 ad 0b d2 bf 77 34 eb bf c4 74 98 c1 c0 39 3a bf
       -1.6409813 -1.8375386 -19.057014 -0.7274437
000300 1d d6 35 bf 74 ba 39 bf f6 e5 81 bf 78 ad a6 bf
       -0.71029836 -0.7255013 -1.0148304 -1.3021688
000310 0a e7 bd bf de d5 af bf 64 eb 6d bf 1a c0 78 c1
       -1.4836133 -1.3737142 -0.929373 -15.5469
000320 05 ec 47 bf df 4c 4d bf 76 4b 9d bf 68 82 3a c0
       -0.7809451 -0.8019542 -1.2288654 -2.9142094
000330 fa 30 98 bf 23 e5 2c bf cd 71 11 c1 e4 84 8c bf
       -1.1889946 -0.67537135 -9.090283 -1.0978055
000340 aa af e9 bd 42 19 b1 bf 1f 55 3c bf d5 14 7f 3d
       -0.114104584 -1.3835833 -0.73567384 0.062275726
000350 2d 78 19 bf 3b 46 c6 c0 61 45 be bf f2 5c e1 c0
       -0.59949 -6.196073 -1.4864923 -7.042596
000360 4e a7 56 bf 88 81 98 bf da 86 ec bf 4a a4 4b bd
       -0.83849037 -1.191453 -1.8478653 -0.049717225
000370 ce e5 b5 c0 44 37 f4 bd 9c 7a e7 3d 79 da 82 c0
       -5.6843023 -0.119246036 0.11302683 -4.089169
000380 d6 b3 fa be 4c 29 3d c0 35 26 18 bf f4 45 2a be
       -0.4896533 -2.9556456 -0.594333 -0.16628247
000390 6b 94 ce bf 8e f6 1b bf b8 5a 4f be 5a 76 7b bf
       -1.6139044 -0.6092309 -0.2024945 -0.98227465
0003a0 fc 6f 0b bf 72 bb 12 bf 0a df 78 be ca b4 52 bf
       -0.5446775 -0.5731727 -0.24303833 -0.8230711
0003b0 f9 79 cf bf d3 bc ec bf 45 2f 9b c1 86 aa 40 bf
       -1.6209098 -1.8495125 -19.39808 -0.752602
0003c0 1d b9 28 bf fd f7 4b bf 76 37 8b bf 99 d3 97 bf
       -0.6590746 -0.79675275 -1.08763 -1.186145
0003d0 05 43 a7 bf 8d 46 c0 bf 9f 19 52 bf ea 6b 61 c1
       -1.3067328 -1.502153 -0.82070345 -14.088846
0003e0 bb aa 31 bf f2 0b 51 bf 0f c7 7d bf e3 7e 41 c0
       -0.6940114 -0.8165885 -0.99131864 -3.0233696
0003f0 41 6c b1 bf 5c fc 2d bf 4f 41 09 c1 e3 8b 8f bf
       -1.3861161 -0.67963195 -8.5784445 -1.1214565

dense3.bias f4 [128]
000000 61 24 f5 c0 2a 49 f5 c0 87 2d f5 c0 1a 08 f5 c0
       -7.660691 -7.665181 -7.6618075 -7.657239
000010 1c f2 f4 c0 bf 0b f5 c0 68 49 f5 c0 6c a9 f4 c0
       -7.6545544 -7.657684 -7.6652107 -7.6456814
000020 5f 4b f5 c0 c4 4e f5 c0 9b 1e f5 c0 c7 13 f5 c0
       -7.6654506 -7.665865 -7.659986 -7.658664
000030 9f 8a f5 c0 07 4f f5 c0 cc 49 f5 c0 f5 98 f5 c0
       -7.6731715 -7.665897 -7.6652584 -7.6749215
000040 f9 79 f5 c0 f1 c9 f5 c0 c9 1b f5 c0 7c 5a f5 c0
       -7.6711392 -7.680901 -7.6596417 -7.6672955
000050 25 1d f5 c0 1e 2c f5 c0 d8 6b f5 c0 df 3e f5 c0
       -7.6598077 -7.6616354 -7.6694145 -7.6639247
000060 23 37 f5 c0 d5 08 f5 c0 31 0b f5 c0 ff 20 f5 c0
       -7.6629806 -7.657328 -7.657616 -7.660278
000070 03 da f4 c0 d0 7a f5 c0 6c 7c f5 c0 b4 d2 f5 c0
       -7.6516128 -7.6712418 -7.671438 -7.6819706
000080 d1 f2 f4 c0 d1 39 f5 c0 94 05 f5 c0 13 1e f5 c0
       -7.6546407 -7.6633077 -7.656931 -7.659921
000090 a5 2e f5 c0 06 c1 f4 c0 85 13 f5 c0 62 12 f5 c0
       -7.661944 -7.6485624 -7.6586328 -7.658494
0000a0 df 2d f5 c0 5c 36 f5 c0 e0 7c f5 c0 5d ff f4 c0
       -7.6618495 -7.6628857 -7.6714935 -7.6561723
0000b0 57 20 f5 c0 03 33 f5 c0 7f bf f5 c0 fe e8 f4 c0
       -7.6601977 -7.662477 -7.679626 -7.6534414
0000c0 2e 49 b8 bf b0 fe 2b 3f b3 3e f5 c0 37 8f 09 bf
       -1.4397333 0.671855 -7.6639037 -0.53734154
0000d0 02 16 f5 c0 dc dc f4 c0 5e db f4 c0 03 eb 96 bf
       -7.6589365 -7.6519604 -7.651778 -1.179047
0000e0 6b 37 f5 c0 15 2d f5 c0 8c cb 25 bf 7a f1 67 bf
       -7.663015 -7.661753 -0.6476371 -0.9060284
0000f0 c6 eb a4 bf 53 46 07 c0 73 d8 64 c0 82 cc ea bf
       -1.2884452 -2.1136672 -3.575711 -1.8343661
000100 a9 22 97 3f cd 61 9e 3f a9 d3 41 c0 ff 1e 3a 3f
       1.1807452 1.2373596 -3.0285437 0.72703546
000110 9e c4 28 bf 11 50 5a bf 95 88 f5 c0 55 4e 17 40
       -0.65925014 -0.8527842 -7.6729226 2.364156
000120 fd 25 73 40 33 d1 01 40 9b e6 60 bd 8c b0 c3 3e
       3.7991936 2.0283935 -0.054907423 0.38220632
000130 a6 f1 45 bf fd 66 41 c0 8c 15 d7 bf 4e 3a 2f 3f
       -0.7732185 -3.021911 -1.680345 0.6844834
000140 ca 43 02 c0 c7 24 88 c0 44 f2 1c c1 be 69 9d 3f
       -2.0353875 -4.2544894 -9.809147 1.2297895
000150 61 02 3f 40 05 fe cd bf d4 ed 1a 3e 1a a3 d5 be
       2.9845202 -1.6093146 0.15129787 -0.41726
000160 80 55 87 3e 0a 2d b6 40 41 57 ad 40 5c 5b 6e 40
       0.2643242 5.692998 5.416901 3.7243261
000170 cf 31 12 3e 80 3f 37 c1 ec 8e 08 c1 bd a3 35 3f
       0.14276813 -11.453003 -8.534893 0.7095297
000180 05 a0 f5 c0 ca 60 f5 c0 11 83 f5 c0 d4 c4 f4 c0
       -7.6757836 -7.668065 -7.6722493 -7.649027
000190 10 ac 31 bf df 31 16 3e 68 09 11 40 9b c6 fc 3f
       -0.6940317 0.14667462 2.266199 1.974811
0001a0 ea 56 bd 3f 0c e3 f8 3e e0 43 f5 c0 86 05 f5 c0
       1.4792149 0.48610723 -7.6645355 -7.6569242
0001b0 ba e1 f4 c0 5a 19 f5 c0 ae 58 f5 c0 28 dd f4 c0
       -7.6525545 -7.6593447 -7.667075 -7.6519966
0001c0 a3 5b f5 c0 0f 23 f5 c0 10 80 f5 c0 f1 73 f5 c0
       -7.667436 -7.6605296 -7.6718826 -7.670403
0001d0 aa c6 f5 c0 83 62 f5 c0 a3 ec f4 c0 e5 b5 f4 c0
       -7.680501 -7.6682754 -7.6538863 -7.647204
0001e0 20 8d f5 c0 98 67 f5 c0 77 4d f5 c0 08 5d f5 c0
       -7.673477 -7.6688957 -7.665706 -7.6676064
0001f0 31 25 f5 c0 40 25 f5 c0 76 67 f5 c0 47 84 f5 c0
       -7.66079 -7.660797 -7.6688795 -7.672397
