Saved Models/O28B_UPA_8x8_DFT_10_beam_probing_codebook_128_beam_classifier.pt (torch, 61727 bytes, 6 tensors)

dense1.weight f4 [50, 25]
-6.955498 3.0576413 3.6229916 -42.882153 -83.26706 5.4786563 1.3741174 7.1562057
-70.174034 -61.970795 2.5811563 2.439523 6.780901 -139.89705 -76.249146 0.82226765
0.43916827 -0.53724015 2.1925619 -30.524498 5.379534 -0.7686351 0.71442866 -5.4548287
-30.799276 -16.473349 20.119633 -4.804218 -41.52851 -7.4524837 15.590303 -5.8488703
30.702059 17.604025 15.301558 -0.91825527 1.1509931 3.5353591 -2.907143 1.1693027
0.76665163 -4.7285695 -5.745413 -1.9874403 -0.5682924 -11.639943 56.58039 17.655478
-118.47259 2.7224522 9.668597 4.726414 -89.724846 4.8861046 -16.89195 -11.568003
0.077692114 -98.16015 -10.157499 1.2273011 2.431835 8.197516 -121.54502 2.8533585
-6.685325 0.56949055 -19.058151 -41.85936 1.4321488 -3.8263187 -4.4803824 -37.553345
-17.06874 -24.09569 -16.807499 -10.183835 5.6689787 -15.307443 -7.7057066 -3.1785495
13.677858 -52.16054 -54.161034 1.1498097 8.1021385 0.56406975 5.4670024 -28.560795
-2.9267244 0.5041155 1.3788298 -5.1758265 -11.98005 -5.4319725 -0.5242743 2.6560047
-63.97808 -72.63305 28.971588 3.0992627 1.2005758 -21.559578 18.439894 -15.112307
-99.78148 -6.260713 21.449774 2.8426514 31.955805 35.641468 1.5170707 -1.5990541
7.905943 -13.703089 -13.915971 -3.3624377 -8.616299 -2.0626178 -21.310307 -23.49828
-12.62296 -32.324318 9.769347 81.277245 -46.410984 14.201091 -35.886963 -6.5670886
30.130114 7.6866384 -25.103573 17.989668 3.4292288 2.327511 2.8025842 1.4941801
-20.514015 -12.435687 16.01808 0.35030818 2.0978556 -11.818382 -0.040003605 0.32416776
0.7535557 1.5244488 -54.82422 -21.324041 3.5052607 17.401953 1.6743737 -57.668106
0.8680695 -4.1149483 -122.52339 -2.1477191 -100.916885 -2.0366848 12.282524 -140.2805
2.5709708 -67.83899 3.515203 3.5810683 -153.95996 1.4600122 -76.515076 -0.5372129
0.4935364 -67.15591 9.291411 -46.813187 -12.896633 -98.24004 -73.35326 0.68119824
0.503641 -10.394919 -4.934726 -2.2587302 2.8164558 0.68452823 -45.06631 45.16947
-1.5510851 1.7908342 -0.22986871 -11.250096 -10.496767 1.9448178 0.728759 -0.47250405
-5.012401 -5.264781 -4.85632 -2.4810846 -36.797764 -66.848175 46.658955 5.5031834
7.486789 13.560954 25.974533 18.993788 22.923054 8.590522 -16.240816 8.83897
17.410372 -9.806036 1.2774912 -4.3061876 1.3532871 8.494786 -0.5405933 1.2036259
-3.9943972 0.27666262 0.68953276 1.1655569 -5.9715753 21.621738 1.6361358 3.6878037
17.408983 -0.72968745 6.598632 10.962745 0.7139599 5.352065 -6.2036705 3.6666362
0.8367169 2.2818031 -5.4460406 -3.9636168 0.63699967 0.76394105 4.6992683 1.4666395
1.2166992 0.28753695 0.06297052 -6.545426 1.3427279 -21.460764 0.8533175 -3.6823134
-30.012362 -1.5014888 -13.404557 17.180515 -12.844201 -0.24494027 1.3066204 11.789573
00000000: 7193 dec0 65b0 4340 18df 6740 5387 2bc2
00000010: bc88 a6c2 2751 af40 14e3 af3f a3ff e440
00000020: 1b59 8cc2 18e2 77c2 aa31 2540 2521 1c40
00000030: 24fd d840 a5e5 0bc3 907f 98c2 2280 523f
00000040: aada e03e 9288 09bf ef52 0c40 2c32 f4c1
00000050: 2425 ac40 45c5 44bf cce4 363f f58d aec0
00000060: eb64 f6c1 6bc9 83c1 02f5 a041 27bc 99c0
00000070: 321d 26c2 bf7a eec0 e271 7941 f229 bbc0
00000080: d19d f541 0bd5 8c41 2ed3 7441 c712 6bbf
00000090: be53 933f 5343 6240 a20e 3ac0 b6ab 953f
000000a0: 4843 443f 7150 97c0 6cda b7c0 7264 febf
000000b0: 9c7b 11bf 353d 3ac1 5252 6242 6b3e 8d41
000000c0: f7f1 ecc2 a83c 2e40 93b2 1a41 c93e 9740
000000d0: 1f73 b3c2 f85a 9c40 b722 87c1 8a16 39c1
000000e0: 0b1d 9f3d ff51 c4c2 1e85 22c1 3418 9d3f
000000f0: 2fa3 1b40 0729 0341 0d17 f3c2 6d9d 3640
00000100: 2fee d5c0 22ca 113f 1877 98c1 fc6f 27c2
00000110: a750 b73f 68e2 74c0 4b5f 8fc0 a036 16c2
00000120: c88c 88c1 f9c3 c0c1 c275 86c1 fdf0 22c1
00000130: 4668 b540 49eb 74c1 2695 f6c0 5b6d 4bc0
00000140: 82d8 5a41 65a4 50c2 e6a4 58c2 f72c 933f
00000150: 5ca2 0141 e066 103f aff1 ae40 827c e4c1
00000160: 744f 3bc0 b70d 013f 7f7d b03f 5fa0 a5c0
00000170: 49ae 3fc1 b8d2 adc0 d736 06bf fbfb 2940
00000180: 8ee9 7fc2 1f44 91c2 d0c5 e741 525a 4640
00000190: 78ac 993f 047a acc1 e784 9341 02cc 71c1
000001a0: 1e90 c7c2 c357 c8c0 2399 ab41 00ee 3540
000001b0: 7da5 ff41 dd90 0e42 5f2f c23f cead ccbf
000001c0: 7cfd fc40 da3f 5bc1 d1a7 5ec1 2e32 57c0
000001d0: 5cdc 09c1 ee01 04c0 827b aac1 7afc bbc1
000001e0: a5f7 49c1 1a4c 01c2 3f4f 1c41 f38d a242
000001f0: d9a4 39c2 ab37 6341 408c 0fc2 9725 d2c0
00000200: 790a f141 f1f8 f540 1ed4 c8c1 d7ea 8f41
00000210: 7c78 5b40 f1f5 1440 8a5d 3340 4b41 bf3f
00000220: b41c a4c1 93f8 46c1 0725 8041 985b b33e
00000230: 4443 0640 1818 3dc1 d2da 23bd 51f9 a53e
00000240: 07e9 403f 2321 c33f 004c 5bc2 a397 aac1
00000250: 3156 6040 3337 8b41 e151 d63f 24ac 66c2
00000260: ce39 5e3f a8ad 83c0 fa0b f5c2 3b74 09c0
00000270: 72d5 c9c2 0b59 02c0 3885 4441 cf47 0cc3
00000280: c98a 2440 90ad 87c2 16f9 6040 3930 6540
00000290: c0f5 19c3 aee1 ba3f b807 99c2 c986 09bf
000002a0: ceb0 fc3e d34f 86c2 9fa9 1441 b440 3bc2
000002b0: 9c58 4ec1 e77a c4c2 deb4 92c2 0263 2e3f
000002c0: 9eee 003f 9751 26c1 47e9 9dc0 098f 10c0
000002d0: d040 3440 3e3d 2f3f e743 34c2 8aad 3442
000002e0: f589 c6bf 0e3a e53f b462 6bbe 6500 34c1
000002f0: c2f2 27c1 caef f83f f38f 3a3f 0dec f1be
00000300: 9765 a0c0 1679 a8c0 f966 9bc0 17ca 1ec0
00000310: e930 13c2 44b2 85c2 c5a2 3a42 141a b040
00000320: c793 ef40 abf9 5841 d8cb cf41 47f3 9741
00000330: 6a62 b741 c772 0941 31ed 81c1 6c6c 0d41
00000340: 7148 8b41 86e5 1cc1 d584 a33f 4acc 89c0
00000350: 8338 ad3f a5ea 0741 5364 0abf 6a10 9a3f
00000360: 34a4 7fc0 b9a6 8d3e 3885 303f f830 953f
00000370: 2517 bfc0 52f9 ac41 e66c d13f fa04 6c40
00000380: 9945 8b41 cccc 3abf fe27 d340 6767 2f41
00000390: 13c6 363f 1e44 ab40 7884 c6c0 2baa 6a40
000003a0: 1433 563f 1009 1240 f745 aec0 e6ab 7dc0
000003b0: 6912 233f a491 433f 6860 9640 d8ba bb3f
000003c0: cdbc 9b3f 0b38 933e b0f6 803d 2174 d1c0
000003d0: 82de ab3f a5af abc1 0473 5a3f 06ab 6bc0
000003e0: 5119 f0c1 c930 c0bf 1179 56c1 b271 8941
000003f0: d981 4dc1 9fd1 7abe 563f a73f 17a2 3c41

dense1.bias f4 [50]
0.03929267 -0.02764907 0.065719455 -0.17199828 0.1475968 0.008766016 0.08529562 -0.45071128
-0.04187882 -0.33905458 -0.09273251 -0.050740417 0.07686754 0.08801022 0.09464663 0.08723607
0.04676414 0.15066586 -0.8845874 0.014065264 0.065419964 0.028294057 0.014351402 0.07390063
0.018245433 0.07995621 -0.3113164 0.10401086 0.017254746 0.064464025 0.050365027 0.019584356
0.03099149 0.0841233 0.025368795 -9.880203e-05 0.071636066 0.16015644 0.07386396 0.07575225
-0.03214815 0.06017722 0.12661132 0.06094885 0.04808666 0.019406466 0.022451244 -0.04494474
0.032687087 -0.22830053
00000000: 5af1 203d 4d80 e2bc ec97 863d 5120 30be
00000010: 9e23 173e 569f 0f3c 78af ae3d a1c3 e6be
00000020: 2089 2bbd 9098 adbe 8bea bdbd 2fd5 4fbd
00000030: bb6c 9d3d b43e b43d 18d6 c13d d3a8 b23d
00000040: c18b 3f3d 2748 1a3e 5274 62bf fe71 663c
00000050: e7fa 853d f0c8 e73c 2522 6b3c 3759 973d
00000060: 7277 953c 15c0 a33d dd64 9fbe a503 d53d
00000070: d359 8d3c b705 843d 8f4b 4e3d 5f6f a03c
00000080: dee1 fd3c d648 ac3d 38d2 cf3c f033 cfb8
00000090: eeb5 923d 0d00 243e fd45 973d ff23 9b3d
000000a0: c7ad 03bd 637c 763d 66a6 013e 80a5 793d
000000b0: 85f6 443d 4ffa 9e3c aceb b73c fa17 38bd
000000c0: e5e2 053d 9dc7 69be

dense2.weight f4 [75, 50]
-0.03528294 0.5386746 -10.208622 -2.7693956 1.5431521 -2.3416843 4.586233 -3.6637976
0.996465 1.7869414 -2.9976487 -1.4207183 0.9948983 1.6120675 0.6099161 -0.09842224
-11.422439 3.513445 -1.7783687 -4.439555 0.8562027 1.5953379 -6.8161664 -3.1533768
-2.1853812 1.6438681 0.38216236 7.7717323 0.9701915 0.38496247 -9.1275425 1.0592214
1.5528601 -1.4037827 -3.0499036 -0.36834875 -4.916183 1.626527 0.47057334 -1.2931088
-3.048695 0.1172547 -4.459705 1.8372222 3.6417234 -4.3247194 -2.988413 -1.3977561
-5.368887 4.143381 -0.18355662 0.061729327 -0.06394271 -0.034233548 -0.14554606 -0.105867326
0.10474607 -0.18590125 -0.09561288 -0.20449746 -0.07564188 -0.1499681 -0.07164853 -0.1594686
-0.091806546 0.044809468 -0.013526085 0.0191657 -0.067049816 0.0996525 -0.020183101 -0.14331959
0.03402215 0.017312719 0.065936156 -0.0766303 -0.113172226 -0.16133897 -0.005041392 0.08040231
-0.036505617 -0.18633647 -0.024723807 -0.05140503 -0.066940054 -0.114010155 -0.13767388 0.008699625
-0.121156365 -0.093510136 -6.5107946e-05 -0.11397462 -0.0012355472 -0.078152604 0.005193253 -0.10880587
-0.1691236 -0.096561 0.008104872 0.045105416 -0.031164045 -0.14476234 0.041457355 0.00079359114
-0.0952491 -0.033827685 -0.12749587 0.10054813 -0.002546087 -0.002918259 -0.109592766 -0.0019195195
0.10928704 -0.048421312 0.13012879 -0.016177563 -0.14015792 0.020301905 -0.118284404 -0.03765826
-0.1396981 -0.02958911 -0.13873495 -0.00045467913 0.02268612 -0.040585294 -0.195899 -0.07257184
-0.041386005 0.05602526 -0.14599435 -0.12741965 -0.0077408105 -0.10379682 -0.104967475 -0.07442095
0.038651347 -0.099551514 -0.13665378 -0.10049972 -0.022285892 -0.12868334 -0.14042267 -0.050247144
0.017851114 -0.13023081 0.037799228 -0.00011155009 -0.033027083 0.02462643 -1.8051192 -1.4428799
-0.17307779 -0.23252463 -0.002350565 0.014561185 0.10233364 0.4151977 0.38810965 -0.67069507
-1.011639 -3.6574497 2.2866147 -0.73586154 0.7548948 -5.0810156 4.042398 2.5134847
-0.9909082 0.95465124 0.69613683 2.655932 1.3134794 7.4315534 1.5381187 -1.5252419
-1.14346 -9.343421 -2.0481293 -1.8268584 4.1887164 3.9241667 -1.9090729 -1.5333966
-0.6659729 0.0053681345 3.9510005 -2.6682327 -0.8415361 1.7813855 -5.755652 -3.4906945
4.338772 2.8322697 -2.9312277 0.9818832 -0.682782 1.9125407 -0.97841763 2.542436
1.1284348 0.80997 0.77098495 -2.5882158 2.7193265 0.56110376 8.941619 -2.745443
1.2410908 -0.5040391 -0.70017415 -1.3777786 -4.6034 -0.8543819 1.0642742 1.1289728
-9.872169 1.118876 -0.7370594 -0.20457263 0.6275121 -0.12352685 1.5018368 -9.817918
-2.5663924 3.388575 1.4661447 -13.959174 0.034224182 4.5555544 4.410871 -5.004889
0.6499493 4.9455256 -0.35037622 0.8334191 0.9210142 3.3182485 -1.4602277 -0.87145555
0.118557066 -2.2566254 -2.4180489 -7.168794 -0.019418841 -9.118504 0.23299684 -5.016982
0.032443102 -2.765624 -3.6981971 1.2920306 -0.8442574 2.0850482 -0.21784833 -1.1175908
00000000: d884 10bd 94e6 093f 8456 23c1 c73d 31c0
00000010: 0286 c53f 28de 15c0 6cc2 9240 a97b 6ac0
00000020: 5518 7f3f 7fba e43f 7ad9 3fc0 19da b5bf
00000030: a8b1 7e3f 3a58 ce3f 7623 1c3f 9991 c9bd
00000040: 4fc2 36c1 48dc 6040 96a1 e3bf d610 8ec0
00000050: 1a30 5b3f 0834 cc3f 091e dac0 edd0 49c0
00000060: 49dd 0bc0 456a d23f c9aa c33e 08b2 f840
00000070: 785e 783f cd19 c53e 6a0a 12c1 9194 873f
00000080: 1fc4 c63f 27af b3bf 9f31 43c0 3598 bcbe
00000090: 5f51 9dc0 0932 d03f fdee f03e 9784 a5bf
000000a0: d21d 43c0 3b23 f03d e7b5 8ec0 192a eb3f
000000b0: ff11 6940 1a64 8ac0 2942 3fc0 ace9 b2bf
000000c0: eccd abc0 9496 8440 44f6 3bbe e4d7 7c3d
000000d0: 65f4 82bd 7a38 0cbd 070a 15be f8d0 d8bd
000000e0: 1c85 d63d e65c 3ebe b0d0 c3bd c867 51be
000000f0: 21ea 9abd 3d91 19be 77bc 92bd bd4b 23be
00000100: 1205 bcbd 228a 373d 839c 5dbc 6301 9d3c
00000110: 6a51 89bd 9c16 cc3d 0857 a5bc 5fc2 12be
00000120: cf5a 0b3d 67d3 8d3c 8909 873d 59f0 9cbd
00000130: d7c6 e7bd 0b36 25be 4332 a5bb f7a9 a43d
00000140: ea86 15bd fdce 3ebe 9589 cabc 158e 52bd
00000150: de17 89bd 287e e9bd 62fa 0cbe df88 0e3c
00000160: d420 f8bd 3e82 bfbd 908a 88b8 876b e9bd
00000170: 16f2 a1ba 790e a0bd 2a2c aa3b 9dd5 debd
00000180: bd2e 2dbe c6c1 c5bd 4cca 043c 75c0 383d
00000190: bd4b ffbc 943c 14be 30cf 293d 0009 503a
000001a0: f611 c3bd e68e 0abd 478e 02be 2eec cd3d
000001b0: 40dc 26bb 4340 3fbb 2c72 e0bd 6398 fbba
000001c0: e2d1 df3d 6d55 46bd 7b40 053e cf86 84bc
000001d0: 8f85 0fbe 2e50 a63c 183f f2bd 8c3f 1abd
000001e0: 050d 0fbe dc64 f2bc 8910 0ebe 0062 eeb9
000001f0: 3ed8 b93c c43c 26bd bf99 48be 8ba0 94bd
00000200: 5f84 29bd be7a 653d 8b7f 15be 4c7a 02be
00000210: a0a6 fdbb 6d93 d4bd 30f9 d6bd 036a 98bd
00000220: e050 1e3d aae1 cbbd f8ee 0bbe ccd2 cdbd
00000230: e790 b6bc 91c5 03be f6ca 0fbe f3cf 4dbd
00000240: 803c 923c 3a5b 05be 5dd3 1a3d 00f0 e9b8
00000250: 6847 07bd 5ebd c93c 250e e7bf 4ab0 b8bf
00000260: 4e3b 31be f01a 6ebe f00b 1abb 0992 6e3c
00000270: 4d94 d13d cb94 d43e 4fb6 c63e acb2 2bbf
00000280: 637d 81bf a813 6ac0 e557 1240 6c61 3cbf
00000290: c940 413f ae97 a2c0 535b 8140 efdc 2040
000002a0: 29ac 7dbf 0664 743f 0636 323f cafa 2940
000002b0: 1820 a83f 49cf ed40 13e1 c43f 203b c3bf
000002c0: e65c 92bf a77e 15c1 8d14 03c0 7fd6 e9bf
000002d0: f709 8640 8c25 7b40 805c f4bf 5746 c4bf
000002e0: 337d 2abf 2de7 af3b 31dd 7c40 53c4 2ac0
000002f0: e96e 57bf 7104 e43f 4d2e b8c0 8a67 5fc0
00000300: 38d7 8a40 e843 3540 3c99 3bc0 b35c 7b3f
00000310: cdca 2ebf 22ce f43f 9479 7abf 45b7 2240
00000320: 8d70 903f 325a 4f3f 455f 453f 54a5 25c0
00000330: 7209 2e40 7fa4 0f3f df10 0f41 57b5 2fc0
00000340: 10dc 9e3f b508 01bf 9d3e 33bf 0d5b b0bf
00000350: 0e4f 93c0 c6b8 5abf 233a 883f 2e82 903f
00000360: 67f4 1dc1 5437 8f3f edaf 3cbf 7d7b 51be
00000370: a2a4 203f a5fb fcbd 303c c03f 3116 1dc1
00000380: c63f 24c0 6ade 5840 a1aa bb3f c758 5fc1
00000390: a82e 0c3d 1ac7 9140 db25 8d40 0d28 a0c0
000003a0: 1463 263f bf41 9e40 8364 b3be f45a 553f
000003b0: 96c7 6b3f 2f5e 5440 bee8 babf b617 5fbf
000003c0: 0cce f23d 8d6c 10c0 50c1 1ac0 c366 e5c0
000003d0: 4314 9fbc 64e5 11c1 b996 6e3e 1e8b a0c0
000003e0: 0fe3 043d fcff 30c0 43af 6cc0 4261 a53f
000003f0: 4121 58bf 6e71 0540 a213 5fbe 370d 8fbf

dense2.bias f4 [75]
0.20980737 -0.044399522 -0.18463294 0.18190184 0.5879956 0.33544606 0.18177857 -0.05035935
-0.070352666 -0.124297805 -0.13480237 0.6440173 0.8049679 0.050167866 -0.31338516 0.37276605
-0.40471983 -0.092385076 -0.56564665 -0.23962943 -0.32441613 -0.47578272 -0.10830784 -0.03407973
-0.30671933 0.7456479 -0.43879429 -0.10303533 -0.14534315 0.19457215 -0.21342634 0.07369423
-0.2746345 0.76435447 0.12640259 0.85068464 -0.36034098 -0.29250908 0.061235227 -0.4482237
-0.27035123 -0.7879065 -0.29828838 -0.34060252 0.497995 0.47372392 0.48798466 0.044556733
-0.3964441 -0.22526012 -0.09505154 -0.9974279 -0.50541484 -0.84943706 -0.8115456 0.38613802
0.25409192 0.26311433 0.5268421 -0.52621704 -0.36458552 -0.46461162 0.24071205 0.80558324
-0.1168081 0.27927053 0.41179836 0.13678747 -0.1621612 -0.030593045 0.23367955 -0.20966683
-0.06621105 0.28391308 -0.22713213
00000000: bed7 563e 46dc 35bd 6b10 3dbe 7a44 3a3e
00000010: e186 163f 96bf ab3e 2924 3a3e 9b45 4ebd
00000020: 0f15 90bd d98f febd a209 0abe 51de 243f
00000030: 6012 4e3f d27c 4d3d 0574 a0be 31db be3e
00000040: 7037 cfbe 6334 bdbd 38ce 10bf 6b61 75be
00000050: df19 a6be cb99 f3be 80d0 ddbd 3097 0bbd
00000060: 510a 9dbe c8e2 3e3f a5a9 e0be 3004 d3bd
00000070: d6d4 14be ec3d 473e 6f8c 5abe 00ed 963d
00000080: e59c 8cbe bcac 433f ae6f 013e 78c6 593f
00000090: 9d7e b8be c0c3 95be cad1 7a3d 947d e5be
000000a0: 7a6b 8abe 3eb4 49bf 41b9 98be 7463 aebe
000000b0: 33f9 fe3e f18b f23e 20d9 f93e 1f81 363d
000000c0: b9fa cabe 97aa 66be 62aa c2bd 6f57 7fbf
000000d0: de62 01bf b574 59bf 74c1 4fbf e2b3 c53e
000000e0: 5618 823e ecb6 863e 20df 063f 29b6 06bf
000000f0: f4aa babe 93e1 edbe 387d 763e b43a 4e3f
00000100: 1639 efbd 8cfc 8e3e 3cd7 d23e 0412 0c3e
00000110: 960d 26be 449e fabc b149 6f3e e7b2 56be
00000120: a999 87bd 0e5d 913e 5395 68be

dense3.weight f4 [128, 75]
-1.1253525 -0.06564611 -0.12873808 -4.2428627 -5.288835 -0.6026092 -0.31582648 -0.19652532
-0.15014856 -2.108387 -0.42143792 -0.52763873 -0.83271277 -0.21741816 -0.03233653 -0.30434024
-0.09399727 -0.15591031 -0.35134193 -2.8311791 -0.4769739 -0.08218605 -0.42073685 -0.35012162
-0.104446985 -6.360558 -0.02885884 -0.007855246 -0.07035569 -2.1338787 -0.52863866 -1.6138535
-2.7430182 -0.75865394 -0.39611414 -0.61123824 -0.35664505 -0.9164147 -0.80586064 -0.28816283
-0.4121671 -0.23337016 -0.018058911 -0.288153 -10.964747 -1.0757644 -2.5881042 -5.5804677
-0.15815535 -0.4538798 -0.040257115 -2.7064915 -0.08500704 0.011602805 -0.6948831 -0.43623295
-4.5300174 -0.8134667 -0.6863598 -0.42989784 -0.69260687 0.054211363 -2.3613648 -0.37931702
-0.106231295 -0.89033294 -4.210609 -0.51161855 0.103895865 -3.6826928 -0.7976894 0.043930028
-4.69235 -0.39685228 -3.083751 -1.1135983 -0.13598362 -0.07930058 -3.962279 -4.899641
-0.5232259 -0.30127838 -0.220497 -0.16695502 -1.6626475 -0.29344946 -0.6661096 -0.7259799
-0.29036373 0.10635447 -0.32990488 -0.16489339 -0.31371787 -0.38619852 -2.9157598 -0.55279034
0.03527074 -0.33884215 -0.40128666 -0.16776824 -6.090629 -0.029874511 -0.19239146 -0.089168414
-2.1677597 -0.48158458 -1.6161422 -2.4540992 -0.62365776 -0.2739586 -0.6534198 -0.5049884
-0.9139247 -0.993386 -0.45536992 -0.36880806 -0.31475434 -0.11028043 -0.31320694 -10.729559
-1.1362208 -2.6174047 -5.0684395 -0.23733775 -0.45736846 -0.17225373 -3.0206594 -0.20773914
-0.05084983 -0.52954745 -0.44048333 -5.0021625 -0.741446 -0.606235 -0.3836785 -0.71665984
0.06377895 -2.6815076 -0.38622606 -0.17425059 -0.8506706 -4.012788 -0.49566677 0.08425033
-4.188595 -0.9213738 0.0040870914 -4.713502 -0.45802268 -2.834264 -0.9696903 -0.1679191
-0.008414436 -3.9866767 -5.117398 -0.60542494 -0.4624798 -0.27402452 -0.092985965 -1.9874736
-0.35829115 -0.6306889 -0.82922274 -0.3659874 0.07367598 -0.26901272 0.045161642 -0.32095036
-0.43469092 -2.788284 -0.5786897 0.03307129 -0.48194352 -0.4111436 -0.16749564 -6.2544847
0.023975492 0.027084257 -0.03949149 -2.1862106 -0.40328678 -1.5606679 -2.6528645 -0.73851764
-0.37515205 -0.7071664 -0.36018673 -0.844715 -0.8404163 -0.28539294 -0.27320912 -0.36850327
-0.016450554 -0.40559635 -10.634038 -1.0901102 -2.7020106 -5.1610007 -0.2209754 -0.47376266
-0.09839115 -2.850301 0.0029680098 -0.046545804 -0.60459334 -0.47429585 -4.8774877 -0.8936116
-0.58073425 -0.422798 -0.736042 0.018180411 -2.6742175 -0.4919633 0.038664218 -0.76694643
-4.1698685 -0.51761514 0.05153369 -3.8998406 -0.7548958 -0.07732098 -4.7214284 -0.24349247
-2.8809867 -1.0841061 -0.12231903 -0.16381748 -3.821973 -4.8604574 -0.7203947 -0.4473555
-0.357332 -0.14060909 -1.9141568 -0.47043842 -0.6184625 -0.72381973 -0.27526078 0.051486194
-0.43868363 -0.06296726 -0.17108448 -0.39323273 -2.6167898 -0.41173837 0.009356078 -0.41121545
-0.39223054 -0.09451764 -6.2393303 -0.01180315 -0.1575983 -0.15387611 -2.1625512 -0.47456565
00000000: 8d0b 90bf 7871 86bd ead3 03be 88c5 87c0
00000010: 233e a9c0 9944 1abf 02b4 a1be ef3d 49be
00000020: 8bc0 19be d0ef 06c0 b6c6 d7be 5513 07bf
00000030: aa2c 55bf dea2 5ebe 4f73 04bd 7cd2 9bbe
00000040: a481 c0bd f4a6 1fbe 17e3 b3be 0a32 35c0
00000050: ec35 f4be 2951 a8bd d26a d7be 2443 b3be
00000060: 4de8 d5bd b189 cbc0 6069 ecbc 4ab3 00bc
00000070: a516 90bd 7891 08c0 dd54 07bf c092 cebf
00000080: 9c8d 2fc0 2537 42bf 79cf cabe 1c7a 1cbf
00000090: 2e9a b6be 279a 6abf e24c 4ebf 148a 93be
000000a0: 9107 d3be 96f8 6ebe 48f0 93bc ca88 93be
000000b0: 9b6f 2fc1 a6b2 89bf 80a3 25c0 3193 b2c0
000000c0: 7af3 21be ef62 e8be a5e4 24bd 2837 2dc0
000000d0: 2c18 aebd b119 3e3c dce3 31bf ed59 dfbe
000000e0: e7f5 90c0 5b3f 50bf 47b5 2fbf 921b dcbe
000000f0: af4e 31bf bc0c 5e3d 9a20 17c0 d735 c2be
00000100: cb8f d9bd dcec 63bf 4fbd 86c0 6ff9 02bf
00000110: 5bc7 d43d 3db1 6bc0 5f35 4cbf f9ef 333d
00000120: bb27 96c0 3930 cbbe 2d5c 45c0 648a 8ebf
00000130: 4a3f 0bbe 5868 a2bd fb95 7dc0 dcc9 9cc0
00000140: 22f2 05bf 2941 9abe f7c9 61be 42f6 2abe
00000150: a2d1 d4bf 023f 96be 2986 2abf d2d9 39bf
00000160: 8eaa 94be 5fd0 d93d 4be9 a8be d0d9 28be
00000170: a19f a0be d0bb c5be cf9b 3ac0 ab83 0dbf
00000180: 0d78 103d b87c adbe 7275 cdbe 70cb 2bbe
00000190: 6fe6 c2c0 64bb f4bc 4402 45be ee9d b6bd
000001a0: 93bc 0ac0 4192 f6be bfdd cebf f60f 1dc0
000001b0: 09a8 1fbf 4d44 8cbe 8546 27bf eb46 01bf
000001c0: f8f6 69bf 8b4e 7ebf 3f26 e9be 69d4 bcbe
000001d0: 7b27 a1be b5da e1bd a95c a0be 46ac 2bc1
000001e0: af6f 91bf 8f83 27c0 a830 a2c0 ab08 73be
000001f0: 332c eabe 4863 30be 7c52 41c0 92b9 54be
00000200: e947 50bd 6c90 07bf 0887 e1be b711 a0c0
00000210: 68cf 3dbf 3832 1bbf 8271 c4be 0577 37bf
00000220: 8a9e 823d d29d 2bc0 6cbf c5be bf6e 32be
00000230: 8cc5 59bf c268 80c0 09c8 fdbe 708b ac3d
00000240: f808 86c0 27df 6bbf 02ed 853b 02d5 96c0
00000250: f381 eabe 9564 35c0 a03d 78bf fcf2 2bbe
00000260: b4dc 09bc b625 7fc0 b9c1 a3c0 21fd 1abf
00000270: 27ca ecbe f14c 8cbe 6d6f bebd 8965 febf
00000280: f071 b7be d474 21bf f147 54bf b362 bbbe
00000290: 6fe3 963d 09bc 89be 6afb 383d 9b53 a4be
000002a0: cf8f debe 3f73 32c0 0225 14bf c375 073d
000002b0: 4dc1 f6be 6a81 d2be fa83 2bbe bd24 c8c0
000002c0: 4068 c43c cedf dd3c d4c1 21bd e0ea 0bc0
000002d0: 9b7b cebe f7c3 c7bf 88c8 29c0 7e0f 3dbf
000002e0: ee13 c0be db08 35bf 656a b8be 3e3f 58bf
000002f0: 8625 57bf 061f 92be 11e2 8bbe 76ac bcbe
00000300: 50c3 86bc 53aa cfbe 0525 2ac1 bb88 8bbf
00000310: beed 2cc0 eb26 a5c0 6047 62be 0591 f2be
00000320: 4d81 c9bd 556b 36c0 f182 423b d0a6 3ebd
00000330: a1c6 1abf e8d6 f2be 6114 9cc0 bbc3 64bf
00000340: 00ab 14bf fb78 d8be 406d 3cbf 16ef 943c
00000350: 6126 2bc0 9de2 fbbe 5f5e 1e3d 9a56 44bf
00000360: 906f 85c0 6d82 04bf fe14 533d fd96 79c0
00000370: da40 41bf 765a 9ebd f115 97c0 1756 79be
00000380: 1662 38c0 fdc3 8abf 6682 fabd c5bf 27be
00000390: 359b 74c0 de88 9bc0 c96b 38bf c80b e5be
000003a0: 38f4 b6be d4fb 0fbe 1703 f5bf 4edd f0be
000003b0: 8f53 1ebf 404c 39bf fbee 8cbe 30e3 523d
000003c0: 249b e0be fbf4 80bd c530 2fbe cd55 c9be
000003d0: 7c79 27c0 5fcf d2be 3c4a 193c d58a d2be
000003e0: 71d2 c8be 7792 c1bd 98a8 c7c0 0062 41bc
000003f0: 7361 21be b391 1dbe 3d67 0ac0 45fa f2be

dense3.bias f4 [128]
-3.3547041 -3.3329856 -3.3142357 -3.319686 -3.3462753 -3.3718417 -3.2612565 -3.2667148
-3.273756 -3.353444 -3.3233013 -3.3571787 -3.3212786 -3.281559 -3.2496953 -3.2585917
-3.3057947 -3.2969296 -3.3631127 -3.3026464 -3.3775673 -3.2741518 -3.2683794 -3.2844346
-3.270796 -3.2522168 -3.3326564 -3.363359 -3.3679757 -3.3269074 -3.2895174 -3.3698392
-3.3132303 -3.3065248 -3.3263962 -3.3339856 -3.3172967 -3.3518133 -3.285581 -3.3042867
-3.287084 -3.2694056 -3.302702 -3.280252 -3.3382185 -3.3325863 -3.2613575 -3.3557723
2.5237792 0.06509927 -3.3074224 -2.449851 -3.3171446 -3.3084497 -3.363551 -1.1769377
-3.3241158 -3.2946353 -2.6006157 -2.354742 -0.19651522 1.1609998 1.3166802 0.22210313
0.35742775 -0.58291316 1.1099238 0.5351466 -0.35572076 -2.407259 -3.2699358 -0.88393223
0.3353665 2.4506814 -1.249281 -0.75510603 1.3116944 0.00016232749 0.20119493 -0.65627074
6.983072 -1.1106236 -2.4102793 9.119842 -0.9390624 -0.62706906 3.195987 -1.8464148
-6.4585476 5.611558 -3.0228536 -1.4341803 5.58599 -1.0683867 1.2363716 6.3493958
-3.2818205 -3.3567758 -3.3375297 -3.3578749 0.6621432 0.73746395 0.22358046 -0.20956154
-0.0065552634 5.2953677 -3.2877288 -3.2800734 -3.265274 -3.3317094 -3.3149521 -3.3008268
-3.2729187 -3.2943864 -3.309877 -3.3205836 -3.311236 -3.2646608 -3.334466 -3.3845887
-3.253213 -3.3448505 -3.263608 -3.2789316 -3.3554037 -3.3048966 -3.3478887 -3.3534195
00000000: 79b3 56c0 a34f 55c0 701c 54c0 bc75 54c0
00000010: 6029 56c0 41cc 57c0 6db8 50c0 db11 51c0
00000020: 3885 51c0 d49e 56c0 f8b0 54c0 04dc 56c0
00000030: d48f 54c0 1005 52c0 02fb 4fc0 c48c 50c0
00000040: 2492 53c0 e500 53c0 3d3d 57c0 8f5e 53c0
00000050: 102a 58c0 b48b 51c0 212d 51c0 2d34 52c0
00000060: b954 51c0 5224 50c0 3e4a 55c0 4641 57c0
00000070: ea8c 57c0 0dec 54c0 7487 52c0 72ab 57c0
00000080: f70b 54c0 1a9e 53c0 ade3 54c0 0560 55c0
00000090: 974e 54c0 1c84 56c0 f646 52c0 6f79 53c0
000000a0: 965f 52c0 f13d 51c0 785f 53c0 a6ef 51c0
000000b0: 5fa5 55c0 1849 55c0 15ba 50c0 f9c4 56c0
000000c0: 9985 2140 c452 853d cfac 53c0 5cca 1cc0
000000d0: 194c 54c0 a4bd 53c0 6b44 57c0 e5a5 96bf
000000e0: 50be 54c0 4edb 52c0 7d70 26c0 18b4 16c0
000000f0: 493b 49be a49b 943f fa88 a83f 016f 633e
00000100: c500 b73e cc39 15bf fc11 8e3f 5eff 083f
00000110: 0821 b6be 8810 1ac0 a146 51c0 6249 62bf
00000120: 28b5 ab3e f7d7 1c40 71e8 9fbf a14e 41bf
00000130: 9ae5 a73f 7436 2a39 0b06 4e3e 5c01 28bf
00000140: 5375 df40 ea28 8ebf 0442 1ac0 dfea 1141
00000150: 6566 70bf 9987 20bf 0d8b 4c40 5257 ecbf
00000160: 6cac cec0 e291 b340 6f76 41c0 3893 b7bf
00000170: 6ec0 b240 e5c0 88bf 6d41 9e3f 402e cb40
00000180: 5909 52c0 6ad5 56c0 169a 55c0 6ce7 56c0
00000190: 3782 293f 70ca 3c3f 47f2 643e 4d97 56be
000001a0: 89cd d6bb a773 a940 266a 52c0 b9ec 51c0
000001b0: 40fa 50c0 ba3a 55c0 2d28 54c0 bf40 53c0
000001c0: 8077 51c0 3ad7 52c0 06d5 53c0 7184 54c0
000001d0: 4aeb 53c0 34f0 50c0 e467 55c0 1a9d 58c0
000001e0: a434 50c0 0812 56c0 f4de 50c0 04da 51c0
000001f0: efbe 56c0 6d83 53c0 cf43 56c0 6d9e 56c0
