Saved Models/O28B_ULA_DFT_12_beam_probing_codebook_128_beam_classifier_noise_-94_dBm.pt (torch, 26143 bytes, 6 tensors)

dense1.weight f4 [24, 12]
00000000: 0523 9f3f a2a1 e63e d330 973f e637 6f40
00000010: 621d 02c2 19f1 9a40 290b 06c3 69f3 61c2
00000020: f86d 0740 f28c dcc2 c6d0 27c3 1c74 3ac2
00000030: 7f82 f43d 990b 04bf 0c8a 83c3 05d6 81bf
00000040: 1369 a13f 7ddb 05c3 9943 e53e a85f d8be
00000050: 4fab d4c2 7fe5 69bc 817f 87c1 decf c6bc
00000060: 360a 373e e2b3 2d41 935d 263f 4f9b fb3e
00000070: 88d4 93c2 eb3e a341 5d94 0fc3 d264 14c3
00000080: 9d98 7240 bae3 bdbf 8987 f43e fcfc 4dc0
00000090: 2295 aac2 3c74 80bf 01bf 39c1 53aa 7b40
000000a0: f3c5 c93f 1bfb 0042 c762 403f 58b8 ed40
000000b0: 9323 8740 a663 9f3e 4091 e5be 9fd0 183c
000000c0: a576 1640 7890 1441 6db6 2bbf 4402 233e
000000d0: e839 9f40 57cb d341 0875 373e 5105 9f40
000000e0: b166 8d3f 484b c6c2 6558 56c1 ddde a5be
000000f0: 9fa9 f540 d3e4 6a41 bff5 b340 244e 0c41
00000100: 3ece ff40 eb5b f741 1a10 a440 0a96 0e41
00000110: da83 f440 9d6e 603f 9b36 633f 695f 3840
00000120: 8fb8 493e 1a63 bf40 dda9 563f 2acc 423e
00000130: 0f08 c8c2 29e0 2841 de98 9440 1ded cbc2
00000140: 61a8 e9c2 96e9 46c2 2e17 163f 7f73 f83f
00000150: a006 463f 50cb 1341 9f0d 2c41 02fe 82c0
00000160: 1971 2fc0 4a37 06c3 4c67 74c0 f673 c140
00000170: 89b5 c440 eec4 4b3f 682a c7bf f9a8 19c2
00000180: c549 93c1 41c6 9cc2 f60b 0d41 d81d 0141
00000190: 71ef 1b41 4c30 6d41 c8fc 8ac0 5fe8 99c1
000001a0: 11d9 d6bf cf5f 99bf 2323 84be a4ed ae3f
000001b0: 066d 6940 5903 d43e 586e c63e 47f5 58c3
000001c0: 4899 b3c2 7ba4 c140 408c a6bf ef54 9540
000001d0: 89c9 d03f f5ac 2f3f cba9 713f 0a39 f33e
000001e0: f3c8 b740 18cd a641 9cdd 8940 d866 69bd
000001f0: bdb3 3e40 41b3 98c2 5a26 54c1 8048 6fc2
00000200: 07fc 30c3 ba5d 96c2 a18a 38c2 0a50 b93e
00000210: 77a0 683f 7498 8340 817f 76c2 db88 f23f
00000220: 6c3c d1c2 66c5 e8c2 ff87 373d 7f59 aa40
00000230: a3aa af40 814f 1040 c8cf 2dc0 4b2e 093f
00000240: aea4 ebbc e94d c5c0 f1bd 37c3 619e 883f
00000250: 6258 4541 9378 b73f 8838 bfbd 680f b640
00000260: 0e88 4340 16e1 ff3e 5fa1 fa3e a145 bb3f
00000270: d6ca 64c1 76c3 b640 57ab 8140 7903 66c0
00000280: 9a2c 8e41 f91f b642 a95e bf40 6f09 4541
00000290: 3834 8241 e881 d840 bcbb 753f 16e3 89be
000002a0: af67 f6c2 b45c 1140 d6ee b741 e024 0fbf
000002b0: e2d7 9040 969a 7f41 c137 143f 56ae 2940
000002c0: 343e 9440 feab 09be 68bb b03e 26d0 4ec3
000002d0: 7193 ff3f 1e42 f8bf 95fd f13f 49df 7340
000002e0: f699 2b40 a15d cd3f a753 3d40 011d 39c0
000002f0: f127 5f40 e185 8240 75ce 033f 5edb 48c1
00000300: 2a1a 64c0 624c 56c2 b536 d2c1 eab5 f1bf
00000310: 990e ed40 78ad 1042 00aa f4c0 e06d 90c0
00000320: c8c7 adc0 52f5 2ac0 0b42 a940 d4cb b33e
00000330: 372e a440 3355 b740 4179 493d d68f d8c2
00000340: c042 0941 c604 9741 ef68 4cc2 afc5 08bf
00000350: 22e2 99bf 29e8 51c3 3626 71c1 e6c4 e53d
00000360: 22f4 e93f 940e 00c3 ef77 a7c2 012a 5fc0
00000370: d145 5e40 7d33 be41 fe92 4e40 1c01 4ec0
00000380: 9430 303f 74cf 81be bffd 2abf 2b6b a7bd
00000390: d1b1 ff3f c95c 7540 8ddd aa40 d8c8 b940
000003a0: aeba 8a40 1634 f13f 6bf7 ac3f 2d51 aebf
000003b0: b232 ad3f e661 5f3f 3c2b 20c3 0dab c2c2
000003c0: 5615 f3bf 8f05 5a40 f9cb 6441 9ea7 84c1
000003d0: baf6 3c41 c17e 51c2 9aed b33f fe5d 91c2
000003e0: 728a b4c1 fbb5 95c0 292e 2fbf c6af 95bf
000003f0: a0cc ba3c ebf2 6140 4620 f040 5a97 9ebd
1.2432562 0.4504519 1.1811775 3.7377868 -32.528694 4.841931 -134.0436 -56.487705
2.116087 -110.27528 -167.81552 -46.613388 0.11938953 -0.51580197 -263.0785 -1.0143439
1.2610191 -133.85738 0.44778135 -0.4226048 -106.33459 -0.014275908 -16.937258 -0.02426904
0.17874989 10.856417 0.6498653 0.4914193 -73.9151 20.405722 -143.57954 -148.39383
3.7905648 -1.4835122 0.47759655 -3.218566 -85.291275 -1.0035472 -11.609132 3.9322708
1.5763534 32.24522 0.7515072 7.428753 4.2230926 0.31130713 -0.4483738 0.009327083
2.3509915 9.285271 -0.67075235 0.15918833 4.9758186 26.474287 0.17915738 4.969399
1.1046964 -99.14703 -13.396581 -0.32396594 7.6769557 14.680865 5.6237483 8.769077
7.993926 30.919882 5.1269655 8.911631 7.641095 0.8766878 0.88755196 2.8808234
0.1969931 5.9808474 0.8385294 0.19023195 -100.01574 10.554727 4.6436605 -101.96311
-116.828865 -49.72811 0.5862912 1.9410247 0.7735386 9.237137 10.753325 -4.093507
-2.741278 -134.21597 -3.8188047 6.0454054 6.14716 0.79597366 -1.5559816 -38.415012
-18.41102 -78.387215 8.81542 8.069786 9.745957 14.824291 -4.343357 -19.238462
-1.6784993 -1.1982363 -0.25808057 1.3666272 3.6472793 0.41408804 0.3875606 -216.95811
-89.79938 6.051328 -1.3011551 4.666618 1.6311504 0.68623286 0.9439971 0.47504455
5.74328 20.850143 4.308302 -0.056982845 2.9797204 -76.350105 -13.259363 -59.8208
-176.98448 -75.18306 -46.13538 0.36193877 0.9086985 4.11236 -61.624516 1.8948015
-104.61801 -116.385544 0.04480743 5.323425 5.4895797 2.2548525 -2.715807 0.5358626
-0.028765049 -6.1657605 -183.74196 1.0673333 12.334078 1.4333671 -0.09336954 5.6893806
3.055179 0.49976414 0.4895124 1.4630624 -14.2995205 5.71136 4.0521655 -3.593962
17.771778 91.06245 5.980305 12.314803 16.275497 6.7658577 0.95989585 -0.26931065
-123.20251 2.2712831 22.99162 -0.5591564 4.526353 15.975241 0.57897574 2.6512656
4.632593 -0.13444516 0.3451798 -206.81308 1.996687 -1.9395177 1.8905512 3.8105032
2.681272 1.6044198 2.9582307 -2.8923953 3.4868128 4.0788426 0.51486903 -12.553556
-3.564097 -53.574593 -26.276712 -1.8883641 7.408032 36.169403 -7.645752 -4.5134125
-5.4306374 -2.6712232 5.289312 0.35116446 5.1306415 5.7291503 0.049187902 -108.28093
8.578796 18.87733 -51.102474 -0.5342664 -1.2022135 -209.90688 -15.071829 0.11219196
1.8277628 -128.05695 -83.734245 -3.4869387 3.4730113 23.77514 3.2277217 -3.2188177
0.68824124 -0.25353587 -0.66793436 -0.081747375 1.997614 3.8337882 5.339545 5.805767
4.335288 1.884402 1.3513006 -1.3618523 1.3531096 0.87258756 -160.16888 -97.33408
-1.8990886 3.4065893 14.299798 -16.581844 11.810236 -52.373783 1.4056885 -72.68358
-22.5676 -4.6784644 -0.6842981 -1.1694267 0.02280265 3.5304515 7.5039396 -0.07743712

dense1.bias f4 [24]
00000000: 6c42 7f3d cb9f 0a3d a8cc 9a3d 5d5b 9c3d
00000010: 854c 313e 3ad0 85bc 62db bf3d afce ca3d
00000020: cf31 9a3d b286 763d eb42 c13c 4790 e83d
00000030: 7e78 003d 0177 7d3d 6366 a13c 52a4 693e
00000040: 2cd6 633e 348a 013d 6a37 be3d aadd de3c
00000050: bb4e 4d3e b8ea 3c3e 3511 a73d 5371 f53c
0.062319204 0.033843797 0.07558566 0.07634614 0.17314346 -0.016334642 0.09368016 0.09902703
0.075290315 0.06018705 0.02359148 0.11355644 0.03136491 0.06188107 0.019702142 0.2281659
0.22249669 0.03162594 0.09287913 0.027205307 0.20049565 0.18448913 0.08157579 0.029961264

dense2.weight f4 [36, 24]
00000000: 1f72 cabe a83f 383d c785 b8be 9cc9 debc
00000010: 414a 37be e283 92be 5c62 56be feea 8abd
00000020: 834f 8fbd 89f5 c6be 3f9d 03bf 5003 de3d
00000030: c9d8 afbc 0b5a e9be c190 79be 00cd 6ebe
00000040: e03d 92bc ebda e5be 536c febe e496 aa3d
00000050: 01c1 9dbe d2aa a6be 1b7f ccbe d731 a93e
00000060: 126a 7c40 ce5b 4340 caca 5040 74ce 5fbf
00000070: 0a11 84bf 80b6 a9bf 37c4 19c0 53d7 c6bc
00000080: c515 25c0 9618 2240 6525 1dc1 b4e7 2dc0
00000090: c25f 87c0 fa4c 0d3f 2b9e 9e40 48a6 9a3f
000000a0: aef7 433e afd1 ab3f 4922 34c0 2e87 86c1
000000b0: 2223 5f3f 36cc ecbe 796b 86c0 4269 5541
000000c0: 4561 43be 20f0 51be 7eb8 57be 9500 a8bd
000000d0: 5767 53be 7a28 7fbe c132 a13b 2709 98be
000000e0: 3ee5 89be c355 b1be 15c2 8aba ff24 56be
000000f0: 4c3d 80bd 6f30 82bd ccb8 5bbe db43 68be
00000100: f95e 7dbe bfbd 30be 3449 48be 55bd 1dbf
00000110: a3a9 bc3c 2c04 103d 2b23 1abf 682d a5be
00000120: 50b8 72c0 ce8d b5c0 ccea 043e ec63 3ebf
00000130: c3eb 1b40 4514 d1bd 9fb0 da3d 8fbf 7a3d
00000140: 33d9 82bd ddaf 5840 b5f0 bcc0 7d9b 9bbf
00000150: 16d8 24c0 2e2b 713e b4c2 0cc1 3a99 88bf
00000160: e1f7 5abf d061 b540 bdce 1d40 34a5 84c1
00000170: e8b9 83be 2350 a23f 89a2 c4c0 6db7 4d3f
00000180: ab9a e5bc 3fb5 e2bd d35c 07be b2b8 b3bd
00000190: 20b9 743d 04ff 99bd 1f65 013e c0ca a7be
000001a0: 5b7a 47be 6336 b93d ee70 7bbe 945c 44be
000001b0: 0ac7 28bd f40c 07be 5f2d 82be fa0c c8bc
000001c0: 4998 b5bc 8f15 4cbd b88b 5abe a4fd cebc
000001d0: 71de a63d 18eb f1bd 5843 7dbe 6044 e83c
000001e0: 48ca ea3e 7c76 ef40 877c 31c0 b950 a03f
000001f0: f565 4fc0 bf03 23c0 26df 9140 c978 85c0
00000200: 83c0 bd3e 02a7 fabf 921a 9640 2a8e d23c
00000210: 60a8 31c0 0503 26c0 d091 2cc1 1d49 96bf
00000220: fa7e 013f feda 0640 c6ba 083f 5eab debf
00000230: 6b0e 44be 7bad a63f 7f71 05bf 0034 a141
00000240: e411 4240 6acc d73f f0c7 7e3f 87ad 82c0
00000250: dd02 97bf 03ce 9dc0 9e0f 3d40 a1e0 a03f
00000260: 13b8 7340 a36d fc40 2d29 bec0 9d18 d73e
00000270: 9b64 46c0 93d2 07c1 314d c2be d1d6 99bf
00000280: 963e 883f 65e7 00c0 1c97 5040 81da c940
00000290: 89e5 633f bca3 b63d 1468 11c1 0721 d63f
000002a0: a988 4540 6b67 e440 b70b 6d40 522e 0e3f
000002b0: b5d9 983f e900 683f 5660 02bf 4cf3 debf
000002c0: e258 9ebf e404 b03f 8091 873f cb59 a640
000002d0: 6770 b0bf cd6f 70bf 5578 f7c0 d9ea 79bf
000002e0: f1de 43c0 05dd b1bf 6ab2 ac3e f094 3ac0
000002f0: 312c e3bf 9e23 3fbf ca33 67c0 bcc3 1640
00000300: aef9 8040 2c42 f3c0 07f2 1540 9af4 47be
00000310: 8bae 89bf b2d9 8fc0 04ab 1840 944b 7bbd
00000320: e2e7 bdbe 523b 19c1 46e0 a43f e48f aabf
00000330: f084 1bc1 2927 debe 7e4e a0bf 425d 7abf
00000340: e8bf e13f e0e2 9fc1 8c8e fd3f 499c 9240
00000350: 3567 7f3e af19 d73f 8e03 903f 3080 f0c0
00000360: 1ed4 b43e c485 5a40 873a 00c0 074b 71c0
00000370: 27dc dc40 1e04 ad3e 2893 8cbf 6873 d23f
00000380: 6b83 a53f 5623 14bf 89ef 85c0 ad3e 2ebf
00000390: f802 d3bf 72d5 dfbe 8a05 ddc0 c0e1 dd3f
000003a0: 6d77 e3bf 4d8d 163f 4d19 c8be 8d91 5abf
000003b0: d038 cb3d 84a7 cb3e 6b02 c0be f2d7 cd3e
000003c0: f486 5bc0 36ff bac1 79c4 943f c941 1bc0
000003d0: d0d3 1ac0 427b 8f3e ccb4 e6be 09d3 493f
000003e0: b70f 4d3f a9ba 0940 806e 07c0 0ee9 2840
000003f0: 66d1 80c0 0bc0 02c0 6062 8fbf 16f7 f23f
-0.39540192 0.044982582 -0.36039564 -0.027195744 -0.1789942 -0.28616244 -0.20935959 -0.067831025
-0.069975875 -0.38859203 -0.51411813 0.108404756 -0.021465676 -0.4557651 -0.24371625 -0.23320389
-0.01785177 -0.44893584 -0.4969202 0.08329561 -0.30811313 -0.325522 -0.39940724 0.33045837
3.943974 3.0524783 3.2623773 -0.874244 -1.03177 -1.325882 -2.402601 -0.024272596
-2.5794537 2.5327506 -9.82163 -2.717267 -4.230439 0.5519558 4.9568076 1.2081995
0.19137451 1.3423365 -2.8145926 -16.816006 0.87162983 -0.4624955 -4.200619 13.338198
-0.19080074 -0.20501757 -0.21066472 -0.08203236 -0.2064489 -0.24917784 0.0049193804 -0.29694483
-0.2693271 -0.34635743 -0.0010586405 -0.2091255 -0.062616915 -0.06356894 -0.21457213 -0.22682135
-0.2474326 -0.17259882 -0.19559175 -0.6161702 0.023030108 0.03516023 -0.6020991 -0.32261205
-3.7924995 -5.67356 0.12980193 -0.7437122 2.4362648 -0.10208944 0.10678219 0.06121784
-0.06389084 3.3857338 -5.904383 -1.2156826 -2.5756888 0.23551628 -8.797535 -1.0671761
-0.85534483 5.66819 2.4657433 -16.580666 -0.25727773 1.2680706 -6.1448407 0.8035801
-0.028027853 -0.11069726 -0.13219003 -0.08775462 0.05974686 -0.075193435 0.12636231 -0.32771873
-0.19480269 0.090435766 -0.24554798 -0.19175941 -0.041205443 -0.13188535 -0.2542524 -0.02442025
-0.022167342 -0.049825247 -0.21342361 -0.02526743 0.08147896 -0.11812419 -0.24732721 0.028352916
0.45857453 7.4832134 -2.7732255 1.2524635 -3.240598 -2.5471036 4.55849 -4.1709943
0.37060937 -1.9582217 4.6907434 0.025702555 -2.7759018 -2.5939343 -10.785599 -1.1741062
0.50584376 2.1071162 0.53409994 -1.7396047 -0.19146125 1.3021692 -0.52126306 20.15039
3.032342 1.6859257 0.9952383 -4.0836825 -1.1797749 -4.931398 2.9540782 1.2568551
3.80811 7.8883834 -5.9425263 0.42010966 -3.0998905 -8.48891 -0.37949517 -1.2018682
1.06441 -2.0141232 3.259223 6.307923 0.8902212 0.089179486 -9.08791 1.6728829
3.086466 7.1376243 3.70384 0.5553943 1.1941439 0.9062639 -0.50928247 -1.7417998
-1.2370875 1.3751493 1.0591278 5.198461 -1.3784302 -0.93920594 -7.733439 -0.97623974
-3.0604823 -1.3895575 0.3372987 -2.9153404 -1.7747861 -0.7466372 -3.612536 2.3556967
4.0304785 -7.6018276 2.3428972 -0.19526902 -1.0756391 -4.495324 2.385438 -0.061351374
-0.37090975 -9.5769825 1.2880943 -1.3325162 -9.719955 -0.43389252 -1.2523954 -0.9779855
1.763669 -19.985779 1.9809127 4.581578 0.24941714 1.6804713 1.1251085 -7.515648
0.35318083 3.4144144 -2.0035722 -3.7702043 6.901874 0.33792204 -1.0982409 1.6441469
1.293073 -0.5786642 -4.18549 -0.68064386 -1.6485281 -0.43717533 -6.906926 1.7334518
-1.7770821 0.5880936 -0.39081803 -0.8537834 0.099229455 0.39776242 -0.37501845 0.40203816
-3.430112 -23.374615 1.1622459 -2.4258902 -2.419178 0.28023726 -0.45059812 0.7883764
0.80102104 2.1520178 -2.1161194 2.6392245 -4.0255613 -2.0429714 -1.1201897 1.8981655

dense2.bias f4 [36]
00000000: 916f 1bbf f7ec 873f f21b 37be 176a 863f
00000010: 5dde b9bd df72 533f 5648 b93b c8ce 3f3f
00000020: eed9 3c3f f763 81bf 767d 483f 5993 2b3f
00000030: dc78 d43e 4b38 2cbe 95ba 8c3f 669b 9d3f
00000040: 929a 3a3f ed9f 9f3f a30d 523f 86b0 c6be
00000050: 7dee 733f 7fd0 ddbd 38f3 cd3e 576c dd3f
00000060: 006c 913f 6dca db3e d8a5 793e ba2b d43e
00000070: 57b2 7b3f 200d 883f 46c8 da3e 3ec2 7f3f
00000080: 433a e93e f90d b1be 0b5b fbbe 8c20 613f
-0.6071711 1.0619191 -0.17881754 1.0501126 -0.090756156 0.82597154 0.005654375 0.749249
0.73770034 -1.0108632 0.7831644 0.6702171 0.41498458 -0.16818349 1.099444 1.2313049
0.72892106 1.247068 0.8205206 -0.38806552 0.9528578 -0.10830783 0.40224624 1.7298688
1.1361084 0.42927876 0.2437967 0.4143961 0.98319 1.0629005 0.42730922 0.99905765
0.45552263 -0.34580973 -0.49092898 0.8794029

dense3.weight f4 [128, 36]
00000000: ae5f a8bd 72e1 8cc0 9e63 60bd 4d6c a83c
00000010: e124 16be 5694 3dbf 4088 3740 392e 3540
00000020: 42bf f23e b078 b4bf 4f71 da3f 6c4e 2640
00000030: 0955 863f a386 54bf f990 1cc0 4fc4 9fbf
00000040: cf4b 65bc d9af f53f 715c 3a40 5cf2 25be
00000050: 331a cf3f 688e d7bd 2d49 74bf 19d1 e83e
00000060: e41c 7f3f e5de 42bf 0fcb a5bf 7c3a 3e40
00000070: 7a36 01bf acd2 0dc0 734d 2fbf f30b c1c0
00000080: 483f d8c0 fda6 9abf 948c 163d 4ed1 0e40
00000090: c9d4 98bd 1ab9 0040 1a38 613e e631 b93f
000000a0: 3662 1ebe cdc8 a2bf 8ce1 603f 88f3 f03f
000000b0: 6880 67c0 b7d9 f3be d8aa 943f c16e f1bf
000000c0: 9064 0e40 1cf1 1e40 1f01 2ebf abc7 ab3f
000000d0: 58d9 acbd 918b cc3f c916 723f 7f71 08be
000000e0: de6a 2440 922d 753d 41f1 97be dc45 0dc0
000000f0: e271 6c3e b65e f7bf 49d0 3ac0 2d28 9f3b
00000100: e3c0 e2bf 4e0d 463f f9dd 1140 5663 13c0
00000110: 969b b1c0 8384 10c1 144c 14be 1967 443e
00000120: 1adb 26be 2720 66c0 4214 28bd 7c18 0cbd
00000130: 8920 8bbe 11ed 203e ac60 5240 1d88 883f
00000140: 9f02 d53f e4a4 efbf 05b6 3f40 dc56 3b40
00000150: 6a2a 42c0 ed75 9c3f 89ff 703f d2c4 5c3f
00000160: e52c 0d3e 24f9 50be 2691 c9bf 0bca 1b3e
00000170: 0cd5 ea3f 9218 d33d 247e f2bd ee8a dac0
00000180: fd5e 49bf d4bc 3dc0 fe23 16c0 dd46 e03f
00000190: e274 633d ab7c 9d3f 4284 4840 d5f0 91c0
000001a0: 7e10 71bf e973 debe 94e4 963d dbd2 d93f
000001b0: 9d4f b4bd 6070 9a3f 911d 823e 93c3 1b40
000001c0: c6f0 90be 3a41 16bf eb04 da40 cc93 3e3f
000001d0: 6453 aebf ac79 a2bf f5ea ddbe 0fd0 af3f
000001e0: 731c 37c1 2b0e 2541 737d 843f 7c0a cabf
000001f0: 4ab9 da3e c0eb 80be 54b0 9e3f cc5c 1ebe
00000200: aff7 ddbf 14c4 4cbe 29d9 193e 3f88 8cc0
00000210: a91b 88c0 69b4 92bf 8255 7fc0 99f7 863f
00000220: d752 32bd 3637 ac3f 4a7e 8b3f 867b 90bf
00000230: 1010 55c1 5662 45c1 9c95 cebc b780 653f
00000240: b614 30bd f8c4 d6be bff7 983c e3df ae3f
00000250: 2125 f03d 6e52 2940 3bcf 81c2 b4de 793f
00000260: fb9c f2c1 7b3d 87c0 d469 00c0 c89c 713f
00000270: debb 3fc2 58c5 08c2 8214 913f b580 68bf
00000280: 4c66 163f 1f03 6bbf 3583 b73f 6da5 293e
00000290: 78e9 1cc0 22ac 3abe d094 dbbe 5938 b5c0
000002a0: 8506 8cbf 6a95 e7bf ce30 e6c2 ee1e 50c1
000002b0: 972f d23f 98da 6ebd e755 cebf 69a9 6ac2
000002c0: 6480 d7c2 ff2e b7c2 2123 46bd bc58 ab3e
000002d0: 6b83 723c 9fb2 aec1 42aa 78be 5d7a db3f
000002e0: 0bc7 ddbc 2658 4640 8269 1dc0 9987 653f
000002f0: cb98 85c1 e566 a4c0 bf75 20c1 3f25 2fbf
00000300: a8b6 95bf 2527 39c1 f308 993f 81d6 75bf
00000310: b0c5 e63f 1547 9cc2 eb89 a83e f008 6bbc
00000320: 3fa4 d03e da30 8bbd a4f9 6d3e bf66 32c2
00000330: 8b9f a0bf 0b33 64bf d8e0 fcc1 103a 3bc1
00000340: 1e02 7d3f cbf5 b0bf bc37 2fbe dfba f6c0
00000350: 2521 33c2 ea4e 5dc0 28f2 2ebe 953f 593f
00000360: 80ab 88bd 099c bdc2 cdd1 25be 3bc7 0b3f
00000370: 420f 6fbe be9b 8b40 ff7c ecc1 e33a 6b3f
00000380: d40b 87bd 638b fbbf 8407 0abf 939f 4f3e
00000390: 08e2 75c2 ec25 66c2 8c18 933f f698 8abf
000003a0: 2bfe 703f 1c84 06c1 dee3 f7bf 5b5c 09be
000003b0: 4132 cebf 05ff 9ebd c4c3 c5b9 ff18 41c0
000003c0: 34c0 1dc0 fff8 ffbf bc24 3ec2 4c03 eec0
000003d0: 7ac4 a63f fcf3 dfbf c00b 2a40 002a 11c2
000003e0: d348 a6c2 68e8 93c1 702e 32be f878 1d40
000003f0: 4117 373c 3510 9cbf 9e9f 46be 59c2 6d3e
-0.082213745 -4.40252 -0.054782502 0.020559454 -0.14662506 -0.7405447 2.867691 2.8309462
0.47411543 -1.4099331 1.7065829 2.5985365 1.0494701 -0.8301794 -2.4463484 -1.2481784
-0.013995125 1.919429 2.9118922 -0.16205734 1.617987 -0.10525209 -0.9542416 0.4547203
0.9965346 -0.7612136 -1.2952594 2.9723196 -0.5047375 -2.2159834 -0.68477553 -6.0327086
-6.757725 -1.2082211 0.03675516 2.231525 -0.074624605 2.0112977 0.21994057 1.4468353
-0.15467152 -1.271753 0.8784416 1.882432 -3.6172123 -0.4762704 1.1614637 -1.8861924
2.2248878 2.4834661 -0.6797046 1.3420309 -0.084398925 1.5980092 0.9456602 -0.13324545
2.5690227 0.059857912 -0.2967625 -2.2073889 0.23090318 -1.9325778 -2.9189627 0.0048570842
-1.7715114 0.7736405 2.2791731 -2.302938 -5.5502424 -9.0323515 -0.14482147 0.19179954
-0.16294518 -3.5957124 -0.041034944 -0.034203038 -0.2717326 0.15715434 3.2871504 1.0666538
1.6641425 -1.8722196 2.9954846 2.9271765 -3.0338387 1.2223488 0.94139916 0.86237824
0.13786657 -0.2040754 -1.5747421 0.15213792 1.8346267 0.10307421 -0.11840466 -6.829459
-0.78660566 -2.9646502 -2.3459468 1.7521626 0.05553139 1.2303671 3.1330724 -4.5606484
-0.9416579 -0.43447807 0.073678166 1.7017473 -0.088042475 1.2065544 0.25413182 2.433812
-0.28308696 -0.5869328 6.8131003 0.7444427 -1.3619199 -1.2693381 -0.4334332 1.373537
-11.444446 10.315959 1.0350784 -1.578445 0.4271949 -0.25179863 1.2397561 -0.15465087
-1.7341212 -0.19996673 0.15024246 -4.3916316 -4.2533765 -1.1461307 -3.989594 1.0544311
-0.043536033 1.3454349 1.0897915 -1.1287696 -13.3164215 -12.336508 -0.025217824 0.8964953
-0.0429885 -0.4194715 0.018672822 1.3662075 0.11725832 2.645656 -64.90475 0.97605443
-30.32665 -4.226255 -2.0064592 0.94379854 -47.933464 -34.19272 1.1334383 -0.9082139
0.5874984 -0.9180164 1.4336916 0.16567011 -2.4517498 -0.18229726 -0.42886972 -5.6631284
-1.093949 -1.8092473 -115.09532 -13.007551 1.6420773 -0.058313936 -1.6119965 -58.66544
-107.75076 -91.59179 -0.048373345 0.33466136 0.01480184 -21.837217 -0.24283698 1.7146717
-0.02707245 3.0991302 -2.4595647 0.8966003 -16.699606 -5.1375604 -10.028747 -0.6841621
-1.1696367 -11.572057 1.1955856 -0.9603043 1.802908 -78.13883 0.32917723 -0.014345393
0.4075031 -0.06796427 0.23239762 -44.600338 -1.2548689 -0.89140385 -31.609787 -11.701675
0.98831356 -1.382501 -0.17111105 -7.7103114 -44.782368 -3.4579415 -0.17084563 0.84862643
-0.06673336 -94.804756 -0.16193314 0.54600877 -0.23345664 4.3627615 -29.561033 0.9188673
-0.06594053 -1.9651912 -0.5391772 0.20275716 -61.470734 -57.537033 1.1491866 -1.082793
0.9413783 -8.407253 -1.9366415 -0.13414137 -1.6109086 -0.07763485 -0.00037720625 -3.0171506
-2.4648561 -1.9997863 -47.535873 -7.4379025 1.302871 -1.7496333 2.6569672 -36.291016
-83.142235 -18.48848 -0.17400527 2.4605083 0.011174978 -1.2192446 -0.19396827 0.23218669

dense3.bias f4 [128]
00000000: 2baf 9cbf 86ff 073e 4baa 38c0 2038 8dbf
00000010: fed1 0bbf a90c 48c0 994c 3abf 1f72 6dbf
00000020: 898d c5bf 375a 503f 4c20 53be f9be 0b3f
00000030: 8f37 f4be 8728 4cc0 29ea 71c0 224e a3c0
00000040: 9b0b 87c0 368a 9cbe 84bd 17bf 37a5 e33f
00000050: 0dc4 4c3f 32a6 3e40 4cf6 1b40 59da 3a40
00000060: 698d 2c40 031f 4640 e575 7740 1bc7 1e40
00000070: b99c 2140 7054 4740 1e75 f33f ba91 6a40
00000080: 93e3 503f 64e8 6a40 2e9f 933f 6e27 7b3f
00000090: 6291 8bbf 197a 9abf 1f0c 963f 4f9e 0b40
000000a0: d4e3 593f 60fb 1f40 4e3d 0d40 0ce4 5d40
000000b0: eea5 5840 cde6 4540 142f 7740 e09c 7340
000000c0: 4792 5840 7a62 2c40 f804 5640 467c 4340
000000d0: 5529 5840 25dc f13f 7ca8 4040 e56a 6140
000000e0: fb23 6c40 00aa 3640 4d25 8340 7f5c 6140
000000f0: f7e6 7940 8e0d 3340 5479 8840 a7bb 8440
00000100: 1274 7140 97a5 0940 c3f3 d33f 9c62 0e40
00000110: 4a15 a03f e253 8fbe 0df3 403f 1271 e23f
00000120: 0320 d13f df4a 0d40 e8fa c03f a932 1340
00000130: 0319 0b40 425b 4740 16e5 6f40 5777 7d40
00000140: 941b 3240 8a5a 1840 1bf9 4440 81ea 4540
00000150: 87f9 4a40 790a 6540 c809 3740 8435 4540
00000160: c385 2440 01e4 3940 407e 7240 4f5f 5940
00000170: 4689 1f40 c50b 4240 8151 3440 3c5d 1840
00000180: a254 1a40 6bc5 1040 1e8d 2940 41c8 c73f
00000190: 8109 21c0 5a32 23c0 63e1 e4bf f07a 3840
000001a0: 53c0 c7be 5dcf 2740 fc31 1a40 ea5c e63f
000001b0: b5ae 383f a674 67be 7120 d1bf 0a13 14c0
000001c0: 6969 31c0 5693 8fbf dddd f03f 992b febe
000001d0: df12 8e3e 286f e4bf 9054 d7be fc1b d2bf
000001e0: 4dbd a1bf afc9 97bf b811 85c0 80d6 e1bf
000001f0: 1908 82be 3e9d bfbf 3aa7 86bf c6cf 4b3c
-1.2240957 0.13281068 -2.8853939 -1.1032753 -0.546173 -3.1257727 -0.7277313 -0.9275226
-1.5433818 0.81387657 -0.20617789 0.54588276 -0.47698638 -3.1899736 -3.779917 -5.1032877
-4.2201667 -0.30574197 -0.5927355 1.7784795 0.7998665 2.9788938 2.4369078 2.919577
2.696131 3.0956428 3.8665707 2.4809024 2.5251906 3.1145287 1.9020116 3.6651444
0.8159725 3.670434 1.1532953 0.9810704 -1.0903742 -1.2068511 1.1722449 2.1815374
0.85113263 2.4997177 2.2068667 3.4670439 3.3851275 3.092212 3.8622484 3.80645
3.383928 2.6935105 3.3440533 3.05446 3.3775227 1.8895308 3.0102835 3.5221493
3.689696 2.854126 4.0983033 3.5212705 3.904722 2.7977023 4.2648106 4.147907
3.7727094 2.1507318 1.6558765 2.2247686 1.2506497 -0.27993685 0.75370866 1.7690756
1.6337894 2.2076948 1.507657 2.299967 2.1734016 3.114945 3.7483573 3.960409
2.7829332 2.380526 3.0777042 3.092438 3.17148 3.5787642 2.859972 3.0813913
2.5706642 2.9045413 3.7889557 3.3964422 2.4927535 3.0319684 2.8174746 2.3806906
2.4114156 2.2620494 2.649238 1.5607988 -2.516205 -2.5499482 -1.7881283 2.8825035
-0.3901392 2.6220315 2.4093008 1.7997105 0.7214158 -0.22603092 -1.6338025 -2.313662
-2.7720587 -1.1216838 1.8817707 -0.49642637 0.27748773 -1.7846422 -0.42056704 -1.641479
-1.2635895 -1.1858424 -4.158413 -1.7643585 -0.25396803 -1.4969862 -1.0519783 0.012439674
