Saved Models/O28B_UPA_8x8_trainable_4_beam_probing_codebook_128_beam_classifier.pt (torch, 10919 bytes, 7 tensors)

codebook.theta f4 [64, 4]
0.4980887 6.370472 5.6689134 5.0259204 3.9446876 9.669578 2.5965905 2.0141644
3.1152797 4.8425884 5.545993 -0.30605486 7.0103154 7.466476 1.9160466 2.8256063
4.4315743 3.3934698 4.867201 -1.732332 7.856382 -0.2853906 7.5002604 2.610696
6.7229486 5.902117 5.026495 6.1652036 3.3320336 5.399228 1.1151778 3.8127708
-0.063669994 5.4323816 5.4516025 4.806878 4.46134 3.2227943 8.446237 1.2476236
2.5233116 5.1311913 5.0005555 -1.1179553 5.5470257 0.84022635 1.3407309 8.4688425
3.8367171 4.8235316 -1.8740896 0.04809214 6.5358963 6.5516443 2.4864972 10.488148
5.789005 2.526598 4.563692 0.23913038 9.2469425 -0.59446 0.73752254 2.3315866
-0.7693087 7.4821796 5.3135753 3.7033455 -1.9230474 2.8603108 1.3416804 0.56551486
2.9473987 5.1706896 4.5242043 4.5000324 -1.3868972 2.4451501 0.7142298 1.7778894
3.1011887 3.201371 4.3401146 5.596245 3.2315035 0.07332099 5.8916507 3.1459057
5.075593 2.2719047 4.208992 0.09527004 8.645442 5.7487555 6.635079 2.9030828
4.821015 5.0139484 4.9111395 4.0239186 4.037088 2.169854 6.8049273 -0.2062418
1.7237387 4.648718 4.178044 4.248506 4.5826693 2.0453055 6.815062 1.2029501
2.7264426 2.3754823 4.020603 5.0193534 7.8294206 -0.5614501 -0.38336596 1.6164608
4.604411 1.6254196 3.9021087 -0.3958506 11.876599 -0.86328286 -0.18282366 3.2712383
-1.1228794 2.989338 4.2415495 3.788786 3.813493 1.2213299 0.06911695 -0.5125466
0.825754 4.078126 4.82151 3.9596815 4.2824545 7.5566754 0.67859113 0.53589153
3.2663949 1.4625735 3.6555638 4.540587 6.9375978 5.219781 0.26152426 1.2840903
4.2727633 0.8641835 3.546194 -0.98632014 2.880813 5.0673556 -0.67483497 2.2228222
-0.66117173 4.437392 3.4903166 2.863835 3.5097435 2.6030896 0.26122034 0.5701963
1.6605613 3.7452772 5.801095 0.8760204 -2.3828514 0.4497085 6.629067 -0.08108645
3.056975 1.3592948 3.434506 4.081263 6.3377843 4.69293 -0.15351658 7.279383
3.942314 0.17825718 3.1363165 4.6342454 1.9385035 4.1117897 5.26019 1.64723
-1.5298693 4.1416974 4.313868 2.4134042 -3.1269429 2.3038907 6.203266 6.3923
-0.07607254 3.258723 2.45675 2.6712952 3.6951962 -0.42437044 -0.12983306 -0.7398508
2.4563603 9.021012 2.9092047 3.225347 -0.5000527 4.107394 -0.80557764 0.4357055
10.235316 -0.3246434 2.494155 4.0464973 7.5984693 1.9968275 -1.2015332 1.2790114
-2.460956 4.001941 3.1970053 1.8433151 -3.6374693 6.5123796 5.725578 5.6515555
-1.9380481 2.4844275 3.1644068 3.4792511 -2.3270395 -1.5074995 -0.5676979 6.639646
8.141471 2.050323 2.1483014 -0.56325376 5.3675137 4.48281 4.926762 6.40681
3.9852676 0.10815307 1.793089 -2.2567618 3.0611985 -3.010935 -1.3821675 6.747856
00000000: 7b05 ff3e e8da cb40 bd67 b540 57d4 a040
00000010: c375 7c40 97b6 1a41 8a2e 2640 12e8 0040
00000020: be60 4740 7cf6 9a40 c678 b140 39b3 9cbe
00000030: 8154 e040 5fed ee40 0441 f53f bcd6 3440
00000040: 75cf 8d40 9c2e 5940 1cc0 9b40 0ebd ddbf
00000050: 7b67 fb40 b71e 92be 2202 f040 a515 2740
00000060: 6522 d740 24de bc40 0cd9 a040 5949 c540
00000070: 0a40 5540 7ac6 ac40 25be 8e3f 7004 7440
00000080: 6a65 82bd 12d6 ad40 8773 ae40 f2d1 9940
00000090: 4cc3 8e40 4342 4e40 c923 0741 21b2 9f3f
000000a0: f07d 2140 b832 a440 8d04 a040 2919 8fbf
000000b0: 3c81 b140 1319 573f 129d ab3f 6180 0741
000000c0: c68c 7540 5f5a 9a40 2be2 efbf 44fc 443d
000000d0: 1026 d140 12a7 d140 c522 1f40 74cf 2741
000000e0: 873f b940 c8b3 2140 c409 9240 98de 743e
000000f0: 7af3 1341 882e 18bf 47ce 3c3f b738 1540
00000100: 6af1 44bf 046e ef40 cf08 aa40 9d03 6d40
00000110: 6b26 f6bf 550f 3740 2fbc ab3f 95c5 103f
00000120: 2ea2 3c40 4a76 a540 48c6 9040 4400 9040
00000130: d985 b1bf 577d 1c40 c4d7 363f e191 e33f
00000140: e079 4640 43e3 4c40 38e2 8a40 7014 b340
00000150: f4d0 4e40 5129 963d 6788 bc40 8556 4940
00000160: 426b a240 e366 1140 10b0 8640 f01c c33d
00000170: bb53 0a41 cef5 b740 9152 d440 1ccc 3940
00000180: c145 9a40 4472 a040 0e28 9d40 f1c3 8040
00000190: d32f 8140 e3de 0a40 f7c1 d940 0d31 53be
000001a0: 78a3 dc3f 4cc2 9440 89b2 8540 c3f3 8740
000001b0: 3aa5 9240 49e6 0240 fd14 da40 45fa 993f
000001c0: 097e 2e40 e707 1840 c8a8 8040 8b9e a040
000001d0: 9d8a fa40 32bb 0fbf 8b48 c4be 30e8 ce3f
000001e0: 5657 9340 c00d d03f 26bc 7940 eeac cabe
000001f0: 8d06 3e41 1b00 5dbf 2036 3bbe f85b 5140
00000200: 83ba 8fbf 5051 3f40 c6ba 8740 787b 7240
00000210: 4510 7440 8a54 9c3f 308d 8d3d 4136 03bf
00000220: 9d64 533f 0280 8240 cf49 9a40 6c6b 7d40
00000230: de09 8940 49d0 f140 26b8 2d3f 3030 093f
00000240: 9d0c 5140 9c35 bb3f c2f4 6940 7d4c 9140
00000250: cd00 de40 7208 a740 82e6 853e 125d a43f
00000260: 7aba 8840 213b 5d3f d8f4 6240 7a7f 7cbf
00000270: 3d5f 3840 c727 a240 fcc1 2cbf b842 0e40
00000280: 8d42 29bf 1eff 8d40 5961 5f40 1349 3740
00000290: a39f 6040 0599 2640 acbe 853e 62f8 113f
000002a0: 468d d43f 9fb2 6f40 92a2 b940 df42 603f
000002b0: a380 18c0 3140 e63e 5121 d440 a710 a6bd
000002c0: 7aa5 4340 5ffd ad3f f2ce 5b40 b599 8240
000002d0: 21cf ca40 7c2c 9640 7333 1dbe b5f0 e840
000002e0: df4e 7c40 0d89 363e 69b9 4840 bd4b 9440
000002f0: e220 f83f c893 8340 7a53 a840 6fd8 d23f
00000300: c2d2 c3bf c988 8440 350b 8a40 3775 1a40
00000310: d51f 48c0 f272 1340 2881 c640 b98d cc40
00000320: ebcb 9bbd eb8e 5040 643b 1d40 80f6 2a40
00000330: 187e 6c40 1547 d9be f5f2 04be dd66 3dbf
00000340: 0235 1d40 1156 1041 6930 3a40 166c 4e40
00000350: 7403 00bf c66f 8340 563a 4ebf cb14 df3e
00000360: dbc3 2341 a937 a6be 3ca0 1f40 e87c 8140
00000370: a926 f340 0b98 ff3f d7cb 99bf a5b6 a33f
00000380: 4e80 1dc0 e70f 8040 bc9b 4c40 c0f1 eb3f
00000390: 4ccc 68c0 6a65 d040 ef37 b740 8bd9 b440
000003a0: f611 f8bf dc00 1f40 a485 4a40 0dac 5e40
000003b0: 37ee 14c0 bef5 c0bf a654 11bf fb77 d440
000003c0: 7743 0241 7e38 0340 c57d 0940 6631 10bf
000003d0: acc2 ab40 2e73 8f40 09a8 9d40 9604 cd40
000003e0: a00e 7f40 5b7f dd3d f183 e53f c96e 10c0
000003f0: adea 4340 29b3 40c0 ddea b0bf 70ee d740

dense1.weight f4 [8, 4]
-5.098704 -7.213215 4.7216225 1.6812835 16.203373 -5.7888575 3.2815301 0.2298537
2.6390185 -18.779766 10.262872 -4.2495694 -0.6142689 0.009255626 -0.4128397 -0.18084548
28.8809 4.0365677 -26.792969 -4.901402 -0.5451707 -0.78011763 -0.49205503 0.07577164
-0.10081956 5.5910354 6.1517577 -10.035974 -3.0192633 -9.939596 -1.8133727 8.651409
00000000: 9528 a3c0 a8d2 e6c0 8817 9740 4c34 d73f
00000010: 82a0 8141 523e b9c0 9704 5240 c55e 6b3e
00000020: aee5 2840 f63c 96c1 b934 2441 79fc 87c0
00000030: ba40 1dbf e9a4 173c ba5f d3be 8f2f 39be
00000040: 150c e741 902b 8140 0058 d6c1 49d8 9cc0
00000050: 4f90 0bbf cab5 47bf a3ee fbbe 292e 9b3d
00000060: 7c7a cebd c3e9 b240 33db c440 5993 20c1
00000070: 9c3b 41c0 9608 1fc1 991c e8bf 2c6c 0a41

dense1.bias f4 [8]
0.17673531 0.015585409 0.017843908 -0.089685366 0.010148112 -0.66267985 0.02542039 -0.004762086
00000000: 1afa 343e f159 7f3c 632d 923c f6ac b7bd
00000010: 4444 263c 63a5 29bf 6c3e d03c 460b 9cbb

dense2.weight f4 [12, 8]
5.0574365 -1.0045493 3.4870245 0.10028823 -13.346282 -0.38445762 -0.15353996 0.38828793
1.2757834 0.7437522 0.83827573 -0.08976427 -0.66145253 0.03808848 -0.94289726 -4.853037
1.2514518 -8.4078455 3.3167896 0.044023544 -35.35149 -0.38824555 0.26444834 -0.33409867
0.044735268 -0.37085426 -0.35357404 0.11204124 -0.1780782 -0.1905051 -0.09132495 -0.32188427
-2.6824412 -2.7110546 -23.201286 -0.19659157 0.3672555 -0.07397903 -0.124631815 -2.8815181
-0.24547482 -2.448465 6.02864 0.0073626777 1.1851445 -0.11270936 0.11609108 -10.158755
-1.2776022 -1.2342869 2.7094493 0.0076109767 1.066296 0.0068132 1.900411 -3.4023182
-0.18578783 -0.68874234 -0.40995866 -0.3214394 -0.59101266 -0.1424821 -0.7823697 -0.3769367
0.030977532 -0.983194 -0.03510412 0.21566448 0.83145297 0.015698437 -11.818478 1.0553342
1.2462467 2.220163 1.2600863 -0.004117653 -1.0111437 0.4092578 -2.3423195 0.13310823
1.4606513 -0.3198592 0.011154896 -0.0025626346 -53.338978 8.296621e-05 0.78762275 -0.014910554
-0.2977962 -0.23448224 -0.23775068 0.05308927 -0.8657022 -0.033139676 -0.3807458 -0.12859327
00000000: 85d6 a140 1295 80bf 692b 5f40 ea63 cd3d
00000010: 5f8a 55c1 a1d7 c4be 9439 1dbe adcd c63e
00000020: df4c a33f 8b66 3e3f 3d99 563f 54d6 b7bd
00000030: f454 29bf aa02 1c3d b761 71bf 144c 9bc0
00000040: 932f a03f 8986 06c1 4846 5440 0852 343d
00000050: ed67 0dc2 1fc8 c6be c665 873e fb0e abbe
00000060: 543c 373d 9ce0 bdbe a807 b5be e175 e53d
00000070: 225a 36be c513 43be 9308 bbbd 04ce a4be
00000080: 1ead 2bc0 eb81 2dc0 3c9c b9c1 4d4f 49be
00000090: ea08 bc3e 5182 97bd f73e ffbd cb6a 38c0
000000a0: c05d 7bbe a7b3 1cc0 9eea c040 9e42 f13b
000000b0: d1b2 973f 2ad4 e6bd 29c1 ed3d 438a 22c1
000000c0: 7888 a3bf 1dfd 9dbf 9e67 2d40 8065 f93b
000000d0: 637c 883f 4441 df3b ab40 f33f 95bf 59c0
000000e0: 2a3f 3ebe 6b51 30bf 1ae6 d1be b493 a4be
000000f0: 9b4c 17bf d4e6 11be 6149 48bf d9fd c0be
00000100: 98c4 fd3c 9ab2 7bbf 56c9 0fbd 26d7 5c3e
00000110: 1ada 543f 029a 803c 7c18 3dc1 3115 873f
00000120: 0385 9f3f 2717 0e40 824a a13f 60ed 86bb
00000130: 286d 81bf 3d8a d13e 90e8 15c0 864d 083e
00000140: 9ff6 ba3f 96c4 a3be 06c3 363c e0f1 27bb
00000150: 1d5b 55c2 25fe ad38 a5a1 493f 654b 74bc
00000160: be78 98be 1d1c 70be ea74 73be 2274 593d
00000170: a99e 5dbf 78bd 07bd 1df1 c2be f4ad 03be

dense2.bias f4 [12]
0.7058957 1.2987463 0.48647565 -0.14419813 1.1418588 0.15186265 0.4193655 -0.3837782
0.49591887 -0.16797222 0.07710065 -9.941991e-05
00000000: 95b5 343f 523d a63f 5613 f93e ada8 13be
00000010: 6e28 923f e281 1b3e 13b7 d63e 947e c4be
00000020: 14e9 fd3e e900 2cbe f2e6 9d3d a87f d0b8

dense3.weight f4 [128, 12]
-2.426228 -3.453756 -1.5655386 -0.22409038 -10.105868 -3.2692277 -20.861963 -0.22994655
-19.806293 -16.313272 -0.7569148 -0.119872525 -2.5427957 -2.8616579 -1.2299467 -0.3284928
-12.479304 -2.6272414 -19.18747 -0.22577861 -17.527763 -20.238173 -0.7767957 -0.10267572
-2.5049186 -3.4776382 -1.5225517 -0.33198288 -8.946746 -3.4160225 -20.452044 -0.09142765
-19.935246 -15.662977 -0.9529911 -0.25060302 -2.627858 -3.4771965 -1.2790835 -0.083973184
-10.639437 -3.1754618 -20.691454 -0.30614462 -19.11215 -16.217684 -1.1561259 -0.055916682
-2.5386999 -3.2441833 -1.6240534 -0.056701533 -8.701873 -3.58628 -21.277275 0.030804912
-20.32543 -15.504692 -1.1190178 -0.36178592 -2.61823 -3.2505825 -1.5569427 0.043876972
-8.901548 -3.4314177 -19.887478 -0.300749 -19.343676 -15.85196 -1.1688204 -0.2039521
-2.3060539 -3.1038346 -1.4286857 -0.3010062 -12.077634 -2.9115083 -20.49199 0.17976199
-18.892714 -18.87577 -1.0195209 0.12188399 -2.2499874 -2.9164526 -1.2786125 -0.16875803
-14.201587 -2.5075212 -18.609894 -0.29477844 -17.773512 -21.322037 -1.113464 -0.067195974
-2.5469372 -3.015573 -1.3202454 0.17956458 -12.829628 -2.6322703 -19.775002 -0.3077913
-17.832727 -19.444988 -0.88677377 -0.06645605 -2.2017238 -2.9727664 -1.4933279 0.18163589
-11.879414 -2.609999 -19.863247 -0.08535996 -18.547749 -19.714031 -0.8541722 -0.15375467
-2.3204033 -3.3005881 -1.2456859 -0.34039328 -10.0778055 -3.1373565 -19.966536 -0.27948207
-19.043064 -17.424604 -1.0815059 -0.16160588 -2.6453629 -3.2496812 -1.6469785 -0.3814879
-9.345118 -3.3268619 -20.128767 -0.15895863 -18.81456 -16.569176 -0.92454726 -0.31266174
-2.2571068 -3.4694705 -1.5538263 0.06442233 -9.496356 -3.2215 -19.890043 0.15139294
-19.085737 -16.567577 -0.99610925 -0.12430871 -2.200206 -3.193472 -1.2991378 0.13429813
-11.846409 -3.0911095 -19.517254 0.073535986 -17.8899 -19.04603 -1.0698758 -0.20203754
-2.4275203 -3.139777 -1.4513843 -0.162204 -10.534647 -3.2151313 -21.098465 0.11666809
-20.091528 -16.995522 -1.143151 0.14086239 -2.6854613 -3.405216 -1.5819268 0.16113602
-9.977738 -3.5043836 -19.755724 0.22173521 -18.829967 -16.183187 -0.70253474 -0.03852099
-2.2762406 -2.890093 -1.5236207 -0.38272342 -13.980863 -2.7037482 -20.154404 -0.24578664
-18.618486 -21.047085 -0.98477364 -0.31012222 -2.2363734 -3.2346952 -1.6603935 -0.09555208
-10.386959 -3.1250384 -20.038288 0.017737366 -19.14038 -17.652218 -0.76680124 -0.007127759
-2.4968078 -2.8293478 -1.2372522 -0.2750786 -13.76667 -2.9562685 -19.634626 -0.32542476
-18.456318 -20.99289 -0.87373793 -0.39344066 -2.2192922 -3.2649128 -1.5955644 0.10273205
-9.867991 -3.4348497 -19.924809 -0.31205046 -19.692932 -17.019201 -1.2655075 -0.12787496
-2.2293823 -3.620213 -1.4682527 -0.20050193 -8.661749 -3.5628812 -20.06557 0.11673016
-19.61089 -15.389215 -1.1141124 0.037838366 -2.62165 -3.4380884 -1.6102469 -0.10349057
00000000: 5247 1bc0 570a 5dc0 9263 c8bf f377 65be
00000010: a3b1 21c1 073b 51c0 4de5 a6c1 1c77 6bbe
00000020: 4a73 9ec1 9581 82c1 2bc5 41bf ba7f f5bd
00000030: 2abd 22c0 6725 37c0 e56e 9dbf 3530 a8be
00000040: 3bab 47c1 b924 28c0 f07f 99c1 8232 67be
00000050: dc38 8cc1 c7e7 a1c1 15dc 46bf a647 d2bd
00000060: 9650 20c0 a091 5ec0 f9e2 c2bf a9f9 a9be
00000070: df25 0fc1 1da0 5ac0 c99d a3c1 6b3e bbbd
00000080: 627b 9fc1 8e9b 7ac1 3af7 73bf 0a4f 80be
00000090: d32e 28c0 638a 5ec0 02b9 a3bf 22fa abbd
000000a0: 223b 2ac1 c43a 4bc0 1988 a5c1 fdbe 9cbe
000000b0: afe5 98c1 d1bd 81c1 effb 93bf e408 65bd
000000c0: 0f7a 22c0 b3a0 4fc0 fbe0 cfbf de3f 68bd
000000d0: df3a 0bc1 9d85 65c0 dc37 aac1 955a fc3c
000000e0: 7b9a a2c1 3813 78c1 fa3b 8fbf 013c b9be
000000f0: 1591 27c0 8b09 50c0 e649 c7bf 57b8 333d
00000100: be6c 0ec1 599c 5bc0 8e19 9fc1 c6fb 99be
00000110: d9bf 9ac1 a1a1 7dc1 e89b 95bf d2d8 50be
00000120: 6396 13c0 3aa5 46c0 2cdf b6bf 7c1d 9abe
00000130: fd3d 41c1 2756 3ac0 98ef a3c1 8713 383e
00000140: 4724 97c1 9401 97c1 a97f 82bf 509e f93d
00000150: cbff 0fc0 29a7 3ac0 93a9 a3bf e8ce 2cbe
00000160: b339 63c1 3a7b 20c0 10e1 94c1 33ed 96be
00000170: 2730 8ec1 8893 aac1 fd85 8ebf 0b9e 89bd
00000180: 0501 23c0 26ff 40c0 cdfd a8bf c7df 373e
00000190: 2846 4dc1 1e77 28c0 3433 9ec1 d296 9dbe
000001a0: 6da9 8ec1 568f 9bc1 9b03 63bf 1c1a 88bd
000001b0: 0be9 0cc0 ce41 3ec0 5e25 bfbf c2fe 393e
000001c0: 1412 3ec1 390a 27c0 eee7 9ec1 34d1 aebd
000001d0: ca61 94c1 56b6 9dc1 08ab 5abf dd71 1dbe
000001e0: 7d81 14c0 d63c 53c0 a372 9fbf 0748 aebe
000001f0: b13e 21c1 73ca 48c0 77bb 9fc1 4618 8fbe
00000200: 3258 98c1 9765 8bc1 c96e 8abf 037c 25be
00000210: a04d 29c0 c7fa 4fc0 31d0 d2bf 6252 c3be
00000220: 9a85 15c1 4eeb 54c0 b707 a1c1 0dc6 22be
00000230: 3884 96c1 ac8d 84c1 21af 6cbf 3315 a0be
00000240: 7074 10c0 ce0b 5ec0 c8e3 c6bf dbef 833d
00000250: 13f1 17c1 0e2d 4ec0 cf1e 9fc1 c006 1b3e
00000260: 97af 98c1 668a 84c1 0401 7fbf 9195 febd
00000270: 2dd0 0cc0 d861 4cc0 264a a6bf 7385 093e
00000280: e48a 3dc1 bdd4 45c0 5623 9cc1 099a 963d
00000290: 841e 8fc1 455e 98c1 b1f1 88bf eee2 4ebe
000002a0: 7e5c 1bc0 1bf2 48c0 f6c6 b9bf ce18 26be
000002b0: ea8d 28c1 b6c4 4dc0 a8c9 a8c1 aeef ee3d
000002c0: 73bb a0c1 d4f6 87c1 c652 92bf 3b3e 103e
000002d0: 99de 2bc0 0fef 59c0 947c cabf d700 253e
000002e0: d1a4 1fc1 d247 60c0 b90b 9ec1 8e0e 633e
000002f0: c6a3 96c1 2b77 81c1 51d9 33bf 30c8 1dbd
00000300: edad 11c0 49f7 38c0 0106 c3bf 53f4 c3be
00000310: 9db1 5fc1 360a 2dc0 383c a1c1 7eaf 7bbe
00000320: a9f2 94c1 6e60 a8c1 201a 7cbf 57c8 9ebe
00000330: be20 0fc0 3f05 4fc0 c687 d4bf cfb0 c3bd
00000340: fc30 26c1 a100 48c0 6a4e a0c1 f44d 913c
00000350: 801f 99c1 be37 8dc1 164d 44bf fa8f e9bb
00000360: b3cb 1fc0 0914 35c0 485e 9ebf 1ad7 8cbe
00000370: 4844 5cc1 8133 3dc0 b713 9dc1 139e a6be
00000380: 8aa6 93c1 70f1 a7c1 4aad 5fbf 0e71 c9be
00000390: e208 0ec0 55f4 50c0 743b ccbf 2e65 d23d
000003a0: 4be3 1dc1 94d4 5bc0 0266 9fc1 14c5 9fbe
000003b0: 208b 9dc1 5327 88c1 26fc a1bf a7f1 02be
000003c0: 33ae 0ec0 92b1 67c0 b4ef bbbf 6150 4dbe
000003d0: 8696 0ac1 3f06 64c0 4a86 a0c1 3910 ef3d
000003e0: 1ae3 9cc1 3a3a 76c1 3c9b 8ebf 67fc 1a3d
000003f0: 1dc9 27c0 a409 5cc0 921c cebf ddf2 d3bd

dense3.bias f4 [128]
-1.8862252 -2.4301615 -2.0639086 -1.7445139 -2.1408951 -2.337616 -2.03656 -2.3053458
-2.083734 -2.419033 -2.3474388 -2.1739125 -2.2707407 -2.3107245 -2.0626893 -1.9929568
-1.9079251 -2.314009 -2.0293584 -2.3088 -2.2726476 -1.7607754 -2.3209722 -2.0100121
-2.327424 -1.8435103 -1.8798261 -2.112009 -1.8019493 -2.3184812 -2.1374218 -1.7928649
-2.017677 -2.3474069 -2.1965218 -2.2857873 -1.7797483 -1.8833177 -1.8609922 -2.4320579
-2.0985484 -2.0595987 -2.4546523 -2.1560857 -1.804293 -1.8497283 -2.0960925 -2.2477863
1.9899869 -0.009151914 -2.0987694 -1.2211165 -1.6930355 -2.1164997 -2.4186163 -0.4089766
-2.24097 -2.198543 -2.0356388 -2.0163462 -1.3046578 -0.43958354 1.5642877 -0.19526479
-4.263265 -2.0452292 -6.369243 0.46696728 -0.53062713 -2.0394635 -1.9496938 -2.3343456
4.6961236 0.80826575 2.8387063 0.23162784 1.523553 2.0849044 5.318897 2.9014993
-5.2131414 -4.3764024 -4.2845345 -0.2532623 -0.3458688 -1.490127 2.0032392 -1.5545398
0.6149265 3.5926313 0.84676564 -0.15653625 -0.25876272 0.88532346 0.4054612 -4.994226
-1.8346274 -2.1975267 -2.1039155 -2.3568351 0.009191647 -3.3802683 1.1688417 -2.1502807
0.029116388 1.5632755 -2.3375435 -2.2175772 -1.872956 -2.3613908 -2.1996086 -2.4247582
-2.0144992 -2.23976 -2.3932667 -1.7747681 -2.0690775 -1.8618662 -2.3981123 -1.8492966
-2.0457163 -1.9846741 -2.3165302 -2.1627765 -2.4623997 -1.9634851 -2.1774364 -2.099422
00000000: d46f f1bf c487 1bc0 1417 04c0 3b4c dfbf
00000010: 6d04 09c0 809b 15c0 0057 02c0 c98a 13c0
00000020: e65b 05c0 70d1 1ac0 703c 16c0 6221 0bc0
00000030: d153 11c0 e9e2 13c0 1a03 04c0 3519 ffbf
00000040: e436 f4bf b918 14c0 02e1 01c0 61c3 13c0
00000050: 0f73 11c0 1761 e1bf cf8a 14c0 0aa4 00c0
00000060: 84f4 14c0 25f8 ebbf 249e f0bf 282b 07c0
00000070: 46a6 e6bf ff61 14c0 85cb 08c0 997c e5bf
00000080: 9f21 01c0 ea3b 16c0 d093 0cc0 574a 12c0
00000090: cbce e3bf 8e10 f1bf fe34 eebf d6a6 1bc0
000000a0: 9e4e 06c0 77d0 03c0 0619 1dc0 4ffd 09c0
000000b0: 13f3 e6bf e6c3 ecbf 6126 06c0 bbdb 0fc0
000000c0: e4b7 fe3f e9f1 15bc 3d52 06c0 8c4d 9cbf
000000d0: 63b5 d8bf bb74 07c0 9cca 1ac0 6265 d1be
000000e0: 0d6c 0fc0 eeb4 0cc0 e847 02c0 d10b 01c0
000000f0: 07ff a6bf 1811 e1be 943a c83f 7ef3 47be
00000100: ab6c 88c0 09e5 02c0 d7d0 cbc0 5616 ef3e
00000110: 2ed7 07bf 9286 02c0 918f f9bf eb65 15c0
00000120: a546 9640 81ea 4e3f 5dad 3540 d92f 6d3e
00000130: c903 c33f 136f 0540 6734 aa40 2ab2 3940
00000140: 0ed2 a6c0 7d0b 8cc0 e81a 89c0 99ab 81be
00000150: b715 b1be 7bbc bebf 1235 0040 29fb c6bf
00000160: d36b 1d3f aced 6540 a2c5 583f 0a4b 20be
00000170: 8c7c 84be 8fa4 623f 9c98 cf3e b3d0 9fc0
00000180: 12d5 eabf 47a4 0cc0 8da6 06c0 63d6 16c0
00000190: 9098 163c 5156 58c0 9b9c 953f 339e 09c0
000001a0: 7e85 ee3c 6919 c83f 509a 15c0 c9ec 0dc0
000001b0: 06bd efbf 0721 17c0 63c6 0cc0 3d2f 1bc0
000001c0: 8eed 00c0 3a58 0fc0 482b 19c0 9a2b e3bf
000001d0: c46b 04c0 a251 eebf ac7a 19c0 c0b5 ecbf
000001e0: 04ed 02c0 cd09 febf 0842 14c0 ee6a 0ac0
000001f0: f597 1dc0 7b53 fbbf 1e5b 0bc0 ee5c 06c0
