Saved Models/O28B_ULA_trainable_8_beam_probing_codebook_128_beam_classifier_noise_-94_dBm.pt (torch, 19751 bytes, 7 tensors)

codebook.theta f4 [64, 8]
0	0x408badbc	4.364958
1	0x401c58c9	2.442919
2	0x40220104	2.531312
3	0xbd56f148	-0.052476197
4	0xbf3fd19e	-0.74929225
5	0x409e8519	4.9537473
6	0x3eeb12e2	0.45912844
7	0x405ccfb1	3.4501765
8	0x40b10834	5.5322514
9	0x409daee6	4.9276
10	0x3fc5acda	1.5443375
11	0x40e9a9e8	7.3019905
12	0x3e93f6ae	0.2889914
13	0x3f34ca81	0.70621496
14	0x40cce075	6.4023995
15	0xc01db506	-2.4641738
16	0x3f3c348c	0.7351768
17	0x40c68c2c	6.204611
18	0x3ffa0fca	1.9536068
19	0x3ffa9db5	1.9579378
20	0x4013f05f	2.311546
21	0xbf1d11ba	-0.61355174
22	0x3f02d614	0.5110791
23	0x40086460	2.1311264
24	0x3f9542e9	1.1661044
25	0x3fe63e00	1.7987671
26	0x4099e9f1	4.8098073
27	0x40cbf55c	6.373701
28	0x3fabc290	1.3418751
29	0x40a02c80	5.005432
30	0x40925078	4.572323
31	0x40dfa134	6.988428
32	0x4086c6fe	4.211791
33	0x40911372	4.5336237
34	0x40664632	3.5980344
35	0x4000b0aa	2.0107827
36	0x40d75a76	6.7297926
37	0x40e45249	7.1350446
38	0x408f05cd	4.469458
39	0x402a4648	2.6605396
40	0x40deb758	6.959881
41	0x3e92425f	0.28566262
42	0x410fc35e	8.985197
43	0x3f065034	0.5246613
44	0x405cf620	3.4525223
45	0x40a6800c	5.2031307
46	0x40466f65	3.100549
47	0x4067c2a3	3.6212547
48	0x3fd32d40	1.6498184
49	0x40a951fc	5.291258
50	0x406ad425	3.6691983
51	0x3fcc6221	1.5967447
52	0x409e77fe	4.9521475
53	0x3ff4cab1	1.9124357
54	0x403cef3c	2.9521017
55	0x40535c78	3.3025188
56	0x3eed46d0	0.46343088
57	0x3f968775	1.1760088
58	0x40d6a583	6.707704
59	0x3e0d9f69	0.13830341
60	0x3fa4f08f	1.2885913
61	0x40c7c106	6.2423124
62	0x40145c9f	2.3181531
63	0x40ce1586	6.4401274
64	0xbfa1b00c	-1.263185
65	0x40fd1db5	7.9098763
66	0x40908cd9	4.5171933
67	0x404c1787	3.188936
68	0x40cd82c6	6.4222136
69	0x4016b30b	2.354678
70	0x4069abbe	3.6511073
71	0x3f5d367c	0.8641126
72	0x3f93c193	1.1543449
73	0x4057f1cd	3.3741333
74	0xbda44d80	-0.080225945
75	0x40b6073b	5.6883826
76	0x40218cee	2.5242267
77	0x3f31eab7	0.6949877
78	0x40633b9b	3.550513
79	0x3ebe9acb	0.37227473
80	0x406d7b9c	3.7106695
81	0x3f223ca1	0.6337376
82	0xbe9d6965	-0.30744472
83	0x403092d6	2.7589622
84	0x4029d0f5	2.6533787
85	0x40d736ed	6.725455
86	0x408b0a1d	4.3449845
87	0x3ff6dfd1	1.9287053
88	0x4049526f	3.1456563
89	0x4051c2de	3.2775187
90	0x3fc94352	1.572367
91	0x3fef5c7a	1.8700097
92	0x407345fc	3.8011465
93	0x3fac13e3	1.3443569
94	0x4053b3b1	3.3078425
95	0x40ceda1f	6.464126
96	0xbf96a9aa	-1.1770527
97	0x4047880d	3.1176789
98	0x4041d30a	3.0285058
99	0xbfc15054	-1.5102639
100	0x40987187	4.7638583
101	0x40cb9956	6.362468
102	0x4015655e	2.334312
103	0x403a2866	2.9087157
104	0x3fac8315	1.3477503
105	0x408911a7	4.283405
106	0x3f6ede88	0.93308306
107	0x400c4e52	2.1922803
108	0x400b67da	2.1782136
109	0x4012d2fe	2.294128
110	0x4044fa4b	3.0777767
111	0x4081c6f2	4.0555353
112	0x407c06f2	3.937924
113	0x403e2356	2.9709067
114	0x3f369615	0.71322757
115	0xbfb7bdb1	-1.4354764
116	0x4088f059	4.2793393
117	0x40bbd84e	5.8701544
118	0xbdb84ec3	-0.089993976
119	0x404bef7d	3.1864922
120	0x4068801a	3.6328187
121	0xbfdb547d	-1.7135159
122	0x40b48dd2	5.642312
123	0x40440155	3.0625813
124	0x41149522	9.286409
125	0x40046d1f	2.0691602
126	0x40e6fa5f	7.218063
127	0x3f3912a5	0.72294074
128	0x40c2c32d	6.086325
129	0x408b627f	4.3557734
130	0xbee61aa1	-0.4494219
131	0xbed63471	-0.41836885
132	0x409bbe69	4.8669934
133	0x3fe95ca8	1.8231401
134	0xc0417782	-3.0229192
135	0x3fd44dcb	1.658624
136	0x400e5e93	2.2245224
137	0xbf76f3a4	-0.96465516
138	0x40218d1c	2.5242376
139	0x4061b8a3	3.5268943
140	0x40e6439a	7.195752
141	0x401b2a73	2.424466
142	0xbe410b5e	-0.18851992
143	0x3f4d8cbd	0.80292875
144	0x4092009c	4.5625744
145	0x40904955	4.5089517
146	0xbeb5844c	-0.35452497
147	0x40c0324f	6.006141
148	0x409324f5	4.5982614
149	0x4008daff	2.1383665
150	0xbe905cd0	-0.2819581
151	0x3ff07978	1.8787069
152	0x40f54df7	7.665767
153	0x401c3f80	2.4413757
154	0x3ffc8c44	1.9730306
155	0x3facbf8d	1.3495957
156	0xbf002369	-0.5005403
157	0x4101c2f2	8.110094
158	0x3ec2c5d3	0.38041553
159	0x40c6ec65	6.2163568
160	0x40d1bf6a	6.554616
161	0x405c8158	3.4453945
162	0x40cd25a2	6.410844
163	0x40a8cdbb	5.2751136
164	0xbf219a55	-0.63126117
165	0x4068a2ab	3.6349285
166	0x40b35e67	5.6052737
167	0x3fc7d88e	1.5612962
168	0x403b6aa3	2.9283836
169	0x4038523e	2.8800197
170	0x401f442b	2.4885356
171	0xc007845a	-2.117453
172	0x3f2e570b	0.6810157
173	0x40c5a1d2	6.1760035
174	0x3ef30fc3	0.47472963
175	0xbea2f042	-0.31823927
176	0x40a8b5ce	5.272193
177	0x4047f742	3.1244664
178	0x3d754705	0.059882183
179	0x3fe20ef4	1.7660813
180	0xc006c876	-2.1059852
181	0x40b599c2	5.6750193
182	0x40c3dd5c	6.1207714
183	0x40505a55	3.2555134
184	0x3f9aedeb	1.2103857
185	0x40dd0bec	6.9077053
186	0x40f46945	7.6378503
187	0xbfcb6d44	-1.589272
188	0x3ff6fc61	1.929577
189	0x409d4fe2	4.9160013
190	0x3d9fabc0	0.077964306
191	0x3e632c10	0.22184777
192	0xbd0e9f80	-0.03482008
193	0x410518f3	8.318591
194	0x3fbe770c	1.488008
195	0x4031bc46	2.7771163
196	0x409583a8	4.6723213
197	0x403bc53f	2.933914
198	0x40936121	4.6056066
199	0x401a10ee	2.4072833
200	0x4046eec2	3.1083226
201	0xc01b596a	-2.4273324
202	0xbe9437f2	-0.28948933
203	0x40d25497	6.572826
204	0x3f15df3c	0.58543754
205	0xbfd7f462	-1.6871455
206	0x40b5578a	5.666936
207	0x40c9f4e3	6.3111434
208	0xbf45217a	-0.77004206
209	0x3edba746	0.42901057
210	0x3f9d4256	1.2285869
211	0x40ec4fde	7.3847494
212	0x4033424e	2.800922
213	0x4025700c	2.5849638
214	0x40212738	2.5180187
215	0x401cc7bd	2.449691
216	0x4068e775	3.639127
217	0x400a5f66	2.1620727
218	0x4095e250	4.683876
219	0x409b0574	4.8444157
220	0x3f26bce7	0.6513199
221	0x40db1e3c	6.8474407
222	0x40a7634a	5.2308702
223	0xbea95b9a	-0.330777
224	0x3e9c23c8	0.3049605
225	0x40884b2f	4.2591777
226	0x3dd80a3d	0.10548828
227	0x40fd01b5	7.9064584
228	0x40890eb7	4.2830462
229	0x4088fbae	4.2807226
230	0x4080a42c	4.0200405
231	0x402ea1b4	2.7286196
232	0x403eca58	2.9811
233	0x4037d038	2.8720837
234	0x4097eca7	4.747638
235	0xbfad6e49	-1.3549281
236	0x40ef5b99	7.4799314
237	0x3fab5706	1.3385932
238	0x40bd6825	5.918963
239	0x3d096eff	0.03355312
240	0xbeb33dde	-0.35008138
241	0x40bd6545	5.918612
242	0x3f894b10	1.0726032
243	0x3f510c72	0.81659615
244	0x406a35da	3.6595368
245	0xbe56b1b2	-0.20966223
246	0x3fe2eff8	1.7729483
247	0x4012f555	2.2962239
248	0x40611d43	3.517411
249	0x3ff0a15a	1.879924
250	0x408d3a2c	4.413351
251	0x4094b711	4.647347
252	0x40c1bf3b	6.0545936
253	0x404a04a4	3.1565332
254	0x40a0e13b	5.027494
255	0x40bc25ba	5.8796053

dense1.weight f4 [16, 8]
0	0x40174a5b	2.3639133
1	0xc2c22cd9	-97.08759
2	0xc03573d7	-2.8351953
3	0xc00d84ff	-2.2112424
4	0x3fab1279	1.3365012
5	0xbfedca0f	-1.8577288
6	0x40bd329b	5.9124274
7	0xbf4a88e7	-0.79115146
8	0x3be907ce	0.007111526
9	0x3f0117e4	0.5042708
10	0xc05d63fc	-3.4592276
11	0x3ff4f592	1.9137442
12	0xbf85e5f1	-1.0460798
13	0x414e56fe	12.896238
14	0xbf8db074	-1.1069474
15	0x3f8170cc	1.0112548
16	0x407fa46f	3.9944112
17	0xc19b6a37	-19.426863
18	0x41513d69	13.077493
19	0xbfed2bc7	-1.8528985
20	0x3ebd3713	0.3695608
21	0x3f9b87f6	1.2150867
22	0xbfcb6e3c	-1.5893016
23	0xc16ae279	-14.680291
24	0x3c973c2e	0.018461313
25	0xbcdd2d8d	-0.02699926
26	0xbed64f86	-0.41857547
27	0x3d11c212	0.03558547
28	0xbdc32008	-0.09527594
29	0xbd8718ba	-0.06596513
30	0xbca1cee6	-0.019751977
31	0xbed275af	-0.4110541
32	0xbf659863	-0.8968565
33	0x4121a4b6	10.102713
34	0xbfcb62c6	-1.5889518
35	0x3fff3cb5	1.9940401
36	0x3e2efa72	0.17087725
37	0x418356c5	16.417368
38	0xbebd6f1a	-0.36998826
39	0xbf0f36c7	-0.5594296
40	0x405fc7c6	3.4965682
41	0xc040109d	-3.001014
42	0x3eade7d0	0.3396592
43	0x4129c03d	10.609433
44	0x3f3b88dd	0.7325571
45	0x407f36a0	3.987709
46	0x410edc7e	8.928831
47	0xbfc003e4	-1.5001187
48	0x3f4af6ae	0.79282653
49	0xc0824318	-4.07069
50	0xc0b223c0	-5.566864
51	0xc1ce7e11	-25.811556
52	0xc1c9a478	-25.205307
53	0xc02110d6	-2.5166526
54	0x4012bf45	2.2929242
55	0x407b31bd	3.9249108
56	0xc05afdbe	-3.4217372
57	0xc1122217	-9.133323
58	0x40b75286	5.7288237
59	0x3e0e8249	0.13916887
60	0x400e61ad	2.2247117
61	0x3fbb2bec	1.4622779
62	0x409a17b7	4.815395
63	0x3f3e4f63	0.74339885
64	0xbf52e4cd	-0.8238037
65	0xc0d58513	-6.6724944
66	0x4043c743	3.059037
67	0x3f8337c9	1.0251399
68	0xc024155f	-2.5638044
69	0x3f9d3bab	1.2283834
70	0xc30f472f	-143.27806
71	0x4005c981	2.0904238
72	0x40a04ca1	5.009354
73	0x40376d7e	2.8660579
74	0xc27310a1	-60.76624
75	0xc102a470	-8.165146
76	0x3f46e8b9	0.77698857
77	0xbf489f85	-0.7836841
78	0x40e1263a	7.0359163
79	0xc0835b4b	-4.104894
80	0xc039062f	-2.8910024
81	0x402b1509	2.673159
82	0x400a7fb6	2.1640449
83	0xbfa368d7	-1.276637
84	0xbede9374	-0.43471873
85	0xc308e470	-136.89233
86	0xc2516835	-52.351765
87	0xc04beec6	-3.1864486
88	0xc1fdda75	-31.731668
89	0xc0042f5e	-2.065391
90	0xc0e2cbb3	-7.0873656
91	0xc096d820	-4.7138824
92	0x40183158	2.3780117
93	0x3f88721f	1.0659827
94	0x4052a5da	3.2913728
95	0xc0ece0c9	-7.4024396
96	0x4105874a	8.34553
97	0xc0e6ffc4	-7.2187214
98	0xc0a1e6b9	-5.0594144
99	0xc266d21b	-57.70518
100	0xc34836a6	-200.21347
101	0xc09899ac	-4.768759
102	0x3f578c20	0.8419819
103	0xc2875f22	-67.68581
104	0xc0211c92	-2.5173688
105	0xbff030e7	-1.8764924
106	0xc02afd3c	-2.6717062
107	0x41020d37	8.128226
108	0x403ab520	2.917305
109	0x3f3e91ad	0.74441034
110	0xc034d261	-2.8253405
111	0x3eac3d24	0.33640397
112	0xc09c2cb5	-4.8804574
113	0x3ff49c34	1.911017
114	0x40943387	4.63129
115	0xc0e77d06	-7.2340117
116	0xc15e9f50	-13.913895
117	0xc050cfc0	-3.26268
118	0xc0b3defa	-5.620969
119	0xbd1ec5e1	-0.03876293
120	0x408a9dab	4.3317466
121	0xc01c6eeb	-2.44427
122	0x3f66ba36	0.90127885
123	0x41487d1c	12.530544
124	0x3fc7f1c1	1.5620652
125	0x4070f5b7	3.7649972
126	0xc1441370	-12.2547455
127	0xc015121d	-2.3292305

dense1.bias f4 [16]
0	0x3e6bc680	0.2302494
1	0x3e80477a	0.25054532
2	0x3e173aa2	0.1476846
3	0xbec53f98	-0.3852508
4	0x3c5fc66a	0.013658145
5	0x3dee0d6f	0.11623656
6	0x3e0bd04b	0.13653676
7	0x3e7945fd	0.24343105
8	0x3db8afa3	0.09017875
9	0x3dc0f4ae	0.09421669
10	0x3df7df78	0.1210317
11	0x3f2d7e34	0.67770696
12	0x3dc5b449	0.09653527
13	0x3eb99d62	0.36252886
14	0x3eb5817e	0.35450357
15	0x3e58ade7	0.21160088

dense2.weight f4 [24, 16]
0	0xbfaeb08a	-1.3647625
1	0xc00cc7a5	-2.1996853
2	0xbe717633	-0.23580246
3	0x3d4eca20	0.05048573
4	0x3ea7c184	0.32764828
5	0xbf817b8d	-1.011583
6	0x3f65c40b	0.8975226
7	0x3f94fb50	1.1639194
8	0x3f602c68	0.8756776
9	0x3dbf2d42	0.09334804
10	0x3fde6887	1.7375649
11	0xbd9ffb23	-0.078115724
12	0xc07a3cb8	-3.909956
13	0xc0314175	-2.7696202
14	0xbf9878a2	-1.1911814
15	0xbe281dfb	-0.16417687
16	0x411fdab4	9.990894
17	0xc05e86e3	-3.4769828
18	0x3f9d9487	1.2310952
19	0xbdf9b93c	-0.12193534
20	0xc07ffcf4	-3.999814
21	0xc08d1de6	-4.4098997
22	0xbf5640f8	-0.83692884
23	0x3f668801	0.90051275
24	0x404d077a	3.2035813
25	0xc0659404	-3.5871592
26	0xc012672b	-2.2875469
27	0xbecb1202	-0.39662176
28	0x3f90c8bc	1.1311259
29	0xc043349d	-3.0500863
30	0xbf613164	-0.8796599
31	0xbf280103	-0.65626544
32	0x3ff8ba4f	1.9431857
33	0xbd11bcb7	-0.035580363
34	0x3df475ca	0.11936529
35	0x3dee6bc4	0.116416484
36	0xbf03b6ab	-0.51450604
37	0xbfcd92ae	-1.6060388
38	0xbe9fe3b9	-0.31228426
39	0x3f0be29a	0.5464264
40	0x3e7d10c2	0.24713424
41	0xbf14d9b0	-0.58144665
42	0xc03758ef	-2.864803
43	0xc22bf317	-42.987392
44	0x40782b32	3.8776364
45	0xbf7e5dd4	-0.9936192
46	0x3efe5d3f	0.49680516
47	0x40014c96	2.0202994
48	0x3f871a9e	1.0554998
49	0x3fb9d5cb	1.451837
50	0x3e971d96	0.2951476
51	0xbdc56f18	-0.0964033
52	0xbf6fb03f	-0.93628305
53	0xbd8006ab	-0.06251272
54	0xbf4bf0ac	-0.7966411
55	0xbefa3125	-0.4886562
56	0x408657aa	4.198201
57	0xbf223fb6	-0.63378465
58	0xbe5f7422	-0.21821645
59	0x3f30ba45	0.69034225
60	0xc1741b18	-15.256615
61	0x3fb9a5df	1.4503745
62	0xbf9a4461	-1.2052118
63	0xbe1750ef	-0.14776967
64	0xbeed16a0	-0.46306324
65	0x3f9102c6	1.1328971
66	0x3e6e81c7	0.23291694
67	0xbe69073e	-0.22756669
68	0xbe32d246	-0.17463025
69	0xbdc22e8e	-0.09481536
70	0x4053bf66	3.308557
71	0xbf57ac74	-0.8424752
72	0x3fd953c0	1.6978683
73	0xbe8312d3	-0.256003
74	0xc0dc1134	-6.8771
75	0x3ca22352	0.019792233
76	0x417bb227	15.730994
77	0x3e1f380f	0.15548728
78	0x3fd1286f	1.6340464
79	0x3ce48624	0.027895994
80	0xbe01f670	-0.12691665
81	0xbcfe8a08	-0.031071678
82	0xbe49f79c	-0.19723362
83	0x3c9b1af0	0.018933743
84	0xbe66533e	-0.22492692
85	0xbdeb8a5c	-0.11500999
86	0xbdea4772	-0.11439408
87	0xbe59e0b5	-0.21277125
88	0xbe8bfb72	-0.27340275
89	0xbeb2e486	-0.34939975
90	0x3d11a606	0.035558723
91	0x3ddd5521	0.10807253
92	0xbdd904bc	-0.10596606
93	0xbdf9cef6	-0.12197678
94	0xbcc7e6ef	-0.02440211
95	0xbdaa760b	-0.08323296
96	0x3f8372d9	1.0269424
97	0x4080dd16	4.026988
98	0xc0ada7d4	-5.426737
99	0xbe512ba6	-0.20426807
100	0xc03064d5	-2.7561543
101	0xbef28faf	-0.47375247
102	0x3fb17c2b	1.3866018
103	0xc048b269	-3.1358893
104	0xbf08aeb4	-0.53391576
105	0x3e9726e7	0.29521868
106	0x408590da	4.173932
107	0x3f37ba5a	0.71768725
108	0xc1847144	-16.555305
109	0x403de07e	2.966827
110	0xbd5331bd	-0.051561106
111	0xbfb71aab	-1.4305013
112	0x3f2a7fc0	0.6660118
113	0x3f25280b	0.64514226
114	0x3ef6277e	0.48077005
115	0x3e7ecce9	0.24882855
116	0xbe84ec5e	-0.25961584
117	0xc0e170b8	-7.0450096
118	0xc0085052	-2.1299024
119	0xbf647636	-0.89242876
120	0x400ade4b	2.1698177
121	0x3f002efe	0.50071704
122	0xc0166609	-2.3499777
123	0xbeb02c79	-0.3440893
124	0x40f3d537	7.619777
125	0x3f283281	0.6570206
126	0xbf54fd3d	-0.8319891
127	0x40ae4b1d	5.446669
128	0xbfad146d	-1.3521858
129	0xbe88751d	-0.2665185
130	0xc01c1315	-2.4386647
131	0xbde46638	-0.11152309
132	0xbfbb9297	-1.4654111
133	0xc0e13663	-7.037889
134	0x3f6f30f5	0.9343408
135	0x40321871	2.7827418
136	0xc0a54b42	-5.1654367
137	0xc0d8d2cd	-6.7757325
138	0x40076856	2.1157432
139	0x40dc67e1	6.8876805
140	0xbedf8cc4	-0.43662083
141	0xbfbadcd9	-1.4598647
142	0xbe99f75c	-0.30071533
143	0xc1059aaf	-8.350265
144	0x3f794731	0.97374254
145	0xbfc85fbe	-1.5654218
146	0x3dee1790	0.11625588
147	0x3cefea4f	0.029286532
148	0xc10b5745	-8.708806
149	0x3dfdd11d	0.12393401
150	0x407abc67	3.9177492
151	0xbcd9df7a	-0.02659582
152	0xc1892052	-17.140781
153	0x3fbbbe51	1.4667455
154	0xc08c897c	-4.3917828
155	0x3f118d61	0.5685635
156	0x40a315a4	5.0963917
157	0x3f3d44c2	0.7393304
158	0xbd4a1b7f	-0.04934263
159	0xbf062914	-0.5240643
160	0xbe8b04ce	-0.27152103
161	0xbf44bd9d	-0.76851827
162	0xbdfcc16b	-0.12341579
163	0x3d866de8	0.06563932
164	0xbed6515b	-0.41858944
165	0xbf270257	-0.65237945
166	0x3e455167	0.19269334
167	0xbee73ac9	-0.45162037
168	0xbebabf1e	-0.36473936
169	0xbebc8ae0	-0.36824703
170	0xbe24654b	-0.16054265
171	0xbf35d8cf	-0.7103395
172	0x3ea935c3	0.3304883
173	0xbef8e971	-0.48615602
174	0xbdea492e	-0.11439739
175	0xbedd743e	-0.43252748
176	0xc11d179c	-9.818264
177	0x3ecdabb1	0.40170053
178	0xbd789886	-0.060692333
179	0x3caf8a2e	0.021428194
180	0x3d58e57a	0.05295322
181	0xc0632e65	-3.5497067
182	0x3dc4016b	0.09570583
183	0xc0078467	-2.1174562
184	0x40ddce1f	6.9314113
185	0x3dfb8a13	0.12282195
186	0x40a017b4	5.0028934
187	0x3c6e8a69	0.014559367
188	0xc09adad2	-4.8392115
189	0x3f95432d	1.1661125
190	0x3fc59d44	1.5438619
191	0x40376130	2.8653069
192	0xbe812d88	-0.2523005
193	0x4028aaf4	2.6354342
194	0xbb4580a4	-0.003013649
195	0x3dbcad4e	0.09212743
196	0xbfe2ef2e	-1.7729242
197	0x3f424d44	0.7589915
198	0x4096c255	4.711222
199	0xbf63a7d5	-0.88927966
200	0x3fa1eff7	1.2651356
201	0x3efe1426	0.49624747
202	0xc1467a43	-12.404849
203	0xbb673e58	-0.0035284963
204	0x405fc335	3.4962895
205	0xc0251c8a	-2.579867
206	0x3f43848d	0.7637413
207	0xbf6d82ba	-0.927776
208	0xbea14fa8	-0.31506085
209	0xbfc168ed	-1.5110146
210	0xbf5ef1ae	-0.87087524
211	0x3d66c875	0.056343514
212	0xc07db84b	-3.9643734
213	0x400dafbf	2.2138517
214	0xc09b05ba	-4.844449
215	0xc05f9783	-3.4936225
216	0x40a40c37	5.126491
217	0x3f52c012	0.82324326
218	0x40b44fee	5.634757
219	0xbdfdfd74	-0.12401858
220	0xc0889831	-4.268578
221	0x3fc5bae6	1.5447662
222	0x3f07d1fc	0.53054786
223	0xbff141b7	-1.884818
224	0xbe98fc1f	-0.29879853
225	0xbf869d5c	-1.0516772
226	0x3e9bf9b7	0.30463955
227	0x3d8c551c	0.06852171
228	0xbd798be9	-0.060924444
229	0xbf91633c	-1.1358409
230	0x3e16eefb	0.14739601
231	0xbe9dfe9f	-0.30858323
232	0x3fcdb07c	1.6069484
233	0xc1b7295f	-22.8952
234	0x4021a7db	2.52587
235	0x3fcd409e	1.6035345
236	0x3e7d178a	0.2471601
237	0x3f2f54ba	0.6848866
238	0x3fc253b1	1.518179
239	0x3e5fde07	0.2186204
240	0xbee1ec40	-0.44125557
241	0xbe66328e	-0.22480223
242	0xbf76417a	-0.9619366
243	0x3e653326	0.22382793
244	0xbe9952fb	-0.29946122
245	0xbf253095	-0.64527255
246	0xbf292d8e	-0.66085136
247	0xbc83409d	-0.016022021
248	0xbdf7f8a7	-0.121079735
249	0xbf46ab98	-0.7760558
250	0xbdb9aa20	-0.09065652
251	0xbda7ef07	-0.08199888
252	0xbf4ef75d	-0.80846196
253	0x3d67f264	0.056627646
254	0xbfbf9065	-1.4965941
255	0xbf3ba755	-0.73302203

dense2.bias f4 [24]
0	0x4002c3bb	2.0431964
1	0x3fd0a203	1.6299442
2	0xbe2b13d6	-0.16706786
3	0x3df80ac4	0.121114284
4	0x3e9fd765	0.3121902
5	0xbef1edfb	-0.47251877
6	0x3e19c0c1	0.15014936
7	0x3e8ca207	0.27467367
8	0xbd223e35	-0.039610106
9	0x3f94d4bd	1.1627423
10	0xbf57f3a4	-0.8435614
11	0x3fb6955a	1.4264328
12	0x3fddeeef	1.7338542
13	0x3fee9045	1.8637778
14	0x3f913e3e	1.134712
15	0xbf03f97b	-0.5155255
16	0x3fef8b80	1.8714447
17	0x3bd44911	0.0064784368
18	0xbe67a5ab	-0.22621791
19	0x40302bfe	2.752685
20	0x3f72302f	0.9460477
21	0x3dfbd341	0.12296153
22	0x3fbef24c	1.4917693
23	0x3f15d465	0.58527213

dense3.weight f4 [128, 24]
0	0xbfe57555	-1.7926432
1	0x3fdf1ce2	1.7430689
2	0xbfaaec24	-1.3353314
3	0x3ebaa779	0.36455896
4	0xc087f7a7	-4.248981
5	0xbdab0660	-0.08350825
6	0x3f7ebf37	0.9951052
7	0x404c59fb	3.192992
8	0x3e70f4de	0.2353091
9	0x3f07f182	0.53102887
10	0x3e8e7f32	0.27831417
11	0x3e1e94bc	0.15486425
12	0xc0257ec4	-2.5858622
13	0x3f058f07	0.5217137
14	0xbf6e4324	-0.930712
15	0xbe37f496	-0.17964396
16	0x3f8f92fb	1.121673
17	0xbd237933	-0.039910506
18	0xbc2e2e4a	-0.010631153
19	0x4096b229	4.709248
20	0xc0b6a013	-5.7070403
21	0xbe66e867	-0.22549592
22	0x3fd373bf	1.6519698
23	0x400801b5	2.1251042
24	0xbf9072fe	-1.1285093
25	0x40181ffa	2.3769517
26	0xbf4acf66	-0.79222715
27	0x3f944ace	1.1585329
28	0xc0fc55b9	-7.885464
29	0x3d153308	0.03642562
30	0xbf6d7224	-0.9275229
31	0x4047d785	3.1225293
32	0x3e3a5194	0.18195182
33	0x3f67fb36	0.9061769
34	0xbf0811c8	-0.5315213
35	0x3edc8970	0.43073606
36	0xc0c57d86	-6.1715727
37	0xbe4aa8fb	-0.19791023
38	0xbf67e94d	-0.90590364
39	0xbd8f8685	-0.070080794
40	0x40995291	4.791329
41	0x3e6e6f9c	0.23284763
42	0xbcf16ca1	-0.029470744
43	0x3fd92aef	1.6966227
44	0xc014c390	-2.3244362
45	0x3ffc1b4a	1.9695828
46	0xbdf6091d	-0.12013457
47	0x3f1e8b0f	0.61930937
48	0xc02b7641	-2.6790926
49	0x40044fab	2.0673625
50	0xbdf7ff01	-0.12109185
51	0x3f9887cf	1.1916445
52	0xc1123635	-9.138234
53	0xbe6ad114	-0.2293132
54	0xbfeaae5a	-1.8334458
55	0xc022dfee	-2.5449176
56	0xc05c0c42	-3.4382482
57	0x3fb99cfc	1.4501033
58	0x3d7f5787	0.062339332
59	0x3cd3c8b8	0.025852546
60	0xbffb598a	-1.96367
61	0x400e4433	2.2229125
62	0xbfba796b	-1.4568304
63	0xbf2197a0	-0.63121986
64	0x3fd06bce	1.6282899
65	0xbd85c8f0	-0.065324664
66	0xbd6c454e	-0.05768328
67	0x40033262	2.0499501
68	0x4000ba74	2.0113802
69	0x3fd82c72	1.6888564
70	0x3f1cf9f7	0.61318916
71	0xbf307f29	-0.6894403
72	0xbfa438ca	-1.2829831
73	0x40291c64	2.6423578
74	0xc02d4fd9	-2.7079985
75	0xbff66090	-1.9248219
76	0xc0bb6056	-5.8555098
77	0x3d3f2a2d	0.04667108
78	0xc0621d8e	-3.5330539
79	0xc18669f4	-16.801735
80	0xbf8f8d96	-1.1215084
81	0x3fdbb557	1.7164716
82	0xbec2fbec	-0.38082826
83	0xbe3a3bef	-0.18186925
84	0x3ff62e43	1.9232868
85	0x3fa3e9e8	1.2805758
86	0xc043e114	-3.0606127
87	0xbe04b9e1	-0.12961532
88	0x40201526	2.5012908
89	0xbd243bef	-0.04009622
90	0xbd797b91	-0.060908858
91	0x4028ff40	2.6405792
92	0x3f181a9f	0.5941562
93	0x4024049d	2.5627816
94	0x3f493c5a	0.78607714
95	0xbfa3d9e4	-1.280087
96	0xc00a4b19	-2.1608336
97	0x3fcff8f2	1.6247847
98	0xc20a48db	-34.571148
99	0xbf0fc525	-0.56160194
100	0xc086c5c6	-4.2116423
101	0x3e004a21	0.12528278
102	0xc07e38c8	-3.9722157
103	0xc2fc3b7c	-126.11618
104	0xc0356f84	-2.8349314
105	0x3f27a58a	0.6548697
106	0xbe74b354	-0.23896533
107	0x3d13ae0d	0.03605466
108	0x402fac34	2.7448854
109	0xc03401a1	-2.8125994
110	0xc073c8fc	-3.809142
111	0xbf2a14ae	-0.66437805
112	0x400bb05c	2.1826391
113	0xbd7b139f	-0.06129801
114	0xbda270a0	-0.07931638
115	0x40579a00	3.3687744
116	0x3fb4a386	1.4112403
117	0x40364983	2.8482368
118	0x3f0fb402	0.56134045
119	0xbec358ac	-0.3815359
120	0xc0f443e1	-7.633286
121	0xc07c713b	-3.944411
122	0xc1d2857d	-26.31518
123	0x3fde102b	1.7348684
124	0xc07c3d7a	-3.9412522
125	0x3e741891	0.23837496
126	0xbf339c8a	-0.70160735
127	0xc2bb82bb	-93.75533
128	0xbe5c3882	-0.21505931
129	0xc0595e17	-3.3963678
130	0xbe6bf79f	-0.23043679
131	0xc0134747	-2.3012254
132	0x40399fa7	2.9003694
133	0xbf006899	-0.50159603
134	0xc033e33d	-2.8107445
135	0xbf85108c	-1.0395675
136	0x3fe8c758	1.8185835
137	0xbc4fa892	-0.012674468
138	0xbe1673ef	-0.14692663
139	0x3fc82853	1.5637306
140	0xbed60404	-0.4179994
141	0x3fc32e03	1.5248417
142	0xbf5a763f	-0.8533668
143	0xbf83b160	-1.0288506
144	0xc1ec732e	-29.55624
145	0xbfb9b1fc	-1.4507442
146	0xc14d4908	-12.83033
147	0x3fe104d0	1.7579594
148	0xc096f44b	-4.717321
149	0x3e178ade	0.14799067
150	0xbeb53260	-0.35389996
151	0xc17238bd	-15.138852
152	0xc1022520	-8.134064
153	0xbfb69171	-1.4263135
154	0xbedd2c16	-0.43197697
155	0xc00e7edf	-2.2264936
156	0xbedcef5c	-0.43151367
157	0x40205edb	2.5057895
158	0xbf43a45b	-0.7642266
159	0xbfbb74c1	-1.4645005
160	0xc2676c6b	-57.855877
161	0x3e0f73dc	0.1400904
162	0xbec4a62f	-0.38408038
163	0xbff2a2b0	-1.8955898
164	0x3f2b1438	0.66827726
165	0xbe5f4f2a	-0.21807542
166	0x3e1af0e8	0.15130961
167	0xbfcdd415	-1.6080347
168	0xc13ab76c	-11.669781
169	0xc224f595	-41.239826
170	0xc0d1810f	-6.547004
171	0x3fc2fa20	1.5232582
172	0xbf2cb7b8	-0.6746783
173	0x3c963770	0.018336982
174	0xbf851815	-1.0397974
175	0xc10835e6	-8.513159
176	0xc286d37f	-67.41308
177	0xc08c909f	-4.392654
178	0xbd6c6f05	-0.057723064
179	0xc03c408e	-2.94144
180	0xbf2e4a4d	-0.68082124
181	0xbf10e740	-0.5660286
182	0x3fb61042	1.4223711
183	0xbf2d5bc8	-0.6771817
184	0xc1b3851f	-22.44
185	0x3e296484	0.1654225
186	0x3e228ead	0.15874739
187	0xc21f3506	-39.80178
188	0xc06c8abd	-3.695968
189	0xbf9fa623	-1.2472576
190	0x3fb57b12	1.4178183
191	0xc0882f60	-4.255783
192	0xc00cd085	-2.200227
193	0x3fe94dab	1.8226827
194	0xc063164b	-3.5482357
195	0xc0684523	-3.6292198
196	0xbede6664	-0.43437493
197	0xbe174b02	-0.14774707
198	0xc06fec4e	-3.748798
199	0xc1267894	-10.404438
200	0x40a12172	5.0353327
201	0xc02269d2	-2.5377088
202	0x3dd2a394	0.10285106
203	0xc02af722	-2.6713338
204	0x3f7fbae3	0.9989454
205	0xc08816b1	-4.25277
206	0x400994ac	2.1496992
207	0xbeb9d4ee	-0.36295265
208	0xc03fc0cf	-2.996143
209	0x3d4f9da1	0.050687436
210	0x3e67b918	0.22629201
211	0x3f5e1425	0.8674949
212	0xbeffab7f	-0.4993553
213	0x3f6168f7	0.8805079
214	0x402be99e	2.6861339
215	0xbf67363a	-0.9031712
216	0x3ef924f2	0.48661
217	0x401896b6	2.3841987
218	0xbfcb96ba	-1.5905373
219	0xc0c4d895	-6.151438
220	0xbf31f046	-0.69507253
221	0x3d134bac	0.03596084
222	0xc0b0f483	-5.5298476
223	0xc12aa7bb	-10.66595
224	0x4003557f	2.0520933
225	0x3fd403a1	1.6563607
226	0xbe0d032f	-0.13770746
227	0x3e647af2	0.22312525
228	0xbea918d0	-0.33026743
229	0x3f5675df	0.83773607
230	0x40a160b9	5.043057
231	0xbeb1cc89	-0.3472636
232	0xc0c1a145	-6.050936
233	0xbcf32d3c	-0.029684655
234	0x3daa995a	0.08330031
235	0x4033908e	2.805698
236	0xc007bf5a	-2.1210542
237	0xbf988cf6	-1.1918018
238	0x3fc2e539	1.5226203
239	0xbff850fc	-1.9399714
240	0xbd806b59	-0.06270475
241	0xc1195f6e	-9.585798
242	0xbf5efd51	-0.8710528
243	0xc1497a3a	-12.59234
244	0xbf61e681	-0.88242346
245	0x3db0f87f	0.08641147
246	0x3eea25d0	0.45731974
247	0x3e36e157	0.17859398
248	0xbf5346fd	-0.82530195
249	0xc0c67764	-6.202074
250	0x3dddf8a0	0.10838437
251	0x3fdedf75	1.7411944
252	0xbfff3e3e	-1.994087
253	0x3fe9b815	1.8259302
254	0x405416ee	3.3138995
255	0x3e093c57	0.13401924

dense3.bias f4 [128]
0	0xbf73c1d9	-0.95217663
1	0x4018fd2f	2.390453
2	0x3f9a17a2	1.2038462
3	0xbe48a3ff	-0.1959381
4	0xc056d3ce	-3.3566775
5	0x404117d2	3.0170789
6	0x40556ae3	3.3346488
7	0x40a90b71	5.2826467
8	0x40230a04	2.5474863
9	0xbfe0b0bd	-1.7553936
10	0x3fe1cf70	1.764143
11	0x3e92c2ce	0.2866425
12	0xc05af778	-3.4213543
13	0xc0a6d0a4	-5.212969
14	0xbfe06414	-1.7530541
15	0x3fc7b9b6	1.560355
16	0x400c5368	2.1925907
17	0x40b5caa5	5.680987
18	0x40afcf58	5.4940605
19	0xbf8dd75b	-1.1081346
20	0x4062cab8	3.543623
21	0x40a820d7	5.254009
22	0xbf701a9f	-0.9379062
23	0xbf80265d	-1.0011708
24	0xbfb053c8	-1.3775568
25	0xbfa21684	-1.2663121
26	0xc03cb15b	-2.948325
27	0xbfa803c7	-1.3126153
28	0xbfef0828	-1.8674364
29	0xc039231a	-2.8927674
30	0xbeb6e4e8	-0.35721517
31	0xc0532a09	-3.2994406
32	0xc019872b	-2.398875
33	0x3f01b0bb	0.50660294
34	0x403f817b	2.9922779
35	0x40206660	2.5062485
36	0x3f9dec6d	1.2337776
37	0xbf2fc5c0	-0.6866112
38	0x408d8e21	4.4235997
39	0x3fe25d8c	1.7684798
40	0xbfdf1586	-1.7428443
41	0xbf994571	-1.1974317
42	0xbf1c48e7	-0.6104874
43	0xc0127266	-2.2882323
44	0x3fe51031	1.7895566
45	0x40541a8f	3.314121
46	0x40317be8	2.7731876
47	0x40477666	3.1166015
48	0x40287142	2.6319127
49	0x409540d4	4.6641636
50	0x3f9fcef6	1.2485034
51	0x409eb476	4.959529
52	0x40827b51	4.0775533
53	0xbf8a7449	-1.0816737
54	0xbfa9235a	-1.3213913
55	0x3ee41ef2	0.4455486
56	0x40b5a494	5.67634
57	0x3f74c319	0.95610195
58	0x3f3a09d7	0.72671264
59	0xc062907b	-3.5400684
60	0xc1005f7c	-8.023312
61	0xbe488087	-0.1958028
62	0xc065cc51	-3.5905955
63	0xc0e8b868	-7.2725105
64	0xc0e2797a	-7.0773287
65	0xc0b9801a	-5.7968874
66	0xc0a87385	-5.2641015
67	0x40175ef3	2.3651702
68	0x3f89eb6b	1.0774969
69	0xc00064b0	-2.0061455
70	0xc07ea550	-3.9788399
71	0x3d47df7e	0.048797123
72	0x404534b5	3.081342
73	0x3fcf83bc	1.6212077
74	0xbfbfe622	-1.4992106
75	0xbeef5ad5	-0.46748987
76	0xbf3c64c9	-0.73591286
77	0xc00c0613	-2.1878707
78	0xbee0043c	-0.4375323
79	0x4024c6c2	2.5746312
80	0x405d8586	3.4612746
81	0x40592fd1	3.3935435
82	0x400209fd	2.0318596
83	0x3f916b5b	1.1360887
84	0x3fb106fa	1.3830254
85	0x408afbcf	4.3432384
86	0x402575d5	2.585317
87	0x4050e5bc	3.2640219
88	0x40708efb	3.7587268
89	0x3fafc472	1.3731825
90	0x400a378c	2.1596403
91	0x3ebb3961	0.36567214
92	0x3f7e5e1a	0.9936234
93	0x3f914f15	1.1352259
94	0x40755b5a	3.8337007
95	0x3ffc29ae	1.970022
96	0x4093bce3	4.6168075
97	0xc0cf9180	-6.486511
98	0xc0d9bdeb	-6.8044333
99	0xc0acacff	-5.3961177
100	0xc06cc4d7	-3.6995142
101	0xc00f3314	-2.2374926
102	0x4098d116	4.775523
103	0x403ab1be	2.9170985
104	0xc0611d1a	-3.5174012
105	0xc00306cb	-2.0472896
106	0xbf39b5ba	-0.7254292
107	0xc0396169	-2.8965704
108	0xc0199d12	-2.4002118
109	0xc00075e3	-2.0071952
110	0xbfb19cc0	-1.3875961
111	0xc09aad77	-4.833675
112	0xc013b265	-2.3077633
113	0xc02ff7cb	-2.749499
114	0x40175f1d	2.3651803
115	0x4053e35c	3.310752
116	0x40a7fdde	5.2497396
117	0x40d39176	6.6115065
118	0x403b33af	2.9250295
119	0xbf439baa	-0.764094
120	0x3fbdf9c0	1.4841843
121	0x3f94f269	1.1636478
122	0x40067115	2.100652
123	0x402021b9	2.5020583
124	0x3e14d222	0.14533284
125	0x3facf14a	1.3511136
126	0x3f1ced9b	0.6130006
127	0xc0e05c1c	-7.011244
