Saved Models/O28B_ULA_AMCF_8_beam_probing_codebook_128_beam_classifier_noiseless.pt (torch, 17375 bytes, 6 tensors)

dense1.weight f4 [16, 8]
0	0x3f0028df	0.50062364
1	0x404fa122	3.2442098
2	0x3f47f768	0.78111887
3	0x411fe210	9.992691
4	0x410b6b33	8.713672
5	0x41e2cc61	28.349794
6	0x417f02c9	15.93818
7	0xc2816477	-64.69622
8	0xc242b337	-48.675014
9	0x3e973e31	0.29539636
10	0x3fd085a0	1.6290779
11	0x40c5860c	6.172613
12	0x40747a48	3.8199635
13	0x42032aa2	32.791634
14	0x4117b2b6	9.481131
15	0x40297630	2.6478386
16	0xc0b372c3	-5.607759
17	0x40053ef5	2.0819676
18	0x40271e42	2.6112218
19	0x41017a22	8.092318
20	0xc2aaa2a4	-85.31766
21	0xbfc572da	-1.5425675
22	0x40bc4310	5.8831863
23	0xc043978b	-3.0561244
24	0x3f7a8e0b	0.9787299
25	0xc11e58cd	-9.89668
26	0xc1cf6f7a	-25.929432
27	0x40b19e6a	5.5505877
28	0x3ddbad56	0.107264206
29	0xc2068922	-33.63392
30	0x40a774d2	5.2330103
31	0x3cde7263	0.027154153
32	0x40197850	2.3979683
33	0x4051447d	3.2698052
34	0xbf05b3bd	-0.52227384
35	0xc1056bcb	-8.338817
36	0x40719ddf	3.7752607
37	0x406694bf	3.6028287
38	0xc02b48de	-2.6763225
39	0xc0cd1418	-6.408703
40	0x3e91f4ff	0.2850723
41	0xc08dfb6b	-4.4369407
42	0xc2c3cbf6	-97.89836
43	0x408ab380	4.3344116
44	0xc10e3295	-8.887349
45	0x40951ff1	4.660149
46	0xc19f2333	-19.892187
47	0xc1b97ab0	-23.184906
48	0xbf8a49d3	-1.0803779
49	0xc21faa69	-39.916416
50	0x3efa4dbb	0.4888743
51	0xc10fbd36	-8.983694
52	0x3f8b3951	1.0876867
53	0xc2a6e5f2	-83.44911
54	0xc1a40631	-20.503023
55	0xc0168a1f	-2.3521802
56	0xbebc69c3	-0.3679944
57	0xc0d5fae2	-6.6868753
58	0x3f1e8124	0.619158
59	0x4092f4b7	4.5923724
60	0x4020f58b	2.5149868
61	0xc02affc8	-2.6718616
62	0x411055b6	9.0209255
63	0xc2a99fbe	-84.812
64	0xbed26334	-0.4109131
65	0xbfaa01c7	-1.3281792
66	0xc00773b5	-2.1164372
67	0xbfbcce16	-1.4750392
68	0x40221a11	2.532841
69	0xc29dc73a	-78.889114
70	0xc34ed3b8	-206.82703
71	0xbf98c6e4	-1.1935697
72	0xc0e5c87e	-7.180724
73	0xc3057bf8	-133.48425
74	0xc04e6cd6	-3.2253928
75	0xc17b7eaf	-15.718429
76	0x3f0883f4	0.53326344
77	0xbf115948	-0.5677686
78	0x405ca5ee	3.4476275
79	0xbd7748c8	-0.060372144
80	0xbdcfe4cd	-0.10151062
81	0xc2daa5be	-109.323715
82	0xc2d10670	-104.51257
83	0x409c72f1	4.889031
84	0x40a5dacd	5.182959
85	0x4007a8b8	2.1196728
86	0x3f391558	0.7229819
87	0xbfd839c3	-1.6892627
88	0xc31fefb9	-159.93642
89	0xc313bc9b	-147.73674
90	0x3eb6409d	0.3559617
91	0x3f87d3c8	1.0611506
92	0xc05bdd95	-3.4353993
93	0xc38cedaf	-281.8569
94	0x3fde8990	1.7385731
95	0xbd50d3dc	-0.050983295
96	0x3e24dbdd	0.16099496
97	0xbf2038f6	-0.62586915
98	0xc2fa3632	-125.10585
99	0xc3508993	-208.5374
100	0xc0de70da	-6.951276
101	0x404847b5	3.1293766
102	0x3fabb114	1.3413415
103	0x3d362542	0.044469126
104	0x3fc58b00	1.5433044
105	0x4076e2ce	3.857593
106	0xbf02ad77	-0.51045936
107	0x3fc358b9	1.5261451
108	0x40320fbf	2.782211
109	0xc2614e39	-56.32639
110	0xc29672a4	-75.22391
111	0x3f81ac85	1.0130774
112	0xc02ad9be	-2.66954
113	0xbb92dd8e	-0.004481978
114	0xbf3e975b	-0.744497
115	0xc0e0ebd8	-7.0287895
116	0xc33f9613	-191.58623
117	0xc2c7c164	-99.877716
118	0xc14ca7f6	-12.791006
119	0x3f697a38	0.91202116
120	0xbf6370bb	-0.8884389
121	0xc282c2ea	-65.38069
122	0xc2a278b7	-81.23577
123	0xc2d06b2d	-104.20933
124	0x3f9355f7	1.1510609
125	0x40d5615c	6.6681347
126	0x400b6f84	2.1786814
127	0x40025004	2.0361338

dense1.bias f4 [16]
0	0x3d10c9c4	0.03534867
1	0x3d00cee5	0.03144731
2	0x3e46dafa	0.1941947
3	0x3e5b5bb0	0.21421695
4	0x3e32adb5	0.17449076
5	0x3e60b210	0.21942925
6	0x3e823208	0.25428796
7	0x3dcaecde	0.0990846
8	0x3e41e6ae	0.18935654
9	0x3e10c2fe	0.14136884
10	0x3e3dced3	0.18535928
11	0x3d3b5e3d	0.04574417
12	0x3e04065f	0.12893055
13	0x3e483754	0.19552356
14	0x3e951708	0.29119134
15	0x3d3d5054	0.046219185

dense2.weight f4 [24, 16]
0	0xc0576be4	-3.3659601
1	0xbefda9fb	-0.49543747
2	0x3f924034	1.1425843
3	0x3dbce47e	0.09223269
4	0xc02ff952	-2.7495923
5	0x4082b415	4.0844827
6	0xbf72a4da	-0.94782794
7	0xc064b81c	-3.5737371
8	0xc0a2aaba	-5.0833406
9	0x3dd98c83	0.106225036
10	0xbf4142e9	-0.7549272
11	0xc0552098	-3.3301144
12	0x408b8b2d	4.360739
13	0x408f7c69	4.483937
14	0x40d6d1ae	6.7130957
15	0xc0bf50c0	-5.978607
16	0xbf02f75f	-0.5115871
17	0x3d5ac47b	0.053410035
18	0xbe366e8c	-0.17815608
19	0xbd834800	-0.06410217
20	0xbe645b1e	-0.22300383
21	0xbe0ccef1	-0.13750817
22	0xbe012ca8	-0.12614691
23	0xbe9639c6	-0.29340953
24	0x3e63acc4	0.22233874
25	0xbe0e5ef4	-0.13903409
26	0x3cc75440	0.024332166
27	0xbef73cbc	-0.48288524
28	0x3cecb5aa	0.028895218
29	0xbea4dcc8	-0.32199693
30	0xbe9891cd	-0.29798737
31	0xbe41a232	-0.18909529
32	0xbf95219e	-1.1650884
33	0xbd8b9dd7	-0.06817215
34	0xbffcf8bc	-1.9763408
35	0x40249ec6	2.5721908
36	0x3fb1f69a	1.3903382
37	0x3fb64315	1.4239222
38	0x401d196f	2.4546773
39	0xc0d7efb6	-6.7480116
40	0x40381431	2.8762324
41	0xbd09e21c	-0.0336629
42	0x4055bd6f	3.339687
43	0x404025b9	3.0023024
44	0x4084fab9	4.155606
45	0xc01542ec	-2.3322096
46	0x3af377e7	0.0018575162
47	0x3e409fbb	0.18810932
48	0xc004d0f5	-2.0752537
49	0x3eb44170	0.35206175
50	0xbecc60df	-0.39917657
51	0x3f26d202	0.65164196
52	0xbf616311	-0.8804179
53	0x401a36a0	2.409584
54	0xbfe4730d	-1.7847611
55	0xbe7c22b0	-0.24622607
56	0xc10c14be	-8.755064
57	0xbe9ac243	-0.30226335
58	0xbfc3e61b	-1.5304598
59	0xc0ac2fa5	-5.380816
60	0x402347df	2.5512617
61	0xc0008c1f	-2.0085523
62	0x40662c20	3.5964432
63	0x3e9e67dd	0.30938616
64	0x3f217add	0.630781
65	0x3e98fc41	0.29879954
66	0xbf060f48	-0.5236707
67	0xbf962960	-1.1731377
68	0xbf9bef48	-1.2182398
69	0xc044ea54	-3.0768023
70	0xbf527118	-0.8220382
71	0xc0984f68	-4.759693
72	0xc09403ed	-4.625479
73	0xc09be53d	-4.871733
74	0xc002861f	-2.039436
75	0x40b98111	5.797005
76	0x3f811f26	1.0087631
77	0x3f779cbe	0.96723545
78	0x3e6a95a8	0.22908652
79	0xbf794fac	-0.97387195
80	0xbdb22357	-0.08698147
81	0xbea4b846	-0.3217184
82	0x3cd927c2	0.026508216
83	0x3c70e9bc	0.014704164
84	0xbe64bbaa	-0.22337213
85	0xbe7977b8	-0.24362075
86	0xbc0fd932	-0.008779811
87	0xbd7a4a6d	-0.061106134
88	0x3e330aa6	0.17484531
89	0x3d186f31	0.037215415
90	0xbe4482c3	-0.19190507
91	0x3d93fc7f	0.07225894
92	0xbe9a2fca	-0.30114585
93	0xbe35b45a	-0.1774458
94	0x3d1409ad	0.03614204
95	0xbe87c4fc	-0.26517475
96	0xbdfad408	-0.12247473
97	0xbd12f21c	-0.035875425
98	0x3bef6b12	0.007306465
99	0x3c61c7b0	0.013780519
100	0xbdabc212	-0.08386625
101	0xbeb56e22	-0.35435587
102	0xbea82b8e	-0.3284573
103	0xbd9102db	-0.07080623
104	0x3d11ebce	0.03562527
105	0xbe7ade09	-0.24498762
106	0x3e133b32	0.1437805
107	0x3c9e47da	0.01932137
108	0xbebadf1e	-0.3649835
109	0xbddd5826	-0.108078286
110	0x3e8b511e	0.27210325
111	0xbe758b92	-0.23979023
112	0xbe9b8e9e	-0.30382246
113	0xbe1d45a8	-0.15358603
114	0xbdf8d32c	-0.12149653
115	0xbd70c421	-0.058780793
116	0xbe4b24ae	-0.19838211
117	0x3dca8ea4	0.09890488
118	0x3c5c2740	0.013437092
119	0xbeeb26aa	-0.45927936
120	0xbe5515f2	-0.20809153
121	0xbe9b6fb2	-0.30358654
122	0x3dc2604c	0.094910234
123	0xbeaf3835	-0.3422257
124	0xbe80b268	-0.25136113
125	0xbe38c5a7	-0.18044148
126	0xbe7a9e9d	-0.24474569
127	0xbe621e6d	-0.22081919
128	0xc018e405	-2.3889172
129	0xc024fc6a	-2.5779061
130	0xc0338e2f	-2.8055532
131	0xbee09ad9	-0.4386814
132	0xbea48c16	-0.32138127
133	0x3e2972be	0.16547677
134	0xbf045043	-0.5168497
135	0xc0712c41	-3.768326
136	0x3e561893	0.20907812
137	0xc0023dd5	-2.035024
138	0x3f58a197	0.84621567
139	0xc11d21ec	-9.820782
140	0x40868733	4.204004
141	0x40049e95	2.072179
142	0x3f8ee36b	1.1163152
143	0xbe8f865c	-0.28032196
144	0xc0855439	-4.166531
145	0x401a48ba	2.4106889
146	0x3e979999	0.29609373
147	0x3d0e445d	0.034733165
148	0xbff94e29	-1.9476978
149	0xc0998d7a	-4.79852
150	0x3ebd5108	0.36975884
151	0xc0c3cc32	-6.118676
152	0x4095e651	4.684365
153	0x402d9621	2.7122881
154	0x3e29e7fe	0.16592404
155	0x41aab8e3	21.340277
156	0x40383ed3	2.8788345
157	0x40289970	2.634365
158	0xbf3a4790	-0.72765446
159	0xbf6c35e7	-0.9226975
160	0xc0084413	-2.129155
161	0xc082560d	-4.0730042
162	0x3c8f423a	0.017487634
163	0x40034dcd	2.0516236
164	0xbe8a7009	-0.270386
165	0x3f655d8b	0.8959586
166	0xc0057b70	-2.085659
167	0xbfaf1041	-1.3676835
168	0x408540e9	4.1641736
169	0x3f00130c	0.50029063
170	0x4084f639	4.1550565
171	0xc16855ce	-14.520948
172	0x3f14c4be	0.58112705
173	0xbe8c2703	-0.27373514
174	0xc0917ff8	-4.546871
175	0x40c5cd4c	6.1813107
176	0x3eed66ca	0.46367484
177	0xc1d011d5	-26.008707
178	0xbfff4b8c	-1.994493
179	0x3f496041	0.78662497
180	0x3ee2a963	0.44269857
181	0x404a43ac	3.1603804
182	0x3f0935d0	0.53597736
183	0x403873a9	2.8820593
184	0x402f2352	2.7365308
185	0xbf8d42a4	-1.1035962
186	0x3e981457	0.29703018
187	0xc191be3b	-18.217886
188	0x3fdb7e30	1.7147884
189	0x3e1c416e	0.15259334
190	0xbddbbb09	-0.107290335
191	0xbead6702	-0.3386765
192	0xbe88e2e4	-0.26735604
193	0xbd239eb6	-0.03994628
194	0xbd770bb5	-0.0603139
195	0xbec91c2e	-0.39279312
196	0xbd906afb	-0.07051655
197	0x3cb203da	0.021730352
198	0xbd26dc55	-0.04073747
199	0xbf070e43	-0.52756137
200	0x3c350697	0.011048934
201	0xbe9ca64a	-0.30595618
202	0xbd299269	-0.041399393
203	0x3de814f6	0.11332123
204	0xbcbc75f4	-0.023005463
205	0xbf2e18d0	-0.6800661
206	0xbd7a0b65	-0.061046023
207	0xbe8fd88c	-0.280949
208	0xbf9c779a	-1.2224
209	0x3edb183c	0.42791927
210	0xbfb3f332	-1.4058592
211	0xbe292902	-0.1651955
212	0xc0909231	-4.5178456
213	0x3fd02c7b	1.6263574
214	0xbfa9aef4	-1.3256516
215	0x40253799	2.5815184
216	0x40cae099	6.3399167
217	0xbe954db5	-0.29160848
218	0xc05051ba	-3.2549882
219	0x40aa1564	5.315111
220	0xc0206b32	-2.5065427
221	0x40ab7d86	5.3590727
222	0x40844204	4.1330585
223	0xc0c54856	-6.16508
224	0xc0ffea81	-7.997376
225	0xbe8706f2	-0.26372486
226	0xc054490b	-3.3169582
227	0x3f8ddfcc	1.1083922
228	0xbf974878	-1.1818991
229	0xbfe5d20f	-1.795473
230	0x3fac5a87	1.3465127
231	0xc0c72d7e	-6.2243032
232	0x4114f7c5	9.310491
233	0xbffa68a4	-1.9563184
234	0xc004482a	-2.0669045
235	0xc08e65be	-4.4499197
236	0xc083707f	-4.1074824
237	0x3fd899ab	1.6921896
238	0x3ff27ed7	1.8944958
239	0xc096152d	-4.690085
240	0xc09a69ec	-4.82543
241	0xc18c8469	-17.564653
242	0x3f3dc1ee	0.7412404
243	0x3e8356d5	0.25652185
244	0x3e3a9bee	0.18223545
245	0x408c1dff	4.3786616
246	0x3f111951	0.56679255
247	0xc0f2f0af	-7.5918803
248	0x3fbe34cb	1.4859861
249	0x40413dad	3.0193894
250	0x3dab921d	0.08377478
251	0xc05e1220	-3.4698563
252	0x3f8cd647	1.1002892
253	0xbe36c50b	-0.17848603
254	0xbfa55f6f	-1.2919749
255	0xbebfbc80	-0.37448502

dense2.bias f4 [24]
0	0xbf79c275	-0.9756234
1	0xbf3ca8cf	-0.7369508
2	0xbefad6e9	-0.48992088
3	0x3fb11cfd	1.3836972
4	0x3f5685f2	0.83798134
5	0xbc5986b3	-0.013276744
6	0xbeee52af	-0.46547458
7	0xbf10176c	-0.5628574
8	0x3f89fc56	1.0780132
9	0xbe7025b2	-0.2345188
10	0x3f2611f5	0.6487115
11	0x3d9fae24	0.077968866
12	0xbe9f315d	-0.3109235
13	0xbf3af1a1	-0.73024946
14	0x3f677aa9	0.9042154
15	0x3e683a9b	0.22678606
16	0xbd3cdb84	-0.046107784
17	0x3f7c1677	0.9847178
18	0xbea37c96	-0.3193099
19	0x3cfd992f	0.030956833
20	0x3ed79d43	0.4211217
21	0x3f1a62e9	0.60307175
22	0x3fc6db7b	1.553573
23	0x3de348e1	0.11097885

dense3.weight f4 [128, 24]
0	0x3fac16dc	1.3444476
1	0x3d57176a	0.052512564
2	0xbeae0011	-0.33984426
3	0xbfb12ff2	-1.3842757
4	0xc023e983	-2.5611274
5	0x3a33062d	0.00068292284
6	0xbe31b671	-0.17354752
7	0xbe595875	-0.2122515
8	0xbde1c151	-0.110232
9	0x3e5e071f	0.21682404
10	0xbd2b141c	-0.041767225
11	0xbfbaa344	-1.4581075
12	0xbdb1cb9d	-0.08681414
13	0xbcc97945	-0.024593959
14	0xbdb0a214	-0.08624664
15	0x3f91722e	1.136297
16	0xbd02f3b8	-0.03197071
17	0xc0b1fedf	-5.562362
18	0xbe5160c8	-0.20447075
19	0x3d9d8fd3	0.07693448
20	0x40050489	2.0784018
21	0xc0285244	-2.630021
22	0x403ff01b	2.9990299
23	0x3fc528b2	1.5403044
24	0x3eda1ba1	0.42599204
25	0xbe21beb1	-0.15795399
26	0xbf417548	-0.7556958
27	0x3f740790	0.9532404
28	0xc0835b74	-4.1049137
29	0xbddd5aa7	-0.10808306
30	0xbee018b9	-0.43768862
31	0xbe84ebe8	-0.25961232
32	0xbeedeebb	-0.464712
33	0xbeba76de	-0.36418813
34	0x3f895a7e	1.0730741
35	0xc0cc8b45	-6.3920007
36	0xbda2064f	-0.079113595
37	0x3fdf8e66	1.7465332
38	0x3fa981d1	1.3242742
39	0x40a33933	5.1007323
40	0xbcd426e1	-0.025897445
41	0xc076cd85	-3.856294
42	0xbe8245e4	-0.25443947
43	0xbe588515	-0.21144517
44	0x3f34ebe8	0.70672464
45	0x3f09d65b	0.53842705
46	0x3feafc52	1.8358252
47	0x3f718768	0.9434724
48	0x3fa2c9b7	1.2717808
49	0xbe5a48db	-0.21316855
50	0xc07d1b68	-3.9547977
51	0x3f89e06b	1.0771612
52	0xc0a7e0bb	-5.246183
53	0x3e167bd9	0.14695682
54	0xbf147ce5	-0.58003074
55	0xbea28221	-0.31739905
56	0xbf988d94	-1.1918206
57	0xbfb39763	-1.4030575
58	0x3f5a30c1	0.8523064
59	0x402471af	2.5694387
60	0xbe10830f	-0.14112495
61	0xc00d0922	-2.2036824
62	0x400894ec	2.1340895
63	0x3ec07637	0.3759019
64	0x3ddbd87f	0.10734653
65	0x4009b842	2.1518712
66	0xbce8cdff	-0.02841854
67	0xc0d6d513	-6.71351
68	0x401cbbae	2.448955
69	0xc04cd3cc	-3.200427
70	0xc02bf10a	-2.6865869
71	0x4001a18f	2.0254858
72	0x3fd6d3d5	1.6783396
73	0xbd37bd81	-0.04485846
74	0xc0011382	-2.0168157
75	0xbf3f9c36	-0.74847734
76	0xc05a05bc	-3.4066
77	0x3e038cab	0.1284663
78	0xbf049808	-0.5179448
79	0xbe57b187	-0.21063815
80	0xbf98f4a9	-1.1949664
81	0x3de06e63	0.109585546
82	0x3f97062d	1.179876
83	0x400c26a3	2.1898582
84	0xbcea5205	-0.028603563
85	0xc08df54d	-4.436194
86	0x3f444c62	0.7667905
87	0xc012af53	-2.291951
88	0x3dd04776	0.1016988
89	0xbe359133	-0.1773117
90	0xbdc871f3	-0.09787359
91	0xc093fee8	-4.6248665
92	0x3ff119c9	1.8835994
93	0xc0854d22	-4.1656656
94	0x3f083d70	0.53218746
95	0x403075c6	2.7571883
96	0x3eeed56e	0.4664721
97	0xbb799b5e	-0.003808699
98	0xc01ad1f3	-2.4190643
99	0x3fc66d84	1.5502172
100	0xc0a9b596	-5.3034163
101	0xbd9c9d67	-0.076472096
102	0xbf229d2b	-0.6352107
103	0xbd20896b	-0.039193552
104	0xbeb43650	-0.35197687
105	0x3f1572d3	0.5837833
106	0x40156b38	2.334669
107	0x40953ce4	4.663683
108	0xbd623571	-0.055226747
109	0xc030c262	-2.7618642
110	0x3db501cc	0.08838233
111	0xbfc37069	-1.526868
112	0xbdb636b3	-0.08897152
113	0x3f94cc03	1.162476
114	0xbe56a071	-0.20959641
115	0xc0d2f626	-6.5925474
116	0x3f22356c	0.63362765
117	0xc0328dcf	-2.7899053
118	0xbe60062f	-0.21877359
119	0x3fb8f60f	1.4450091
120	0x3e8c10d4	0.2735659
121	0xbd3bf9e9	-0.04589263
122	0xc05a34d1	-3.4094737
123	0x3fe7b5ad	1.8102318
124	0xc09776e7	-4.7332644
125	0xbdee8e62	-0.11648251
126	0xbed83b7c	-0.42232883
127	0xbdcb3359	-0.09921903
128	0xbd607536	-0.05479928
129	0x3f4ddd4b	0.8041579
130	0x4021992a	2.5249734
131	0x406e419c	3.7227545
132	0xbd715e05	-0.058927555
133	0xc08ea7db	-4.45799
134	0x3eee1434	0.4649979
135	0x3f02e4ea	0.51130545
136	0x3e14ab4c	0.1451847
137	0x3f488670	0.78330135
138	0xbe9568d3	-0.29181537
139	0xc0f73259	-7.724896
140	0x3fe84bf4	1.8148179
141	0xc08ff5c8	-4.4987526
142	0xbf8c7495	-1.0973078
143	0x3fbcce4e	1.4750459
144	0x3e9fb72e	0.31194443
145	0xbea1d1b8	-0.31605315
146	0x3f84a196	1.0361812
147	0x3fe9b196	1.825732
148	0xc0091a02	-2.1422124
149	0xbdecafdd	-0.11556981
150	0xbedbc880	-0.42926407
151	0xbdf05412	-0.11734785
152	0xbedf249c	-0.43582618
153	0x3f651b2c	0.89494586
154	0x404d6889	3.2095053
155	0x3f208198	0.62697744
156	0x3d9c24c5	0.07624201
157	0xbecdedc6	-0.4022047
158	0xbfb12107	-1.3838204
159	0x4002e242	2.0450597
160	0x3e118b17	0.14213215
161	0xbeb0855f	-0.34476754
162	0x3b705c72	0.0036676195
163	0xc1009d73	-8.03844
164	0xbfa5658c	-1.2921615
165	0xbd12434d	-0.035708714
166	0x3fe761df	1.8076743
167	0x3f6c9324	0.9241202
168	0xbf2ca860	-0.6744442
169	0xbe71612e	-0.23572227
170	0x3edbbceb	0.4291757
171	0x401c72e3	2.4445121
172	0xc0255e38	-2.5838757
173	0xbe21fbe9	-0.15818752
174	0xbf286411	-0.6577769
175	0xbe99f5ec	-0.30070436
176	0xbe271261	-0.16315605
177	0x3f90e1e9	1.1318942
178	0x401b27be	2.4243007
179	0x400baa71	2.182278
180	0x3c8b4cf9	0.017004477
181	0xbfc85c63	-1.5653194
182	0xbf243ce4	-0.6415541
183	0x3fd8c3be	1.6934736
184	0xbe1f4726	-0.15554485
185	0xbf2f5a51	-0.68497187
186	0x3d576231	0.052583877
187	0xc10273d7	-8.153281
188	0xbe9b7440	-0.3036213
189	0xbe8dfa92	-0.27730232
190	0x3f682a1b	0.9068925
191	0xbdef65a4	-0.11689308
192	0xbf050406	-0.51959264
193	0xbe936bbe	-0.28793138
194	0x400edbe8	2.232172
195	0x3f739e27	0.95163196
196	0xbfbe65fa	-1.4874871
197	0x3ddddf11	0.10833562
198	0xbec9424a	-0.39308387
199	0xbd415ee6	-0.047209643
200	0xbf07f580	-0.5310898
201	0x3ea05bc4	0.31320012
202	0x4042b961	3.0425646
203	0x3ce0b418	0.027429625
204	0x3c19a57f	0.009377836
205	0xbfbf8514	-1.4962487
206	0xbeb44e1d	-0.35215846
207	0x3f0bb498	0.5457244
208	0x3dd8bd97	0.105830364
209	0x3f470de5	0.77755576
210	0x3c1d78b9	0.009611302
211	0xc0ac0425	-5.375506
212	0xbfb8706a	-1.4409306
213	0x3e2de78c	0.1698286
214	0x3f8a27dc	1.0793414
215	0x3fb8d42a	1.4439747
216	0xbf88a9ae	-1.0676782
217	0xbe970edf	-0.29503533
218	0x3edd72ba	0.43251592
219	0xbf8b847c	-1.0899806
220	0xc0914744	-4.5399494
221	0xbe05c19d	-0.13062139
222	0xbe981432	-0.29702908
223	0x3e8a661d	0.2703103
224	0x3f14b83d	0.58093625
225	0x3f63b389	0.88945824
226	0x3ff26111	1.8935872
227	0x3f6663ce	0.8999604
228	0xbcdb38c2	-0.026760463
229	0x3ec0be5f	0.37645242
230	0xbfd63abd	-1.6736676
231	0x4005d695	2.091222
232	0x3e4fb710	0.20284677
233	0x3f7f3474	0.9968941
234	0xbe7555bf	-0.23958491
235	0xc1030142	-8.187807
236	0xbf214938	-0.6300235
237	0xbefb4297	-0.49074242
238	0x4000abc8	2.0104847
239	0x400bb660	2.1830063
240	0xbe889a21	-0.2668009
241	0xbe3fc8cf	-0.18728946
242	0x3fb4ce05	1.4125372
243	0xbf315b78	-0.69280195
244	0xc058d4af	-3.3879812
245	0xbe5115d2	-0.2041848
246	0xbecc9dd3	-0.3996416
247	0xbd9ca89a	-0.07649346
248	0x3cdab23c	0.026696317
249	0x3f65b4c7	0.8972897
250	0x40126a70	2.2877464
251	0x3ea1184d	0.31463853
252	0x3e526bca	0.20548931
253	0xbeaacc39	-0.33358935
254	0xbfafc586	-1.3732154
255	0x3fa671f0	1.3003521

dense3.bias f4 [128]
0	0x3f73c3ba	0.9522053
1	0xc0358034	-2.83595
2	0x3ff25ea4	1.8935132
3	0x3fbfe6be	1.4992292
4	0xbfe1a813	-1.7629417
5	0xbff22128	-1.8916368
6	0xc0bc689e	-5.8877707
7	0xc088dc98	-4.276928
8	0xc0903e9b	-4.5076423
9	0xbfebe151	-1.8428136
10	0xc03c1bd7	-2.9391992
11	0xbfcd3837	-1.603278
12	0xc01cce70	-2.4501
13	0xc04bf247	-3.1866624
14	0x3eb5f7ff	0.35540769
15	0x40219906	2.5249648
16	0x40797533	3.8977783
17	0x409d0c45	4.9077477
18	0x4083708d	4.107489
19	0x403ecc3d	2.9812157
20	0x3fca171a	1.57883
21	0x3f45d616	0.77279794
22	0x40012cd9	2.0183623
23	0x401847bb	2.379378
24	0x3fe3362b	1.7750906
25	0x404ec2a8	3.2306309
26	0x3fbdced9	1.482875
27	0x3f503eee	0.81346023
28	0x3fc01f54	1.500956
29	0x3fcb0d11	1.5863363
30	0xbe61bf1a	-0.22045556
31	0x3f987146	1.1909568
32	0xc06da972	-3.7134671
33	0xbedb6fc4	-0.42858708
34	0x3f608296	0.8769926
35	0x3f85b6bd	1.0446392
36	0x3f18fcc9	0.5976072
37	0xbdcc5aec	-0.099782795
38	0x3fc6d921	1.5535012
39	0x3fd8d1e0	1.6939049
40	0x3e81ee9c	0.25377357
41	0x3d984ec4	0.07436898
42	0xbf264c07	-0.6495976
43	0x3f0ce6c8	0.55039644
44	0xbfb9392c	-1.4470572
45	0xbe29eb6b	-0.16593711
46	0x3f505802	0.8138429
47	0x3f0ffc26	0.56244123
48	0x408f1bcc	4.472143
49	0x406debf1	3.7175257
50	0x408f34ac	4.4751797
51	0x408461d0	4.13694
52	0x40913076	4.5371656
53	0x4074a468	3.8225346
54	0x4089dc9e	4.308181
55	0x4092255a	4.5670595
56	0x40984f00	4.7596436
57	0x40526bf3	3.2878387
58	0x409ff7da	4.9990053
59	0x4088227b	4.254209
60	0x40a98b85	5.298281
61	0x40793c80	3.8943176
62	0x409f6ae0	4.9817963
63	0x4094811e	4.6407614
64	0x409a6283	4.8245254
65	0x40003f8c	2.0038786
66	0x40793f72	3.8944974
67	0x4040417f	3.0039976
68	0x3ffa2c46	1.9544761
69	0x3fbe6be4	1.4876676
70	0xbf6cfbe1	-0.92571837
71	0x4008cfed	2.1376908
72	0x3ed0ac54	0.40756476
73	0xc028a78b	-2.635226
74	0xbf064e04	-0.5246279
75	0x3e6dc958	0.23221338
76	0x3fb4b26a	1.4116948
77	0x408146e6	4.0399046
78	0x408799d1	4.2375264
79	0x40818c76	4.048396
80	0x403605ac	2.8440962
81	0x40374425	2.8635342
82	0x405ab061	3.4170153
83	0x40240a0f	2.563114
84	0x3fd50dd5	1.6644846
85	0xc0168d01	-2.3523562
86	0xbf3ece40	-0.7453346
87	0x3fd49d62	1.661053
88	0x401b5b86	2.4274611
89	0xbede2c61	-0.43393233
90	0x3fd1a3f6	1.6378162
91	0x3f1c130d	0.6096657
92	0x3fba220a	1.4541638
93	0x3fab33a7	1.3375138
94	0xbf7b44f7	-0.98152107
95	0x3f307dcf	0.6894197
96	0x400fb85c	2.2456274
97	0x400e0230	2.2188835
98	0x3f4821a9	0.7817636
99	0xbf17a27b	-0.592323
100	0xbe56cf00	-0.20977402
101	0xbe678513	-0.22609358
102	0x3f2320ab	0.6372172
103	0xbdfcd986	-0.12346177
104	0x40049b2e	2.0719714
105	0xbfa8e576	-1.3195026
106	0x3e198f71	0.14996125
107	0x3f35005a	0.7070366
108	0xc0250356	-2.5783286
109	0xbf91d701	-1.1393739
110	0x3dadd377	0.08487599
111	0xbfc49e8f	-1.5360888
112	0xc08fea0c	-4.49732
113	0xc082c064	-4.085985
114	0xbff759b6	-1.9324253
115	0xc01a58b8	-2.411665
116	0xbf8d57a5	-1.1042372
117	0xc013aa2e	-2.307262
118	0xbe8d2904	-0.27570355
119	0x3f5fc3d1	0.8740817
120	0x4009d7a4	2.1537867
121	0x3f85d61f	1.045597
122	0x3ed7c258	0.4214046
123	0x3f8b77a6	1.0895889
124	0x3edce53b	0.4314364
125	0x4035f5bf	2.8431242
126	0xbfe0ecf8	-1.7572317
127	0x3f138d1f	0.5763721
