Saved Models/Rosslyn_ULA_AMCF_2_beam_probing_codebook_128_beam_classifier.pt (torch, 6047 bytes, 6 tensors)

dense1.weight f4 [4, 2]
000000 46 61 7c bf eb fb db bf 73 63 24 bf 14 c3 4e be
       -0.9858593 -1.7186254 -0.6421425 -0.20191604
000010 79 00 c8 3e f6 3e f0 c1 a0 b8 46 41 54 06 a4 be
       0.3906286 -30.030743 12.420074 -0.32036078

dense1.bias f4 [4]
000000 9d c4 d9 3f c0 b0 9e bc a3 b1 cb 3d 31 36 4a 3e
       1.7013127 -0.01937139 0.09945991 0.19747235

dense2.weight f4 [6, 4]
000000 8a 55 af 3f c4 a0 b7 3e ac 23 ea 40 21 3e 0a 3d
       1.369798 0.35864842 7.3168545 0.033750657
000010 a4 98 85 3e 48 9a e8 3d 7e 06 0f 40 51 ad c9 3f
       0.26093018 0.11357552 2.2347713 1.5756017
000020 ce d5 24 40 cc 42 4f 3e e1 25 25 41 eb 0d 23 bf
       2.5755496 0.20240325 10.321748 -0.6369311
000030 6e de db 3f b0 18 41 be 27 bc 00 c1 74 c4 58 c1
       1.7177255 -0.18857074 -8.045936 -13.547962
000040 42 ab fc 3f 16 8c b6 3e f5 f6 b2 c0 39 78 62 be
       1.9739764 0.35653752 -5.592646 -0.22116174
000050 b7 e0 de 3d 32 ce ef be ad 71 17 bf 25 e0 af be
       0.10882705 -0.46837002 -0.5915783 -0.34350696

dense2.bias f4 [6]
000000 51 2e be bf 52 cb 96 3e b7 4a 4b c0 aa f3 91 40
       -1.4857885 0.29451996 -3.1764352 4.560994
000010 d9 41 89 bf 2a 23 12 bf
       -1.072322 -0.57084906

dense3.weight f4 [128, 6]
000000 b9 c2 7c bf c6 32 91 c0 ff 7e 93 bf 30 69 52 c0
       -0.98734623 -4.537448 -1.1523131 -3.2876701
000010 b2 36 4b bf 47 90 a9 be a8 37 ec 3d a1 92 10 c0
       -0.79380333 -0.33117887 0.11534053 -2.2589495
000020 ae 09 e3 c0 ad 94 2f bf 4f 9b 68 40 77 e0 04 bf
       -7.0949316 -0.68586236 3.6344793 -0.51905006
000030 d7 14 0f c0 c3 77 1b bf ae 2b 8a c0 65 7b 61 3e
       -2.235647 -0.60729617 -4.317832 0.22019728
000040 11 47 00 40 66 7a 2b bf ea bc 62 c0 1c cc c5 bf
       2.0043375 -0.6698364 -3.5427804 -1.5452914
000050 22 70 c0 c0 c8 89 d7 be 50 42 4a 40 09 44 df 3c
       -6.013688 -0.42097306 3.1602974 0.027254121
000060 a2 fb 79 c0 82 ef 04 bf e7 8e 86 c0 d6 58 0b 3f
       -3.9059834 -0.5192796 -4.204944 0.5443243
000070 ca c8 99 3f 24 f7 78 3e 5d c7 a3 c0 54 67 1f 3e
       1.2014401 0.24313027 -5.1180863 0.1556676
000080 07 84 44 c0 cd 9c 28 3f 10 98 a6 be 18 e6 3d bf
       -3.0705583 0.6586426 -0.3253789 -0.7417922
000090 c4 b5 37 c0 42 6b 3c bf 06 73 6c c0 0a ef 60 3f
       -2.870469 -0.7360116 -3.6945205 0.87864745
0000a0 34 9d ba be 94 6e 32 3e 9f 04 4b c0 5f fb de be
       -0.3644806 0.17424995 -3.172157 -0.43551156
0000b0 fc d1 59 c0 90 05 30 3e c3 75 9b bf 9a dc e8 3e
       -3.4034414 0.17189622 -1.2145313 0.45480806
0000c0 25 2d ef bf 13 79 79 be dc 2e 63 c0 d7 b1 3b 3f
       -1.8685652 -0.24362592 -3.549735 0.7331824
0000d0 32 2f 09 c0 78 fc c5 3e 88 7a fd bf 18 83 7c bf
       -2.1435056 0.3866918 -1.9803019 -0.98637533
0000e0 30 55 65 c0 98 e2 73 be f2 9f ec bf c7 62 93 be
       -3.5833244 -0.23816907 -1.8486311 -0.287863
0000f0 d4 7a 97 bf 3d a2 a2 c0 6f 71 35 c0 d4 e3 da 3f
       -1.1834359 -5.0823045 -2.8350484 1.7100778
000100 d4 2d b3 bf 0e ae e1 3e d6 c6 a8 bf c3 bb d0 c0
       -1.3998361 0.44078106 -1.318568 -6.52292
000110 81 51 66 c0 4c e2 d9 3f 32 83 83 bf af 7e a9 3d
       -3.5987246 1.7022185 -1.0274413 0.08276116
000120 21 49 f4 3f 88 eb d9 c0 7b e4 eb c0 e5 de e1 3f
       1.9084817 -6.8100014 -7.3716407 1.7646147
000130 b1 26 e3 bf 3f 20 49 3e f6 62 68 bd 1c 9c e8 bf
       -1.7746183 0.19641207 -0.056735 -1.8172641
000140 3f f7 97 c0 d3 3f 51 3f c5 a7 25 c0 ec 65 29 bf
       -4.7489314 0.81738013 -2.5883648 -0.66171145
000150 19 60 31 c0 91 55 cb c0 3b 23 16 c0 87 64 e3 3f
       -2.7714903 -6.354195 -2.3459003 1.7765054
000160 7d 72 44 bf c4 23 36 ba d9 54 14 be 0a d7 da c0
       -0.76737195 -0.00069480785 -0.14485492 -6.83875
000170 3d b8 74 c0 4b a0 f2 3f 11 9a b9 bc b0 c9 a7 3d
       -3.823745 1.8955168 -0.022656472 0.08192766
000180 4f 3f a4 bf 88 3e c0 c0 ce 28 50 c0 ed 1c d2 3f
       -1.283182 -6.007633 -3.2524905 1.6415077
000190 2d 10 83 3e cb e7 0c 3f d1 a5 5d 3f 3b c9 d7 c0
       0.2559828 0.5504119 0.8658114 -6.7433143
0001a0 eb 7e 91 c0 c0 2e de 3f 05 3a 94 bf 79 b6 fa bd
       -4.546743 1.7358017 -1.1580206 -0.12241835
0001b0 80 44 c1 bf 9f 62 d1 c0 c5 2d f9 bf 9d 7c f6 3f
       -1.509903 -6.5432887 -1.9467093 1.9256779
0001c0 ed 8b a1 bf a0 c4 be 3d 3b 7b ba bf d8 e3 1f c1
       -1.2620827 0.09314847 -1.4568857 -9.993126
0001d0 d4 ba be bf b9 c8 e0 3f aa c8 39 bf 3c 7b 73 3d
       -1.4900765 1.7561256 -0.72571814 0.059443697
0001e0 d0 9b 99 bf 2e 59 38 c1 e1 97 58 bf 22 dc 0a 40
       -1.2000675 -11.521772 -0.8460675 2.1696858
0001f0 3f a0 b3 be d1 20 1c 3f be 16 8f bf 44 f8 0a c1
       -0.35083196 0.60987574 -1.1178815 -8.685612
000200 02 85 b5 bf cb 41 00 40 d4 db 10 bf 98 b8 68 bc
       -1.4181216 2.0040157 -0.5658543 -0.014204167
000210 84 11 e2 bf 3a c5 ee c0 fd 85 11 bf 6b a2 0a 40
       -1.7661595 -7.4615755 -0.56845075 2.1661632
000220 cb cf 37 bf c9 02 9d be ac 56 11 c0 c1 b3 e8 c0
       -0.7180144 -0.30666187 -2.270915 -7.2719426
000230 47 83 2b bf 4f 62 07 40 fd 56 ea be c7 1c 3e be
       -0.6699719 2.1153753 -0.45769492 -0.18565665
000240 8c df 76 bf b6 09 ea c0 c6 cd bb bf fe f0 03 40
       -0.96434855 -7.3136854 -1.4672172 2.061584
000250 c7 98 d2 be f0 f2 ad 3e 6e f0 2f c0 d3 0f c6 c0
       -0.41132185 0.3397441 -2.7490497 -6.1894317
000260 ed d9 10 bf 45 72 cb 3f be db 1d bf 2a 06 fe be
       -0.5658253 1.5894247 -0.61663425 -0.49614078
000270 46 67 04 bf 08 56 4b c1 57 b4 8e bf 01 84 31 40
       -0.5172008 -12.708504 -1.1148785 2.7736819
000280 8f 63 72 3f 4e 8a f7 be 2a 6b 67 3f fe 64 23 c1
       0.94683164 -0.48347706 0.90397894 -10.212156
000290 e2 e7 41 c0 99 0b 1e 40 8e f6 68 3f cd e8 1a bf
       -3.029778 2.4694579 0.9100121 -0.60511476
0002a0 12 ea ef bf c0 19 d9 c0 13 b5 0a c0 00 26 d4 3f
       -1.8743308 -6.7843933 -2.167302 1.6574097
0002b0 24 c6 3a 3f e0 3e c2 3e 05 11 fa bd 3f a3 28 c1
       0.7295859 0.37938595 -0.122102775 -10.539855
0002c0 40 63 29 c0 94 d5 02 40 9e 18 a6 3d 7e b4 3a bf
       -2.6466827 2.0442858 0.08110164 -0.7293166
0002d0 69 e8 cf bf 09 68 cd c0 ae 6f ee bf 95 1d a6 3f
       -1.6242801 -6.4189496 -1.8627832 1.2977778
0002e0 67 c6 ce bf 59 5e b7 bd 78 e0 10 c0 15 f6 01 c1
       -1.6154298 -0.08953542 -2.2637005 -8.122579
0002f0 1a 63 a7 bf 12 50 d2 3f f6 20 42 bf 04 0b 0e 3e
       -1.3077118 1.6430686 -0.75831544 0.1387139
000300 8f ed 49 c0 ad 79 e9 c0 ad c5 3c bf c1 d2 ce 3f
       -3.1551244 -7.296103 -0.7373913 1.6158067
000310 b2 bb 69 bf 82 2a 01 3e f4 44 d3 bf 21 d6 c1 c0
       -0.91302025 0.12613872 -1.6505418 -6.057389
000320 54 71 0b c0 34 32 91 3f a3 41 eb bf 9c ef d5 3e
       -2.178792 1.1343446 -1.8379406 0.4178437
000330 73 73 68 bf 0d 54 05 c1 f4 d7 1e c0 76 b4 f2 3f
       -0.9080116 -8.33302 -2.4819307 1.8961322
000340 40 bd 5a bf 15 9b e5 3c d3 b5 fb bf 64 ec a1 c0
       -0.8544502 0.02802805 -1.9664863 -5.0601063
000350 d9 b1 3d c0 d0 f5 ae 3f 1e c7 23 bc 5c 4c 92 3e
       -2.96398 1.3668766 -0.009996204 0.28573883
000360 85 67 63 bf 92 06 ea c0 9c 6e 2c c0 7b 13 e7 3f
       -0.88829833 -7.313302 -2.694251 1.805282
000370 0f 4e e7 3c 92 fb 92 3e c6 54 03 c0 f7 2b 00 c1
       0.028235463 0.28707558 -2.0520492 -8.010734
000380 4a bd f4 bf fa 6e fc 3f d7 66 44 bf c8 d9 32 bc
       -1.9120266 1.9721367 -0.7671942 -0.010916181
000390 1b 30 85 c0 00 be 7b c0 82 a9 51 c0 68 58 9c 3f
       -4.1621222 -3.9334717 -3.275971 1.221448
0003a0 c5 24 03 c0 6e d4 00 3f 49 0e 8b c0 cc 3a 77 c0
       -2.0491192 0.5032414 -4.345494 -3.8629637
0003b0 50 6e 70 bf f6 87 aa 3f bf 1f b2 bf af da 6a be
       -0.93918324 1.3322742 -1.3915938 -0.22934984
0003c0 54 ef 64 c0 7c 5e af c0 cc 67 5f c0 47 07 c3 3f
       -3.5771074 -5.4802837 -3.4907103 1.5236596
0003d0 31 39 a9 bf c0 a5 28 bf 02 0f c7 bf 5c b4 0f c1
       -1.3220578 -0.65877914 -1.5551455 -8.981533
0003e0 65 59 f5 bf af 61 ff 3f e7 e8 98 bf f4 3a 9a 3e
       -1.9167906 1.9951686 -1.1946076 0.30123103
0003f0 8e eb 52 c0 60 3e d0 c0 93 be 3e c0 74 62 ae 3f
       -3.295627 -6.507614 -2.9803817 1.3623796

dense3.bias f4 [128]
000000 e3 29 d8 bf e8 0e 39 3f e6 d7 15 3e fb 40 23 40
       -1.6887783 0.7228837 0.1463314 2.550841
000010 e8 64 80 3e 31 ac 9c 3f 01 37 28 3f ea 72 85 40
       0.25076985 1.2240049 0.6570893 4.1702776
000020 0c 5b 1e 40 a1 dc c8 40 f8 69 0e 3f c1 93 8e 3f
       2.474307 6.2769322 0.55630445 1.1138841
000030 b8 85 a8 3f 22 04 41 40 28 ca b9 3e 91 c0 66 bf
       1.3165808 3.0158772 0.36287045 -0.90137583
000040 8a 29 0d bf fa 33 12 3f 46 b0 1a 3e ba 9f 2b 40
       -0.5514151 0.5711056 0.15106305 2.681624
000050 a2 ac ba 3f 3f c5 1f 3e 5e 21 74 bf 85 a4 88 bf
       1.4583933 0.15602587 -0.95363414 -1.0675207
000060 53 11 78 bf 79 38 90 3f f4 e9 06 c0 70 4d 21 c0
       -0.96901435 1.1267234 -2.1080294 -2.5203514
000070 e7 be 63 bf 6a 77 64 3f 94 48 55 40 55 ce f3 3f
       -0.8896317 0.8924471 3.3325548 1.9047343
000080 c3 4a e1 3f 48 82 73 40 d2 ce 48 3f 02 9c 19 be
       1.760094 3.8048267 0.7844058 -0.15000919
000090 f6 86 2f bf 07 28 71 be d1 54 d2 3f a7 e9 35 3f
       -0.6856531 -0.23550425 1.6432134 0.7105965
0000a0 a3 f2 57 3f e8 e2 a0 3e f6 af 0d 40 17 ba 0b 40
       0.8435461 0.31423116 2.2138648 2.183233
0000b0 c3 10 3a 40 c3 34 de 3e 3c 14 ab 3d b9 3b 6f bf
       2.907273 0.4339963 0.08353469 -0.93450505
0000c0 72 dd 8d bf 85 9e 9b 3f 7d 7c 51 40 d6 74 40 40
       -1.1083205 1.2157751 3.2732232 3.007131
0000d0 62 b3 0a 40 5c 9a 6d 3f 47 10 b1 40 b8 99 60 40
       2.1671987 0.9281366 5.533237 3.5093822
0000e0 fa 0e 97 40 00 3a b1 3f 29 57 5d 40 33 6a 25 40
       4.720578 1.3845825 3.4584448 2.584607
0000f0 dc 3b 9e 40 19 77 32 40 8c 24 b3 40 9c 02 d2 40
       4.944807 2.7885191 5.5982113 6.5628185
000100 f4 f0 3d 40 c7 67 35 40 86 d2 9d 3f 65 45 ca 3f
       2.9678316 2.834459 1.2329872 1.5802428
000110 bd c8 98 be 56 b0 17 bf 0e c0 6b bf b8 1b 80 bd
       -0.2984065 -0.5925344 -0.9208993 -0.06255287
000120 29 86 4e bf df b8 06 bf d7 98 de bf 5d 3f 6f bf
       -0.8067346 -0.5262584 -1.7390393 -0.9345606
000130 99 41 d2 bf c7 b8 ec be 78 c6 ab bf 99 77 ea bf
       -1.6426269 -0.46234724 -1.3419943 -1.8317748
000140 88 83 f2 bf ff 33 5e bf 48 48 a7 be 78 b4 09 c0
       -1.894639 -0.8679809 -0.32672334 -2.15164
000150 5a 5e 26 c0 73 2a c0 bf d3 e0 ce bf fd e5 9e bf
       -2.5995088 -1.5012954 -1.6162361 -1.2413937
000160 64 9b dc bf 15 a2 bc bf 4a 16 f1 bf 74 e6 82 bf
       -1.7234921 -1.4736964 -1.8834927 -1.0226579
000170 e7 69 d1 bf af ee f6 bf a3 5d a7 bf 11 2b d8 bf
       -1.6360444 -1.929159 -1.3075451 -1.6888143
000180 74 0c d4 bf b6 c5 a8 bf ef af ee bf 52 7b 06 c0
       -1.65663 -1.3185337 -1.8647441 -2.1012769
000190 a0 a2 f9 bf 74 55 17 c0 88 87 ff bf c8 13 f0 bf
       -1.9502754 -2.3645906 -1.9963236 -1.8756037
0001a0 71 d2 cc bf 47 d1 1e c0 5b 80 0b c0 f2 2f 29 c0
       -1.6001722 -2.4815233 -2.1797092 -2.6435513
0001b0 77 6b fe bf 0d 53 fc bf 82 73 13 c0 ce e5 ef bf
       -1.9876546 -1.9712845 -2.303925 -1.8742006
0001c0 8a ad 21 c0 61 2a 16 c0 ea a1 42 bf 25 36 fc bf
       -2.526217 -2.3463366 -0.7602831 -1.9704024
0001d0 33 a2 ff bf 4e 2d c3 bf 29 fc 9b 3f 40 35 39 3e
       -1.9971374 -1.5248201 1.2186328 0.1808672
0001e0 62 61 b9 3f ac 10 e7 3e 84 0f d5 3f fc ab 8d 3f
       1.4482844 0.45129907 1.664536 1.106811
0001f0 01 fe 7d 3e 39 69 9e bf 5a 74 4d bf 07 36 a6 bf
       0.24803926 -1.2375861 -0.80255663 -1.2985238
