Saved Models/Rosslyn_ULA_DFT_10_beam_probing_codebook_128_beam_classifier_noise_-94_dBm.pt (torch, 21599 bytes, 6 tensors)

dense1.weight f4 [20, 10]
0	0x3f98f45d	1.1949574
1	0x3e5547a4	0.2082811
2	0x3e49d981	0.19711877
3	0x3e6d38b4	0.23166162
4	0x3e3a5ee4	0.1820026
5	0xc1faa8ad	-31.332361
6	0xbfe9007d	-1.8203274
7	0xc1d39a24	-26.450264
8	0xbf446898	-0.767221
9	0xbc6b3a9b	-0.014357234
10	0x3f8e2c93	1.1107353
11	0xbaf3994d	-0.0018585116
12	0xbf9cbaf5	-1.2244555
13	0x3e0f6837	0.14004599
14	0xc1c16fb7	-24.179548
15	0x3ded0afd	0.115743615
16	0xc1b79ec3	-22.95252
17	0x3e17c1c6	0.14820012
18	0x3e74ba37	0.2389916
19	0xbc78ba8f	-0.015181198
20	0x3d9e0593	0.07715907
21	0x3ee8a6a5	0.4543964
22	0xbeb383f3	-0.35061607
23	0xbe2fd91f	-0.17172669
24	0x3eae4dd3	0.3404375
25	0xc159003e	-13.562559
26	0xbdaa0e18	-0.083034694
27	0x3f2052ae	0.6262616
28	0xc121b230	-10.106003
29	0xbe97d9d1	-0.29658368
30	0xc1fd39fc	-31.653313
31	0xc15609c1	-13.377381
32	0x3eacf45a	0.33780175
33	0x3eea05d4	0.45707572
34	0x3eef0e3a	0.46690542
35	0x3e7f10c9	0.24908747
36	0x3f1bedce	0.60909736
37	0x3ed9c696	0.42534322
38	0x3e55381b	0.20822184
39	0xbd56fa96	-0.05248507
40	0xc0a0f710	-5.030159
41	0x3f11c1bd	0.56936246
42	0x3ec09c5a	0.37619287
43	0x3eda3d4e	0.42624897
44	0x3e376b55	0.17912038
45	0x3d81c8f4	0.06337157
46	0xc1e95646	-29.167126
47	0x3e978527	0.29593775
48	0x3e666f5d	0.22503419
49	0x3ea6a2e7	0.3254616
50	0xbfeb945d	-1.8404652
51	0xbb5e3932	-0.0033908603
52	0x3ea13b10	0.31490374
53	0x3df91d61	0.12163807
54	0xbef976ee	-0.4872355
55	0xc23e26e9	-47.538
56	0xc0453c20	-3.0817947
57	0x3e178da9	0.14800133
58	0x3c1a2dd8	0.009410344
59	0x3e873e16	0.26414555
60	0x3eb28811	0.34869435
61	0xbfeeefd6	-1.8666942
62	0x3f9a6074	1.2060685
63	0x3d4385d6	0.047735058
64	0xc1e65a55	-28.794107
65	0xbffc4a7c	-1.9710231
66	0xc0a0ba83	-5.0227675
67	0xc0acd7e3	-5.4013534
68	0x3bc5ffaa	0.0060424404
69	0x3ec5d421	0.38638404
70	0x3ecc2d3c	0.3987826
71	0x3c815e08	0.015791908
72	0x3ecd5176	0.40101212
73	0x3dd44f1b	0.10366651
74	0x3e54bebc	0.20775884
75	0xbd709ce1	-0.05874336
76	0xbcbd2c94	-0.023092546
77	0xbfd66454	-1.6749368
78	0xc05f4bac	-3.4889936
79	0xc1e3a83e	-28.45715
80	0xbf432a1e	-0.7623614
81	0xbf1645b8	-0.5870013
82	0xbc4591b8	-0.012058668
83	0xbf35fbfb	-0.71087617
84	0x3e52d89b	0.20590441
85	0xbe86da07	-0.26338217
86	0xbe795e4a	-0.24352375
87	0xbf9ab88d	-1.208757
88	0x3f67a998	0.90493155
89	0xbe5eb65f	-0.21749257
90	0xbdbf5afb	-0.09343525
91	0xc0a612ac	-5.1897793
92	0xbf8e1e3c	-1.1102977
93	0x3f208a5f	0.6271114
94	0x3f532ce9	0.824904
95	0xbd35c762	-0.0443796
96	0x3ede1608	0.43376184
97	0xbf411f2a	-0.7543818
98	0xc0ae4dc0	-5.446991
99	0x3f846149	1.0342189
100	0x3dd2bd7f	0.1029005
101	0x39032810	0.00012508058
102	0xbf201298	-0.6252837
103	0xc191886e	-18.191616
104	0x3edbce20	0.42930698
105	0xbe21e714	-0.15810806
106	0x3be4d4ab	0.00698336
107	0xc0ad8bb1	-5.423302
108	0xc15c79e1	-13.779756
109	0x3eaf8261	0.3427916
110	0xc0cadfe8	-6.3398323
111	0xc19899da	-19.075123
112	0xc144c68f	-12.298476
113	0x3ecad4dc	0.39615524
114	0x3f64fd89	0.89449364
115	0xbde5a5c1	-0.11213256
116	0xbfdb09a9	-1.7112323
117	0x3e943799	0.28948668
118	0xbf4a26a7	-0.7896523
119	0x3ecf229e	0.40456098
120	0xbdca5387	-0.09879213
121	0x3ed758bd	0.4205989
122	0xbdb42369	-0.087958165
123	0x3fbc370e	1.4704301
124	0xbdf78dd4	-0.120875984
125	0xc06093e0	-3.5090256
126	0xc02df7d5	-2.7182515
127	0xbd3bb315	-0.045825083
128	0xbfe56612	-1.7921774
129	0xbdca3a56	-0.09874408
130	0x3f0bd7e9	0.5462633
131	0x3e9373b6	0.28799218
132	0x3f9b380d	1.212648
133	0xbd22c395	-0.039737303
134	0xbe12e051	-0.14343382
135	0x3f10acd4	0.56513715
136	0x3cdc1883	0.026867157
137	0xbf0d0b73	-0.55095595
138	0xc211e572	-36.474068
139	0x3dd00838	0.101578176
140	0xbdf1f923	-0.11815097
141	0xc140cd61	-12.050141
142	0xc21193d6	-36.39437
143	0xba7795f0	-0.00094446447
144	0xc189fe7b	-17.249258
145	0x3f1a00ec	0.60157657
146	0x3e9b888d	0.30377617
147	0x3ca53c37	0.020170314
148	0xbd96d23e	-0.07364319
149	0x3e6679c8	0.22507393
150	0xc1c8656f	-25.049528
151	0x3d51683b	0.051124793
152	0x3dc67999	0.09691162
153	0x3e7f922b	0.24958102
154	0x3ddb7196	0.10715024
155	0x3f20856c	0.62703586
156	0xbf896710	-1.0734577
157	0xc0b55c7f	-5.667541
158	0x3df2e190	0.11859429
159	0x3e8f4a72	0.27986485
160	0x3f3bc9b9	0.7335468
161	0xbe20e230	-0.15711284
162	0xbe6ff7ed	-0.2343442
163	0x3e90d95e	0.28290838
164	0x3f103132	0.56325066
165	0xbfa8e089	-1.3193523
166	0xc03d626e	-2.9591327
167	0xbe34d28e	-0.17658445
168	0x3e28cd1a	0.1648449
169	0xc1147e0a	-9.280771
170	0x3f008bb7	0.5021319
171	0x3db1564d	0.08659039
172	0x3ef7438f	0.4829373
173	0x3e61817a	0.22022048
174	0x3eddb09e	0.4329881
175	0x3eaba404	0.33523571
176	0xc1a5aed3	-20.710363
177	0xc094a10b	-4.6446586
178	0x3e587e87	0.21142016
179	0x3eeb0061	0.45898727
180	0xc12bd8c0	-10.7404175
181	0xc08ae627	-4.340595
182	0x3f2084e1	0.6270276
183	0xbd6b4b5e	-0.057444923
184	0xc062adfa	-3.5418687
185	0xbe588405	-0.21144111
186	0xbdd932fc	-0.106054276
187	0x3c62d1a1	0.013843925
188	0xbf00eb9a	-0.503595
189	0x3f346496	0.7046598
190	0x3f2d7f80	0.67772675
191	0xc2083aa2	-34.05726
192	0x3df7114c	0.12063846
193	0xbdf818f6	-0.12114136
194	0xbde438c3	-0.11143639
195	0x3e8422e3	0.25807866
196	0x3d1597b5	0.036521632
197	0xc022a275	-2.5411656
198	0x3e847032	0.25866848
199	0x3e49c2af	0.19703172

dense1.bias f4 [20]
0	0x3e714b89	0.2356397
1	0x3e89a018	0.26879954
2	0x3f0aacbf	0.5416984
3	0x3e406144	0.18787104
4	0x3eb973b1	0.36221078
5	0x3e4dfc3d	0.20115753
6	0x3e9f9ba2	0.31173426
7	0x3e7ed31e	0.24885222
8	0x3f5f8e47	0.87326473
9	0x3f56c352	0.83891785
10	0x3eb21e14	0.34788573
11	0x3f0e4485	0.555733
12	0x3f5f0b00	0.8712616
13	0x3e4fe594	0.20302421
14	0x3e02d76c	0.1277749
15	0x3f024023	0.50879115
16	0x3f374954	0.71596265
17	0x3ee69a53	0.45039615
18	0x3f0d3761	0.55162627
19	0x3ea82f07	0.3284838

dense2.weight f4 [30, 20]
0	0xbf0f8080	-0.5605545
1	0xbde1fc43	-0.11034443
2	0xbf738d6f	-0.95137686
3	0xc02c62df	-2.6935346
4	0x3f90cb1f	1.1311988
5	0x3dce52db	0.10074397
6	0x3e36460d	0.1780016
7	0x407755c9	3.864611
8	0x3eb03c78	0.34421134
9	0xbf6d4a07	-0.9269108
10	0xbecd2ae3	-0.40071782
11	0x3eb6162a	0.35563785
12	0x3eb3948f	0.3507428
13	0xc004bf00	-2.0741577
14	0x3faab6ce	1.3337038
15	0xbfa6a6db	-1.301967
16	0x3f1267ba	0.57189524
17	0xbcdf1c72	-0.027235243
18	0x3ec5e399	0.38650206
19	0x3e3191d4	0.17340785
20	0xbfc9e09c	-1.577167
21	0xbf26c1bc	-0.65139365
22	0xc01cabdf	-2.4479902
23	0xbfcc4d33	-1.5961059
24	0xc0283c35	-2.6286747
25	0xc08f8a9b	-4.4856696
26	0x406bbb53	3.6833084
27	0xbfc69079	-1.551284
28	0x3f10e8e3	0.56605357
29	0x3d6ccf83	0.057815086
30	0x3f3a9717	0.72886795
31	0x3f1de86b	0.61682767
32	0x3f316c7d	0.69306165
33	0xbff20666	-1.8908203
34	0xc0182fa0	-2.3779068
35	0x3fceef25	1.6166731
36	0x3e9b504d	0.30334702
37	0xbe4ef3a3	-0.20210128
38	0x3ee8f220	0.45497227
39	0x3f9c88b1	1.2229215
40	0x3e97029b	0.29494175
41	0xbf0454fb	-0.5169217
42	0x3e5be002	0.21472171
43	0xc008dab9	-2.1383498
44	0xc03bc2f7	-2.9337747
45	0xc06047e8	-3.5043888
46	0x3f752720	0.95762825
47	0x3f9c8554	1.2228189
48	0xbf166f8c	-0.5876396
49	0x4006272c	2.0961409
50	0x3f6e0048	0.9296918
51	0xbfd7b0eb	-1.6850866
52	0x3f833411	1.0250264
53	0x3f5df332	0.8669921
54	0xbba780d2	-0.005111792
55	0xbf669f2d	-0.9008663
56	0x3dc040a9	0.09387333
57	0x3f3b8444	0.73248696
58	0xbf91fcd7	-1.1405286
59	0x3e3fe23b	0.18738644
60	0x403ac36b	2.9181774
61	0xbfd8571c	-1.6901584
62	0x3fb515c2	1.4147265
63	0x3e6eb2d6	0.23310408
64	0xc01a0012	-2.4062543
65	0x402c4d08	2.6922016
66	0x3f531644	0.8245585
67	0x3d1c15e7	0.038106825
68	0xbf310a57	-0.691564
69	0x3fec2e4f	1.8451632
70	0xbf74dd29	-0.95649964
71	0xbf9cb041	-1.2241288
72	0x3e0ccc3d	0.13749786
73	0xbedb129c	-0.42787635
74	0x3eecdf65	0.46264187
75	0x3e56d073	0.20977955
76	0x3ebf9c94	0.37424147
77	0xbfef5d90	-1.8700428
78	0x3f861533	1.047522
79	0xbfbdb95e	-1.4822195
80	0x403d9af2	2.962582
81	0xbff8c3d2	-1.943476
82	0xbece9fb3	-0.40356216
83	0xbeb05b76	-0.3444478
84	0xc0b73155	-5.724772
85	0xbf2a421b	-0.6650712
86	0x3f978e25	1.1840254
87	0xbfda3fb5	-1.7050692
88	0xbf906359	-1.1280318
89	0xbf589b16	-0.8461164
90	0xbf84c71a	-1.0373261
91	0xbd7add01	-0.061245922
92	0x3fc85666	1.5651367
93	0xbfa68ef1	-1.3012372
94	0x3fce2985	1.6106421
95	0x3f6b5adb	0.9193551
96	0x3f4e4296	0.8057035
97	0xbf9f52d1	-1.2447149
98	0x400078b2	2.0073667
99	0xc014ea90	-2.3268166
100	0x3f0d266b	0.55136746
101	0x400674a2	2.1008687
102	0x3ea7ff58	0.32812
103	0x3f113dc7	0.5673489
104	0x3ef908aa	0.48639423
105	0x4005e691	2.0921977
106	0x3ec653f1	0.38735917
107	0xbe527a32	-0.20554426
108	0xbf67d9aa	-0.90566504
109	0x3ec3859f	0.38187882
110	0x3e6c6563	0.23085551
111	0xbeea8788	-0.45806527
112	0xbf151b5c	-0.5824487
113	0xbe846848	-0.2586081
114	0x3f91d831	1.1394101
115	0x3e260563	0.16212992
116	0x3f1ebdad	0.6200817
117	0x3f532fc0	0.82494736
118	0x3f2df023	0.67944545
119	0x3ff5b7da	1.9196732
120	0xc001af1b	-2.0263126
121	0x3f526d62	0.82198155
122	0xbfac29fb	-1.3450311
123	0x40018c52	2.0241895
124	0x3fa5f838	1.2966375
125	0x3e8d736c	0.27627122
126	0xbec29ff2	-0.38012654
127	0xc0218bac	-2.52415
128	0x3f8ce5b5	1.1007601
129	0xbfadba53	-1.3572487
130	0x3cf68dc2	0.030096892
131	0xc06e11b9	-3.7198317
132	0x3f78f40c	0.97247386
133	0xbf4537d4	-0.7703831
134	0xc0584726	-3.3793426
135	0x3f80b5bb	1.005546
136	0xbe9a40cb	-0.30127558
137	0x3f0d87a1	0.5528508
138	0x3f29a4b1	0.66266924
139	0x400911ed	2.141719
140	0xbff343af	-1.900503
141	0x3ead22a4	0.3381549
142	0x3ed26dc2	0.41099364
143	0xc06b474a	-3.6762261
144	0xbfb0dbdd	-1.3817097
145	0x3d8d4035	0.06897012
146	0xbdd7f187	-0.105441146
147	0xbfd922c1	-1.6963731
148	0x3f3cb7b5	0.73717815
149	0x3f918b18	1.1370573
150	0xc0315765	-2.7709591
151	0xbe882397	-0.26589653
152	0x3f705b48	0.93889284
153	0x3fcf47b0	1.6193752
154	0xc0958ac0	-4.6731873
155	0x3e9cd428	0.30630612
156	0xbec340e4	-0.38135445
157	0x3ff9e1ff	1.9522094
158	0xbfa6c72d	-1.3029534
159	0xbf8e2d66	-1.1107605
160	0xbdaa4fb3	-0.08315983
161	0xbb0ea87a	-0.00217679
162	0x3f97b103	1.1850895
163	0xc038b8e3	-2.8862846
164	0xbfa2e4d6	-1.2726085
165	0xbf5c7045	-0.8610881
166	0x40434152	3.0508618
167	0xbde8d226	-0.11368208
168	0x3f4241df	0.7588176
169	0x3ede4115	0.4340903
170	0x3f6df982	0.92958844
171	0xbfa74170	-1.3066845
172	0x3f1c2132	0.6098815
173	0xbf0ef1b0	-0.55837536
174	0xbe2e46d4	-0.17019206
175	0x3d28985f	0.041160937
176	0x401685f5	2.351926
177	0xbfb981ad	-1.4492699
178	0xbf95669c	-1.1671939
179	0xc0398d92	-2.8992658
180	0x3f46b276	0.7761606
181	0xbf04bf10	-0.5185404
182	0x40100e48	2.2508717
183	0xbef97996	-0.48725575
184	0xc00f191e	-2.235908
185	0xc0459ccd	-3.0876954
186	0xbfb7f0a2	-1.437031
187	0x3f9ba8e2	1.2160914
188	0x3e05b89f	0.13058709
189	0x3fdd1a37	1.7273625
190	0x40074c90	2.114048
191	0xc010a58b	-2.260104
192	0x3e2f1cf7	0.17100893
193	0x4058faa5	3.3902981
194	0xc00ef7a2	-2.2338643
195	0xbff6554e	-1.9244783
196	0x3ee96f25	0.4559261
197	0xbeb01448	-0.34390473
198	0xbec7e504	-0.39041913
199	0x3e446873	0.19180469
200	0x3f817b68	1.0115786
201	0x3ebd537e	0.36977762
202	0x3f5e2656	0.86777246
203	0xc09ef8ed	-4.9678864
204	0xc01197a3	-2.2748802
205	0x4007c3fe	2.1213374
206	0x3fcd3f85	1.603501
207	0xc07d1708	-3.9545307
208	0x3f8bd950	1.0925694
209	0xbe53e404	-0.2069245
210	0x4012401e	2.2851634
211	0xbfba5c0a	-1.4559338
212	0x3f9b2f6c	1.2123847
213	0xbef08eee	-0.46984047
214	0xbeb61724	-0.3556453
215	0xc01340e2	-2.3008351
216	0xbe2171d1	-0.15766074
217	0x3fc96c8f	1.5736254
218	0x3d31553a	0.04329417
219	0xbfffcd77	-1.9984578
220	0xc0041f7e	-2.0644221
221	0x3dd68e7e	0.10476397
222	0xbeac84a6	-0.33694953
223	0xbf3caffc	-0.7370603
224	0xc03ee8e0	-2.9829636
225	0xc0b1e57a	-5.5592623
226	0xc051ecaf	-3.280071
227	0x3fa8fadb	1.3201555
228	0xbef164fe	-0.47147363
229	0x3f5bf8bc	0.85926414
230	0xbf7e9778	-0.9944987
231	0x3fc41066	1.5317504
232	0x3f82b93c	1.0212779
233	0x4008150f	2.1262853
234	0x409147f8	4.5400352
235	0x3f42fddf	0.76168627
236	0x3f858c6a	1.0433476
237	0xbf9ca07e	-1.2236478
238	0xbdcf0859	-0.10109014
239	0x3fdac37d	1.7090908
240	0x3be8fcc5	0.0071102106
241	0xbd835635	-0.06412927
242	0xbf406aac	-0.7516277
243	0xbebb2ae5	-0.36556163
244	0xbcc26ff6	-0.023735028
245	0x3de1ff42	0.11035015
246	0xbf53362a	-0.8250452
247	0xbe915a2c	-0.28389108
248	0xbea4ee7d	-0.32213202
249	0xbea9efad	-0.3319067
250	0xbf03d74f	-0.5150041
251	0xbeb677eb	-0.35638365
252	0xbf0f01b1	-0.55861956
253	0xbea32ceb	-0.31870207
254	0xbec012bd	-0.37514296
255	0xbe83ed31	-0.257669

dense2.bias f4 [30]
0	0x3f57d719	0.8431259
1	0x3f863380	1.0484467
2	0x3f82d7f4	1.0222154
3	0x3e158d31	0.14604641
4	0x3ff79960	1.9343681
5	0xbf79c134	-0.9756043
6	0x3f4e0bb3	0.804866
7	0x3f1366b4	0.5757859
8	0x3ed44138	0.41456008
9	0x3de98c57	0.11403721
10	0x3f50322e	0.8132657
11	0x3f63e47e	0.89020526
12	0xbe9221b6	-0.28541344
13	0x3f9edb58	1.2410688
14	0x3f53692c	0.82582355
15	0x3fabfecb	1.3437132
16	0x3f95339e	1.1656377
17	0x3d5a570f	0.05330568
18	0x3ce20bec	0.027593575
19	0x3f91d5a9	1.1393329
20	0x3f37f037	0.71850914
21	0xbd790c26	-0.0608026
22	0x3f46a639	0.77597386
23	0x3fdec989	1.7405254
24	0x3fbb8163	1.4648861
25	0x3ca387ac	0.019962154
26	0x3faf2b85	1.3685156
27	0x3f98804a	1.1914151
28	0x3fb5bf42	1.4198992
29	0x400e97ad	2.2280076

dense3.weight f4 [128, 30]
0	0xbf89fc93	-1.0780205
1	0xbf7049b7	-0.9386248
2	0xbff8f4c9	-1.9449703
3	0xbf5a054b	-0.85164326
4	0xbec59de0	-0.38597012
5	0xbf6db301	-0.92851263
6	0xbf347ee6	-0.7050613
7	0xbf5a58e4	-0.85291886
8	0xbfe3616c	-1.7764106
9	0xbf2e86cf	-0.6817445
10	0xbf341fe6	-0.70361173
11	0xc00a12dc	-2.157401
12	0xbdb3f89d	-0.087876536
13	0xbfdf9510	-1.7467365
14	0xbf446df9	-0.76730305
15	0xc0b844a4	-5.758379
16	0xbf082608	-0.5318303
17	0xbf6789f0	-0.9044485
18	0xc015018f	-2.3282201
19	0xc01a8cbf	-2.4148405
20	0xbf3eb5c7	-0.7449612
21	0xbfba617b	-1.4560999
22	0xbf61e53d	-0.88240415
23	0xbf14dc0d	-0.5814827
24	0xc07bba7f	-3.9332578
25	0xbfa91eff	-1.3212584
26	0xbf3eb17f	-0.7448959
27	0xbf6a721d	-0.91580373
28	0xbf2f49b8	-0.6847186
29	0xbf251f83	-0.6450121
30	0x3fa0d1f1	1.2564069
31	0xbe746a8a	-0.23868766
32	0xbea9bfda	-0.33154184
33	0x405e88fb	3.4771106
34	0x3fc04ffa	1.5024407
35	0xbf4433ea	-0.76641715
36	0x3f1955ca	0.5989653
37	0xbf3d38e1	-0.73914915
38	0x3fb96c39	1.4486152
39	0xbf581b2a	-0.8441645
40	0x3f4e299d	0.80532247
41	0xc0e46733	-7.1375976
42	0xbdfd02fc	-0.12354085
43	0xbfa324e2	-1.2745631
44	0x3fde4e6b	1.7367681
45	0xbe965f23	-0.2936946
46	0xbf28cec8	-0.65940523
47	0x3f3d5962	0.7396451
48	0xc0a5f414	-5.1860447
49	0xc0265435	-2.5988896
50	0xc00c8ada	-2.1959748
51	0xc059abf3	-3.40112
52	0x403e7724	2.9760218
53	0xbf583036	-0.84448564
54	0xc11bc72d	-9.736127
55	0xbd851805	-0.06498722
56	0xbfc2a910	-1.5207844
57	0x3fcfd8ff	1.6238097
58	0xc10566cb	-8.337596
59	0xc015f221	-2.3429034
60	0x3e272e60	0.16326284
61	0xc002aedc	-2.0419226
62	0x3dbda5e4	0.09260157
63	0x403ea30f	2.9787023
64	0x3e32f5d5	0.1747659
65	0xbf68f698	-0.9100127
66	0xbfb8f9e7	-1.4451264
67	0xbf394343	-0.7236826
68	0x3f96d915	1.1784998
69	0x3e93f869	0.2890046
70	0x3f400358	0.750051
71	0xc0beb54f	-5.9596324
72	0xbd7d45e2	-0.061834224
73	0xc0454b0d	-3.0827057
74	0x3f677842	0.90417874
75	0xbef89e83	-0.48558435
76	0x3ed9c7e9	0.42535332
77	0x3ea716b4	0.3263451
78	0xc005247c	-2.0803518
79	0xc03210ce	-2.7822757
80	0x3ef546df	0.47905633
81	0xc108f251	-8.559159
82	0x3f9649cd	1.1741272
83	0x3e4db517	0.20088612
84	0xc042e8ed	-3.0454667
85	0xbfd12c2f	-1.6341609
86	0x3e7b628d	0.24549313
87	0x3fc03f2f	1.5019282
88	0xc1027ea8	-8.155922
89	0xbeebb20c	-0.46034276
90	0x3f01f8a1	0.5077
91	0xbf68f232	-0.9099456
92	0x3e940717	0.2891166
93	0x3f02f1d2	0.5115024
94	0x3f437b03	0.76359576
95	0xbedb5798	-0.42840266
96	0xbecea405	-0.40359512
97	0xbed608e7	-0.41803667
98	0x3fa0b57b	1.2555383
99	0xbe027975	-0.12741645
100	0x3f6f468e	0.9346703
101	0xc098d7a1	-4.776322
102	0xbe209036	-0.15680012
103	0xc05af82f	-3.421398
104	0x3f360dce	0.71114814
105	0xc070a458	-3.7600307
106	0x3f2c6ee6	0.6735672
107	0x3f1f4e0a	0.62228453
108	0xbfc02932	-1.5012572
109	0xc0bb4f5c	-5.8534374
110	0xc029318b	-2.6436489
111	0xbffadb35	-1.9598147
112	0x3ec9296a	0.3928941
113	0x3f030c90	0.51191044
114	0xc01bd4ea	-2.4348702
115	0xc0550de2	-3.3289723
116	0x3e9bb9c5	0.30415168
117	0xbe871508	-0.26383233
118	0xc039e7cb	-2.9047725
119	0x3e9190df	0.2843084
120	0xbf120c6f	-0.5705022
121	0xc0372bee	-2.8620563
122	0x3dfec1e5	0.12439326
123	0x4016918b	2.3526332
124	0x3f35939a	0.7092835
125	0xbeae3ff2	-0.3403316
126	0xc00c5e4a	-2.193255
127	0x3f64dca6	0.8939918
128	0x3e750655	0.23928197
129	0x3e3b369a	0.18282548
130	0x3f27f927	0.6561455
131	0xc05f75a8	-3.4915562
132	0xbd0467ab	-0.032325428
133	0xbf607a0e	-0.8768624
134	0x3ea15794	0.3151213
135	0x3e8c029d	0.27345744
136	0x3fb92196	1.4463375
137	0x3e9a9716	0.30193394
138	0xbf461262	-0.773718
139	0xc0871717	-4.2215686
140	0x3d2c827f	0.04211664
141	0xc06b3025	-3.6748135
142	0xbf05fd9e	-0.52340114
143	0xbf0a78a7	-0.5409035
144	0xc0e92d84	-7.286806
145	0xc02bdafd	-2.685241
146	0xbf834d5d	-1.0257984
147	0x3f1d9fc1	0.6157189
148	0xc0e54248	-7.164341
149	0x3ec89340	0.39174843
150	0x3d1d9e71	0.03848118
151	0xc06b695a	-3.6783051
152	0x3e7c61f0	0.24646735
153	0xbeca791a	-0.39545518
154	0x3fea98c0	1.8327866
155	0x3e66628d	0.22498532
156	0xc0d78f74	-6.7362614
157	0x3e657a51	0.22409941
158	0x3f309371	0.6897498
159	0xbda88924	-0.082292825
160	0x3eb7c346	0.3589117
161	0xbfbf6880	-1.4953766
162	0xbe1d85f3	-0.15383129
163	0xc0d4560a	-6.635503
164	0x3e809325	0.25112262
165	0xc15192c3	-13.0983305
166	0x3f9891d8	1.1919508
167	0x3f82ea96	1.022784
168	0x3f69db4a	0.91350234
169	0xc184af53	-16.585608
170	0xbface3b3	-1.3506988
171	0xbfe467ee	-1.7844217
172	0xbfd171b1	-1.6362821
173	0x3e820485	0.25394073
174	0xc0857b51	-4.1713033
175	0xbfcefe8d	-1.6171433
176	0xbefb153d	-0.4903964
177	0xbfafb0b5	-1.3725802
178	0xc005576c	-2.0834608
179	0xbf617717	-0.8807234
180	0xc02cbdbc	-2.6990805
181	0xc06b8c15	-3.680425
182	0x3e8e2dfd	0.2776946
183	0x3fa15789	1.2604839
184	0xbed7d83d	-0.42157164
185	0xbd07ee68	-0.033186346
186	0xbfdc4558	-1.7208662
187	0x3e2153ef	0.15754674
188	0x3e6792ad	0.22614546
189	0x3f043736	0.51646745
190	0x3f50f624	0.8162558
191	0xbf9533e4	-1.1656461
192	0xbe833e0e	-0.2563328
193	0xc05abf42	-3.4179235
194	0x3d75face	0.06005364
195	0xc17b8a25	-15.721227
196	0xbd2a2446	-0.0415385
197	0xbf7b1e28	-0.9809289
198	0x3d7455a6	0.059651993
199	0xc1328024	-11.156284
200	0xbe90200d	-0.28149453
201	0xc00eddf6	-2.2322974
202	0x3f1d6342	0.6147958
203	0xbfe067ae	-1.753164
204	0xc08b30c1	-4.3497014
205	0xc07f556c	-3.9895887
206	0xbf0565fa	-0.5210873
207	0xbf2ce101	-0.6753083
208	0xbfb2fbac	-1.3983054
209	0xc0ce0fd6	-6.439433
210	0xbf759225	-0.95926124
211	0xc08d0cec	-4.4078274
212	0x3eb8c74d	0.36089554
213	0x3d206ec1	0.039168123
214	0x40242a03	2.5650642
215	0x3e4ccab1	0.19999196
216	0xbfaf4bd1	-1.3695012
217	0xbe853303	-0.2601548
218	0xbd86c683	-0.06580832
219	0x3e76a90c	0.24087924
220	0x3e0da934	0.13834077
221	0xc001ecaa	-2.0300698
222	0x3c8dba18	0.01730065
223	0xc00ec69c	-2.2308722
224	0xbe10acf2	-0.14128473
225	0xc0ffbd35	-7.9918466
226	0xbf27e886	-0.6558918
227	0x3f3025c3	0.6880762
228	0xbfc568a8	-1.5422564
229	0xbfd6bc2d	-1.6776177
230	0x3f3426b8	0.7037158
231	0x3e74a6cf	0.23891757
232	0x3d7c7d48	0.061642915
233	0xbd9c6588	-0.07636553
234	0xc14ab54e	-12.669264
235	0xc06dac02	-3.7136235
236	0xbf63901f	-0.88891786
237	0x3e33f9ce	0.17575762
238	0xbf088839	-0.5333286
239	0xbd8889f8	-0.066669405
240	0xbfb5616e	-1.4170358
241	0xc06222ab	-3.533366
242	0xbe3d695d	-0.18497224
243	0x3fbc1633	1.4694275
244	0x3f481c3b	0.78168076
245	0xbe833125	-0.25623432
246	0xbf830476	-1.0235736
247	0x3f460a37	0.77359337
248	0xbea54308	-0.32277703
249	0x3f05112f	0.51979345
250	0x3d443711	0.047904078
251	0xbfc235aa	-1.5172627
252	0xbe913861	-0.28363326
253	0xc0123703	-2.2846076
254	0xbfa4e0c9	-1.2881099
255	0x3eb0d933	0.3454071

dense3.bias f4 [128]
0	0xbeccd685	-0.40007415
1	0xbf9fe433	-1.2491516
2	0xbf4896de	-0.78355205
3	0xbf0aa99f	-0.5416507
4	0xbf833fd2	-1.0253851
5	0xbf2bf571	-0.6717139
6	0xbf82b1c8	-1.0210505
7	0x3ec75b5a	0.38936883
8	0x3d8acef8	0.067777574
9	0xbde0dcd5	-0.1097962
10	0xbf106815	-0.56408817
11	0x3e939127	0.2882168
12	0xbf86396f	-1.0486277
13	0xbea600bc	-0.32422435
14	0xbe89b607	-0.26896688
15	0xbe9a08a8	-0.3008473
16	0x3da3475f	0.07972597
17	0xbf893072	-1.0717909
18	0xbfd13930	-1.6345577
19	0xbf0fa930	-0.56117535
20	0x3eb25f1a	0.34838182
21	0x3f946d2f	1.159582
22	0x400b1c9e	2.1736217
23	0x3f7bc289	0.9834371
24	0x3f4c68da	0.7984749
25	0x3f1cf5c7	0.61312526
26	0x3fb4be7b	1.412063
27	0x3eaaafe6	0.33337325
28	0x3f79be9d	0.9755648
29	0x3faa8d9c	1.3324466
30	0x3fdf6f60	1.7455864
31	0xbf016809	-0.5054937
32	0xbef936f9	-0.48674753
33	0xbf4942f3	-0.7861778
34	0x3e8d3833	0.2758194
35	0xbf4da898	-0.8033538
36	0xbf90b939	-1.1306525
37	0xbf31c35f	-0.6943874
38	0xbee1e897	-0.44122764
39	0xbf81a92a	-1.012975
40	0xbf3d47e5	-0.7393783
41	0xbf2952cf	-0.6614198
42	0xbe869d3b	-0.26291832
43	0x3eb81056	0.35949963
44	0xbea5ab60	-0.3235731
45	0xc006da6c	-2.1070814
46	0x3cc9f7be	0.024654265
47	0xbea1727c	-0.31532657
48	0x3f00743d	0.50177366
49	0xbf171aaa	-0.5902506
50	0xbeec51ca	-0.4615615
51	0xbf6d9eba	-0.9282032
52	0xbe26463d	-0.16237731
53	0xbf69b38e	-0.91289604
54	0xbf24b054	-0.64331555
55	0xbfbb94d8	-1.4654799
56	0xbe892a76	-0.26790208
57	0xbfda814f	-1.7070712
58	0xbe77e7f8	-0.24209583
59	0x3e80b1f3	0.25135764
60	0x3e2e6e35	0.17034228
61	0xbf83a331	-1.0284177
62	0xbed32c0e	-0.4124455
63	0x3fa32b24	1.274754
64	0xbed7476a	-0.42046672
65	0x3e6692df	0.22516964
66	0x3f319cae	0.693797
67	0xbe1d4f03	-0.15362172
68	0xbe1db2ac	-0.15400189
69	0xbed84d92	-0.4224668
70	0xbf526e17	-0.82199234
71	0xbf9b8128	-1.214879
72	0xbf357262	-0.7087766
73	0x3f4085dc	0.75204253
74	0xbdf8390f	-0.12120258
75	0xbea0f916	-0.31440037
76	0x3e8ca369	0.27468422
77	0x3e000663	0.12502436
78	0x3f233027	0.6374535
79	0xbe87ba73	-0.26509437
80	0x3f8b3e16	1.0878322
81	0xbe98b78b	-0.29827532
82	0x3f85c73c	1.0451427
83	0xbe6a9454	-0.22908145
84	0x3f6639aa	0.8993174
85	0x3e81ac74	0.25326884
86	0x3e932c81	0.2874489
87	0xbe7d4004	-0.24731451
88	0xbcfcbb3d	-0.030851
89	0xbdcee44a	-0.101021364
90	0xbf4cfd6a	-0.8007418
91	0x3f5f6634	0.87265325
92	0x3f1f0811	0.62121683
93	0xbf91285f	-1.1340445
94	0xbf9a1f06	-1.2040718
95	0x3f999762	1.1999323
96	0x3f278473	0.65436476
97	0xbf3386ce	-0.7012757
98	0x3f8a877d	1.0822598
99	0x3ed3fc2f	0.41403338
100	0x3f83946a	1.0279667
101	0x3f74b718	0.9559188
102	0x3f02b4a6	0.510569
103	0x3f942fdc	1.1577106
104	0x3f9da285	1.2315222
105	0x3f5d3317	0.8640608
106	0x3e971361	0.29506972
107	0xbf853dcd	-1.0409485
108	0x3f3d0178	0.73830366
109	0x3f75c7c9	0.9600797
110	0xbf9ebd50	-1.2401524
111	0xbeeb012c	-0.45899332
112	0x3d58c140	0.052918673
113	0x3eba7833	0.3641983
114	0x3fa06e47	1.2533654
115	0x3efa97f6	0.48944062
116	0x3fdabd8f	1.7089099
117	0x3f062e71	0.52414614
118	0x3f4e649b	0.8062226
119	0xbe610500	-0.21974564
120	0xbf711960	-0.94179344
121	0x3f1cf649	0.613133
122	0xbfa189d2	-1.2620184
123	0xbe5f9a0a	-0.21836105
124	0x3f35f208	0.71072435
125	0xbf3c6af7	-0.73600715
126	0x3f1da710	0.6158304
127	0xbea64213	-0.32472286
