Saved Models/Rosslyn_ULA_AMCF_12_beam_probing_codebook_128_beam_classifier.pt (torch, 26143 bytes, 6 tensors)

dense1.weight f4 [24, 12]
0	0x3de489e7	0.11159115
1	0xc054a923	-3.3228233
2	0xbe5acf4d	-0.21368141
3	0xc0cb759b	-6.358106
4	0x3d3cf443	0.046131384
5	0xbea477f4	-0.32122767
6	0xc0d0d75f	-6.5262904
7	0xc0a6c8ee	-5.2120275
8	0x3e432870	0.19058394
9	0x3d69f276	0.057115994
10	0xbf88f763	-1.0700496
11	0xb99b4dfb	-0.00029622004
12	0xbe1a3b31	-0.15061642
13	0xbdb69c63	-0.08916547
14	0xc0613ce7	-3.5193422
15	0x3e4ad98a	0.19809547
16	0xc10f54c5	-8.958196
17	0x3d3e230f	0.046420153
18	0xbe649354	-0.22321826
19	0xbe13aa46	-0.14420423
20	0xc0064cda	-2.0984406
21	0xbec78d8f	-0.38975188
22	0x3e2c7afd	0.16843791
23	0x3e75da97	0.24009167
24	0x3e5b3cdd	0.21409936
25	0xc203ee1e	-32.982536
26	0x3ed041af	0.40675113
27	0x3e121704	0.14266592
28	0xbf002af7	-0.5006556
29	0x3ee0ccf8	0.4390638
30	0x3d898d63	0.067164205
31	0xbd46f406	-0.048572563
32	0x3e409a3b	0.18808834
33	0x3defd502	0.1171055
34	0x3ddda76b	0.10822948
35	0x3e70a58e	0.23500654
36	0x3e572dad	0.21013518
37	0x3e955611	0.29167226
38	0x3d0fdd36	0.035123073
39	0x3c9e196c	0.019299231
40	0xbd2f1f17	-0.04275426
41	0x3ee4c8e5	0.4468452
42	0x3c853167	0.016258908
43	0xbef4f4ef	-0.4784312
44	0xbe7db85e	-0.24777362
45	0x3da295a8	0.07938701
46	0x3ea29f37	0.31762096
47	0xc2157282	-37.361824
48	0x3c331b68	0.010931827
49	0xc06368d5	-3.5532734
50	0x3ee27444	0.4422933
51	0xc19becb1	-19.490572
52	0x3f98ab59	1.1927291
53	0x3eecf364	0.46279442
54	0x3d211e91	0.03933579
55	0xbd052bbd	-0.032512415
56	0xc0067e2b	-2.1014507
57	0xbecd05aa	-0.40043384
58	0xc05faeda	-3.495047
59	0x3da5ce8b	0.080960356
60	0x3e8e5cb2	0.27805096
61	0x3d94d9ce	0.072681054
62	0xc2152125	-37.282368
63	0x3e1db9c1	0.1540289
64	0x3d319d48	0.043362886
65	0xbf2a32f0	-0.66483974
66	0x3d6620ed	0.056183744
67	0xbdc5db13	-0.09660926
68	0x3d66b55b	0.056325298
69	0xbecd0efa	-0.4005049
70	0x3df380a3	0.1188977
71	0x3dc68709	0.09693725
72	0x3ea67b70	0.3251605
73	0x3f44a0db	0.76807946
74	0x3c0067c1	0.007837237
75	0xc0332fbc	-2.7997885
76	0x3f9f8fe2	1.2465785
77	0xc13e4457	-11.891685
78	0x3e8951ad	0.26820126
79	0xbbf53794	-0.007483432
80	0x3e8aec33	0.2713333
81	0xc061a252	-3.5255322
82	0xc136c4af	-11.423018
83	0x3ee56a34	0.4480759
84	0x3e9c9fc0	0.3059063
85	0xbd9944c6	-0.074838206
86	0x3f2cee06	0.67550695
87	0x3dc987c4	0.09840348
88	0xc114b3cd	-9.293897
89	0xc14eeb8c	-12.932507
90	0xc0814315	-4.0394387
91	0x3ed748fe	0.42047876
92	0xbf24969f	-0.6429233
93	0xbcb528e4	-0.022114225
94	0x3f1de93c	0.6168401
95	0xc09df514	-4.936167
96	0x3d7f093e	0.062264673
97	0xc01fea0f	-2.4986608
98	0x3e1a8c4e	0.15092584
99	0xbf829fc7	-1.020501
100	0xc19795fb	-18.948233
101	0xc21c6a0c	-39.10356
102	0x3f0b4412	0.5440074
103	0x3e27e611	0.16396357
104	0x3d9e2093	0.07721057
105	0x3e6b5d70	0.22984862
106	0x3d9abc21	0.07555414
107	0x3d593450	0.053028405
108	0x3e9fa9f9	0.31184366
109	0xc0f9bd35	-7.8043466
110	0x3ecdef1b	0.40221485
111	0xc09d15b7	-4.9089007
112	0x3edee357	0.43532822
113	0xbfb9f185	-1.4526831
114	0x3f2989cf	0.66225904
115	0x3e178b8f	0.14799331
116	0x3e364068	0.17798007
117	0xc13fda36	-11.990774
118	0xc0b8b3ba	-5.7719393
119	0xbdf20831	-0.11817969
120	0x3c9e9e50	0.019362599
121	0x3ea7fd34	0.32810366
122	0xbffb4892	-1.9631522
123	0xc20fdd7c	-35.966293
124	0x3ec81c7b	0.3908423
125	0x3eade105	0.3396074
126	0x3dc0be37	0.094112806
127	0x3da52fc4	0.08065751
128	0x3e5185c7	0.20461188
129	0xc1576e87	-13.464484
130	0x3e893897	0.26800987
131	0x3e015c74	0.12632924
132	0xc15d4819	-13.830102
133	0x3e63b73a	0.22237864
134	0x3ebbf74d	0.36712113
135	0xc0210fdf	-2.5165937
136	0x3ecd8610	0.40141344
137	0xbfcd2cd7	-1.6029309
138	0xbe37c885	-0.17947586
139	0x3e347aa7	0.17624913
140	0xbe448e37	-0.19194876
141	0xbd286db6	-0.041120254
142	0xbd0434fa	-0.032277085
143	0x3ee06817	0.43829414
144	0x3e33589b	0.17514269
145	0x3e84a4d2	0.25906998
146	0x3e42e0cd	0.19031067
147	0xc238c65a	-46.193703
148	0x3defc8a7	0.11708193
149	0x3ddf0229	0.10889084
150	0xbf8b9f16	-1.0907924
151	0xbe045a10	-0.12924981
152	0x3d55cb50	0.052195847
153	0x3d502407	0.05081561
154	0x3e596ec2	0.21233657
155	0x3cb9e88e	0.022693899
156	0x3e6966c8	0.22793114
157	0x3da06d8f	0.07833397
158	0x3e1b1746	0.15145597
159	0x3eb63a4a	0.35591346
160	0x3ed48794	0.41509688
161	0x3e96a16e	0.29420036
162	0xc039027f	-2.8907773
163	0xbe180173	-0.14844303
164	0xbe8499e2	-0.25898653
165	0xc268902b	-58.14079
166	0xc0b5ed58	-5.6852226
167	0xc0eb5530	-7.354149
168	0xbdc516a2	-0.096234575
169	0x3e17fc2c	0.1484229
170	0xc1119d22	-9.1008625
171	0x3edef69c	0.43547523
172	0xbce2cb0f	-0.027684717
173	0xbd8672ea	-0.06564887
174	0xbdd164a7	-0.10224276
175	0x3f945a5c	1.1590075
176	0x3c1a03ec	0.009400349
177	0x3eb17576	0.34659928
178	0xc0ffa470	-7.988823
179	0x3e016723	0.12637
180	0xbe7a4f6a	-0.24444357
181	0x3de303ad	0.110846855
182	0x3f1230a4	0.5710547
183	0xbd807b56	-0.062735245
184	0x3e9032e5	0.2816383
185	0xbdd0ee2d	-0.102016784
186	0xc096bfcf	-4.710914
187	0x3f27ed7d	0.65596753
188	0xbdb2c8a0	-0.087296724
189	0x3eee6845	0.46563926
190	0x3eb45f98	0.35229182
191	0xbc824340	-0.015901208
192	0xc113efcc	-9.246044
193	0xc18b042d	-17.377039
194	0xbf0d9cb0	-0.5531721
195	0x3dbbc823	0.091690324
196	0x3f104e7e	0.5636977
197	0xc0b6327b	-5.693662
198	0xbeb1e8eb	-0.34748015
199	0x3f1cd8ed	0.612685
200	0x3e527aba	0.20554629
201	0x3dc1ee7f	0.09469318
202	0x3e71fc6b	0.23631446
203	0xbd8205f5	-0.063487925
204	0x3d5b6105	0.053559322
205	0xc0b56d61	-5.669602
206	0xc2062612	-33.537178
207	0x3f01f895	0.5076993
208	0x3f3c1bd5	0.7347997
209	0x3f047a2b	0.51748914
210	0x3e604b65	0.2190376
211	0xbeb27ebc	-0.34862316
212	0xbece6b49	-0.40316227
213	0xbdc739d7	-0.09727829
214	0x3efdcedb	0.4957188
215	0x3dacfb7f	0.084464066
216	0x3e6e6742	0.23281577
217	0xbdcf75f0	-0.10129917
218	0xc09bbaea	-4.8665667
219	0x3f6cb4a3	0.9246313
220	0xbf5919c7	-0.8480496
221	0xbecbea1e	-0.39827055
222	0x3eaaba3b	0.33345208
223	0x3e10120a	0.14069381
224	0x3e92d78a	0.28680068
225	0xbcb3acae	-0.021932926
226	0x3eacafc2	0.33727843
227	0xc146dce2	-12.428926
228	0xbf72e82e	-0.9488553
229	0x3e42be62	0.19017938
230	0x3e47dc65	0.19517668
231	0x3dcb98e4	0.09941271
232	0xc1d62164	-26.766304
233	0x3f9610b8	1.1723852
234	0x3e461749	0.1934482
235	0x3daddb43	0.084890865
236	0x3e28a43b	0.16468899
237	0xbf36efc4	-0.71459603
238	0x3e8ea2cd	0.27858582
239	0xbdd66136	-0.1046776
240	0xbfd0c48f	-1.6309985
241	0xbcfa7fbc	-0.030578487
242	0xbe92a41b	-0.28640828
243	0x3f0a6c8c	0.5407188
244	0x3fbe1055	1.4848734
245	0x3f008dc2	0.50216305
246	0xbe03c976	-0.1286982
247	0x3e2ccbe4	0.16874653
248	0xc075f186	-3.8428664
249	0x3d765606	0.060140632
250	0x3e987225	0.29774585
251	0x3e974c43	0.2955037
252	0xbec310e9	-0.3809884
253	0xc05e32a6	-3.4718413
254	0xbdcb45c0	-0.09925413
255	0x3f412ca2	0.7545873

dense1.bias f4 [24]
0	0x3f22f49c	0.63654494
1	0x3f5759f6	0.84121644
2	0x3e50fc83	0.20408826
3	0x3d8f9955	0.07011668
4	0x3e6f3c41	0.23362829
5	0x3e24e12c	0.16101521
6	0x3dfdb604	0.12388232
7	0x3ea2b3b4	0.31777728
8	0x3e1bc893	0.15213232
9	0x3efd83a5	0.495145
10	0x3e155bd8	0.14585817
11	0x3e852dd8	0.26011539
12	0x3e071b98	0.1319412
13	0x3e24e73d	0.16103835
14	0x3f21c049	0.6318403
15	0x3f04d7e3	0.51891917
16	0x3efc5c1b	0.4928902
17	0x3dca6e4e	0.0988432
18	0x3ed83b9e	0.42232984
19	0x3e86e501	0.2634659
20	0x3f00cab3	0.50309294
21	0x3e13d0db	0.14435141
22	0x3eb3f08c	0.3514446
23	0x3ed833cc	0.42227018

dense2.weight f4 [36, 24]
0	0x3efd1680	0.4943123
1	0x3f64d2a8	0.89383936
2	0xbf5d735c	-0.8650415
3	0xc0a1b48e	-5.0532904
4	0xbe88b6ef	-0.26702067
5	0x3ed0f263	0.40809926
6	0x3f02e83c	0.5113561
7	0xbddf0659	-0.108898826
8	0x4019415e	2.3946147
9	0x3f4fd096	0.8117765
10	0x3e5cb68c	0.21554011
11	0xbe39fb5f	-0.18162297
12	0x3fbf2af9	1.4934989
13	0xbfb4ab88	-1.4114847
14	0x3f4550a5	0.7707618
15	0xbd34c3bf	-0.04413199
16	0x3eededea	0.46470577
17	0xbf85e43c	-1.0460277
18	0xbfb38603	-1.4025272
19	0x3fbbb223	1.4663738
20	0xbe7ed9a1	-0.24887706
21	0xbeb8ebb3	-0.36117324
22	0xbfac6aaa	-1.3470051
23	0x3f9290a5	1.1450392
24	0xbf100b65	-0.56267387
25	0x3ea05ead	0.31322232
26	0xbec0aa6b	-0.3763002
27	0xbfeed90d	-1.8659989
28	0xc01853e8	-2.3801212
29	0x3ff87bcb	1.9412779
30	0x3f649dd8	0.8930335
31	0xbea138d5	-0.31488672
32	0x400e9227	2.2276704
33	0xbe87100d	-0.26379433
34	0xc0084902	-2.129456
35	0xbf051bfa	-0.51995814
36	0xc0c9d0f7	-6.3067584
37	0x3e99a28d	0.3000683
38	0xbf53bf78	-0.82714033
39	0xbc3374d7	-0.01095315
40	0x3f35119c	0.70729995
41	0x3fd1e0d6	1.639674
42	0x3d9cdff7	0.076599054
43	0x3f0fe5fc	0.56210303
44	0x3ea59e32	0.32347256
45	0x3f18996b	0.596091
46	0x3f46d548	0.7766919
47	0xbfa995d1	-1.3248845
48	0xbf627892	-0.88465226
49	0x3e37a153	0.17932634
50	0xbff04dbb	-1.8773721
51	0xc0e9924a	-7.2991076
52	0xbf5b1287	-0.85575145
53	0x401b1ca9	2.4236243
54	0xbd0771cd	-0.033067513
55	0xbef75a3c	-0.4831103
56	0x3f28c4da	0.6592537
57	0x3eeabcbc	0.45847118
58	0xbf3d1df3	-0.73873824
59	0x3dc8ee2a	0.09811051
60	0x3e7dd172	0.24786928
61	0x40995c68	4.79253
62	0x3f6445a9	0.8916879
63	0x3c312043	0.010810914
64	0xbf4a0f65	-0.7892974
65	0xbf58fa72	-0.8475715
66	0xbf14c3b6	-0.5811113
67	0xbe99a886	-0.30011386
68	0xbd5ef572	-0.054433294
69	0xbf12b570	-0.573081
70	0xbdfc5504	-0.12320903
71	0x3e7540fa	0.23950568
72	0xbf380c06	-0.71893346
73	0x3ec675d1	0.38761762
74	0xbe66c95e	-0.22537753
75	0x3f5c7ba0	0.86126137
76	0x3ec0a606	0.37626666
77	0xbf66d5e4	-0.9017012
78	0x3f093dd6	0.5360998
79	0x3e0521a1	0.1300111
80	0x3e963464	0.29336846
81	0x3dcd1ebf	0.1001563
82	0xc044739e	-3.0695567
83	0xbea187c1	-0.31548885
84	0xc088558c	-4.2604427
85	0xc02379f0	-2.5543175
86	0x3f3c9f97	0.73681015
87	0xbed97620	-0.42472935
88	0xbf9176d9	-1.1364394
89	0xbcec139e	-0.028817948
90	0xbe8b7847	-0.27240202
91	0xbf8c3bf5	-1.0955797
92	0xbeb7f38f	-0.35928008
93	0xbe1a1c3e	-0.15049836
94	0xbdb96d8d	-0.09054098
95	0xbec3b25a	-0.3822201
96	0x3df0253a	0.117258504
97	0x3f97e6ec	1.1867347
98	0xc030637e	-2.7560725
99	0xbd9c9794	-0.07646099
100	0x3ed4704d	0.4149193
101	0x3ed3c249	0.41359165
102	0x3fbab11a	1.4585297
103	0x3dc72db2	0.097255126
104	0xc05c5aeb	-3.4430492
105	0x3fdf3a58	1.743968
106	0x3f30b10f	0.6902017
107	0x3edd4e03	0.4322358
108	0x3e875f0f	0.2643971
109	0xbecca292	-0.3996778
110	0x3f114f9d	0.56762105
111	0xbf4f1fe2	-0.80908024
112	0xbfeef61d	-1.8668858
113	0xbfc8192d	-1.5632683
114	0x3e970239	0.29493883
115	0x3fe54eb2	1.7914641
116	0xbf70a60f	-0.94003385
117	0xbd96bd55	-0.07360331
118	0xbfed3333	-1.853125
119	0x3e3f3ce9	0.18675579
120	0x3d126153	0.035737347
121	0xbed37979	-0.41303614
122	0xbfb5d848	-1.4206629
123	0xbe15b422	-0.14619496
124	0x3e69d6a2	0.22835782
125	0x40871b7c	4.222105
126	0xbd4415ce	-0.047872357
127	0xbeabd786	-0.3356287
128	0x3e9983b0	0.29983282
129	0x3f4e2fe0	0.805418
130	0x3efa93af	0.489408
131	0xbeca819c	-0.3955201
132	0xc03486fb	-2.8207386
133	0xc07225cb	-3.7835567
134	0x3f092e83	0.53586596
135	0xbed3a216	-0.413346
136	0xbf67b560	-0.9051113
137	0xbf5c8132	-0.86134636
138	0x40141224	2.3136072
139	0x3f21f9a0	0.6327152
140	0xbee28bf3	-0.44247398
141	0xbf814646	-1.0099571
142	0xbea760fc	-0.3269118
143	0xbf5617d6	-0.8363012
144	0x3f854b91	1.0413686
145	0x3ed1c603	0.40971383
146	0x3f038b74	0.51384664
147	0x3eb9cbdd	0.36288348
148	0xbdaa89f0	-0.08327091
149	0x401b8734	2.4301271
150	0xc005a03f	-2.0879056
151	0xbf16d222	-0.5891439
152	0x3ed0e233	0.40797576
153	0xbeb236f0	-0.3480754
154	0x3fd26984	1.6438451
155	0xbd1c09ec	-0.0380954
156	0x3f5e3c6c	0.86810946
157	0xc08420b8	-4.128994
158	0xbe49755b	-0.19673674
159	0xbf93a412	-1.1534445
160	0x40203c65	2.5036862
161	0xbf8a33d6	-1.0797069
162	0xbf87708a	-1.0581219
163	0x3f40abf6	0.7526239
164	0xbf68d7b6	-0.9095415
165	0xbda5a55b	-0.0808818
166	0xbed5b2f4	-0.41738093
167	0x3fb43460	1.4078484
168	0x3ebc6047	0.36792204
169	0x3ea53b54	0.32271826
170	0xbfb8ee00	-1.4447632
171	0xbfce622e	-1.6123712
172	0xbe7c9b71	-0.24668671
173	0x3e8a7737	0.2704408
174	0x3ed6cce2	0.41953188
175	0x3e638cc6	0.2222167
176	0xbfcc1f37	-1.5947026
177	0xbea16e8d	-0.31529656
178	0xc006dea9	-2.10734
179	0xbfede7c9	-1.858636
180	0x3fa58a62	1.2932856
181	0x3f5678e4	0.83778214
182	0xbf87f672	-1.0622084
183	0x3f11b2d0	0.5691347
184	0xbf394ff0	-0.723876
185	0xbebf1c12	-0.37326103
186	0xbfd497d2	-1.6608832
187	0x3ef91a49	0.48652866
188	0xbe8653ef	-0.2623591
189	0x3f7ac3d9	0.9795509
190	0xc00a6a4f	-2.1627386
191	0xbfab5c26	-1.3387496
192	0xbeb8b919	-0.36078718
193	0xbb3a5a58	-0.0028435197
194	0x3f7fa7e5	0.9986556
195	0xc107eb96	-8.495016
196	0x3d6e30a2	0.05815185
197	0xbfa28481	-1.2696687
198	0xbfa81f15	-1.3134485
199	0x3cf1e91d	0.029530102
200	0xbfa8074b	-1.3127226
201	0x3ec969b3	0.39338455
202	0x40256106	2.5840468
203	0x3f88fbe8	1.0701876
204	0xbceeda14	-0.029156722
205	0xbfb79ece	-1.4345338
206	0xbea6cbde	-0.32577413
207	0x3e56ca64	0.20975643
208	0x3fa97607	1.3239144
209	0x3d843c5c	0.06456825
210	0x3eca06f8	0.39458442
211	0x3e8c3030	0.27380514
212	0x3d045bc3	0.032314073
213	0x3e4cb6cf	0.19991611
214	0xbf6bb71c	-0.9207628
215	0x3e70aa51	0.2350247
216	0xbf58f9e2	-0.8475629
217	0x3fc625b0	1.5480251
218	0x3f0753a1	0.5286198
219	0x3bb44f25	0.005502599
220	0xbdbc955e	-0.09208177
221	0x3efbff4e	0.4921822
222	0x3fdfe5f0	1.7492046
223	0xc0439200	-3.0557861
224	0xbff54e2c	-1.9164481
225	0xc037e75a	-2.8734956
226	0xc01f2b41	-2.487015
227	0xc00a8757	-2.1645105
228	0x3fe236be	1.7672956
229	0x3f272263	0.65286845
230	0x3f0aed75	0.5426858
231	0x3f98c00e	1.193361
232	0x3e81ed8f	0.25376555
233	0x3e85a64d	0.2610344
234	0xbf674e6f	-0.90354055
235	0xbde0c29e	-0.1097462
236	0xbee7314a	-0.45154792
237	0xbf712812	-0.9420177
238	0xbf45023c	-0.76956534
239	0x3de84a3c	0.11342284
240	0x3f20e81a	0.6285416
241	0x3ff1c11c	1.8887057
242	0x3e88cbef	0.2671809
243	0x3fbd3718	1.4782438
244	0xbeaa719e	-0.33289808
245	0x400d7888	2.2104816
246	0xc008be04	-2.1365976
247	0xbf2136e1	-0.62974364
248	0xbffcfb95	-1.9764277
249	0xbf6d17f2	-0.9261466
250	0xbf0da1c3	-0.55324954
251	0xbfaf4001	-1.3691407
252	0x3d9f9056	0.07791202
253	0xc015bba3	-2.3395774
254	0xbfa25dde	-1.2684896
255	0x3ed02509	0.40653256

dense2.bias f4 [36]
0	0x3dea813d	0.114504315
1	0x3fcfd1af	1.6235865
2	0x3fa4344e	1.2828462
3	0x40231ab7	2.5485055
4	0x3e3d8349	0.18507113
5	0x3fc0b96b	1.5056585
6	0x3f8a6e59	1.0814925
7	0x402886d7	2.63323
8	0x3eb5af42	0.35485274
9	0x3f81396d	1.009565
10	0x3e06dda8	0.13170493
11	0xbe9a5c9c	-0.3014878
12	0x3c5c5f40	0.013450444
13	0x3fab9808	1.3405771
14	0x3f575d25	0.841265
15	0x3fb96e99	1.4486877
16	0x3db6bdab	0.08922895
17	0x3f990253	1.1953834
18	0x3ff6b2b0	1.9273281
19	0x3f923bbb	1.1424478
20	0x3e93456d	0.28763905
21	0xbe9ad70f	-0.30242202
22	0x3f9e2860	1.2356071
23	0x3f1a5c55	0.6029714
24	0x3fc7e2d8	1.5616102
25	0x4012f3f1	2.296139
26	0x3fe2bccf	1.771387
27	0x3e6ee902	0.23331073
28	0xbf46c110	-0.7763834
29	0xbf1e5a0f	-0.6185617
30	0x3fc462b4	1.5342622
31	0x3f2ec465	0.68268424
32	0x3fb18573	1.386885
33	0x3fb2690c	1.3938308
34	0x3f67c06c	0.9052799
35	0x3f54d7a7	0.8314156

dense3.weight f4 [128, 36]
0	0xbfe27ae6	-1.7693756
1	0xbf8f7710	-1.120821
2	0xbec0878e	-0.3760342
3	0xbec0a7e4	-0.3762809
4	0xbeab2e3c	-0.33433712
5	0xbf4df713	-0.8045513
6	0xc010c79e	-2.2621837
7	0xbe75ab3e	-0.23991105
8	0xc0346cb7	-2.8191354
9	0xbebdff76	-0.37108964
10	0xbf81fe16	-1.0155666
11	0xbf207385	-0.6267627
12	0xbfaf63d0	-1.3702335
13	0xbff058f9	-1.8777152
14	0xbfaa0b91	-1.328478
15	0xbf1b0a37	-0.6056246
16	0xbf8f1315	-1.1177698
17	0xbf626aec	-0.884444
18	0xbf85d754	-1.0456338
19	0xbeef8d63	-0.46787557
20	0xbf225e3f	-0.6342506
21	0xbe25d705	-0.16195305
22	0xbf81c55f	-1.0138358
23	0xbf0097d8	-0.50231695
24	0xbf45ab43	-0.7721445
25	0xbf1680de	-0.58790386
26	0xbf2219b8	-0.63320494
27	0xbebb6338	-0.36599135
28	0xbefbbf5d	-0.49169436
29	0xbebd1554	-0.36930335
30	0xbf2ef1ec	-0.68337893
31	0xbf7551a0	-0.95827675
32	0xbe9eef40	-0.31041908
33	0xbf8637e9	-1.0485812
34	0xbf0d96bb	-0.5530812
35	0xbee96b4a	-0.45589668
36	0x3f12f847	0.5741009
37	0xbe360b79	-0.17777814
38	0x3f85f1d1	1.0464422
39	0x3ed62f14	0.41832793
40	0xc006a7d5	-2.1039937
41	0xbf8ac929	-1.0842639
42	0xbe71b73a	-0.23605052
43	0xbdc978c7	-0.098374896
44	0xc0aaa4b1	-5.332604
45	0xbe253005	-0.16131599
46	0xbec8c513	-0.39212856
47	0xbf5c94ee	-0.8616475
48	0xbf6848de	-0.90736187
49	0xbe959b79	-0.2922018
50	0xc0550131	-3.3281977
51	0xc00b32f1	-2.1749842
52	0x3fb0bccb	1.3807615
53	0x3f200e60	0.62521935
54	0xbfdfff73	-1.7499832
55	0xc08d933a	-4.424222
56	0x3bbcc6be	0.0057609966
57	0xbddc4fe1	-0.10757423
58	0x3e429801	0.19003297
59	0x3edeb7a7	0.4349949
60	0xc0549bd7	-3.3220117
61	0xc01d6424	-2.459237
62	0xbf756665	-0.95859367
63	0xc02e2a7d	-2.7213433
64	0x3e73443d	0.237565
65	0xbf5a4fd3	-0.8527805
66	0xc07c7b3e	-3.945022
67	0x3f01a8b6	0.5064806
68	0xbfd3b8ec	-1.6540809
69	0xbf7fbd55	-0.9989827
70	0xbea14ced	-0.31504002
71	0xbe7fc471	-0.2497728
72	0x3f9cb8cc	1.2243896
73	0xc05c9c1d	-3.4470284
74	0x3fdc6548	1.7218409
75	0xbf0c06f8	-0.54698133
76	0xbf969134	-1.1763062
77	0xbf9c61cc	-1.2217345
78	0xbf4c8913	-0.7989666
79	0xbf57d235	-0.84305125
80	0xbff8cd24	-1.9437604
81	0xbf309f41	-0.68993
82	0x3e16b3c9	0.1471702
83	0x3f83c587	1.0294656
84	0xbf988bda	-1.1917679
85	0xbeb5c453	-0.35501346
86	0xc0dfaa6b	-6.989553
87	0xc0b5e566	-5.6842527
88	0x3f48bff9	0.7841793
89	0xbe2a3b94	-0.1662429
90	0xc0085fab	-2.130839
91	0x3cdb28e1	0.026752891
92	0x3c6e7483	0.014554146
93	0x3d3de8dd	0.046364654
94	0x3da7c9b3	0.08192768
95	0x3f86d7ba	1.0534585
96	0xbf96b03f	-1.1772536
97	0xbfb97ea8	-1.4491777
98	0xc02f6f48	-2.741167
99	0x3e7e6455	0.24842961
100	0x3efa4ca1	0.48886588
101	0x3ea4ea04	0.3220979
102	0xbfb37397	-1.401965
103	0x3f647b57	0.892507
104	0x3eaa36f1	0.33245042
105	0xbf6e1042	-0.9299356
106	0xbe1d434f	-0.15357707
107	0xbf39b459	-0.72540814
108	0x3ea285ec	0.317428
109	0x3eb79ca7	0.35861704
110	0x3ea3b7aa	0.31976062
111	0xbf3aae59	-0.72922283
112	0xbfac4ddb	-1.346126
113	0xc0293442	-2.6438146
114	0xbd383639	-0.044973586
115	0xbee327a6	-0.44366187
116	0xbfea8c33	-1.8324035
117	0x3e97b949	0.2963355
118	0x3f114e8f	0.56760496
119	0x3da0ed4a	0.07857759
120	0x3f54875a	0.8301903
121	0xbee81c45	-0.45334068
122	0xc02b4f6f	-2.6767232
123	0xbf9ff48c	-1.2496505
124	0xbf612e79	-0.87961537
125	0xbe97c3f5	-0.2964169
126	0xc09df666	-4.936328
127	0x3f8ee938	1.1164923
128	0xbf55833d	-0.8340338
129	0xbe444fb3	-0.19171028
130	0xbf1c5b1b	-0.61076516
131	0xbe71e829	-0.23623718
132	0xbf3233d2	-0.6961032
133	0xbe808c8a	-0.25107223
134	0xbf31b5af	-0.6941785
135	0x3f726d5f	0.9469814
136	0x3e367417	0.17817722
137	0x3e9d1327	0.30678675
138	0xc0a9de96	-5.308421
139	0x3f33d9ef	0.70254415
140	0x3e31d0eb	0.17364852
141	0xbf60c678	-0.8780284
142	0xbedbe5e1	-0.4294882
143	0x3f50a088	0.8149495
144	0x3eee9638	0.46598983
145	0xc00184eb	-2.0237377
146	0x3eddad01	0.43296054
147	0xbfe3df25	-1.7802473
148	0x4002c376	2.04318
149	0xc0c6bf1c	-6.210829
150	0x3f52f4c0	0.8240471
151	0x3e3cd364	0.18440014
152	0xbfb40ef6	-1.4067066
153	0x3fd9e75d	1.7023731
154	0xbefd7cbe	-0.49509233
155	0xbf5d8c36	-0.8654207
156	0xbf669086	-0.90064275
157	0xbf0a55b5	-0.5403703
158	0xbfb4fd6c	-1.4139838
159	0xbff44cad	-1.90859
160	0xbf6e42f5	-0.9307092
161	0xbbf5c228	-0.007499952
162	0xc0359c2b	-2.8376567
163	0xbe4fb516	-0.20283923
164	0x3f46aba1	0.77605635
165	0xbe59ee44	-0.21282297
166	0x3ec67103	0.38758096
167	0x3d01d29f	0.031695005
168	0x3ed09ed7	0.40746185
169	0xc067ee9f	-3.6239393
170	0x3f148884	0.58020806
171	0xbf9bf2db	-1.2183489
172	0x3dbfd8c8	0.093675196
173	0xbe95c46c	-0.2925142
174	0xbf1e8294	-0.61917996
175	0xbe31fa5f	-0.17380665
176	0x3f92b037	1.1460027
177	0xbfc4355f	-1.5328788
178	0x3d6b5a7b	0.057459336
179	0x3ecfd672	0.40593296
180	0x3d965369	0.07340128
181	0x3f93de44	1.1552205
182	0xbfa9c701	-1.3263856
183	0x3f9f19a6	1.2429702
184	0x3fd04fb1	1.627432
185	0xbff49d61	-1.9110528
186	0x3f221dad	0.6332653
187	0xbfb68d26	-1.4261825
188	0xbf8e5cb9	-1.1122047
189	0xbe3d5fd4	-0.18493587
190	0xbdc70dd7	-0.097194366
191	0xbe73e98b	-0.23819558
192	0x3ebf05d9	0.3730915
193	0xbf643ac2	-0.8915216
194	0xc04aed81	-3.170746
195	0x3fb03489	1.3766032
196	0x3eed6aae	0.46370453
197	0xbe3c33e5	-0.18379171
198	0xc04fe834	-3.2485476
199	0xbe4aef77	-0.19817911
200	0xbebc449f	-0.36771104
201	0xbe3e9800	-0.18612671
202	0xbfdbc34e	-1.7168977
203	0xbf63e474	-0.89020467
204	0x3daaf667	0.08347779
205	0xc09d359b	-4.9127936
206	0xbfd8262a	-1.6886647
207	0xbf216f42	-0.6306039
208	0x3f043c1a	0.5165421
209	0xc0558797	-3.3364007
210	0x3f042c69	0.51630265
211	0xbce3fb18	-0.027829692
212	0xbfa60be7	-1.2972382
213	0xbff9b310	-1.950777
214	0x3f1d268b	0.61386937
215	0x3fdaeeff	1.7104186
216	0x3ebbdc80	0.36691666
217	0xc00c5b0b	-2.1930568
218	0xbf369c94	-0.7133267
219	0xbe9b845c	-0.3037442
220	0xc014ee75	-2.3270543
221	0xc088efad	-4.2792573
222	0x3eb2abdb	0.3489674
223	0xbfab42c6	-1.3379753
224	0xbd3abe5a	-0.04559169
225	0x3f8ee792	1.116442
226	0x3e3e8a41	0.18607427
227	0x3ecb5abe	0.39717668
228	0xbf5d2951	-0.8639117
229	0xbfaa96f2	-1.3327315
230	0xbfe61a3e	-1.7976758
231	0xbf649290	-0.89286137
232	0xbe9ba203	-0.30397043
233	0x3ed7f70b	0.42180666
234	0xc08348cd	-4.102637
235	0xbf24bb9b	-0.64348763
236	0x3ed5850e	0.41703075
237	0x3d62d836	0.055381976
238	0xbf6545f8	-0.8955989
239	0x3f9c6716	1.2218959
240	0xbee2a104	-0.4426347
241	0xbf0c0e26	-0.5470909
242	0xbef96049	-0.48706272
243	0xbf7b976b	-0.9827792
244	0x3e34dc69	0.17662205
245	0x3ed7fdb0	0.42185736
246	0xbed35ebf	-0.41283223
247	0xbeaae328	-0.3337643
248	0x3e91e596	0.28495473
249	0xbf21885f	-0.6309871
250	0xbeb511ae	-0.3536505
251	0x3d706362	0.05868853
252	0xbd6105d8	-0.054937214
253	0x3ed7dde7	0.42161486
254	0xbf4d063e	-0.8008765
255	0xbfdb4d77	-1.7133015

dense3.bias f4 [128]
0	0xbe612535	-0.2198685
1	0xbe814776	-0.25249833
2	0xbe88c662	-0.26713854
3	0xbf371850	-0.7152147
4	0x3d390a03	0.045175564
5	0xbdfaa2e0	-0.12238097
6	0xbefd4a78	-0.49470878
7	0xbf368df8	-0.7131038
8	0xbf708360	-0.9395046
9	0xbd24f5fb	-0.040273648
10	0x3dd6f601	0.1049614
11	0xbeb00fcf	-0.3438706
12	0xbed4f62e	-0.4159407
13	0x3e790b88	0.24320805
14	0xbfa5e96a	-1.2961857
15	0x3eb54c32	0.35409695
16	0x3e46556e	0.19368526
17	0xbf3da8fc	-0.74085975
18	0xbf06215f	-0.5239467
19	0x3f8652a0	1.0493965
20	0xbc4fe52d	-0.012688917
21	0x3f50e2ac	0.81595874
22	0x3eb64cec	0.35605562
23	0xbe33b377	-0.17548929
24	0x3ce061b2	0.027390335
25	0xbebc5f01	-0.36791232
26	0xbdef5a66	-0.11687164
27	0x3e0383f2	0.12843302
28	0x3ef19734	0.4718567
29	0xbcb15939	-0.02164899
30	0x3ee9366d	0.45549336
31	0x3f46c332	0.77641594
32	0x3e9ea85b	0.3098782
33	0x3e735c7c	0.23765749
34	0xbf0248cd	-0.50892335
35	0x3e3a220d	0.18177052
36	0xbe6334b8	-0.2218808
37	0x3e1c1d54	0.15245563
38	0x3e8c8af2	0.27449757
39	0xbf997460	-1.198864
40	0xbfc770fb	-1.5581354
41	0x3f1eb15b	0.6198937
42	0x3eb6ff2f	0.35741565
43	0x3f70d1ac	0.94069934
44	0x3ef40902	0.47663122
45	0xbe86cc9e	-0.26327986
46	0x3e159c2d	0.14610358
47	0xbc0e8261	-0.008698077
48	0x3c4997a5	0.012304221
49	0x3e900640	0.28129768
50	0x3e66569d	0.22493978
51	0xbdd6b67b	-0.10484024
52	0xbe722e6b	-0.2365052
53	0xbdc2f91b	-0.09520169
54	0x3fc2eb7e	1.5228117
55	0xbf5a4c1d	-0.8527239
56	0x3e7c9caf	0.24669145
57	0xbec7238c	-0.38894308
58	0x3f4514ed	0.76985055
59	0xbf22b28e	-0.635537
60	0xbfbdc8af	-1.4826869
61	0xbe9d7a73	-0.30757484
62	0x3f8dde5f	1.1083487
63	0xbf183711	-0.59459025
64	0x3fb89cbb	1.442283
65	0x3ee1f166	0.44129485
66	0xbe953348	-0.29140687
67	0x3f822472	1.0167372
68	0xbee56034	-0.4479996
69	0x3edf98a1	0.43671134
70	0x3f781c9f	0.9691867
71	0xbe8b23b3	-0.27175674
72	0x3f201e69	0.625464
73	0xbf165a15	-0.58731204
74	0x3fde1867	1.7351197
75	0x3ff11cb8	1.8836889
76	0x3e10416e	0.1408746
77	0xbf347783	-0.7049486
78	0x3f1bdc20	0.6088276
79	0x3eb35166	0.3502304
80	0xbfe4f256	-1.7886455
81	0xbe2fe451	-0.1717694
82	0x3f859db9	1.0438758
83	0xc003bb2d	-2.0582993
84	0xbece228a	-0.40260726
85	0x3f2fbe46	0.6864971
86	0xbf0e92e5	-0.55692893
87	0xbf81a3fc	-1.0128169
88	0x3f4bd135	0.796161
89	0xbe2a3df4	-0.16625196
90	0xbe81044b	-0.25198588
91	0x3f71f4f9	0.94514424
92	0xbe3db79f	-0.18527077
93	0x3ed91076	0.4239537
94	0x3e13c148	0.144292
95	0x3f71fe2c	0.9452846
96	0xbe156ed5	-0.1459306
97	0x3de438a7	0.11143618
98	0x3f6c8ce0	0.9240246
99	0xbf744acc	-0.9542663
100	0xbf45efc3	-0.7731897
101	0x3f682aed	0.906905
102	0xbe88629e	-0.2663774
103	0x3f2d3279	0.6765514
104	0x3ed93411	0.42422536
105	0x3fb24879	1.3928367
106	0x3e2f4ea7	0.17119847
107	0x3fafb076	1.3725727
108	0x3e441af7	0.19150911
109	0xbf3dc45a	-0.74127734
110	0x3eaacfa7	0.3336155
111	0x3f433c91	0.7626429
112	0x3f2d9819	0.6781021
113	0xbe803a94	-0.25044692
114	0xbef2a2c0	-0.47389793
115	0xbf7eb430	-0.99493694
116	0x3ef2e31c	0.47438896
117	0x3ea50f1b	0.32238087
118	0x3f95abc4	1.1693044
119	0xbf83f435	-1.0308901
120	0xbea406aa	-0.32036334
121	0xbf43f5bc	-0.76546836
122	0x3ec0d0da	0.3765934
123	0xbdd15bc9	-0.10222585
124	0x3eef47cb	0.4673446
125	0xbf85c5be	-1.0450971
126	0xbf8bd60f	-1.09247
127	0xbedb150c	-0.42789495
