Saved Models/Rosslyn_ULA_AMCF_16_beam_probing_codebook_128_beam_classifier_noise_-94_dBm.pt (torch, 35999 bytes, 6 tensors)

dense1.weight f4 [32, 16]
000000 58 0e 31 be 2a ae 73 3e 32 87 a0 3e 5c c5 5c c1
       -0.17290628 0.23796907 0.31353146 -13.798183
000010 d3 c0 c0 3e 2c 28 31 3e 6c f8 94 3e 44 a0 7c bf
       0.37647113 0.1730048 0.2909578 -0.98682046
000020 81 9a 41 c0 3c f9 f0 3e 28 f2 ed bd 9e 2c 66 c1
       -3.0250552 0.4706515 -0.11618453 -14.385893
000030 05 92 c5 3e da 90 85 3e da 8b 26 c0 75 99 fb 3c
       0.38587967 0.26087075 -2.6022859 0.030712822
000040 48 b7 90 3e f9 41 e0 3e cf a6 5b be 87 ce b2 c1
       0.28264832 0.43800333 -0.21450351 -22.350843
000050 f5 f3 c2 3e bc 4f 77 3e 4a c6 35 3e 1a a4 e4 3d
       0.3807675 0.2415151 0.17751423 0.111641124
000060 f1 98 f7 3e 3d d3 34 3e 58 b6 d4 3e ec b1 a6 3d
       0.48358873 0.17658706 0.41545367 0.08139405
000070 79 c7 5c 3d 62 98 2e c1 ef 75 82 c0 10 7c 78 c1
       0.05390117 -10.912203 -4.076896 -15.530289
000080 8e ab c4 3e 34 7c d4 bf 33 b1 3a c1 9a 7b 32 3f
       0.38412136 -1.6600404 -11.668262 0.6971985
000090 26 80 58 3f b5 82 43 3f 78 d8 40 3f 26 aa 1a c0
       0.8457054 0.7637132 0.75330305 -2.416635
0000a0 a2 a2 d8 bd 3c 5c bf 3e 07 bd e0 bc f8 4d 0b 3f
       -0.10577895 0.37375057 -0.027433885 0.54415846
0000b0 70 31 07 3e 70 49 57 3e 5e 7d 50 be 0b 6c 84 bd
       0.13202453 0.21024108 -0.20360324 -0.0646592
0000c0 bb 94 2d 3f f1 c4 80 c0 f4 70 38 3f 40 45 05 bf
       0.6780507 -4.0240407 0.7204735 -0.5205879
0000d0 18 90 17 3c 3e bf 25 bd 9f d0 54 3d 58 ef 81 3e
       0.009250663 -0.040465586 0.05195677 0.25377917
0000e0 76 35 ea 3e 87 d9 13 3f 0f 8f 6b 3e 82 6f 95 3e
       0.45743912 0.57753795 0.23003791 0.29186636
0000f0 c1 19 7e c1 65 72 56 c1 ec f4 48 c0 69 f3 8f 3e
       -15.881288 -13.402928 -3.1399488 0.28115395
000100 64 d3 15 3d ef d4 d4 3e 33 8a 93 3d dc f6 bb bf
       0.03657855 0.41568705 0.07204094 -1.468471
000110 26 08 c2 3e 3e 74 c2 c0 67 90 d7 bd b8 30 35 c0
       0.37896842 -6.0766897 -0.105255894 -2.8310986
000120 2d 8b 48 be 29 94 a1 3d 39 0a f8 3e 56 7a 68 3d
       -0.19584341 0.078895874 0.484453 0.056757294
000130 d8 41 aa 3e bc 55 ed 3e f4 6f 92 c1 8d 73 30 c1
       0.3325336 0.46354473 -18.304665 -11.028211
000140 6d c4 19 3e 83 fb 93 bf 1b 47 c8 c1 89 aa 14 3f
       0.15016337 -1.156113 -25.03472 0.58072716
000150 d4 bf 9e 3e c4 c0 8c be 2f 1f c3 c0 ab b9 ea 3e
       0.31005728 -0.27490819 -6.0975566 0.45844778
000160 af 5a 15 3e 48 fb 72 3e 1a 2f 50 be e4 52 63 3e
       0.14585374 0.23728669 -0.20330468 0.22199589
000170 a5 59 aa c0 16 5a 5b 3e aa 63 46 3e 35 aa 6b bf
       -5.323443 0.21421084 0.19373956 -0.9205659
000180 00 25 0c 3e 6a 24 5a c1 2f 56 14 3d 05 4e 12 3e
       0.1368599 -13.63389 0.036215004 0.14287575
000190 c6 cc e4 3e 31 78 f2 3d 31 85 53 c0 ab d4 9a be
       0.4468748 0.11839331 -3.3050044 -0.30240378
0001a0 05 05 80 be 64 a8 ad 3e 6a 79 c2 3e 91 4c a0 bf
       -0.2500383 0.33917534 0.37983257 -1.2523366
0001b0 cc d1 82 bf 82 ca be bd 6c ad a1 bd b1 5e 24 3c
       -1.0220275 -0.09315969 -0.07894406 0.010032342
0001c0 4d 7d da 3d cd d3 92 3e 2e d7 70 bf 09 2c 80 c1
       0.106684305 0.28677216 -0.9407834 -16.021502
0001d0 f1 25 92 3f 5d 56 66 c1 ba 39 2d c0 5f 51 5c c1
       1.1417829 -14.396085 -2.7066483 -13.769866
0001e0 46 92 a9 c1 3e 02 eb 3e 9c cc be 3e 48 8a 0e 3f
       -21.196423 0.45900148 0.3726548 0.5567975
0001f0 d7 2e bb be 7d 80 87 3e 72 af 7a 3e 54 36 82 be
       -0.36559173 0.26465216 0.2448099 -0.25432074
000200 f3 b3 e0 c0 57 08 9e c0 97 03 8b be 7d 11 28 3f
       -7.0219665 -4.938518 -0.27151176 0.65651685
000210 ee cd 0e bf 99 cd 1a 3f 95 83 9c c1 14 2c db bd
       -0.55782974 0.6046997 -19.564249 -0.107017666
000220 58 7a 34 3e 84 c2 ed 3e 71 49 6b 3f 18 45 90 c0
       0.17624795 0.46437466 0.9190894 -4.5084343
000230 16 d7 13 3e 46 9a 41 3e 6d 40 96 3e b9 9d 0a 3e
       0.14437518 0.18906507 0.29346028 0.13536729
000240 8c f6 50 c0 75 c0 6b c1 63 fb 5d 3e 4a 28 a2 c1
       -3.265048 -14.734487 0.21677928 -20.269672
000250 be d8 4d 3f 21 63 69 3e 41 85 88 3d b6 e0 4f 3f
       0.8040885 0.22791721 0.06666041 0.81202257
000260 e4 df a4 be 2c 8e 7c bf d1 bd 39 be 6e b9 48 3f
       -0.32202065 -0.9865444 -0.18138815 0.78407943
000270 7f e0 13 3f 4f 14 a0 bb 14 dd 05 3f b4 92 fe 3d
       0.5776443 -0.0048852335 0.52290463 0.12430325
000280 cb 25 5d c1 37 54 08 3f d1 a7 35 be 55 47 82 be
       -13.821727 0.532535 -0.17739798 -0.25445047
000290 99 84 69 3f 6d 35 78 3d 30 3f 16 bf ec 59 fc c0
       0.9121795 0.060597826 -0.58690166 -7.885977
0002a0 51 70 93 bf 58 ee 28 be 6c 0a 11 be f3 c2 fb bd
       -1.1518651 -0.16497171 -0.14164132 -0.12293043
0002b0 32 64 a3 3d bf 0b a9 3e 74 55 b8 3d a2 14 ac 3e
       0.07978095 0.33016774 0.09000674 0.33609492
0002c0 36 05 05 be d0 b3 41 c0 a9 6b f9 be 96 d4 78 be
       -0.12990269 -3.0266 -0.4871495 -0.24299845
0002d0 f3 1c 91 be 69 45 e0 3e 4c 36 16 bf 12 6f 2a be
       -0.283424 0.43802956 -0.586766 -0.16643932
0002e0 65 4a f8 3d e2 0d d6 3d 17 32 33 be ea 6c cd 3e
       0.12123565 0.10451867 -0.17499577 0.40122157
0002f0 a2 58 fe be 4a b9 19 be f6 10 52 3d 64 17 b8 be
       -0.49676996 -0.15012088 0.051285706 -0.35955346
000300 bf ed 70 bd 5a e1 f0 bd 4b b0 b7 bd 9e 67 ad 3e
       -0.058820482 -0.117617324 -0.08969172 0.33868116
000310 d9 84 53 bf b6 89 5d 3e f1 a5 fc 3d c4 9d 40 3e
       -0.82624584 0.21634564 0.12336338 0.18810183
000320 ba 69 87 3e 9c f8 af c1 3a af ce 3e 30 4c fd be
       0.2644785 -21.996391 0.40368062 -0.4947219
000330 50 ce 27 c1 c2 0c 1d 3e b0 d9 c2 bc 9d 41 06 3d
       -10.487869 0.15336898 -0.023785442 0.032777417
000340 9f 16 bf 3e 2b e7 2d 3e fa f9 f6 39 08 77 30 3f
       0.37321946 0.16982715 0.00047107023 0.6893163
000350 28 08 7f c1 95 b1 98 3d 36 7e ac 3e 74 55 82 bf
       -15.939491 0.07455746 0.3369004 -1.0182328
000360 3d 5a 82 3e da 22 26 3e b9 41 76 be 15 c3 19 bf
       0.2545947 0.16224232 -0.24048509 -0.60063297
000370 b8 22 43 3e 1c 97 14 3e 7b b0 f8 3e 19 85 89 c1
       0.19056213 0.14510769 0.48572144 -17.18999
000380 30 74 4a 3e 12 30 d4 3c 0e 7e 1b c1 f6 fc ae 3e
       0.19770885 0.025901828 -9.718275 0.3417737
000390 36 d8 d5 c0 eb ee 26 be ab be e3 3e 4d 32 8d c1
       -6.682643 -0.16302077 0.44481406 -17.64956
0003a0 cd 07 1e 3f e5 e3 1f 3e 4f c7 23 3e 1e f1 9e be
       0.61730653 0.15614279 0.15993999 -0.31043333
0003b0 76 c9 68 be 12 5f ae 3e b9 c7 ce bd dd 6f 3e c0
       -0.22733101 0.34056908 -0.10096688 -2.9755776
0003c0 18 e5 d5 bd 00 17 83 bd a0 fe 00 3e d4 0b 3a bf
       -0.10444087 -0.06400871 0.12597132 -0.726743
0003d0 92 e2 7f 3e 1b 04 b8 c0 ad 40 2d c1 b1 f4 fb c1
       0.24988773 -5.750501 -10.82829 -31.494478
0003e0 8a d2 0e 3e 7d 9b 08 3f b7 07 bb 3c 2e cf 09 bd
       0.13947502 0.53362256 0.022830827 -0.033644848
0003f0 41 96 a7 3b 8f c9 37 c0 1c b8 64 c0 79 ae 4e bd
       0.005114347 -2.8716772 -3.5737371 -0.05045936

dense1.bias f4 [32]
000000 0d b2 d7 3e 62 2b 50 3e 70 a7 fb 3b 35 33 02 3e
       0.4212803 0.20329049 0.007679872 0.12714846
000010 a4 d0 7f 3e 6c 85 34 3e 4b ca 2b 3f 52 4b 93 3d
       0.24981934 0.17629021 0.6710555 0.071921006
000020 4e 4d d8 3a e1 5d d5 3d e4 b0 5a 3e 42 c5 52 3f
       0.0016502531 0.104182966 0.21356541 0.8233224
000030 77 81 15 3f 63 86 aa 3e 81 9a cf 3e ab 7c fe 3e
       0.5840067 0.33305654 0.40547565 0.4970449
000040 4b 39 ed 3e 2a 06 b4 3e 12 b6 95 3e 16 2d 3e 3f
       0.46332774 0.35160953 0.2924047 0.74287546
000050 93 28 63 3f bd 6e 01 3f fe 40 3f 3e 15 4d ed 3e
       0.88733786 0.505596 0.18677136 0.4634787
000060 69 bc 12 3f e5 86 57 3e 1b 67 80 3e d1 af 5d 3f
       0.5731874 0.21047552 0.25078663 0.865964
000070 14 c6 86 3d 66 42 b9 3e 3f 92 e9 3d b3 4f 1d 3f
       0.06580749 0.3618347 0.11404847 0.61449736

dense2.weight f4 [48, 32]
000000 55 52 b6 be 61 ab 62 3e bd fe 24 c0 7f 17 d0 bd
       -0.3560969 0.22135688 -2.578048 -0.101607315
000010 63 83 1d 3f 6b 2d 8b 3f 92 9b a3 bd a2 89 29 bf
       0.61528605 1.0873235 -0.07988657 -0.66225636
000020 bc 04 66 bf b1 ad 9e 3f 54 2c 03 bf a2 ac 87 3e
       -0.89850974 1.2396756 -0.51239514 0.26498896
000030 03 1e 22 3d c5 c6 5a bf 3a 00 f2 3c 73 51 b3 bf
       0.039579403 -0.8545955 0.029541124 -1.4009231
000040 48 74 56 bf 34 59 88 bc a7 93 a6 3c af 3c 91 bf
       -0.8377118 -0.016644098 0.020334078 -1.1346644
000050 fb f5 47 3f fa c4 86 3d 58 f8 08 40 97 37 d6 bf
       0.7810971 0.06580539 2.1401577 -1.6735715
000060 2a 20 9f 3f 83 34 f5 be fe 6c e6 3f 58 f2 e4 3f
       1.2431691 -0.47891626 1.8002012 1.7886457
000070 5e a8 aa 3e 5e eb ae 3e 79 a8 2d 3f ef a1 08 40
       0.3333158 0.34163946 0.67835194 2.1348836
000080 c9 9b 45 bf 68 b0 7a c0 52 ff a1 be 10 69 2b bf
       -0.77190834 -3.917017 -0.31640106 -0.6695719
000090 9c 07 47 3f a9 25 85 bf 2f a4 7f 3f 21 39 be 3f
       0.77745986 -1.0402118 0.998599 1.4861184
0000a0 4e 1c ea bc 32 45 57 be 41 dc 66 bf a2 de cd 3e
       -0.02857795 -0.2102249 -0.9017983 0.40208918
0000b0 b5 e6 cc 3e 89 ca 99 bf dc 4a 59 bf cd e5 3d 3e
       0.40019765 -1.2014934 -0.8487985 0.18544693
0000c0 3c 8c 18 3f 46 c5 8c bb 40 8b 88 bf e8 f3 04 3a
       0.5958898 -0.0042959778 -1.0667496 0.0005071745
0000d0 2b 52 a6 3d 0f e9 e5 bf 53 db 1d c0 a7 b6 c3 3e
       0.08121141 -1.7961749 -2.4665115 0.3822529
0000e0 e1 c7 10 c0 9d 5a 85 3f 3c 52 2b bf f0 82 88 3e
       -2.2621996 1.0418278 -0.66922355 0.26662397
0000f0 61 98 95 3f b7 3c bd 3f 20 f0 e8 be dc 37 80 bd
       1.1687127 1.4784154 -0.454957 -0.06260654
000100 bd 12 b3 be b7 e6 3d bf 97 f7 80 bf fa 6d 9a 3f
       -0.34975234 -0.7418017 -1.0075558 1.2064812
000110 1f 54 16 3f 90 f7 48 bf ee 27 b5 bf 67 a0 a0 bd
       0.5872211 -0.7850275 -1.415281 -0.07843094
000120 13 44 b7 3c d6 88 78 bf 4a cc 0f bf 22 e7 a0 bd
       0.022371328 -0.97083795 -0.56171095 -0.07856585
000130 ea 07 c4 3e 58 25 d1 3e 59 c2 90 3f da 77 eb 3f
       0.38287288 0.40848804 1.130931 1.8395951
000140 7c 81 04 3e ca ab a8 be 6b 5b a0 be d7 6f dd 3d
       0.1294002 -0.32943565 -0.31319746 0.108123474
000150 d0 70 cf be 69 89 0c 40 fc 0c 9a 3e fb ee 94 3f
       -0.40515757 2.1958869 0.3008803 1.1635431
000160 de 03 0f 3e 4f f1 96 c0 8c 61 5a bf 5e 5e 95 3f
       0.13966319 -4.7169566 -0.85305095 1.1669424
000170 db b3 2a 40 b7 1a 00 bf f1 00 c7 be 3b 7c 96 bf
       2.6672275 -0.50040764 -0.38867906 -1.1756662
000180 b8 2d 06 40 48 73 4f c0 57 e3 19 bf 07 a1 92 bf
       2.0965405 -3.2414112 -0.6011252 -1.1455392
000190 c5 51 a8 3f 46 e8 07 bf 74 74 1c 3e 43 80 b7 3b
       1.3149954 -0.53088796 0.15278798 0.005600007
0001a0 b6 c6 a1 be ee a4 94 be ee 4c c9 bf e5 90 94 3e
       -0.31596917 -0.2903208 -1.5726602 0.29016796
0001b0 ef 9d b8 3d c1 a9 6f bf bd bb cc bf 62 7e e8 3c
       0.090144984 -0.936184 -1.5994793 0.028380577
0001c0 f3 3d 5e 3f 9f ce 74 3f 4c 93 f2 bf fc 9f a1 3f
       0.86813277 0.9562778 -1.8951201 1.2626948
0001d0 93 a8 33 bf eb b1 56 3e 6e 56 52 bf a3 79 bd bd
       -0.701791 0.20966308 -0.8216313 -0.09251716
0001e0 10 8f b5 3e aa ae 03 bf 52 58 80 3e 29 d8 8e 3e
       0.3546071 -0.5143839 0.25067383 0.27899292
0001f0 ea 52 99 3f 8c d6 34 bd 83 1d 6b 3f 6f cc 60 3f
       1.1978428 -0.04414992 0.91841906 0.8781194
000200 41 3f 61 be d1 58 9d bd ab e7 a8 3d 05 e1 06 be
       -0.21996786 -0.07682956 0.08247312 -0.13171776
000210 35 46 14 be 0c 5a 0c 3d c2 66 41 be 7b 70 0b be
       -0.14479907 0.034265563 -0.18886855 -0.13617127
000220 94 ad 41 be 07 97 5e be 42 de 01 3d 86 e9 ce bd
       -0.18913871 -0.217373 0.031706102 -0.10103135
000230 e6 be 92 be e1 10 82 be b0 c7 ee bd 14 1f fb bd
       -0.2866127 -0.25403503 -0.11659181 -0.12261787
000240 ec e8 0a be 44 dc c2 bd a5 0f 42 be 0c 11 3d be
       -0.13565415 -0.095146686 -0.1895128 -0.18463534
000250 ce 29 0c be f4 99 13 be 2e 37 9b be 1f 68 e3 3c
       -0.13687822 -0.14414197 -0.30315536 0.02775961
000260 ab ca 8d 3c 24 e0 19 be 11 ae 9b 3d 27 d2 6f be
       0.017308554 -0.15026909 0.0760156 -0.2342001
000270 75 39 72 be c0 81 d2 bd 6c 50 a8 3d ed 35 a3 3c
       -0.2365473 -0.10278654 0.08218464 0.019923175
000280 b8 97 67 3e 34 5c 8e 3f 7e 28 3e bf b3 20 16 3f
       0.2261647 1.1121888 -0.74280536 0.58643645
000290 e8 12 f2 3e 70 e7 01 c0 86 8a d8 be d4 f4 b9 be
       0.4728005 -2.0297508 -0.42293185 -0.36319602
0002a0 6a 06 e1 bf b3 dc aa 3f d4 3d ab bf 30 f0 09 3f
       -1.7580082 1.3348602 -1.3378243 0.5388212
0002b0 d4 ac ab 3e e9 7b 8b bf 29 79 78 3f 27 d3 fd 3c
       0.33530295 -1.0897189 0.97059876 0.030984474
0002c0 99 de 63 3e 19 c2 7a 3f 99 d8 37 bf 5e 60 92 3f
       0.22252883 0.9795242 -0.71814877 1.1435659
0002d0 03 f1 83 3f df 3c ad bf b7 5e 3c bf 91 ba 41 3f
       1.0307926 -1.3534201 -0.73582023 0.756753
0002e0 0b a2 bf bf 64 7d ff bf a3 44 25 bf 50 6d a1 bc
       -1.4971327 -1.9960141 -0.64557856 -0.019705445
0002f0 24 64 a9 3e 65 e6 e4 bf df 8d 58 be ef 49 f1 3e
       0.33084214 -1.7882811 -0.2114787 0.4712672
000300 33 46 86 bd 8d 6f cf bd a8 e7 72 3d 4f a3 b4 be
       -0.06556358 -0.101286985 0.059302956 -0.35280845
000310 41 c4 44 be 79 9f 98 bd 81 e4 e3 bd 2e 6c 5f be
       -0.1921549 -0.07452292 -0.11127568 -0.21818611
000320 68 d0 e9 bc 6e 16 20 be af ef c5 3d 60 0c 91 be
       -0.028541759 -0.15633556 0.09664857 -0.28329754
000330 95 ba 6f be d2 82 4c be 25 49 0f 3d 10 4e 1f be
       -0.23411019 -0.19971779 0.034981865 -0.15557122
000340 b3 9e c8 bd 7b 0a 9f bd 7d c2 dd bd 4f 19 e8 bd
       -0.097958945 -0.07765671 -0.10828111 -0.11332952
000350 68 07 c3 bd 14 e5 0d be d6 33 ad bd 73 ec b7 be
       -0.09522897 -0.13856918 -0.084571525 -0.35922584
000360 95 82 12 be 8c 07 3e 3d 7a f2 6a bc 31 81 f8 bd
       -0.14307626 0.046393916 -0.0143400375 -0.12134016
000370 16 dd 40 be 24 d1 2f bd c6 10 95 3d 66 5b 9a be
       -0.18834338 -0.04292406 0.0727859 -0.30147856
000380 12 ba 75 3e e3 0b 0a 3f 5c 18 37 bd 68 36 86 bf
       0.23996761 0.5392439 -0.044700965 -1.0485353
000390 ab ab e7 bf 56 d0 3b c0 7b 84 ee 3e a2 78 cd bf
       -1.8099264 -2.9345908 0.4658545 -1.6052439
0003a0 d5 5a f6 3e fb d4 ff be 80 11 17 40 5b 88 22 3f
       0.48116174 -0.4996718 2.360443 0.6348931
0003b0 0b d1 4c be ea af 86 bf 4d 64 34 bf c5 3d 7f bf
       -0.20001619 -1.0522435 -0.70465547 -0.9970363
0003c0 5d a4 b5 3f 11 4b 07 c0 99 af a0 be ea fa 03 3e
       1.4190785 -2.1139567 -0.3138397 0.12888685
0003d0 dd 39 be be 0c 60 f6 3e 6a 6b 2f 3e f6 3a 3a bf
       -0.3715352 0.48120153 0.17130819 -0.7274622
0003e0 7b 3a f3 3f a2 6a 9c be 00 80 5d b8 de fb a4 be
       1.9002222 -0.30550104 -5.2809715e-05 -0.3222341
0003f0 02 47 8b 3f 3c 7c d1 3f c6 67 13 c0 65 6c 07 bf
       1.0881045 1.6366038 -2.3032088 -0.5289977

dense2.bias f4 [48]
000000 ce 9c ab bf 3f 3d 11 40 08 33 de 3e 15 48 9a 3e
       -1.3407228 2.2693632 0.4339831 0.3013312
000010 3b df 6a be 9e 0e 93 3f 3d 7d b6 be b0 c6 19 3f
       -0.22936718 1.1488836 -0.35642424 0.600688
000020 64 18 32 3f c9 ac 23 3f 86 28 86 3f 74 80 da 3f
       0.6956847 0.63935524 1.0481117 1.7070451
000030 01 ce 4e bd 83 c3 6e 3f 30 4a db 3d 7b 32 0d 40
       -0.05048943 0.9326708 0.107075095 2.206206
000040 11 ce 78 3f ca ad 15 3f 45 4d 0f bf f2 48 0b 3d
       0.9718943 0.58468306 -0.5597728 0.034005113
000050 c2 86 0f 3f e8 bb 74 3f 4f 7b b8 3f 30 17 a2 3e
       0.56065 0.9559922 1.4412631 0.31658316
000060 65 3a 8f bf 8f 88 61 3f bb 68 c4 3f 23 15 01 bf
       -1.1189696 0.88098997 1.5344461 -0.5042288
000070 0b e2 48 3f eb e7 84 3e 69 ea c3 3e cc 94 ea 3f
       0.78469914 0.2595819 0.38264778 1.8326659
000080 03 0c 83 3f 55 89 48 3f 8d 53 d2 3e cb 98 5c 3f
       1.0238041 0.7833455 0.4107937 0.86170644
000090 5d 79 98 be e1 d8 ec bf 9d e7 52 3f d3 73 fa 3f
       -0.29780093 -1.8503686 0.82384664 1.9566597
0000a0 c8 f2 fe 3d d3 58 bc 3f b4 2d 6f 3f e9 1c c9 3e
       0.124486506 1.4714607 0.9342911 0.3927987
0000b0 1d 45 aa 3f 6f 60 6c 3f 96 6b 89 be ef 1a 92 3f
       1.3302342 0.92334646 -0.26839894 1.141447

dense3.weight f4 [128, 48]
000000 1e f9 33 bf 70 a7 5e bf 39 c8 50 bf 8c e2 fb be
       -0.70302 -0.8697424 -0.81555516 -0.4919628
000010 6e 43 94 bc 6b 07 e4 be 64 21 fd bd b6 d7 81 be
       -0.01809856 -0.4453691 -0.123598844 -0.25359887
000020 f1 dc 06 c0 88 28 fd bf 3b 93 9d bf 10 06 9c be
       -2.1072352 -1.9777994 -1.2310556 -0.30473375
000030 73 2d 04 bf bc 3d 07 bf e5 e8 29 bf b5 fe 40 bf
       -0.5163185 -0.52828574 -0.66370994 -0.7538865
000040 0f 8d f3 be fc 11 61 bf 0c ab a8 bf 60 bf 3d bf
       -0.47568557 -0.87918067 -1.3177199 -0.7412014
000050 97 bc 56 be 4f 1c 2d bf 76 9e 98 be 18 65 f2 bf
       -0.20970379 -0.6762132 -0.29808396 -1.8937101
000060 60 a3 16 bf 2a a5 c7 be 8e 7f 3b bf 88 61 c2 3b
       -0.5884304 -0.38993198 -0.7324151 0.005932037
000070 ba cb a7 bf 8b da 89 bf 9e 14 2a bf 9d d9 0b bf
       -1.3109047 -1.0769819 -0.6643771 -0.54628927
000080 00 cf 47 bf 5b 31 90 bf 78 17 02 bf 29 9c 58 bf
       -0.7805023 -1.1265062 -0.5081706 -0.8461328
000090 9c 7f 7e be 2e a3 49 bf aa f6 9d bf 50 5c b7 be
       -0.24853367 -0.7876462 -1.2340901 -0.35812616
0000a0 2c 91 d1 bf 14 66 5f bf c4 e1 e2 bf 1f a4 50 bf
       -1.6372428 -0.87265134 -1.7725148 -0.8150043
0000b0 c8 5f 5f bf c9 1f 0e bf 9c ae a1 be e4 54 11 bf
       -0.87255526 -0.5551725 -0.3157853 -0.5677016
0000c0 fe e8 3c bd 9d 30 6c bf 13 9d 5d c1 a3 42 88 bf
       -0.046120636 -0.9226168 -13.850848 -1.0645336
0000d0 44 d5 38 be c3 b6 ba 3d 0b 89 ff bc 08 98 91 3e
       -0.18050104 0.0911689 -0.031193277 0.28436303
0000e0 a2 c0 4e c0 a1 af bc c0 b5 9b dd c0 36 e6 a4 3e
       -3.2305074 -5.896439 -6.925257 0.32206887
0000f0 2f 1a bb c0 8b 0b 94 c0 da cc 32 3f cb 8d 82 bf
       -5.8469462 -4.626409 0.6984383 -1.0199522
000100 6d 67 6e c0 9a e6 79 be af 72 05 c1 f2 5a ad 3e
       -3.7250626 -0.24404374 -8.340499 0.33858448
000110 fd dd 37 3f c4 a8 23 3f 7a 7d a3 be 6c 23 ab 3e
       0.718231 0.6392939 -0.3193167 0.33425462
000120 98 e9 c2 be 1a 64 b4 3c 35 3e 04 40 6d 94 25 be
       -0.38068843 0.022020388 2.0662968 -0.16169901
000130 b4 11 85 3f e7 aa 08 bf 54 e6 c2 3e 99 97 e8 3e
       1.0396028 -0.53385776 0.3806635 0.4542816
000140 e6 db 42 40 a2 ff e5 3e 99 33 1a 3f a8 35 5a 3e
       3.0446715 0.44921595 0.6023498 0.2130953
000150 b0 01 c1 be 33 a9 2b 3c 77 72 c4 be e4 ca 1a bf
       -0.376966 0.010477352 -0.3836858 -0.60465837
000160 16 43 8c c0 39 a5 1c c0 0f 60 bd bf a9 28 d6 3e
       -4.383189 -2.4475844 -1.479494 0.41827896
000170 88 d5 72 be e3 36 2f bf b4 af 5d be 9a 73 91 be
       -0.23714268 -0.68443125 -0.21649057 -0.2840851
000180 05 38 03 c0 c3 7c d5 bf 84 4c 87 c0 4b 65 93 3e
       -2.0502942 -1.6678699 -4.2280903 0.28788218
000190 1e e5 84 bd 12 ef be 3e 83 ef d9 bd aa 85 4a 3e
       -0.06489013 0.3729177 -0.10641386 0.19777551
0001a0 23 8d 75 c0 00 41 b8 c0 50 e3 8e c0 15 db 20 be
       -3.8367393 -5.7579346 -4.465248 -0.15708573
0001b0 99 41 87 c0 7c ef 14 c0 2b cd c9 3f f6 cf 89 3e
       -4.2267575 -2.327117 1.5765737 0.26916474
0001c0 4a 30 2e c0 bc 96 bd bf 3c 87 ff 3f e4 94 71 3e
       -2.7216973 -1.4811625 1.9963145 0.23591954
0001d0 36 c8 d2 be 26 3d 32 3e ab de 31 bf a8 dc 9e 3f
       -0.41168374 0.17406139 -0.6948039 1.2411089
0001e0 77 01 e5 bf 33 ad 18 3f 86 4c 9c bf cf a0 fb bd
       -1.7891072 0.5963928 -1.2210853 -0.12286531
0001f0 23 ea 66 3f c7 fc 0c 3f 8f 5b 8b 3e 67 fc bb 3d
       0.90201014 0.5507321 0.2721829 0.09179001
000200 78 8c 84 3f 37 dc 85 3e 5e ac 88 3f 33 b3 36 bf
       1.0355368 0.26144573 1.0677602 -0.71367186
000210 e6 24 24 3e 1d e4 84 bf 04 4b 32 c0 14 02 d3 be
       0.160297 -1.0382115 -2.7858286 -0.41212523
000220 bf a6 03 c0 09 24 80 bc 88 2a f4 bf 5e c1 7e 3f
       -2.0570524 -0.015642183 -1.907548 0.99513805
000230 75 f7 84 3c 04 57 ac bf 92 7a 6b be 92 73 14 40
       0.016231278 -1.3464055 -0.22995976 2.3195539
000240 a6 70 40 bf d1 5f 15 c0 2c 4e 63 c0 93 9d 83 bd
       -0.7517189 -2.3339732 -3.5516462 -0.06426539
000250 14 09 7a 3c f8 b5 30 bd cf 45 af 3a 9e b4 58 3e
       0.015260953 -0.04314229 0.0013372245 0.2116265
000260 e4 c4 37 c0 d0 07 04 c0 8d 53 28 c0 98 c5 64 bf
       -2.8713923 -2.0629768 -2.6300995 -0.89364004
000270 80 90 58 3c da 7b f1 bf 4d 97 a2 3f 17 a1 a1 3e
       0.013218045 -1.8865921 1.2702423 0.31568214
000280 72 9d a9 3e bc 4c b8 bf b4 ce b5 c1 b4 e3 50 3d
       0.33127934 -1.4398417 -22.72593 0.050998405
000290 e3 e7 97 bf 1e 64 ec 3e 33 24 4c 3f 53 6f f2 be
       -1.1867641 0.46170133 0.79742736 -0.4735056
0002a0 4d e2 b5 c0 69 dd 86 3f d6 ac ec bf e8 c4 34 bd
       -5.6838746 1.0536319 -1.8490245 -0.044133097
0002b0 f3 e6 0e 3e db 8f a5 3e fc 01 d0 3e ba 07 ff be
       0.13955288 0.32336316 0.40626514 -0.49810582
0002c0 7a 31 86 bf 0b d7 37 3f 02 68 82 3f 72 23 01 c0
       -1.0483849 0.71812505 1.0187991 -2.0177884
0002d0 dc 3f 8c 3d 8c 21 00 be 8c df 23 be 46 fd a2 3f
       0.06848118 -0.12512797 -0.16003245 1.2733543
0002e0 cb f0 4d c0 bd 91 1e c0 35 40 3e 3e 38 08 10 3f
       -3.2178218 -2.4776452 0.1857918 0.5626254
0002f0 c2 62 4b 3f 52 35 92 bf 14 e1 29 be c3 d2 f2 3f
       0.7944757 -1.1422522 -0.16589767 1.8970569
000300 35 1c 8f 3f e7 3a 32 3f fe 73 29 c1 06 4b 9b be
       1.1180483 0.6962113 -10.590818 -0.30330676
000310 78 09 82 bd cc 63 6d bf 26 0f 91 3d f1 a7 25 be
       -0.06349462 -0.927304 0.070829675 -0.16177346
000320 02 a9 46 3e 68 df 55 c0 94 34 51 c0 87 68 ba 3d
       0.19400409 -3.3417606 -3.268834 0.09101968
000330 b6 e3 11 c0 4c d5 86 3f c4 68 0e bf ef a6 16 be
       -2.2795234 1.0533843 -0.5562861 -0.14712118
000340 e9 cc b4 3d c0 15 02 3f 8c f0 8a c1 fa 69 08 bf
       0.08828146 0.5081444 -17.367455 -0.5328671
000350 70 7f 9a 3e 3d 44 7b bd 4b 87 33 be 07 ea e8 bd
       0.30175352 -0.061344374 -0.17532079 -0.11372762
000360 34 3f 1f c0 ad e9 99 3e 7c 60 d3 bf 89 2b 45 ba
       -2.4882326 0.30061093 -1.651382 -0.0007521441
000370 a7 60 05 3f 81 fe b5 be 12 92 49 3e 68 39 72 3e
       0.52100605 -0.35545734 0.19684628 0.23654711
000380 58 b4 58 c0 35 34 20 bf e2 80 de bd 56 7d c0 be
       -3.3860073 -0.6257966 -0.10864426 -0.37595624
000390 e0 d6 6c be 23 61 25 3f 92 c6 01 c0 23 6c cb be
       -0.23128843 0.64601344 -2.0277448 -0.3973094
0003a0 a7 8a 31 c0 aa cb eb bf 98 ff 3b bf 51 75 bb 3e
       -2.7740877 -1.8421528 -0.7343688 0.36612943
0003b0 a0 32 70 3f a1 9b 4e 3f 92 00 51 be 14 35 d6 bf
       0.9382725 0.8070622 -0.20410374 -1.6734948
0003c0 99 67 ab bf 61 4c bf 3f c2 01 ab 3e d4 b1 5f 3f
       -1.339099 1.4945184 0.3339978 0.8738072
0003d0 46 9e 90 bb c7 e3 d3 bf 17 41 43 3d 7a 3d 8d bd
       -0.004413399 -1.6553887 0.047669496 -0.06896491
0003e0 1e 49 46 3f 8f b4 ec bf 66 f4 64 c1 76 e5 f3 3e
       0.7745532 -1.8492602 -14.309668 0.47636002
0003f0 a1 0e 8b bc 44 30 d5 bd bb df 37 bc fd af 51 3f
       -0.016974749 -0.104095966 -0.011222775 0.8190916

dense3.bias f4 [128]
000000 dd b5 09 be e8 7e 27 bf 10 62 f7 bd 8a 92 92 bd
       -0.13448282 -0.6542802 -0.12079251 -0.07156856
000010 4d 00 1d 3e 68 e3 80 3c fc 06 e2 bd ba 5f f4 3e
       0.15332146 0.015733436 -0.110364884 0.47729284
000020 6b 14 88 bf 0c aa de bd 0e 38 10 3f 46 00 cc bf
       -1.0631231 -0.108722776 0.5633553 -1.5937583
000030 55 a1 06 c0 7c 06 a0 3e 0c e0 4a 3e 71 75 d8 3e
       -2.103597 0.31254947 0.1981203 0.422771
000040 3b 6e 98 bf 87 24 8a be 20 09 01 3f 86 f1 93 bf
       -1.190864 -0.26980993 0.5040455 -1.1558082
000050 34 ff 8f bf de fb 02 3f 60 71 85 3f b7 d8 01 3f
       -1.1249757 0.5116557 1.0425224 0.50721306
000060 ec 38 8f 3e 03 a0 dd 3e 86 61 02 3f d4 f1 53 bf
       0.27973115 0.43286142 0.5093006 -0.82790875
000070 f4 e1 2b c0 5d 6f 4f bf 5a 73 09 40 87 c4 fc 3f
       -2.685666 -0.810293 2.1476655 1.9747475
000080 13 ff 71 bf 7f 1a 15 3f 76 e5 36 3c 6e 2d ca be
       -0.9452984 0.58243555 0.011163106 -0.39487785
000090 4c 38 ac bf 6e 65 8e 3e a3 d1 d7 3f b4 6d 83 3f
       -1.345468 0.2781176 1.6860851 1.0267854
0000a0 6b da 49 be 99 ab 9e 3f f0 db 5d 3e 53 01 b8 bf
       -0.19712226 1.2396117 0.21665931 -1.4375404
0000b0 1e e6 00 c0 37 08 da 3e f4 8c a5 3e 8c 75 ff 3e
       -2.0140452 0.42584392 0.323341 0.4989437
0000c0 19 f4 f2 be ff 3b 6d bf dd 4f 1f bf 32 72 e5 bf
       -0.47451857 -0.9266967 -0.62231237 -1.7925475
0000d0 ac 97 98 bf d6 8d f8 3f 35 b0 12 40 aa 19 19 3f
       -1.1921287 1.9418285 2.2920048 0.59804785
0000e0 94 b4 50 3f af 0b bc 3d 15 e9 1b 3f 41 bd b0 bf
       0.8152554 0.09181916 0.6090253 -1.3807756
0000f0 4c e1 08 c0 c9 5c 2f be ec 64 93 3f fe 06 84 3d
       -2.138751 -0.17125238 1.1515174 0.06446646
000100 d7 ec 48 3f 0d ab 73 3f bd a0 e2 3e 98 e7 f3 be
       0.7848639 0.9518288 0.4426326 -0.4763763
000110 a2 6d 4d bf 94 d1 ed bd d6 22 93 3e 27 e3 0a 3e
       -0.8024541 -0.116122395 0.28737515 0.13563214
000120 e6 a8 d5 3e 79 1f 81 3e 93 4b f7 3d ea 95 81 bf
       0.41730422 0.25219324 0.120749615 -1.0123875
000130 a4 88 ed be cd 61 77 3e 10 39 da be 00 b9 cb 3e
       -0.4639331 0.24158402 -0.4262166 0.3978958
000140 d4 9e c3 3f 5b 03 33 3f f4 e1 66 3f 18 d7 a1 bf
       1.5282845 0.69926995 0.9018853 -1.2643766
000150 9e 03 4a bf 7e 45 96 bf c9 e8 04 3f 63 63 1c 3e
       -0.7891177 -1.1739957 0.519177 0.15272288
000160 d6 ac 6b 3f af 89 2e 40 31 c9 c7 3f f3 f0 13 c0
       0.920606 2.7271535 1.5608274 -2.3115814
000170 19 7a 33 c0 b8 7e 2b 3f 06 9f 94 3f a8 3d a0 3e
       -2.8043272 0.6699023 1.161103 0.3129704
000180 9e b4 97 3e f4 0b 9e 3d 06 4e 64 be c1 b8 bd bf
       0.29629987 0.07717124 -0.22295389 -1.4822007
000190 27 e6 c3 3e e8 36 14 3e 09 ea 05 3f c8 59 52 3f
       0.3826153 0.1447407 0.52310234 0.82168245
0001a0 ec dd 68 3f 6c f5 a8 3d 14 08 5c 3e fc 91 b1 bf
       0.90963626 0.082499355 0.21487457 -1.3872676
0001b0 4d f6 c3 bd b6 a0 13 3f da 83 89 3f 65 63 ac 3e
       -0.095684625 0.576671 1.0743363 0.33669582
0001c0 66 f8 83 3f fc d0 36 3f 1b dc af 3f c0 60 ad bf
       1.031018 0.71412635 1.3739046 -1.3545151
0001d0 7d 18 c1 bf 69 40 29 be c4 c5 1e 3f ab d3 78 bf
       -1.5085598 -0.16528477 0.62020516 -0.9719798
0001e0 c4 7b 97 bd 88 d8 af bd 4a 02 a6 3d 08 27 a6 bf
       -0.07396653 -0.08586222 0.08105905 -1.2980661
0001f0 42 b1 83 be 0a 33 a8 3f 58 c3 b2 3e a5 30 b2 be
       -0.25721174 1.3140576 0.3491466 -0.34802738
