Saved Models/Rosslyn_ULA_DFT_16_beam_probing_codebook_128_beam_classifier.pt (torch, 35999 bytes, 6 tensors)

dense1.weight f4 [32, 16]
-3.2571368 0.2938878 0.59032303 -0.06376137 -0.12153467 1.2262471 0.46054056 0.57556885
-0.8440368 -0.011716342 -0.22080271 0.30525678 0.44021517 -3.4973536 0.6697372 0.1978065
0.06028245 -0.1056886 -1.6649622 0.080089636 -6.823987 0.6513178 0.3957029 -0.19059114
0.68595225 -3.7695365 -18.211359 0.22978348 1.0358877 -0.005678598 0.52854156 -0.3952698
0.60598236 -0.72508854 -0.6791794 -2.507544 -0.20513345 0.3760311 1.0911758 0.16986758
-0.3080206 0.26541692 0.8291659 -13.530485 0.010343635 0.82174236 -0.9358632 0.22382584
0.43873176 0.7672988 0.14803648 -0.38808474 0.52370363 0.11493481 0.2807602 -9.158295
-0.8051122 -20.56359 0.87792087 0.8052763 -16.372137 0.44093204 0.60866535 -0.05908415
0.08057191 -6.538719 2.0869176 -0.3260983 0.47499892 0.4540507 0.5997374 -2.5944276
-1.7921221 1.2581035 -0.13690935 1.2149539 -2.235745 -1.0030241 -0.10050081 0.1370543
0.3066408 0.84977746 -0.042513754 0.9966091 -2.394715 0.44527808 0.25017 0.424953
0.5524933 0.5656717 -15.370014 -3.3362389 0.8167711 1.3805964 -19.375137 0.20006594
-0.68963903 0.4635432 0.8206499 0.4540122 0.55732936 -0.51481867 0.25350425 -0.22615561
-3.4914272 1.2287288 0.8270515 -2.6382017 -0.5141466 -4.17517 -0.50590837 -0.15929839
-21.532919 -13.398433 0.47826716 0.34561464 -0.30293566 -0.14494938 0.5253429 0.20961337
0.34835637 -13.358989 0.6491339 1.916113 -0.4619871 0.17216097 0.27928445 0.042874333
0.5843082 0.3042378 -8.685195 -0.78927475 -2.4950025 -25.08024 0.7967902 0.5125921
-0.035402223 0.7780965 -0.060501743 1.8511435 -5.848396 0.07156521 0.53261656 0.060755998
-0.4409501 0.61119026 -0.101746745 0.24191934 -5.8843694 0.08821213 -0.037206046 0.94205153
0.91120076 -11.59288 1.3062872 0.7476778 -19.69474 0.50787216 -2.892706 0.22179657
-0.3011926 0.56018263 -0.055943094 0.6230355 -0.016286457 0.15586443 -8.557978 -13.414044
0.2524418 -0.30321902 -1.7934095 -3.8066826 0.07836903 -3.1327672 0.23869558 0.46786952
0.23149192 0.7317405 0.03419471 0.7986391 -0.73326415 0.21027596 0.36948332 -1.139011
0.25335515 -1.0073605 -2.441909 -1.5152946 -0.39898872 1.7107412 -0.1492694 -0.4169414
-15.168769 -0.531973 0.7469701 0.08412247 0.14588542 0.22342682 -4.8329077 -20.244337
-8.234759 0.5449272 -6.963979 -6.604541 -10.183483 1.3599925 0.5739963 0.32193986
0.039019078 -1.3380605 -12.789551 0.34275374 0.13525099 0.19049224 -7.352781 0.69469607
-0.44285908 0.012481188 1.0341101 0.8123957 -7.2834272 1.1047398 -0.22927882 -0.009341626
-13.402724 0.7758585 -0.07327235 -1.0695713 0.4673482 -0.14348294 0.82012755 0.3707805
-0.45486704 0.9096965 -1.5829718 0.7994045 -1.6039875 -2.751445 -8.771987 0.39683685
-0.099916436 -0.10157398 0.8780003 0.14388902 -0.24585548 0.029295305 0.40648648 1.272796
-13.922117 0.24600042 0.54814917 -16.878542 -1.9244168 0.30257443 -10.853848 0.2952133
00000000: ee74 50c0 7678 963e 691f 173f 5295 82bd
00000010: 2be7 f8bd aaf5 9c3f f9cb eb3e 7b58 133f
00000020: cc12 58bf e6f5 3fbc 1b1a 62be 9e4a 9c3e
00000030: e263 e13e a4d4 5fc0 e673 2b3f ca8d 4a3e
00000040: bbea 763d 4473 d8bd 7b1d d5bf 0906 a43d
00000050: 1a5e dac0 c3bc 263f 9299 ca3e 532a 43be
00000060: 919a 2f3f 1640 71c0 ddb0 91c1 5c4c 6b3e
00000070: f897 843f 8813 babb 804e 073f ce60 cabe
00000080: a921 1b3f 679f 39bf b3de 2dbf 9a7b 20c0
00000090: 810e 52be 2687 c03e a6ab 8b3f c4f1 2d3e
000000a0: e0b4 9dbe bae4 873e 3744 543f de7c 58c1
000000b0: 5a78 293c b55d 523f bb94 6fbf 9a32 653e
000000c0: 73a1 e03e b26d 443f e096 173e 0bb3 c6be
000000d0: 7111 063f f162 eb3d cdbf 8f3e 6088 12c1
000000e0: d51b 4ebf 3b82 a4c1 6cbf 603f 9626 4e3f
000000f0: 23fa 82c1 d8c1 e13e 7ed1 1b3f 3902 72bd
00000100: e302 a53d 303d d1c0 0f90 0540 5bf6 a6be
00000110: 0f33 f33e 5579 e83e 6488 193f 1a0b 26c0
00000120: 4264 e5bf 8909 a13f f731 0cbe 9c83 9b3f
00000130: 7216 0fc0 1863 80bf 5ed3 cdbd f657 0c3e
00000140: 0600 9d3e 048b 593f e722 2ebd c621 7f3f
00000150: 0343 19c0 7dfb e33e 4816 803e 7193 d93e
00000160: 3370 0d3f dccf 103f 94eb 75c1 f084 55c0
00000170: e917 513f 62b7 b03f 4800 9bc1 16de 4c3e
00000180: 2f8c 30bf 8955 ed3e 1d16 523f 4974 e83e
00000190: 23ad 0e3f 28cb 03bf 4fcb 813e 5695 67be
000001a0: 8b73 5fc0 fc46 9d3f a6b9 533f 4cd8 28c0
000001b0: 1d9f 03bf fe9a 85c0 3683 01bf 1e1f 23be
000001c0: 6b43 acc1 fb5f 56c1 6fdf f43e 67f4 b03e
000001d0: 621a 9bbe 9c6d 14be df7c 063f e3a4 563e
000001e0: c45b b23e 6bbe 55c1 a42d 263f 3143 f53f
000001f0: 9389 ecbe f74a 303e 5ffe 8e3e ff9c 2f3d
00000200: 3995 153f 0fc5 9b3e 8ff6 0ac1 e90d 4abf
00000210: 1fae 1fc0 55a4 c8c1 71fa 4b3f 3c39 033f
00000220: ec01 11bd 5531 473f add0 77bd 45f2 ec3f
00000230: 0f26 bbc0 c890 923d 8f59 083f 48db 783d
00000240: 36c4 e1be f776 1c3f 9960 d0bd b4b9 773e
00000250: c14c bcc0 90a8 b43d 5e65 18bd 4a2a 713f
00000260: 7444 693f 707c 39c1 6b34 a73f d067 3f3f
00000270: d48e 9dc1 e903 023f 1822 39c0 a41e 633e
00000280: eb35 9abe 2168 0f3f 9624 65bd 417f 1f3f
00000290: 2d6b 85bc ed9a 1f3e 7aed 08c1 ed9f 56c1
000002a0: 0d40 813e 863f 9bbe 718e e5bf b0a0 73c0
000002b0: f17f a03d 427f 48c0 9d6c 743e 988c ef3e
000002c0: 380c 6d3e 5853 3b3f c10f 0c3d 9d73 4c3f
000002d0: 33b7 3bbf 9552 573e eb2c bd3e 1dcb 91bf
000002e0: c4b7 813e 30f1 80bf 3d48 1cc0 2cf5 c1bf
000002f0: 4048 ccbe 91f9 da3f 14da 18be 5879 d5be
00000300: 47b3 72c1 622f 08bf 6f39 3f3f 6748 ac3d
00000310: fd62 153e 00ca 643e 2ea7 9ac0 67f4 a1c1
00000320: 93c1 03c1 5980 0b3f ead8 dec0 6658 d3c0
00000330: 8cef 22c1 3c14 ae3f 6cf1 123f 4dd5 a43e
00000340: 78d2 1f3d 9145 abbf 00a2 4cc1 6b7d af3e
00000350: 3c7f 0a3e 6610 433e fb49 ebc0 9ad7 313f
00000360: 6dbe e2be e67d 4c3c b85d 843f 2af9 4f3f
00000370: d611 e9c0 1d68 8d3f 11c8 6abe 9f0d 19bc
00000380: 8f71 56c1 aa9e 463f d00f 96bd b6e7 88bf
00000390: 4348 ef3e 31ed 12be e1f3 513f f1d6 bd3e
000003a0: 55e4 e8be dfe1 683f d29e cabf c6a5 4c3f
000003b0: 764f cdbf ad17 30c0 0f5a 0cc1 332e cb3e
000003c0: fda0 ccbd 0506 d0bd a1c4 603f a557 133e
000003d0: 8ac1 7bbe b5fc ef3c ff1e d03e fbea a23f
000003e0: fec0 5ec1 89e7 7b3e 8153 0c3f 4107 87c1
000003f0: 4a53 f6bf 09eb 9a3e 5da9 2dc1 3326 973e

dense1.bias f4 [32]
0.69919944 0.2965902 0.68240273 0.10917411 0.21831231 0.07674754 0.25466987 0.21228738
0.20666923 0.3307809 0.47768727 0.45751926 0.12487074 0.3261306 0.38953173 0.4147607
0.029917985 0.5693082 0.40862492 0.288806 0.3573062 0.053257484 0.5447353 0.6246817
0.16344675 0.26446924 0.12447338 0.01904533 0.3326677 0.3135955 0.500002 0.12982878
00000000: bcfe 323f acda 973e f2b1 2e3f ad96 df3d
00000010: 438d 5f3e d02d 9d3d 1764 823e dd61 593e
00000020: 19a1 533e 1d5c a93e 6d93 f43e f73f ea3e
00000030: 3bbc ff3d 97fa a63e b470 c73e 845b d43e
00000040: 9016 f53c 2fbe 113f 4937 d13e 61de 933e
00000050: d7f0 b63e 8524 5a3d c673 0b3f 24eb 1f3f
00000060: 965e 273e 8368 873e e6eb fe3d f404 9c3c
00000070: 6c53 aa3e 978f a03e 2200 003f d6f1 043e

dense2.weight f4 [48, 32]
0.71224093 0.35312784 0.56657153 -1.058177 -2.04456 -0.90114695 -1.6970656 0.8415762
1.1454171 -2.6337445 0.3355518 1.8919139 1.064701 0.54733425 -0.34014663 0.25537726
0.55687743 -1.6659391 0.921848 1.8417188 -0.3353665 -3.7181346 -0.99136364 0.19386816
-0.9558355 -0.2713786 -0.9095581 -0.72695804 -0.06454719 -0.13910957 -0.0040424922 -3.5496762
-0.07004405 -0.13400392 -0.005572197 -0.099894926 -0.037022837 -0.042632863 -0.09836534 -0.022232497
-0.1387006 -0.019145971 -0.23006384 -0.19954199 0.02984856 -0.14928412 0.06564293 0.09385869
-0.16492328 0.038878154 -0.039258603 -0.25788677 -0.040679976 -0.09923829 -0.06490338 0.09993414
-0.11362312 -0.20491149 0.08129889 -0.13605703 -0.14143662 -0.15764919 -0.19846143 -0.044425648
0.98248065 -0.6192934 -1.1906539 -0.5746195 -0.33737227 -0.9747713 1.5653486 0.0039011429
0.41272813 -0.5834065 -0.5528265 0.47262576 0.63736564 0.28811228 2.4261084 -0.23091394
-2.0217705 -2.1900222 0.66645765 -0.10525564 -0.6688485 0.40161866 1.5489051 -0.07930468
1.1841251 -1.1877978 2.6116073 -1.0931334 -2.072492 -4.1590466 0.4376743 -2.0439553
-0.643362 -0.22351742 1.2977161 -0.30619913 -1.0303204 0.41074732 -1.1757483 -1.7301376
-2.2412152 -0.6849952 0.21780542 1.1845727 -0.876734 -0.099878594 0.84419256 0.62616974
-0.81370497 1.143038 1.9502426 -0.8934307 0.6431261 -3.765148 -2.8668342 0.29767707
0.12251818 -0.96406657 -0.8625958 -1.4456321 -0.39110538 -1.7201823 0.54376227 1.3574866
1.5056144 -1.1690935 -0.08321565 -0.4856691 -1.5599461 -0.879137 0.19612092 -0.41053554
-3.333057 0.90884537 -0.40392637 1.0597714 -0.3300147 -1.7190096 -0.43366396 -0.19484395
-3.1972325 0.032830387 0.388187 1.5878896 0.7746855 0.36906952 -0.54606164 -0.2544427
1.9032388 0.29929855 -3.5959573 0.42367145 -1.1695765 1.0994998 -0.45130515 -0.88891166
0.8879905 0.3218279 0.39971554 -1.9510577 0.16592427 -3.2381732 -0.036220137 -0.045721952
-2.2904148 -2.5532458 -0.37154275 -1.5152596 -2.6351893 -2.6927693 2.4409432 -0.117499016
2.1276162 0.21588264 1.3828804 0.43328097 0.7877481 -0.008344546 -0.0732062 -1.5276155
0.04444032 0.31342265 -4.4633684 -1.8227879 0.76759166 -0.35016844 0.14057043 0.1918839
-0.07250127 0.23880398 0.70373607 0.66503155 1.1282609 -0.41603622 0.76724285 -2.338655
-0.06070277 0.20296186 2.3085995 -0.6874073 -1.2295415 -0.50131756 0.31375778 0.36348978
1.4213351 -0.59717804 -0.6381195 -0.25957465 -2.2846587 -1.9920515 0.43349537 0.39497277
-1.9114618 2.0730972 1.6977562 -0.22750531 -2.02789 0.0787112 -0.035548884 -1.5329093
1.1083298 -1.4288797 -0.3110383 -0.38797447 1.1071793 -1.6862208 0.18392752 -3.0661213
-0.54296887 -2.251119 0.6093624 -0.33926618 0.6308723 -0.0027412435 -1.7949874 2.1857095
0.068893135 0.38236982 0.5774719 1.1505288 -0.91155523 -0.051721454 -1.180653 0.54736924
-5.071082 0.3885106 0.6325488 0.46645555 -0.97838604 -1.4970698 0.69697404 -0.790611
00000000: 6c55 363f 2ccd b43e d50a 113f 5872 87bf
00000010: 12da 02c0 91b1 66bf 7239 d9bf 8a71 573f
00000020: 079d 923f 458f 28c0 72cd ab3e 3c2a f23f
00000030: 1f48 883f 191e 0c3f b327 aebe cfc0 823e
00000040: 858f 0e3f 7e3d d5bf 3bfe 6b3f 71bd eb3f
00000050: 28b5 abbe ebf5 6dc0 02ca 7dbf 6085 463e
00000060: a3b1 74bf 23f2 8abe cdd8 68bf ec19 3abf
00000070: 5131 84bd bd72 0ebe e276 84bb e52d 63c0
00000080: 4173 8fbd 5338 09be fa96 b6bb b695 ccbd
00000090: 42a5 17bd cc9f 2ebd c473 c9bd ed20 b6bc
000000a0: 8807 0ebe 03d8 9cbc db95 6bbe bc54 4cbe
000000b0: f884 f43c f0dd 18be cd6f 863d fc38 c03d
000000c0: a6e1 28be b33e 1f3d a1cd 20bd bc09 84be
000000d0: 0ca0 26bd 723d cbbd 10ec 84bd 45aa cc3d
000000e0: 3db3 e8bd 51d4 51be 0880 a63d 8952 0bbe
000000f0: c3d4 10be ca6e 21be 7939 4bbe abf7 35bd
00000100: da83 7b3f 038a 1ebf 5967 98bf 431a 13bf
00000110: 0fbc acbe 9d8a 79bf 585d c83f 51aa 7f3b
00000120: 1a51 d33e 215a 15bf 0a86 0dbf 01fc f13e
00000130: 652a 233f 7483 933e 5c45 1b40 b474 6cbe
00000140: b064 01c0 5329 0cc0 f89c 2a3f 4590 d7bd
00000150: a839 2bbf f6a0 cd3e 8642 c63f 7e6a a2bd
00000160: 6991 973f c209 98bf 9324 2740 cceb 8bbf
00000170: b5a3 04c0 e916 85c0 d916 e03e 2ad0 02c0
00000180: 5fb3 24bf c0e1 64be 901b a63f 22c6 9cbe
00000190: 8ae1 83bf 794d d23e ec7e 96bf 2675 ddbf
000001a0: 1270 0fc0 d85b 2fbf 6208 5f3e 14a0 973f
000001b0: a471 60bf 268d ccbd 011d 583f a94c 203f
000001c0: f84e 50bf 124f 923f 8da1 f93f e0b7 64bf
000001d0: e9a3 243f 2ff8 70c0 367a 37c0 2169 983e
000001e0: d0ea fa3d 11cd 76bf 14d3 5cbf 790a b9bf
000001f0: f73e c8be ef2e dcbf 0134 0b3f 1fc2 ad3f
00000200: f9b7 c03f dba4 95bf f76c aabd 9fa9 f8be
00000210: 50ac c7bf 1f0f 61bf ecd3 483e b731 d2be
00000220: ce50 55c0 17aa 683f 70cf cebe 97a6 873f
00000230: b0f7 a8be 8208 dcbf 3409 debe 2c85 47be
00000240: 759f 4cc0 2879 063d 72c0 c63e f73f cb3f
00000250: ca51 463f aef6 bc3e b2ca 0bbf 5046 82be
00000260: 549d f33f a93d 993e 2a24 66c0 77eb d83e
00000270: afb4 95bf 69bc 8c3f 7811 e7be b78f 63bf
00000280: 5853 633f a0c6 a43e 84a7 cc3e 42bc f9bf
00000290: 0de8 293e 3b3e 4fc0 915b 14bd f146 3bbd
000002a0: 2896 12c0 6168 23c0 da3a bebe 07f4 c1bf
000002b0: f1a6 28c0 5556 2cc0 6a38 1c40 53a3 f0bd
000002c0: dd2a 0840 5710 5d3e 3a02 b13f 01d7 dd3e
000002d0: dca9 493f 90b7 08bc 22ed 95bd e888 c3bf
000002e0: 0e07 363d ef78 a03e ead3 8ec0 1d51 e9bf
000002f0: e380 443f 4749 b3be b2f1 0f3e 377d 443e
00000300: 8c7b 94bd 0889 743e 0c28 343f 823f 2a3f
00000310: da6a 903f b302 d5be 076a 443f 86ac 15c0
00000320: 78a3 78bd 3cd5 4f3e 18c0 1340 edf9 2fbf
00000330: 9e61 9dbf 5956 00bf dca4 a03e 551b ba3e
00000340: 4fee b53f a9e0 18bf cd5b 23bf f8e6 84be
00000350: d937 12c0 8bfb febf 1bf3 dd3e df39 ca3e
00000360: c8aa f4bf a0ad 0440 1350 d93f 27f7 68be
00000370: f3c8 01c0 5633 a13d b59b 11bd 5f36 c4bf
00000380: c0dd 8d3f 88e5 b6bf 6940 9fbe 97a4 c6be
00000390: 0db8 8d3f 15d6 d7bf 7f57 3c3e 553b 44c0
000003a0: 0200 0bbf 5512 10c0 2dff 1b3f 4cb4 adbe
000003b0: d980 213f 6fa6 33bb 26c2 e5bf aae2 0b40
000003c0: d817 8d3d fac5 c33e 33d5 133f 8744 933f
000003d0: af5b 69bf e0d9 53bd a31f 97bf 6420 0c3f
000003e0: 4e46 a2c0 ddea c63e b8ee 213f 43d3 ee3e
000003f0: 8277 7abf fc9f bfbf e46c 323f 7c65 4abf

dense2.bias f4 [48]
0.72080594 -0.052560616 1.7502406 0.4706049 0.8390367 1.0424106 0.21660851 1.228484
1.2171106 1.368771 1.1605049 1.7343354 0.84890676 1.545655 1.6754259 -0.3634959
0.81699055 0.8905136 0.9938165 0.036903102 0.72941375 1.189296 0.5634544 0.073559195
0.514705 0.9079687 2.3145883 0.022842081 0.024967317 0.43977058 -0.055756338 1.8711503
0.5620872 0.4815983 0.50519866 0.13411409 -0.15531395 0.25739393 0.48173183 -0.21837501
1.767034 1.3245269 -0.15099202 -0.021990027 -0.21062139 0.9986153 -0.11465273 0.42808712
00000000: bd86 383f cd49 57bd e207 e03f 20f3 f03e
00000010: 1ccb 563f b66d 853f 9fce 5d3e f73e 9d3f
00000020: 48ca 9b3f e333 af3f 6d8b 943f b4fe dd3f
00000030: f451 593f 06d8 c53f 5b74 d63f 221c babe
00000040: 4b26 513f b3f8 633f c26a 7e3f b527 173d
00000050: dcba 3a3f da3a 983f 8c3e 103f 34a6 963d
00000060: b5c3 033f a370 683f 3722 1440 511f bb3c
00000070: 4288 cc3c 9c29 e13e c260 64bd da81 ef3f
00000080: f2e4 0f3f 0d94 f63e b354 013f 3455 093e
00000090: 9f0a 1fbe 23c9 833e 8ea5 f63e b39d 5fbe
000000a0: 2c2e e23f 198a a93f a79d 1abe 6e24 b4bc
000000b0: 22ad 57be 41a5 7f3f 0dcf eabd 3c2e db3e

dense3.weight f4 [128, 48]
-0.5026897 -0.019433523 -2.7400656 -0.8650756 -1.9177846 -0.70596397 -0.63819325 -0.49487385
-0.39140236 -0.6254249 -1.5531939 -2.0259514 -1.6542013 -0.5113683 -2.1250703 0.0998836
-1.3769759 -1.1585698 -0.64713335 -1.0041806 -2.5684068 -0.78455937 -3.228194 -0.2237111
-1.4710153 -0.7069599 -0.6689323 -2.7769008 -0.84768504 -0.65296865 -0.5028281 -3.303104
-1.890716 -1.4141409 -0.6253536 -0.49413887 0.0024830862 -1.26568 -1.4675642 -1.4926
-0.3140356 -0.45462126 -0.15640594 -0.47750306 -3.7408311 -1.180912 -1.7206753 -0.42960498
-2.9141393 -0.06852663 -16.881508 -1.2331351 -1.4195668 -1.4301089 -0.24886139 -1.5504962
1.8238081 -11.101609 0.743747 -0.25758204 -1.6360999 -0.1324803 1.1540574 0.17136712
0.62720585 0.39127153 -1.6716541 0.9747277 -1.2589141 0.981015 -0.20170034 -0.1695095
0.038832076 0.2945045 -0.96298856 -1.3437073 0.7477246 -3.406517 -5.9316635 -6.1517873
-3.9171603 -8.441744 1.6644111 -0.28305492 -0.0036710869 0.39987287 -1.9176576 -9.912061
0.88390005 0.8632425 -0.08372404 -0.23099416 -1.8909055 4.1957254 0.4434607 -1.4649373
-0.122857705 0.06171022 -3.6248848 -1.0635227 -1.1434703 1.5446919 0.26173276 -1.3909787
0.37462866 -0.6734493 0.22384939 0.68633 -0.75257766 1.9623767 0.01873995 -0.4754338
-2.1313472 0.3995316 -2.423595 -0.13991703 -1.5555706 1.7446821 0.09325728 -0.8911148
0.41995522 0.077970445 0.37187555 -0.7191391 0.7564901 -1.2141802 -0.49841875 -6.3997707
-2.6091304 -8.698357 -0.8515219 -0.95097286 -0.19946389 0.26573685 -1.5183928 -0.55142707
1.6602193 1.9113001 0.036900662 0.6100501 -1.2084452 -0.08928819 0.30974853 -2.3739238
-2.0252187 -0.17224762 -6.4345565 -0.21704225 -4.0783076 -0.01874099 0.5881766 -10.834049
0.10455045 -1.2430948 -3.109545 0.24175887 -9.448193 0.84983814 -0.27518672 -0.21939224
0.9531391 0.5653581 -1.0909816 -0.7285071 -0.9327652 0.62574285 -0.52441376 -0.2520899
-4.0666556 0.31991622 -0.8334084 -2.9050214 -0.33687675 -0.22431426 -0.56228924 -5.9309015
-7.333829 -7.57426 -1.6838709 -0.4561861 -0.038795713 0.46467632 -2.2613556 -1.2175069
0.5892379 -4.297429 0.031971823 1.872114 1.570667 -0.5078357 -0.6763925 -5.6018887
-4.6169896 -0.19456825 -6.3916507 1.0481786 -6.0818915 -0.74137884 0.51109046 -6.2418375
-2.6149197 -0.9860274 -1.4695452 -1.4409839 -10.488703 -1.2321522 1.1918862 0.21189699
4.1476555 0.90665156 -1.1645567 -0.9321528 -0.86909497 0.4472477 -0.7646062 0.121499725
-4.8778343 0.17908992 -0.798283 -2.7484288 -0.16092865 -0.37072188 -0.7910396 -5.1422734
1.1924984 -9.139991 -1.9375856 -0.41979757 -0.16164522 0.59087384 0.09054847 -2.2345378
0.09633532 -0.62625575 -0.10445052 1.3363296 -1.4645206 -0.5086666 -0.44072905 -2.5452635
-0.80755407 -0.04470535 -1.5666897 0.9090127 -1.8588904 0.8514395 0.4423863 0.34041202
-0.54098606 -10.924114 -3.1024415 -1.5582365 -1.8633682 0.3235968 1.5631756 0.30032852
00000000: 46b0 00bf 0d33 9fbc 3c5d 2fc0 9875 5dbf
00000010: f779 f5bf 0eba 34bf a260 23bf 1b60 fdbe
00000020: e465 c8be d91b 20bf 0fcf c6bf 30a9 01c0
00000030: debc d3bf 08e9 02bf 2701 08c0 c68f cc3d
00000040: bf40 b0bf 044c 94bf 88aa 25bf fd88 80bf
00000050: c760 24c0 e2d8 48bf bb9a 4ec0 8614 65be
00000060: 3b4a bcbf 53fb 34bf 263f 2bbf beb8 31c0
00000070: e301 59bf f428 27bf 58b9 00bf 0e66 53c0
00000080: fb02 f2bf 9202 b5bf 2c17 20bf c5ff fcbe
00000090: 46bb 223b cd01 a2bf 25d9 bbbf 840d bfbf
000000a0: 46c9 a0be 1ec4 e8be e128 20be 487b f4be
000000b0: c769 6fc0 2028 97bf 173f dcbf 2ff5 dbbe
000000c0: 4281 3ac0 b157 8cbd 540d 87c1 5fd7 9dbf
000000d0: 5db4 b5bf cf0d b7bf 85d5 7ebe a976 c6bf
000000e0: 8b72 e93f 31a0 31c1 3466 3e3f cbe1 83be
000000f0: b96b d1bf eaa8 07be 27b8 933f dd7a 2f3e
00000100: 9090 203f be54 c83e c3f8 d5bf c187 793f
00000110: 1924 a1bf cd23 7b3f 898a 4ebe e693 2dbe
00000120: 620e 1f3d 4bc9 963e 6b86 76bf 9afe abbf
00000130: e16a 3f3f 6004 5ac0 30d0 bdc0 71db c4c0
00000140: c1b2 7ac0 6211 07c1 6c0b d53f 93ec 90be
00000150: 9e96 70bb 23bc cc3e ce75 f5bf cd97 1ec1
00000160: 4647 623f 76fd 5c3f 8277 abbd bc89 6cbe
00000170: 3109 f2bf 6243 8640 480d e33e 1183 bbbf
00000180: d29c fbbd dbc3 7c3d 1dfe 67c0 8321 88bf
00000190: 3c5d 92bf 77b8 c53f d601 863e 970b b2bf
000001a0: 54cf bf3e 2c67 2cbf c638 653e 53b3 2f3f
000001b0: eea8 40bf 292f fb3f 8684 993c 0f6c f3be
000001c0: fe67 08c0 688f cc3e 2e1c 1bc0 6946 0fbe
000001d0: f01c c7bf be51 df3f acfd be3d 1920 64bf
000001e0: 5f04 d73e f8ae 9f3d 7966 be3e 8019 38bf
000001f0: 56a9 413f 426a 9bbf be30 ffbe ecca ccc0
00000200: fefb 26c0 782c 0bc1 57fd 59bf f572 73bf
00000210: 4340 4cbe a90e 883e b25a c2bf 532a 0dbf
00000220: 1182 d43f 7ba5 f43f 2625 173d 3e2c 1c3f
00000230: 55ae 9abf badc b6bd 5c97 9e3e 5eee 17c0
00000240: 2f9d 01c0 ae61 30be e3e7 cdc0 5340 5ebe
00000250: 7f81 82c0 b486 99bc be92 163f 4458 2dc1
00000260: 8c1e d63d bb1d 9fbf c902 47c0 a38f 773e
00000270: cc2b 17c1 fe8e 593f 46e5 8cbe 5ca8 60be
00000280: ed00 743f 4fbb 103f 49a5 8bbf 717f 3abf
00000290: b3c9 6ebf af30 203f fb3f 06bf ed11 81be
000002a0: 0b22 82c0 0fcc a33e 415a 55bf dfeb 39c0
000002b0: 1c7b acbe a3b2 65be 30f2 0fbf f2c9 bdc0
000002c0: baae eac0 5760 f2c0 1589 d7bf 3991 e9be
000002d0: 41e8 1ebd 0eea ed3e 0dba 10c0 44d7 9bbf
000002e0: 4cd8 163f 8a84 89c0 e3f4 023d 6ea1 ef3f
000002f0: 9e0b c93f 8501 02bf 0f28 2dbf ac42 b3c0
00000300: 61be 93c0 e63c 47be 6788 ccc0 b72a 863f
00000310: db9e c2c0 01cb 3dbf d3d6 023f 22bd c7c0
00000320: d85a 27c0 4b6c 7cbf 0f1a bcbf 2972 b8bf
00000330: bad1 27c1 2ab7 9dbf ba8f 983f 86fb 583e
00000340: 98b9 8440 511a 683f 3210 95bf 91a1 6ebf
00000350: 027d 5ebf a7fd e43e 3bbd 43bf d9d4 f83d
00000360: 3817 9cc0 5963 373e 465c 4cbf 42e6 2fc0
00000370: 7bca 24be 42cf bdbe 9281 4abf 818d a4c0
00000380: caa3 983f 673d 12c1 ce02 f8bf b5ef d6be
00000390: 5386 25be 8243 173f 7a71 b93d ab02 0fc0
000003a0: 744b c53d 4c52 20bf 27ea d5bd d90c ab3f
000003b0: 6975 bbbf f937 02bf 3da7 e1be 99e5 22c0
000003c0: ddbb 4ebf f51c 37bd 4a89 c8bf 0eb5 683f
000003d0: 1ff0 edbf f0f7 593f 7580 e23e 7c4a ae3e
000003e0: 107e 0abf 2cc9 2ec1 678e 46c0 4b74 c7bf
000003f0: d982 eebf 7bae a53e 2316 c83f a9c4 993e

dense3.bias f4 [128]
-0.7356284 -0.09379733 0.24937382 0.95396584 -1.1231651 0.96476895 -0.11465242 0.30646476
0.8103222 -0.03403231 -0.8609293 -0.6961512 -0.10463828 0.19185187 -1.1691715 0.008681802
0.120508656 -1.0269346 -0.6373747 -0.8714518 -0.5246354 0.2434849 0.3332893 1.036006
0.33114 -0.83170587 0.5361813 -0.76903987 -0.99463433 0.62520677 0.87566376 0.81662136
-0.17300084 -0.14031103 0.57366985 -0.69702405 -1.1759475 0.4469568 0.30414626 1.1177111
0.47742727 -0.93240047 -0.7287376 0.13452575 -0.00071336236 0.09567831 0.8767445 0.2679303
0.3501061 1.2022431 2.294329 0.50161505 0.18397018 1.0684067 1.8044232 0.18476556
-0.15141569 2.4331956 1.757798 -0.7585016 -0.81510645 -0.312329 0.9015179 0.38606343
-1.291237 0.06695126 1.5240024 -0.056241773 -0.37599894 -0.42565587 -0.06322083 -0.6804947
-0.44400775 -0.13759711 -0.18908836 -0.09260018 -0.27119187 -1.1683279 -0.39477056 -0.42178372
-0.074139014 -0.07259447 -0.37670308 -0.014613958 0.22286688 0.41438246 -0.70944935 -0.84948444
0.6915772 -1.1416732 -1.6798054 1.1891763 1.2129372 -0.120508626 0.5431813 0.41303465
-0.45161247 -0.14026728 1.0429875 -0.45888758 -0.6342743 0.59406686 0.542325 0.34662512
-0.73126024 -0.35924447 0.7721802 0.38010418 -0.25319898 -0.70248455 -0.7604577 0.08658993
-0.35688913 -0.13452944 -0.10408179 -0.59460974 -1.6960526 0.046870627 0.10762372 1.5456024
0.7763804 -0.20463401 -0.9008356 0.023222977 0.19767685 0.6902643 0.6605198 -0.65461177
00000000: 2552 3cbf d118 c0bd da5b 7f3e 1b37 743f
00000010: e0c3 8fbf 19fb 763f e3ce eabd f3e8 9c3e
00000020: 4771 4f3f 7765 0bbd dd65 5cbf f736 32bf
00000030: 984c d6bd d174 443e 69a7 95bf 1e3e 0e3c
00000040: 3ecd f63d 9872 83bf fd2a 23bf 7717 5fbf
00000050: 814e 06bf 1b54 793e e5a4 aa3e d89b 843f
00000060: 2f8b a93e adea 54bf 2d43 093f ccdf 44bf
00000070: 5ba0 7ebf 8d0d 203f 802b 603f 190e 513f
00000080: 2227 31be b2ad 0fbe 07dc 123f 2b70 32bf
00000090: 7385 96bf 86d7 e43e 0fb9 9b3e 2811 8f3f
000000a0: 5971 f43e ccb1 6ebf 8c8e 3abf 1ec1 093e
000000b0: f000 3bba fdf2 c33d 5472 603f 292e 893e
000000c0: 1b41 b33e 1ae3 993f 49d6 1240 d869 003f
000000d0: ae62 3c3e 8dc1 883f 57f7 e63f 2f33 3d3e
000000e0: b70c 1bbe 7ab9 1b40 86ff e03f 292d 42bf
000000f0: d1aa 50bf 96e9 9fbe e1c9 663f 1baa c53e
00000100: 4147 a5bf be1d 893d 8312 c33f c65d 66bd
00000110: ef82 c0be 91ef d9be ec79 81bd e734 2ebf
00000120: fc54 e3be 42e6 0cbe 61a0 41be 2aa5 bdbd
00000130: a9d9 8abe c58b 95bf 5e1f cabe 09f4 d7be
00000140: 32d6 97bd 69ac 94bd 3adf c0be 626f 6fbc
00000150: 3737 643e f029 d43e 799e 35bf d077 59bf
00000160: 340b 313f 5922 92bf dd03 d7bf ee36 983f
00000170: 8741 9b3f 3acd f6bd ee0d 0b3f 4779 d33e
00000180: c039 e7be 3aa2 0fbe 9d80 853f 50f3 eabe
00000190: cd5f 22bf c414 183f d0d5 0a3f d978 b13e
000001a0: df33 3bbf e4ee b7be 9aad 453f 049d c23e
000001b0: 4ca3 81be 07d6 33bf 5bad 42bf 1056 b13d
000001c0: 2cba b6be 16c2 09be d528 d5bd 5838 18bf
000001d0: 4018 d9bf 6afb 3f3d d369 dc3d 4dd6 c53f
000001e0: dec0 463f 948b 51be 299d 66bf 1d3e be3c
000001f0: cd6b 4a3e 29b5 303f d317 293f a394 27bf
