Saved Models/Rosslyn_ULA_DFT_4_beam_probing_codebook_128_beam_classifier_noiseless.pt (torch, 9567 bytes, 6 tensors)

dense1.weight f4 [8, 4]
00000000: 2e76 18be ecac 9ac1 0f07 933f a580 3941
00000010: 3370 413f ec8c 7f3f 407a 6cbd 8bc8 0fc2
00000020: 5df3 35c1 1ebb f7be 61a9 7d3f 87b1 a4bd
00000030: 3f51 06bf 0dcb bbbf 4e16 0b40 9da4 8bc1
00000040: 4be9 d8bf e093 c5c0 0318 2ec1 199c 6ac0
00000050: dcc7 ea3e e47b b43d 9891 36c2 a886 f13e
00000060: 1b48 16c2 5e0c 843e acab da3e 1d11 ea3f
00000070: d547 023d 5f78 85be 3dc8 d3c1 0038 6240
-0.14888832 -19.334435 1.1486529 11.593907 0.7556183 0.99824405 -0.057733774 -35.945843
-11.371915 -0.48384947 0.99086577 -0.08041673 -0.5246772 -1.4671341 2.1732364 -17.455378
-1.6946195 -6.174301 -10.880862 -3.6657774 0.45855606 0.08812693 -45.64218 0.47173047
-37.570415 0.25790685 0.427091 1.8286473 0.031806786 -0.26068398 -26.472773 3.534668

dense1.bias f4 [8]
00000000: feb6 113d f74b 353e 9941 603f f54e 8e3f
00000010: e9e6 a43e 36af ce3d 4097 cf3d e2b3 413f
0.035574906 0.1770476 0.87600094 1.1117846 0.3220742 0.100920126 0.101362705 0.75665104

dense2.weight f4 [12, 8]
00000000: e440 2fbf c87d 04c0 b6df 0440 9355 55c0
00000010: c6cb 70c0 3eda 1fc0 9551 c8c0 e177 2640
00000020: 44f3 e7bf 6a15 23bf 0698 0140 c9a4 3a40
00000030: 8e1b abbf 2a78 0cc1 63c6 b63e a9fa afc0
00000040: f670 68c1 d1fd 0e40 f76e 0bc0 4834 e03f
00000050: cc10 0fc0 e948 2bc0 c335 8ec0 fd40 f63b
00000060: b4d8 5e3e 7b37 27bf 3e08 3f40 a686 b83e
00000070: 2f15 a1bf e5b6 dac0 c6ec d540 8e45 5cc0
00000080: 00a7 71bd b469 fabd d93f 8e3e 2d84 65be
00000090: daad 97be b817 85bd b931 a0be 2c66 51be
000000a0: 999e 953e 2108 aac0 6986 5cbf 03a3 e2bf
000000b0: bc98 61be f8f5 3040 08a9 c9c0 e442 a53d
000000c0: b3c5 0e3f 2eae 113e 3d79 0d3f 3a2f ec3d
000000d0: 0e75 e5bf 5458 28c1 8f79 89bf 1ae5 59c0
000000e0: a74a 8abd d388 25bd e8ac 933d 7535 86be
000000f0: e90b 203d 622a 06bd e650 953c a096 45be
00000100: bc64 89be 414a afbe 05b5 683e e711 9dbe
00000110: 8e70 82be 1770 c8bd c4d5 2ebe 4ecf febd
00000120: aafa 2e3e 14cd c9c0 7563 94be ec6d 893e
00000130: d084 c33f 8b56 d2c0 a759 87bf f2ce c03e
00000140: 8c66 8abe a815 84bf e920 893f 929b 07bf
00000150: c9ec 4f40 476a 903f bce9 913f 36c3 0dbe
00000160: c2a9 9a3f 3528 d1bf 836b ae3f 97f2 32bf
00000170: 2e64 f5bf 67da 9b40 9b8e 343c 9fee 223f
-0.6845839 -2.070177 2.0761542 -3.333348 -3.7624373 -2.4976954 -6.2599587 2.6010668
-1.8121114 -0.6370455 2.0249038 2.9163077 -1.3367784 -8.779337 0.35698232 -5.499348
-14.527578 2.2342417 -2.1786478 1.7515955 -2.2354002 -2.676325 -4.4440627 0.0075150714
0.21762353 -0.6531903 2.984878 0.3604023 -1.258459 -6.834826 6.685153 -3.4417453
-0.058997154 -0.122271925 0.27783087 -0.22413702 -0.29624826 -0.064986646 -0.31287935 -0.20449132
0.29222563 -5.3134923 -0.86142594 -1.7705997 -0.2203092 2.7650127 -6.3018837 0.08069399
0.55770415 0.142266 0.5526312 0.11532445 -1.7926347 -10.5215645 -1.0740222 -3.4046082
-0.0675252 -0.04041369 0.072107136 -0.2621266 0.03907386 -0.032755263 0.018227052 -0.1929574
-0.26834667 -0.3423634 0.22725303 -0.3067772 -0.25476497 -0.097870044 -0.17073733 -0.12441884
0.17087808 -6.306284 -0.2898213 0.26841676 1.5274906 -6.5730643 -1.0574235 0.37657887
-0.27031362 -1.0319109 1.0713168 -0.52971756 3.2488272 1.1282433 1.1399455 -0.13843998
1.2083056 -1.6340395 1.362656 -0.6990141 -1.9171197 4.8704104 0.011020328 0.63645357

dense2.bias f4 [12]
00000000: 2013 2d40 911a ba3f 01c8 bf3f 0010 fc3e
00000010: f4ba 50be 3b3a 9a40 c340 7640 cce5 d9be
00000020: bf14 c7be 7871 8f3f 9133 493f 9779 09bf
2.7042923 1.4539357 1.4982911 0.49230957 -0.20383817 4.819608 3.8477027 -0.42558134
-0.38883016 1.1206503 0.7859431 -0.53701156

dense3.weight f4 [128, 12]
00000000: 409e d0bf bccd d1c0 f324 afc0 b1b4 24c0
00000010: 7cf3 6f3e 5c4d 0cc0 7bcb 50c0 7c90 193e
00000020: 24af 4d3e ef2a a6bf ff0d 09c0 3359 ebbe
00000030: e549 c3be f35b f1bf 8864 15c1 e445 4dc1
00000040: c0e9 5f3e 5556 d83f ee22 ebbf 9b30 9bbe
00000050: 227d 32be 27ea d43d 2247 9d3f cfc0 bec1
00000060: 019c 223e af49 36c0 08a2 37c1 0755 85c1
00000070: 1251 13be 2ab0 393f c99e ea3e c81c b13d
00000080: eed5 02be 7e1d ec3f 6abf 0640 b999 d5c1
00000090: 8ce1 0ebf c2bd 13c0 8be8 11c1 b1d3 56c1
000000a0: 4edb 85be 8add c13f 1108 a0bf 7849 3ebd
000000b0: 00d4 1b3e 98f4 4b40 0bc9 d63f cb87 cec1
000000c0: c441 81be 31c9 9dc0 d635 b0c0 20e8 25c1
000000d0: 3ca9 42bd 4be6 1b3f 0e8e 17bf 4ac5 dabb
000000e0: ac93 043e 08b0 6a40 833d 0040 553e 12c2
000000f0: 8ec0 28be 5483 c0c0 b908 7ec0 11f1 f1c0
00000100: 281e 433d c5f9 393f 5f93 35bf 1abd c8be
00000110: a0a1 913e f3b8 5c40 0a97 fe3f ba1f 0dc2
00000120: 737a 74bf 88a1 bdc0 3e4c 04c0 9e3a d9c0
00000130: b0f5 a93c 1fd9 393f 25e3 e1bf ba51 dabe
00000140: 1830 db3d 56cc 8140 e33a e43f a321 d4c1
00000150: 035c 4abe 1de8 b4c0 4b2d a3bf e950 9fc0
00000160: 7c2a a23d c3ab 803f 3973 55c0 1b3d a63d
00000170: 424d 27be e7c0 6040 4657 8b3f 21bb efc1
00000180: d237 59bf f91c a5c0 ecc2 61bf 929c 50c0
00000190: ecc6 81be 21b1 0540 5317 4dc0 18f5 d7be
000001a0: bd08 5fbe dbe0 db3f 1224 813e e882 2cc1
000001b0: e705 9bbf db2c 76c0 6310 bbbe 75ca dcc0
000001c0: 3479 953d 7a73 1840 65f8 89c0 96d8 06be
000001d0: 1296 6abe 5186 bc3f 205c f2be 9d6a 1fc0
000001e0: e052 f5be 5f91 8bc0 5b1c b8be a1da 17bf
000001f0: 48bc 19be acd5 2d40 7ea8 55c0 1b94 15be
00000200: 7e3d 82bd df2c abbe 0de6 fdbe eb61 2ac1
00000210: d649 bdbd 48b9 b6c0 a38b 65be 98c8 98c0
00000220: 161f 8e3e 6f3f 1940 d33a 4fc0 6f20 2fbe
00000230: 5c8b 8f3e e778 79bf d2d7 fdbe 8d47 f7c0
00000240: a68a 1b3f 9b5c 98c0 28a7 e4bc 54fd c2c0
00000250: 307c 273d ac28 0640 872a 9cc0 9bd4 81be
00000260: 141a b7bd d6c8 42c0 3279 52bf 02ed c9c0
00000270: 60e3 543f b392 adc0 cede 103f 0b5a d6c1
00000280: a3d9 1cbe cb06 883f 4b0d fbc0 b5a6 3dbe
00000290: 7aef 3f3e cd01 35c0 1be8 13bf f1a2 2ac0
000002a0: 9a3f 79bf e4f0 5dc0 1c20 3a3f d0f7 d4c1
000002b0: f420 b7bd 0239 cc3e ffbe ecc0 9cd2 2ebe
000002c0: 2884 bf3d a91e d9bf a5c8 2bbf ba86 d2be
000002d0: d6a9 9c3d d5ea 8bc0 9086 d33e 93dd 25c1
000002e0: 422b 7ebe d694 15be 6583 93c1 b7a0 803e
000002f0: 408c 79bc 2d32 febf af70 f0c0 56fa ee3e
00000300: 177a 2d3e dbe2 81c0 f2cd 2f3f ee47 ccc0
00000310: eaaf fcbd 0184 dcbe deac 82c1 38cf 57bb
00000320: 298e 89be bd86 80bf 078c 1ec1 2d18 b23e
00000330: b918 c7bf 3a58 30c0 b166 8e3f 6b6a e4c1
00000340: 83b8 28be 9c05 b93d 0b71 d4c0 fa4b dc3b
00000350: 5c58 9c3d ef4b 01c0 221e 9dbe 4f01 3dbf
00000360: cc84 cc3e ff40 47c0 f6a7 883f bff4 b9c0
00000370: fca7 67be 9378 bd3e f55a 05c1 097a 37be
00000380: a435 6e3e 7ca0 84c0 87aa 17bf 018d 04c0
00000390: 9e3c e63d 0545 77c0 0391 773f d114 ddc0
000003a0: 384b 7fbd e173 4f3f 0347 a4c0 7a97 75be
000003b0: 8a2e 8dbd 41c1 15c0 bbb0 44be 7496 debf
000003c0: 4f4e efbf a8a3 9ac0 1e5f ed3e 01f4 dcc0
000003d0: fc73 873e e8eb 9d3f 6557 1fbe 8cea 9dbe
000003e0: 3031 483e dfc2 4bc0 fb85 8c3c b51b a7bf
000003f0: ea13 06c0 9c3b 95c0 f1f4 f83e f594 d3c0
-1.6298294 -6.556364 -5.4732604 -2.5735285 0.23432726 -2.1922216 -3.2624195 0.14996523
0.20086342 -1.2981852 -2.1414793 -0.4596649 -0.38142315 -1.8856186 -9.337044 -12.829563
0.21866512 1.6901346 -1.8370035 -0.3031052 -0.17430547 0.103962235 1.2287333 -23.844145
0.15879823 -2.8482473 -11.477058 -16.666517 -0.14386395 0.7253443 0.45824268 0.08648068
-0.1277692 1.84465 2.105433 -26.70006 -0.5581291 -2.308457 -9.119273 -13.426682
-0.2614388 1.5145733 -1.2502462 -0.046456784 0.1521759 3.1868038 1.6780103 -25.816305
-0.25245488 -4.9308095 -5.506572 -10.369171 -0.047524676 0.60898274 -0.59201133 -0.0066763507
0.12946957 3.666994 2.0037544 -36.56087 -0.16479704 -6.0160313 -3.9692824 -7.560677
0.04763618 0.72646743 -0.70927995 -0.39206773 0.28443623 3.4487884 1.9889843 -35.280983
-0.9549934 -5.925968 -2.0671535 -6.7884054 0.020747036 0.72596925 -1.7647444 -0.42640477
0.107025325 4.0561934 1.7830471 -26.516424 -0.19761662 -5.653334 -1.2748197 -4.9786267
0.079182595 1.0052418 -3.3351576 0.08117124 -0.16338065 3.5117738 1.0886009 -29.966372
-0.848508 -5.1597867 -0.8818805 -3.2595563 -0.25347078 2.088936 -3.2045486 -0.4217918
-0.21780677 1.7177995 0.25222832 -10.78196 -1.2111176 -3.8464878 -0.3653594 -6.899714
0.07298508 2.3820481 -4.3115716 -0.13168558 -0.2290881 1.472849 -0.4733591 -2.4908822
-0.4791479 -4.3614955 -0.35959134 -0.59317976 -0.1501323 2.7161665 -3.338409 -0.14607279
-0.06359385 -0.3343267 -0.49589577 -10.648906 -0.09242599 -5.7101173 -0.22416548 -4.7744865
0.27758092 2.3944967 -3.2379653 -0.17102216 0.2803601 -0.9745011 -0.4957872 -7.727484
0.60758436 -4.7613044 -0.027911738 -6.093424 0.04088992 2.0962324 -4.8801913 -0.25357518
-0.08940521 -3.043508 -0.8221618 -6.3101816 0.83159447 -5.4241576 0.5658997 -26.793966
-0.15317397 1.0627073 -7.8453727 -0.18520625 0.18743697 -2.828235 -0.5777604 -2.6661952
-0.97362673 -3.4678278 0.72705245 -26.621002 -0.08941832 0.39887244 -7.398315 -0.17072529
0.09351379 -1.6962482 -0.67103034 -0.41118413 0.07649581 -4.372416 0.413136 -10.366595
-0.24821189 -0.14607558 -18.439157 0.25122616 -0.015231192 -1.9859062 -7.5137553 0.46675366
0.16941105 -4.0589423 0.6867362 -6.3837805 -0.123382404 -0.4306946 -16.334408 -0.0032929908
-0.26866272 -1.0041119 -9.909186 0.3478407 -1.555442 -2.755385 1.1125089 -28.551962
-0.16476636 0.09034273 -6.638799 0.0067229243 0.07634041 -2.0202596 -0.30687052 -0.7383012
0.39945066 -3.113342 1.0676258 -5.811126 -0.22622675 0.37006053 -8.334706 -0.17917646
0.2326265 -4.1445904 -0.5924458 -2.0711062 0.112420306 -3.8635876 0.96705645 -6.908791
-0.062327594 0.8103619 -5.1336684 -0.23983565 -0.06893642 -2.3399203 -0.19208042 -1.7389665
-1.8695773 -4.8324776 0.4636163 -6.9047856 0.26455677 1.2337618 -0.15560682 -0.30843008
0.19550014 -3.183769 0.01715373 -1.305533 -2.0949655 -4.6635265 0.48624375 -6.611933

dense3.bias f4 [128]
00000000: b9e0 a0bf cf47 c23e f46f 6f3f c13e a1be
00000010: 1ee2 043f db92 9b3e 8727 823e 95cb 8f3e
00000020: 1237 6f3e dc90 d53d 4c41 23bf d125 89be
00000030: e36b 4b3e 36ef 323f 8f41 a13f afe6 7abf
00000040: 098a c0bf 7f99 253f ecfb 4c3f bcb1 e9bd
00000050: d8e9 0b3f 3e9e 4f3f df9f 813f 2f66 a93e
00000060: c881 903e fad4 243e 718a 813e 4e2c 18bf
00000070: 5333 d9bd 4356 a6be 4578 ddbe 699a ecbe
00000080: cc2e 38bf 5722 78bf 2adb e9be 385d fbbe
00000090: 2e68 73be ba6c 79bf b0ed 8dbf f327 a6bf
000000a0: 9a75 96bf 4f77 15bf 0549 92bf dcc3 bbbe
000000b0: 29e4 9dbe 4d2f 273f 00cf 5abf cabe acbf
000000c0: 4c91 c6bf 50ea c5bf 7b80 92bf 8b4f 90bf
000000d0: 8855 91bf 81f2 abbf 0380 96bf 555b 98bf
000000e0: 1ce4 81bf cca2 34bf c8fb 1abf 0fb1 83bf
000000f0: 7d68 9fbf 5a12 debf 989f afbf 1788 0ec0
00000100: e25e 19c0 7965 abbf 17ff 84bf db3d a4bf
00000110: 6c9d 92be 53c4 a0bf 6516 7dbf 878c 1fbf
00000120: 3ce8 31bf adf8 b73e 8f40 a93e 842a c13d
00000130: f5e7 7d3f cc6d 233f 4d14 dfbe 385b 06c0
00000140: 13a8 f3bf f658 f8be 67f3 dd3e 7bed aabe
00000150: df40 4c3d d43d a0be 9291 6c3d b545 ff3e
00000160: 8fb5 5a3f f846 9f3e 42ba 0ebf 5c0f 9f3e
00000170: 2d46 2bbe 7e10 e53e 8fe1 813e 512b 6f3e
00000180: 0820 88be db0d a3be 4bfe 2c3f c1a5 e13e
00000190: 45a5 cebd 7159 ea3e fadd 953b 05d3 983d
000001a0: 37be ccbe 0264 79bd 4c6c 77bd bc06 60be
000001b0: d2be f33e b11b 863e 6439 05bf 4af9 8bbf
000001c0: c4e7 6bbf 7f8a c43d 1550 d13f 00d5 2040
000001d0: 0b61 0340 ebf7 2b40 ae0f 2c40 e7fa b83f
000001e0: 9214 0d40 2443 f93f a197 ba3f cebd 853f
000001f0: 59b5 693f 5bfb a33f 0a36 b23e f3ad 77bf
-1.256858 0.3794541 0.935302 -0.3149319 0.5190753 0.3038548 0.25420782 0.28085008
0.23360851 0.1042802 -0.6377151 -0.26786664 0.19865374 0.69896257 1.2598132 -0.98008245
-1.5042125 0.6468734 0.800719 -0.11410853 0.5465369 0.81100833 1.0126914 0.33085772
0.28224015 0.16096869 0.25300935 -0.59442604 -0.106054924 -0.32487687 -0.4325582 -0.46211556
-0.71946406 -0.969274 -0.4567502 -0.49094558 -0.2377021 -0.9743153 -1.1088161 -1.2980942
-1.1754639 -0.58385175 -1.1428534 -0.36672866 -0.30838135 0.6530655 -0.85472107 -1.3495724
-1.5513091 -1.5462132 -1.1445459 -1.1274275 -1.1354227 -1.3433381 -1.1757816 -1.1902872
-1.0147738 -0.7056091 -0.6054044 -1.0288409 -1.2453762 -1.734935 -1.3720579 -2.2270563
-2.3964162 -1.3390342 -1.0390347 -1.2831377 -0.28635728 -1.2559913 -0.98862296 -0.623238
-0.69494987 0.35931912 0.33057067 0.09431937 0.99182063 0.6383941 -0.43570176 -2.0993176
-1.9035667 -0.48505372 0.43349764 -0.33384308 0.049866553 -0.3129717 0.057756014 0.4985787
0.85433286 0.31108832 -0.55752957 0.31066406 -0.16725989 0.44739145 0.253674 0.23356368
-0.26586938 -0.31846508 0.6757552 0.44071773 -0.100901164 0.45771363 0.004573581 0.07462124
-0.39988872 -0.06088639 -0.060406014 -0.21877569 0.47606522 0.26193002 -0.52040696 -1.0935452
-0.9215052 0.095967285 1.6352564 2.5130005 2.052798 2.6870067 2.688457 1.4451569
2.2043805 1.9473615 1.4577523 1.0448549 0.9129234 1.2811083 0.34806854 -0.967498
