Saved Models/Rosslyn_ULA_DFT_4_beam_probing_codebook_128_beam_classifier.pt (torch, 9567 bytes, 6 tensors)

dense1.weight f4 [8, 4]
1.3135629 15.851051 0.9151295 -16.748466 -0.066086516 1.1804752 -35.0599 0.19993424
0.626739 -0.2519019 1.4687697 -29.260315 4.8424745 -3.3558028 2.5893807 -8.897012
-10.528263 1.889042 2.4048533 -8.176096 3.0599632 0.54687864 -44.748512 -0.7995496
-25.996653 2.626404 -0.093014956 0.013487004 -0.09452437 -30.05019 0.7667282 1.5001111
00000000: d422 a83f e89d 7d41 ed45 6a3f dcfc 85c1
00000010: 5e58 87bd d019 973f 563d 0cc2 90bb 4c3e
00000020: f871 203f 49f9 80be a500 bc3f 2015 eac1
00000030: 8df5 9a40 79c5 56c0 6ab8 2540 295a 0ec1
00000040: c473 28c1 21cc f13f 1ee9 1940 4ad1 02c1
00000050: 70d6 4340 3d00 0c3f 7afe 32c2 48af 4cbf
00000060: 25f9 cfc1 0117 2840 a07e bebd 98f8 5c3c
00000070: fe95 c1bd ca66 f0c1 4d48 443f a403 c03f

dense1.bias f4 [8]
0.2662775 0.90696144 0.41142353 1.1501735 0.44834763 0.123398565 1.1473695 0.0145483
00000000: 8655 883e a02e 683f 1ba6 d23e e338 933f
00000010: d28d e53e 63b8 fc3d 01dd 923f fe5b 6e3c

dense2.weight f4 [12, 8]
-10.608475 0.27571437 -2.2408543 0.9498144 -3.3211095 -1.8415445 2.005959 -0.7037868
-0.8780941 -0.5248244 -0.2790692 -1.1860821 1.677933 -2.3981876 3.2778752 0.35967863
-12.931274 -0.81933475 -2.8825614 2.884964 2.976357 -2.1659472 1.4148751 -0.10442432
-1.081629 -4.200883 -1.049916 3.4186153 -1.1837351 -4.824239 0.29597235 -13.5346365
-0.56371856 -0.57514966 -0.16690105 -0.3501104 -0.21856727 -0.040345985 0.07616547 -0.46033534
0.5168916 0.034676075 2.8422425 -0.0646285 -0.6408202 0.24636938 -1.9788209 -3.366695
-0.44481984 3.6776867 -5.1509814 -1.1180218 -1.7010038 3.6880918 0.32132497 -0.3528828
0.06948065 -0.36540106 -0.45773354 -0.016686916 -0.45610446 -0.39882234 -0.3503593 -0.3686462
0.24266073 -3.045901 0.021218177 0.021672541 0.85835004 -7.8170867 1.0931244 -0.021036731
0.09384193 -3.662796 3.1702704 0.3484226 0.2911589 -1.2434107 0.90427667 -6.0149803
-6.73346 3.3549087 -4.3643003 -0.11828167 -5.3373775 3.6725922 1.4779203 -1.0712243
0.14466506 -0.98234004 -6.622025 0.63263386 -2.563361 0.203986 0.567704 -1.6064839
00000000: 50bc 29c1 6f2a 8d3e 286a 0fc0 0927 733f
00000010: 0f8d 54c0 bbb7 ebbf a261 0040 5f2b 34bf
00000020: c6ca 60bf e45a 06bf 28e2 8ebe 8ad1 97bf
00000030: 82c6 d63f e87b 19c0 b5c8 5140 cc27 b83e
00000040: 80e6 4ec1 ecbf 51bf e37b 38c0 40a3 3840
00000050: a27c 3e40 e19e 0ac0 a11a b53f 6bdc d5bd
00000060: d272 8abf a26d 86c0 a663 86bf 98ca 5a40
00000070: a284 97bf 2a60 9ac0 b089 973e df8d 58c1
00000080: dc4f 10bf 023d 13bf 1ce8 2abe ac41 b3be
00000090: 19d0 5fbe d541 25bd a4fc 9b3d 13b1 ebbe
000000a0: 0253 043f 8008 0e3d 4de7 3540 f25b 84bd
000000b0: cb0c 24bf 4148 7c3e 014a fdbf ee77 57c0
000000c0: 6dbf e3be 385f 6b40 d7d4 a4c0 571b 8fbf
000000d0: 7eba d9bf b209 6c40 b584 a43e 0ead b4be
000000e0: df4b 8e3d d915 bbbe 0d5c eabe 00b3 88bc
000000f0: 8686 e9be 7132 ccbe 4b62 b3be 32bf bcbe
00000100: 0e7c 783e 0bf0 42c0 bed1 ad3c 9d8a b13c
00000110: d4bc 5b3f 9325 fac0 80eb 8b3f 3955 acbc
00000120: 3330 c03d 406b 6ac0 b6e5 4a40 7264 b23e
00000130: c812 953e 1528 9fbf ad7e 673f b87a c0c0
00000140: 8178 d7c0 d3b6 5640 59a8 8bc0 a93d f2bd
00000150: cccb aac0 c00b 6b40 7e2c bd3f e11d 89bf
00000160: 1423 143e a37a 7bbf a1e7 d3c0 4bf4 213f
00000170: 1b0e 24c0 b5e1 503e 0d55 113f 44a1 cdbf

dense2.bias f4 [12]
2.0487258 -1.8789356 -0.52458227 1.6735305 -0.5838372 1.3659996 1.1723558 -0.20751293
2.1090636 2.375496 1.803587 4.1606255
00000000: 531e 0340 f680 f0bf 064b 06bf 3f36 d63f
00000010: 5b76 15bf 13d9 ae3f c10f 963f 457e 54be
00000020: e6fa 0640 2008 1840 f0db e63f d823 8540

dense3.weight f4 [128, 12]
-0.9268813 -1.0624709 -0.6597097 -2.9939318 0.12050477 -3.567935 -1.3928994 0.2586283
-6.651587 -7.533163 -0.8163707 -1.4641002 3.4703927 -17.400002 -8.155032 0.39844766
0.111480236 -9.915489 -1.4821612 0.28758356 -5.993221 0.012094371 2.2714486 -0.40032732
1.5996872 -17.70367 -5.661798 2.619345 -0.045781016 -7.45704 -1.5178745 -0.15933067
-4.3820148 -0.9650761 3.8121822 -0.52929133 0.78307736 -18.724379 -4.752666 2.456372
-0.115193605 -6.4744344 -1.1355555 0.19958444 -3.279923 -1.1957227 3.2907023 -0.022278681
-1.0756471 -13.800747 -9.390124 2.9191148 0.07608712 -5.735908 -1.2856528 -0.09110652
-4.549968 -1.3182346 3.5510273 0.32610378 -1.8578783 -11.829005 -7.062131 2.1392896
-0.19591627 -4.891832 -0.5730749 0.104475856 -4.416907 -1.6569737 2.5101423 1.1025038
-5.2514462 -9.485059 -9.663765 1.9520777 -0.13383004 -4.6312494 -0.18413267 -0.10334175
-6.135679 -2.245975 2.2813182 1.2205518 -5.906734 -13.419106 -4.9855227 0.8065338
-0.2047675 -3.785312 0.3260654 -0.088282995 -5.5543427 -2.2844257 1.0878515 1.7790493
-8.020423 -10.665482 2.882721 -0.03252757 -0.10139285 -2.4674802 0.5282014 -0.065032154
-6.926868 -1.3634006 -0.14471363 2.3965693 -8.947709 -13.504581 -13.3182535 -0.1418315
-0.22006673 -1.7285674 1.1351118 -0.1917215 -5.9758067 -1.1334938 -0.6719841 1.8673489
-3.5477087 -10.471216 -8.891928 -0.5192609 0.26324755 -1.1734538 0.74448025 -0.5720994
-4.3236284 -1.1897526 -1.2662166 1.9011097 -7.232178 -8.655593 -5.037121 -0.5802104
-0.0027939975 -1.1403943 0.8077765 -0.18345535 -8.321138 -1.8855842 -1.3749156 1.6527011
-15.682209 -2.0336897 -6.0902843 0.24557863 0.032109827 -0.64822996 1.3622597 -0.5366831
-6.7697763 -1.7258205 -1.8319143 0.7449053 -6.704903 -14.84047 -5.1110244 0.73518664
0.10001171 -0.30445787 1.3513691 -0.12635806 -9.859614 -2.081535 -2.0097818 0.15251873
-0.374304 -2.2965128 -9.616184 0.38395944 -0.10964419 0.37532473 0.9324282 -0.11923284
-18.481344 -0.929216 -1.876368 -1.0635946 -3.9353757 0.19643942 -4.023135 0.17379017
0.32123178 0.717193 0.5807214 -0.33971903 -16.793343 0.30292112 -4.3136353 -3.723804
-2.6825337 0.22144723 -3.3798254 0.15751842 -0.1790116 0.7552714 0.50928867 -0.36043897
-16.931654 0.5851823 -5.6926055 -4.115799 -21.66793 -1.4515561 -3.9836423 0.3560159
-0.26186007 0.5526953 0.6163736 -0.5316577 -19.337654 -0.42615822 -2.0233781 -1.0794518
-6.723115 -12.362707 -4.562407 0.6159211 0.21781659 0.34083942 0.2073284 -0.330216
-18.203337 -0.55273855 -2.6709533 0.058719836 -5.520734 -8.525339 -7.2567496 0.40516108
-0.013384372 0.16638279 0.1924034 -0.104466856 -8.981733 -0.45260343 -2.6277866 0.20300348
-1.437946 -4.1806517 -7.1124506 0.5163359 0.08070198 -0.09775845 -0.0072804065 -0.055642072
-8.988849 -0.82378256 -2.7719924 0.30223757 -1.5583521 -6.526559 -3.2376544 0.14457193
00000000: 1848 6dbf 0cff 87bf bce2 28bf 949c 3fc0
00000010: 34cb f63d 0c59 64c0 874a b2bf ee6a 843e
00000020: cdd9 d4c0 ac0f f1c0 acfd 50bf a367 bbbf
00000030: ea1a 5e40 3433 8bc1 037b 02c1 5501 cc3e
00000040: c04f e43d d8a5 1ec1 75b7 bdbf 273e 933e
00000050: 77c8 bfc0 7827 463c 6a5f 1140 b4f7 ccbe
00000060: 8dc2 cc3f 1ea1 8dc1 732d b5c0 59a3 2740
00000070: e084 3bbd 12a0 eec0 b649 c2bf 9427 23be
00000080: 7739 8cc0 3a0f 77bf cbfa 7340 a37f 07bf
00000090: c277 483f 87cb 95c1 d715 98c0 3335 1d40
000000a0: a0ea ebbd 912e cfc0 e259 91bf dd5f 4c3e
000000b0: 42ea 51c0 710d 99bf de9a 5240 c881 b6bc
000000c0: ceae 89bf dccf 5cc1 f33d 16c1 c7d2 3a40
000000d0: 90d3 9b3d 8f8c b7c0 4590 a4bf 0e96 babd
000000e0: 5699 91c0 e9bb a8bf 0844 6340 13f7 a63e
000000f0: f5ce edbf 9b43 3dc1 fafc e1c0 1fea 0840
00000100: 469e 48be e389 9cc0 09b5 12bf 70f7 d53d
00000110: 4d57 8dc0 b717 d4bf 2ca6 2040 d81e 8d3f
00000120: d90b a8c0 cdc2 17c1 c89e 1ac1 afdd f93f
00000130: be0a 09be 3233 94c0 468d 3cbe d7a4 d3bd
00000140: 7b57 c4c0 0ebe 0fc0 1e01 1240 0b3b 9c3f
00000150: f703 bdc0 a8b4 56c1 6789 9fc0 0079 4e3f
00000160: 92ae 51be 8d42 72c0 0bf2 a63e b7cd b4bd
00000170: 2dbd b1c0 0834 12c0 b83e 8b3f e3b7 e33f
00000180: a753 00c1 d0a5 2ac1 807e 3840 a13b 05bd
00000190: 0ea7 cfbd 32eb 1dc0 3538 073f 942f 85bd
000001a0: e7a8 ddc0 e983 aebf cf2f 14be 6461 1940
000001b0: d129 0fc1 c412 58c1 9117 55c1 473c 11be
000001c0: 2c59 61be b241 ddbf 584b 913f a452 44be
000001d0: cf39 bfc0 5316 91bf 2607 2cbf 4a05 ef3f
000001e0: a90d 63c0 1a8a 27c1 5645 0ec1 48ee 04bf
000001f0: 62c8 863e bc33 96bf 4296 3e3f 1b75 12bf
00000200: 2a5b 8ac0 d049 98bf 6313 a2bf 9057 f33f
00000210: 016e e7c0 4f7d 0ac1 1830 a1c0 ab88 14bf
00000220: 801b 37bb 71f8 91bf 71ca 4e3f b8db 3bbe
00000230: 6223 05c1 d35a f1bf 3cfd afbf b68b d33f
00000240: 54ea 7ac1 f927 02c0 9ce3 c2c0 f778 7b3e
00000250: 9885 033d 66f2 25bf 875e ae3f 1064 09bf
00000260: 02a2 d8c0 b0e7 dcbf 2b7c eabf 1db2 3e3f
00000270: 918e d6c0 9172 6dc1 838d a3c0 3135 3c3f
00000280: f0d2 cc3d e7e1 9bbe aaf9 ac3f 0264 01be
00000290: fbc0 1dc1 df37 05c0 44a0 00c0 df2d 1c3e
000002a0: c6a4 bfbe 11fa 12c0 e4db 19c1 5596 c43e
000002b0: 228d e0bd 902a c03e 9db3 6e3f 5930 f4bd
000002c0: cbd9 93c1 1ae1 6dbf d42c f0bf de23 88bf
000002d0: 32dd 7bc0 6a27 493e 86bd 80c0 0df6 313e
000002e0: 7e78 a43e f699 373f 28aa 143f a7ef adbe
000002f0: c458 86c1 7a18 9b3e 4d09 8ac0 ce52 6ec0
00000300: a2ae 2bc0 10c3 623e 0f4f 58c0 824c 213e
00000310: d14e 37be 7759 413f be60 023f 758b b8be
00000320: 0774 87c1 82ce 153f d329 b6c0 a0b4 83c0
00000330: ec57 adc1 97cc b9bf fff3 7ec0 b747 b63e
00000340: 8612 86be 707d 0d3f a9ca 1d3f b81a 08bf
00000350: 84b3 9ac1 6931 dabe 077f 01c0 7a2b 8abf
00000360: c223 d7c0 a6cd 45c1 3dff 91c0 01ad 1d3f
00000370: 500b 5f3e 8182 ae3e e54d 543e 1212 a9be
00000380: 6fa0 91c1 4680 0dbf e6f0 2ac0 3684 703d
00000390: daa9 b0c0 ca67 08c1 4b37 e8c0 4671 cf3e
000003a0: 204a 5bbc 4060 2a3e 6605 453e b8f2 d5bd
000003b0: 2eb5 0fc1 a3bb e7be a82d 28c0 25e0 4f3e
000003c0: 9d0e b8bf e6c7 85c0 3299 e3c0 972e 043f
000003d0: 1447 a53d 9535 c8bd 7a90 eebb f1e8 63bd
000003e0: 53d2 0fc1 6ae3 52bf 5368 31c0 e2be 9a3e
000003f0: 1578 c7bf 92d9 d0c0 bb35 4fc0 aa0a 143e

dense3.bias f4 [128]
-0.59529275 -0.32322982 -0.4624867 -0.69924796 -0.8905726 -0.8178892 0.09030181 0.29900062
-1.5507152 -2.3807049 -1.751125 -0.899706 -1.801519 -1.4490392 -2.1801205 -3.0858014
-2.946744 -2.3625326 -1.507282 -1.2123531 0.20472048 -0.3646523 0.7092538 -0.098249935
0.65637505 1.9192125 1.4617007 1.04971 0.3377892 0.114566475 -0.13603516 0.2634452
0.21909414 1.3981127 0.4689968 1.2667512 1.3298769 1.4226565 1.143758 -0.10358396
0.35453492 0.7769038 1.2353517 2.521263 2.8030884 3.374845 2.9217978 -0.57777727
0.5528255 3.074106 2.4883654 2.270871 1.9744034 2.5146217 2.0709467 2.0705144
1.7638072 0.543476 0.78741217 0.40611827 0.5681956 1.285766 1.9613383 0.8290555
0.97792107 0.92367065 -0.32188207 0.08878086 -0.21838662 -0.11599268 -0.42382827 -0.60350376
-0.60787517 -0.49678957 0.33860773 0.13710105 0.362726 0.20351927 -1.4505602 -2.5070162
-2.5072205 -1.2777759 -0.5191695 -0.25468373 -1.3512287 -1.2343444 -2.167486 -1.6544042
-2.0949676 -2.3158262 -1.9693768 -1.4274889 -0.9573466 -0.3838893 0.61640054 1.0974344
1.6456722 1.2744625 1.058263 0.15843166 0.54673123 0.6149258 0.7701162 -0.41842845
-0.36903474 -0.5791956 1.3755697 2.2527862 2.5225008 1.0583543 1.8500476 -3.278677
-4.825471 1.1744778 0.4993165 1.6420236 -0.18465057 0.7350025 2.4413412 1.9766198
-0.10544309 0.117831856 0.06189208 -0.348208 0.31792367 0.46888366 0.3716588 -0.46363765
00000000: 1b65 18bf 617e a5be 0fcb ecbe ea01 33bf
00000010: 91fc 63bf 3061 51bf 28f0 b83d 9c16 993e
00000020: d67d c6bf 785d 18c0 dd24 e0bf 2253 66bf
00000030: 2d98 e6bf 1e7a b9bf 1887 0bc0 c57d 45c0
00000040: 7497 3cc0 bc33 17c0 9eee c0bf 632e 9bbf
00000050: 3fa2 513e b5b3 babe a891 353f 4337 c9bd
00000060: 3208 283f c1a8 f53f 0219 bb3f e65c 863f
00000070: b5f2 ac3e d4a1 ea3d cd4c 0bbe 4ae2 863e
00000080: 375a 603e 5bf5 b23f 5920 f03e e724 a23f
00000090: 6839 aa3f 9c19 b63f aa66 923f d423 d4bd
000000a0: 9a85 b53e 2be3 463f 0120 9e3f 5f5c 2140
000000b0: cd65 3340 76fd 5740 bcfe 3a40 36e9 13bf
000000c0: f985 0d3f 27be 4440 6141 1f40 f355 1140
000000d0: 40b9 fc3f 90ef 2040 648a 0440 4f83 0440
000000e0: 6fc4 e13f 3e21 0b3f d893 493f bcee cf3e
000000f0: 4475 113f fb93 a43f 220d fb3f fb3c 543f
00000100: 0959 7a3f ae75 6c3f bacd a4be bdd2 b53d
00000110: bea0 5fbe 928d edbd 0500 d9be 397f 1abf
00000120: b59d 1bbf 345b febe fe5d ad3e 3864 0c3e
00000130: 39b7 b93e 5b67 503e f5ab b9bf f472 20c0
00000140: 4d76 20c0 298e a3bf 4be8 04bf e865 82be
00000150: 10f5 acbf fffe 9dbf 17b8 0ac0 84c3 d3bf
00000160: f313 06c0 7f36 14c0 8a14 fcbf f5b7 b6bf
00000170: ab14 75bf 238d c4be 6dcc 1d3f bb78 8c3f
00000180: 63a5 d23f 9621 a33f 2975 873f e93b 223e
00000190: 94f6 0b3f c76b 1d3f 5626 453f 413c d6be
000001a0: 1ff2 bcbe 2a46 14bf ab12 b03f a62d 1040
000001b0: a770 2140 2778 873f 5cce ec3f d8d5 51c0
000001c0: 426a 9ac0 4a55 963f 6aa6 ff3e d42d d23f
000001d0: 0a15 3dbe 2029 3c3f ef3e 1c40 e101 fd3f
000001e0: 8cf2 d7bd d451 f13d 8d82 7d3d 5248 b2be
000001f0: e4c6 a23e 8511 f03e 104a be3e ea61 edbe
