Saved Models/Rosslyn_ULA_DFT_4_beam_probing_codebook_128_beam_classifier_noise_-94_dBm.pt (torch, 9567 bytes, 6 tensors)

dense1.weight f4 [8, 4]
0	0xbfcd6ea1	-1.6049386
1	0xc10be0fa	-8.742426
2	0x3ff53e5f	1.9159659
3	0x3e92e2e8	0.2868874
4	0xc16632af	-14.387374
5	0x3f096ff0	0.5368643
6	0x3e91392f	0.2836394
7	0x408437ab	4.1317954
8	0x3e210bf4	0.15727216
9	0x3e9775fd	0.29582205
10	0xc130a283	-11.039676
11	0x40dacfc7	6.8378634
12	0xc21d1728	-39.272614
13	0x3d89f36f	0.067358844
14	0x3f818d38	1.0121222
15	0x3fb0987f	1.3796538
16	0xbe963a5d	-0.29341403
17	0x3f0bca74	0.54605794
18	0x3f91e293	1.139727
19	0xc1ee22e0	-29.767029
20	0x3eca4c3d	0.3951129
21	0x3d99e9f8	0.07515329
22	0xc22696de	-41.64733
23	0x406d8f8b	3.7118862
24	0xbee36d14	-0.44419158
25	0xc10510e2	-8.316622
26	0xc1d82c5c	-27.02166
27	0x3f0fafaa	0.5612742
28	0xbdf59a74	-0.1199235
29	0xc232c403	-44.691418
30	0xc1c8c364	-25.095406
31	0x40270b79	2.6100752

dense1.bias f4 [8]
0	0x3f3c96f5	0.7366784
1	0x3f57b8b2	0.842662
2	0x3f3a7264	0.72830796
3	0x3d60d1d6	0.054887615
4	0x3ef108a6	0.4707691
5	0x3e8abadf	0.27095696
6	0x3eaf837c	0.34280002
7	0x3d7ad5ba	0.06123898

dense2.weight f4 [12, 8]
0	0xbf0d97e6	-0.55309904
1	0x3f0903b2	0.53521264
2	0x405be6d6	3.435964
3	0xc0ddd227	-6.9319034
4	0xc0372658	-2.8617153
5	0x4037b04d	2.8701355
6	0x3f76a26e	0.963416
7	0xbec71a58	-0.38887286
8	0x3fa6b7de	1.3024862
9	0xc0441881	-3.0639956
10	0x3fdf0f0d	1.7426468
11	0xc10e3d95	-8.890035
12	0xbe966034	-0.29370272
13	0x3e1e6fa4	0.15472275
14	0xbe5517fb	-0.20809929
15	0xc18054e9	-16.04146
16	0x3e52e5ae	0.20595428
17	0x3f48632b	0.7827632
18	0x3ff16313	1.885836
19	0xc112e7b6	-9.18157
20	0xc080aa08	-4.020756
21	0xc04e3942	-3.2222447
22	0x4005141f	2.079353
23	0xc0741521	-3.8137896
24	0xbdf9dd07	-0.12200361
25	0xbe6f373d	-0.23360915
26	0xbe6de78e	-0.23232862
27	0xbe1d44fe	-0.1535835
28	0xbeb58eef	-0.35460612
29	0xbbe761ca	-0.007061218
30	0x3e22cbd7	0.15898071
31	0x3e06d42c	0.13166875
32	0x3f5ba7dc	0.8580301
33	0x401f75cb	2.4915645
34	0xbec5c048	-0.3862326
35	0x4088c581	4.2741094
36	0xc06fccd4	-3.7468767
37	0xbd005235	-0.0313284
38	0x3fe1f3b4	1.7652497
39	0xc0b1ebe9	-5.5600476
40	0xbf92110d	-1.1411453
41	0xbf811019	-1.0083038
42	0xbdb776cc	-0.089582056
43	0xbffc10bd	-1.9692608
44	0x3fe6daf8	1.8035574
45	0xbe040316	-0.12891802
46	0x40c3e2a5	6.1214166
47	0x401c6986	2.4439406
48	0x3f3e2ef5	0.742904
49	0x3fa767cd	1.3078552
50	0xbfa637c9	-1.2985774
51	0xbf70f838	-0.9412875
52	0x3eb86097	0.36011192
53	0xc12c8e86	-10.784796
54	0xbe482779	-0.19546308
55	0xc0d08b2d	-6.516989
56	0x406add83	3.66977
57	0xbfa623c9	-1.2979671
58	0x3e9e7615	0.30949464
59	0xbf51dae0	-0.819746
60	0xc0cb5b45	-6.3548913
61	0xc0816234	-4.0432377
62	0x402c8543	2.6956336
63	0x3fb265e2	1.3937342
64	0xbdd06608	-0.10175711
65	0xbe53633c	-0.20643324
66	0x3dad9e58	0.08477467
67	0xbdda69be	-0.106647
68	0xbe5fe424	-0.21864372
69	0xbe4fb183	-0.20282559
70	0x3e026530	0.12733912
71	0x3e36bef6	0.17846283
72	0xbf888058	-1.0664167
73	0x3fcc034a	1.5938504
74	0xbeb64bd9	-0.35604742
75	0xc0d8be95	-6.7732644
76	0xc00ff81b	-2.2495182
77	0x3f87fbef	1.0623759
78	0xbfdd7464	-1.7301145
79	0xbd65602f	-0.05599993
80	0x3f27cc3c	0.6554601
81	0x4078bd13	3.8865402
82	0xbf7c7e9f	-0.9863071
83	0x408c8f6c	4.3925076
84	0xbfedd343	-1.8580097
85	0xc092e236	-4.5901136
86	0xc02f18ce	-2.735889
87	0x3f7b11ad	0.98073846
88	0xbe86aa2a	-0.263017
89	0xbe50de35	-0.20397265
90	0x3e3bc2a5	0.1833597
91	0x3dff9c29	0.12480957
92	0xbe194767	-0.14968644
93	0xbeaae5e4	-0.33378518
94	0x3e18b777	0.14913736
95	0xbde590e1	-0.11209274

dense2.bias f4 [12]
0	0xbf2bbb36	-0.67082536
1	0x4026cfe3	2.6064384
2	0x3f549274	0.8303597
3	0xbecaecd7	-0.3963382
4	0x3efdef57	0.49596664
5	0x3e924813	0.28570613
6	0x40605433	3.505139
7	0x3fd899f9	1.6921989
8	0xbe97124c	-0.29506147
9	0x40065358	2.098837
10	0xbd21a508	-0.039464027
11	0xbef0107f	-0.46887586

dense3.weight f4 [128, 12]
0	0xc06ee22c	-3.7325544
1	0xbfb50d6f	-1.4144725
2	0xbeef303f	-0.46716496
3	0xbd29acf7	-0.041424718
4	0xbffe737a	-1.9878991
5	0xbfaa92fb	-1.3326105
6	0xc0eac705	-7.3367944
7	0xbf430d3f	-0.76192087
8	0x3e84492c	0.25837076
9	0xbfd7a4fe	-1.6847227
10	0xc00d5fd2	-2.2089734
11	0xbe5a54a9	-0.21321358
12	0xbfdc63ee	-1.7217996
13	0xc0234828	-2.551279
14	0x3fe520d7	1.7900647
15	0xbe57e04f	-0.2108166
16	0x3e9eabbd	0.309904
17	0x3f23bbfa	0.63958704
18	0xbfdd95a8	-1.7311296
19	0x3f05e8bd	0.52308255
20	0x3e399dd6	0.18126616
21	0x3c418ccd	0.011813355
22	0xc1660e96	-14.378561
23	0x3d783ef8	0.060606927
24	0xc046940c	-3.102786
25	0xbff413b3	-1.9068512
26	0x40007269	2.006983
27	0xbcb94ead	-0.022620523
28	0x402e7719	2.7260191
29	0xbdcda090	-0.100403905
30	0xbfd3963a	-1.653022
31	0x40307c7b	2.7575977
32	0x3e7984e8	0.24367106
33	0xbf9c904e	-1.2231538
34	0xc1a23bcb	-20.279196
35	0xbecea924	-0.4036342
36	0xc05c272e	-3.4398913
37	0xbf85d493	-1.0455498
38	0x4049c5e0	3.1527023
39	0x3e201e99	0.15636672
40	0x400b9d76	2.1814857
41	0x3e9166a8	0.28398633
42	0xc00fb62c	-2.245494
43	0x3febf64c	1.8434539
44	0x3e80e714	0.251763
45	0xbf9d7bff	-1.2303466
46	0xc165a9b9	-14.353936
47	0x3ce65da5	0.028120825
48	0xc0583eda	-3.3788362
49	0xbe9bb0bc	-0.30408275
50	0x3fac4b47	1.3460473
51	0xbcc55709	-0.024089353
52	0x3f9bc957	1.2170819
53	0xbdbd1526	-0.09232549
54	0xc03ab67e	-2.9173884
55	0x40008a23	2.0084312
56	0x3e714f7c	0.23565477
57	0xbf190a5e	-0.59781444
58	0xc170bd9e	-15.046293
59	0xbec63a23	-0.3871623
60	0xc0498a67	-3.1490724
61	0x3e95d80f	0.29266402
62	0x3f0f165e	0.55893505
63	0x3e0d71f9	0.13813008
64	0x3f9887a0	1.191639
65	0xbedd6988	-0.43244576
66	0xc04cbbb3	-3.1989563
67	0x3fdf2820	1.743412
68	0xbe119176	-0.14215645
69	0xbf6f12fa	-0.9338833
70	0xc15ad546	-13.677069
71	0xbe4f66d8	-0.20254076
72	0xc0551f73	-3.3300445
73	0x3f852bca	1.0403988
74	0x3eb14c9d	0.34628764
75	0xbcd3b0fa	-0.025841225
76	0x3eb3ce64	0.351184
77	0xbf156769	-0.58360916
78	0xc05fbe88	-3.496004
79	0x3f6d7b61	0.92766386
80	0xbdfc3be6	-0.12316112
81	0xbe500872	-0.20315722
82	0xc134e94f	-11.30696
83	0xbec7421b	-0.38917622
84	0xc029e441	-2.6545565
85	0x3fabbd9d	1.341724
86	0x3f129f3b	0.57274216
87	0xbcc33714	-0.023829974
88	0xbeab00dd	-0.33399096
89	0xbf7763b2	-0.966365
90	0xc07cf00a	-3.9521508
91	0xbd82cdfb	-0.06386944
92	0x3dcb62c4	0.099309474
93	0x3e42e647	0.19033156
94	0xc11c84a5	-9.782384
95	0xbec98ed7	-0.3936679
96	0xbf583e2c	-0.84469867
97	0x3f8a6207	1.0811166
98	0x3f954792	1.1662467
99	0x3daf8ce7	0.08571797
100	0xc012e220	-2.2950516
101	0xbf15c349	-0.58501107
102	0xc06ab40c	-3.6672392
103	0xbf68d4ba	-0.90949595
104	0xbe1c6582	-0.15273097
105	0x3d966509	0.0734349
106	0xc07cb34f	-3.9484441
107	0xbe183b56	-0.14866385
108	0xbecf1867	-0.40448305
109	0x3fa68524	1.3009381
110	0x3fac5afe	1.3465269
111	0xbe19d9e2	-0.15024522
112	0xc035d395	-2.841039
113	0xbe1583bf	-0.14601038
114	0xc05df957	-3.4683435
115	0xbfc61940	-1.5476456
116	0x3da89b88	0.0823279
117	0x3e2f9d10	0.17149758
118	0xc10aeeec	-8.683331
119	0xbcead802	-0.028667454
120	0xbf973c9c	-1.1815372
121	0x3f99378c	1.1970077
122	0x40633938	3.5503674
123	0xbdb732da	-0.08945246
124	0xc0802546	-4.00455
125	0x3e8b7fab	0.2724584
126	0xc0777999	-3.8667967
127	0xc03cf5d1	-2.9525034
128	0x3e196706	0.14980707
129	0x3e0a4679	0.13503446
130	0xbe3f8c99	-0.18705977
131	0x3e1ebe39	0.15502252
132	0xbfe475e6	-1.784848
133	0x3f981f71	1.1884595
134	0x404106ac	3.0160322
135	0x3e841360	0.25796032
136	0xc08f5c4b	-4.480016
137	0x3f32425a	0.69632494
138	0xc08f2536	-4.4732924
139	0xc0374cb4	-2.8640566
140	0xbde8e5ae	-0.11371933
141	0x3fa2dff2	1.2724593
142	0xc03a8ed6	-2.914968
143	0x3e1b7792	0.15182331
144	0xbf5d0901	-0.86341864
145	0x3f6608cf	0.8985719
146	0x4087dc7d	4.245665
147	0x3e0c2e78	0.13689601
148	0xc0b0e264	-5.5276356
149	0x3fd105d9	1.632991
150	0xc089527a	-4.291318
151	0xc0b08b31	-5.516991
152	0x3e0e4c18	0.13896215
153	0x3e631c3d	0.22178741
154	0xc060fb4b	-3.5153377
155	0xbe3c46f6	-0.18386444
156	0xbed60e6c	-0.41807878
157	0x3f706a19	0.9391189
158	0x4045e490	3.0920753
159	0xbc4d1019	-0.012516045
160	0xc0b3b6dd	-5.616072
161	0x3ffc7401	1.9722902
162	0xc099625d	-4.793257
163	0xc0c1f36c	-6.0609646
164	0x3d94d350	0.07266867
165	0x3efcead6	0.49397916
166	0xc1b7597b	-22.918692
167	0xbe7778bc	-0.2416715
168	0x3f0d3c18	0.5516982
169	0x3f5a3bc2	0.85247433
170	0xc0661efd	-3.5956414
171	0x3e771876	0.24130425
172	0xc05636ce	-3.347095
173	0x3fd17bff	1.6365966
174	0xc06863bf	-3.631088
175	0xc09b4aad	-4.8528657
176	0x3dc2e300	0.09515953
177	0xbca2f562	-0.019892398
178	0xc208709d	-34.109974
179	0xbe585647	-0.21126662
180	0x3f6dddac	0.9291637
181	0x3e2abd23	0.16673712
182	0xc06cdedc	-3.7011023
183	0x3e762a1c	0.24039501
184	0xc157280b	-13.447276
185	0xc0d37f07	-6.6092563
186	0xc0d11ebd	-6.535002
187	0xc0af1f96	-5.4726057
188	0xbc591000	-0.013248444
189	0x3f114d10	0.56758213
190	0xc0aec2bd	-5.461272
191	0xbeccf9c6	-0.40034312
192	0x3f7335a8	0.9500375
193	0x3e3dda7a	0.18540373
194	0xc0696150	-3.6465645
195	0x3e0d9e54	0.13829929
196	0xc12db8b2	-10.857592
197	0xc15672e8	-13.403053
198	0xc0a60359	-5.1879086
199	0xc0ae1e8e	-5.44123
200	0x3df3f09c	0.11911127
201	0x3f0be20b	0.5464179
202	0xc0c4459c	-6.133497
203	0x3e06ffd9	0.13183536
204	0x3ef6cd21	0.48203376
205	0x3f5c1290	0.85965824
206	0xc009b99a	-2.1519532
207	0xbe7984ea	-0.24367109
208	0xc087d618	-4.2448845
209	0x3fcbe0f4	1.5928025
210	0xc04b822f	-3.1798208
211	0xc0a135a8	-5.0378
212	0x3e7994e0	0.24373198
213	0x3caa7ef5	0.020812491
214	0xc1e1e447	-28.236464
215	0xbe7ac5b0	-0.24489474
216	0xbdf78821	-0.120865114
217	0x3f500ee9	0.8127275
218	0x3ff73fb3	1.9316314
219	0x3df142a1	0.117802866
220	0xc087a7e7	-4.239246
221	0x3ff46db8	1.9095984
222	0xc0b57c1e	-5.671401
223	0xc0ccf056	-6.404338
224	0xbe30c528	-0.17262709
225	0x3e9ce0ee	0.30640358
226	0xc037adf4	-2.8699923
227	0xbdd248c2	-0.10267784
228	0xbee002ca	-0.43752128
229	0x3f8852f0	1.065031
230	0x40039b4b	2.0563533
231	0xbd3f51b4	-0.046708778
232	0xc094f4c6	-4.6548796
233	0x3fab2bbf	1.3372725
234	0xc06fbf95	-3.7460682
235	0xc0b0bb90	-5.522896
236	0xbe46ad9a	-0.19402161
237	0x3e22341a	0.15840188
238	0xc05bffa7	-3.4374788
239	0xbda0a3ef	-0.07843768
240	0xbfb70bf3	-1.4300522
241	0x3fb3e0f9	1.4053031
242	0x3f8ada76	1.0847919
243	0xbe4662a7	-0.1937357
244	0xc07b3b04	-3.925477
245	0x3f0600b6	0.52344835
246	0xc070de24	-3.7635584
247	0xc061f0e9	-3.530329
248	0xbe895abf	-0.26827046
249	0x3f69d55d	0.9134119
250	0xc08ed98c	-4.464056
251	0xbd9ba5c7	-0.07599979
252	0xbfb37b3a	-1.4021981
253	0x3faf9960	1.3718681
254	0xbf1c890f	-0.61146635
255	0xbe905dac	-0.28196466

dense3.bias f4 [128]
0	0xbf2cc42f	-0.6748685
1	0xbfa45cb0	-1.2840786
2	0xbfd4427b	-1.6582788
3	0xc016f599	-2.35874
4	0xbec15160	-0.37757397
5	0xbe1a0ed7	-0.15044723
6	0x3e9d89c6	0.30769175
7	0x3ee77903	0.45209512
8	0xbdd4c41e	-0.10388969
9	0xbfd255d7	-1.6432446
10	0x3dd8ab8c	0.10579595
11	0x3e9da7e7	0.30792162
12	0x3ebc492e	0.36774582
13	0xbf04bdf3	-0.5185234
14	0xbf9d0ebf	-1.2270125
15	0xc04340f4	-3.0508394
16	0xc04aeb4d	-3.1706116
17	0xbfa47bc1	-1.2850267
18	0x3d83d3e8	0.06436902
19	0x3e1bbdae	0.15209076
20	0x3f2805d4	0.65633893
21	0x3fa85293	1.31502
22	0x3f85682a	1.0422413
23	0x3d164430	0.036686122
24	0x3f679d5a	0.90474474
25	0x3f4dcc8f	0.80390257
26	0x3f1438a5	0.5789893
27	0xbdc73c7b	-0.097283326
28	0x3e349091	0.17633273
29	0x3d126dc5	0.035749216
30	0xbf3b9712	-0.7327739
31	0xbf3255ca	-0.69662154
32	0xbf2a77ea	-0.66589224
33	0xbef576aa	-0.47942096
34	0xbe88e3c8	-0.26736283
35	0xbd334102	-0.04376317
36	0x3dd2d282	0.102940574
37	0x3f02ab88	0.51042986
38	0x3ea0b4bd	0.31387892
39	0x3e938c74	0.28818095
40	0x3f462fe6	0.7741684
41	0x3f5cf3cc	0.86309505
42	0x3ce34a90	0.027745515
43	0x3e8215c7	0.2540724
44	0xbf119a66	-0.5687622
45	0x3f71937c	0.9436567
46	0x3f04a134	0.51808476
47	0xbf48e04b	-0.78467244
48	0xbf08237e	-0.53179157
49	0x3fa390b1	1.2778531
50	0x3d46d3db	0.048541885
51	0xbf9b4d43	-1.2132953
52	0x3f1eab68	0.61980295
53	0x3f1a505d	0.60278875
54	0x3f9df765	1.2341124
55	0x3f864880	1.0490875
56	0x3f867eb3	1.0507416
57	0x3f07f191	0.53102976
58	0x3f86ff6d	1.05467
59	0x3ec5d238	0.38636947
60	0x3e1eb086	0.15497026
61	0x3f3260a0	0.6967869
62	0x3e3cd9b9	0.1844243
63	0x3fb722da	1.4307511
64	0x3f90ab8d	1.1302353
65	0xbe697c57	-0.22801338
66	0x3df16e20	0.11788583
67	0x3f1a513a	0.6028019
68	0x3ec71e50	0.38890314
69	0x3e4aacba	0.19792452
70	0xbf4a6b85	-0.7907031
71	0xbf6991f8	-0.91238356
72	0xbf7062db	-0.9390084
73	0x3f073e67	0.52829593
74	0x3f4bea0c	0.79654
75	0x3fc328e9	1.524686
76	0x4015ce91	2.3407328
77	0x40550585	3.328462
78	0x3fa6d4e6	1.3033721
79	0xbf6a0b0c	-0.91423106
80	0xbf89f63a	-1.0778267
81	0x3f65ba96	0.8973783
82	0x4016ff8d	2.3593476
83	0x3f88c618	1.0685453
84	0x3f50d9e1	0.81582457
85	0x3e298baa	0.16557184
86	0xbe64a1fb	-0.22327416
87	0xbef3e250	-0.476336
88	0x3d68dd79	0.056851838
89	0x3cea201c	0.028579764
90	0x3d5d3972	0.054009862
91	0x3f35913b	0.7092473
92	0x3dc3ee27	0.09566908
93	0x3f5cd381	0.8626023
94	0xbd8e940e	-0.06961833
95	0x3eb8c17a	0.3608511
96	0x3f0960ab	0.5366313
97	0x3f2ab207	0.666779
98	0x3f64ba15	0.8934644
99	0x3f6c7b44	0.9237559
100	0x3e0e7eb0	0.13915515
101	0x3ded39f1	0.11583317
102	0xbf150412	-0.58209336
103	0xbff6a093	-1.9267753
104	0xbe601c63	-0.21885829
105	0xbf48859b	-0.78328866
106	0x4002a858	2.041525
107	0x3ffd3fe5	1.9785124
108	0x3f7e273e	0.9927863
109	0x3f4f908a	0.81079924
110	0xbf5ab0f7	-0.85426277
111	0xc01a9968	-2.4156132
112	0xc00ff6ea	-2.2494454
113	0xbe926912	-0.28595787
114	0x3fdcb42a	1.7242482
115	0x4003cd2f	2.0593984
116	0x402f766d	2.7416031
117	0x407c6bda	3.9440827
118	0x3fd37118	1.6518888
119	0x3d92b14f	0.07162725
120	0xbf81c67b	-1.0138696
121	0xbe63cde4	-0.2224651
122	0xbf0a5686	-0.54038274
123	0xbee39552	-0.4444986
124	0xbfe68877	-1.8010396
125	0xc00b99b2	-2.1812558
126	0xc00f9636	-2.2435431
127	0xbf668afa	-0.9005581
