Saved Models/Rosslyn_ULA_AMCF_8_beam_probing_codebook_128_beam_classifier_noiseless.pt (torch, 17375 bytes, 6 tensors)

dense1.weight f4 [16, 8]
0.44361234 0.04438248 0.69746494 -0.003194727 0.04279665 -0.20359251 0.81368804 -14.273795
-3.3203897 0.41343105 1.6645237 0.5900666 -0.5025217 0.6159883 -6.4511623 0.35687402
0.3220833 0.0046563074 -20.822231 1.4091567 0.23969552 0.4467249 0.26975605 -4.093255
-0.08348071 -0.29749262 -0.1833138 -1.9717183 0.5157281 -21.559767 -0.8537931 0.3685006
0.5915867 -0.0023979456 0.29309964 -0.71657306 -0.46156546 0.35679948 -38.0239 -0.6588186
-6.3573856 -7.3551965 1.4794484 1.1146648 -0.3275448 -1.2891363 0.509657 -0.21035823
0.07507779 -19.921894 1.3299146 0.48256317 -0.2999515 0.06510335 -0.09192495 -0.11410122
-0.67904216 -2.0923107 0.965473 0.12907475 0.2642508 -1.2140112 -0.2695339 -1.0725667
0.11931129 0.88026845 -0.8968493 0.13298234 -0.03376463 -0.24969332 0.2551112 -18.828669
-0.18280116 -0.01563068 1.0039815 -21.978151 0.7579916 0.93732154 -10.525143 -0.06567104
0.055116773 -22.63806 -0.003978768 -1.7940533 -1.5582486 -3.5556114 0.85276216 -0.014054281
-0.04393844 0.8317133 -29.948399 0.31490916 0.17246236 0.18072125 0.14468034 -0.01019623
0.0034302652 -0.030467056 -0.5507982 -0.02482313 -33.72288 -0.1005206 0.07168186 0.14368066
0.7890339 -12.035041 -0.016091855 0.24758291 -0.12681049 0.47445574 -0.99679244 -0.108462065
-11.891467 0.14553273 -1.80674 -0.5490186 -3.9279933 1.3684049 1.2468668 0.07450552
-0.22303024 -30.055193 0.9695662 0.11736347 1.0750648 0.647161 0.08962819 0.65191233
00000000: 2821 e33e 67ca 353d 108d 323f a05e 51bb
00000010: 8a4b 2f3d 8e7a 50be dc4d 503f 7761 64c1
00000020: 4481 54c0 3cad d33e 1d0f d53f 9b0e 173f
00000030: 43a5 00bf 69b1 1d3f ec6f cec0 31b8 b63e
00000040: 1ae8 a43e f093 983b ee93 a6c1 3f5f b43f
00000050: be72 753e 20b9 e43e 771d 8a3e f2fb 82c0
00000060: eff7 aabd f450 98be 9db6 3bbe 4461 fcbf
00000070: c206 043f 677a acc1 2f92 5abf 1cac bc3e
00000080: 3a72 173f da26 1dbb 2811 963e 5571 37bf
00000090: 4f52 ecbe 6cae b63e 7918 18c2 56a8 28bf
000000a0: b46f cbc0 c55d ebc0 915e bd3f 56ad 8e3f
000000b0: f4b3 a7be 6b02 a5bf e278 023f 2668 57be
000000c0: 62c2 993d 0a60 9fc1 a43a aa3f 8512 f73e
000000d0: 3e93 99be e854 853d 2643 bcbd e7ad e9bd
000000e0: b5d5 2dbf 6be8 05c0 3d29 773f 2c2c 043e
000000f0: e14b 873e b864 9bbf 5900 8abe de49 89bf
00000100: 7a59 f43d 4659 613f ea97 65bf 862c 083e
00000110: c84c 0abd 9baf 7fbe ef9d 823e 1da1 96c1
00000120: 3a30 3bbe e90b 80bc 7782 803f 41d3 afc1
00000130: bd0b 423f 4ef4 6f3f fc66 28c1 8a7e 86bd
00000140: 20c2 613d bf1a b5c1 5360 82bb 8aa3 e5bf
00000150: b174 c7bf 238f 63c0 9f4e 5a3f ed43 66bc
00000160: cbf8 33bd 2aeb 543f 5296 efc1 c63b a13e
00000170: f999 303e fe0e 393e 1527 143e 170e 27bc
00000180: 4dce 603b 0c96 f9bc 1c01 0dbf e059 cbbc
00000190: 3be4 06c2 bfdd cdbd f0cd 923d 0621 133e
000001a0: 20fe 493f 878f 40c1 11d3 83bc 6086 7d3e
000001b0: 9cda 01be ddeb f23e ca2d 7fbf 5c21 debd
000001c0: 7343 3ec1 8806 153e 4243 e7bf 7c8c 0cbf
000001d0: 3e64 7bc0 e427 af3f 5599 9f3f 5a96 983d
000001e0: 0a62 64be 0971 f0c1 7e35 783f 425c f03d
000001f0: b99b 893f 58ac 253f fc8e b73d bae3 263f

dense1.bias f4 [16]
0.17649531 0.63716525 0.2407745 0.527618 0.0850595 0.3849923 0.43475494 0.70401114
0.13759786 0.3930506 0.26377562 0.1841041 0.48114422 0.5229109 0.10666629 0.0045665232
00000000: 30bb 343e 431d 233f 978d 763e f911 073f
00000010: ad33 ae3d b61d c53e 3398 de3e 133a 343f
00000020: 74e6 0c3e ee3d c93e 990d 873e c985 3c3e
00000030: 8958 f63e 7ddd 053f db73 da3d c6a2 953b

dense2.weight f4 [24, 16]
-0.13243732 0.11738249 -0.20399855 1.3052571 -1.434957 0.33277413 1.0460223 0.19861573
1.6099743 -0.5069977 3.8053253 -4.5018997 0.82580024 -0.2355741 -2.5929444 -1.6455903
-1.4787102 -0.38655132 -3.669764 -0.45112252 0.65580547 -1.7706658 1.232881 -0.20431292
-1.2201211 1.8550594 -0.44022495 0.013717612 0.6362703 0.45616847 -0.42902496 -0.9789797
0.72111696 1.5000577 0.5877789 0.924997 -1.1149124 -0.4427743 -0.8882832 1.0169419
1.37923 -0.023896093 -0.42202106 -2.822615 0.019048147 -1.1470805 0.59423256 -0.44435954
-0.08590395 -0.5204711 -1.3122921 -0.0698601 -1.9965429 -1.2356842 2.4058354 -0.81191045
-0.1667546 -0.98603964 1.9349061 -3.0390716 -3.135513 1.7645774 -0.29413715 1.7128733
1.1319643 -0.70946425 2.6049278 1.0158483 -3.2308958 -0.027871236 -0.1009197 0.37053025
0.43483368 -1.51475 -2.06668 1.6748602 -1.4529647 1.269129 -1.3271533 -0.17818052
-0.2851282 1.1200615 -0.4085259 -0.49428794 3.8388212 -0.055588424 -2.5790553 0.793036
-0.40777388 1.2934353 0.45748314 -3.2365296 -1.4430714 0.33456665 -0.49701002 -0.5290719
-0.5628511 -0.23862745 -0.21259435 0.15428492 0.16943762 -0.22031808 -0.54843545 0.22422862
-0.005010793 -0.19153138 -0.20485625 -0.50826854 -0.12312236 -0.14807558 -0.31431565 -0.50835294
-0.06118083 -0.13139895 -0.308408 -0.21120839 -0.2743244 -0.17181958 0.16254707 -0.015549481
-0.23854752 0.15259172 -0.10893366 -0.07475221 0.08960527 0.13379434 0.006869856 -0.3212557
0.84521455 -0.12739779 0.61680794 0.2086172 -0.040978268 -0.6699942 0.08604729 -0.80607986
3.3224926 2.3913307 -1.2452575 -0.7234792 0.13815086 0.5916045 0.30603895 -1.2352638
0.64012986 1.766822 0.38792235 -1.020432 -1.5232995 -2.351371 1.5929114 0.68312085
0.10660927 -1.8863956 -2.1606684 -1.9684843 -0.5775545 0.80098027 2.5420895 -1.0885221
-1.3426641 -0.8346415 0.7956664 0.9056742 -0.91747636 -1.2682254 -0.83221406 -0.066971675
3.3047698 1.9778588 -0.3109209 -1.8481907 0.47342777 -0.376774 1.6531004 -3.4117641
0.38208655 0.9236604 -3.380801 3.4028265 2.2738652 -0.9720314 0.15110976 0.9448803
0.1461649 -1.3184808 0.8702622 0.40744337 0.94033617 -0.49324584 1.2001889 0.18894717
-0.47028926 -0.3472429 -0.010632783 -0.07520315 -0.4313472 -0.27812383 -0.41604012 -0.22272325
-0.13348074 -0.3741727 -0.0021593692 -0.26205295 -0.29045913 -0.17284036 -0.53112006 -0.06994485
-0.99440527 -0.0015453772 0.83328867 -0.766448 -1.5245879 -0.67989564 -0.55374134 1.1070141
-1.8832583 0.8906127 -0.82124954 1.3227477 -0.083095364 -0.35365152 -0.37840006 0.5625833
-0.07813463 -0.49873456 -0.94497466 1.1377751 -1.2786772 1.3305436 1.1213106 -0.6700703
0.43463153 -2.2671447 0.031487156 -3.75873 2.346787 1.6564711 0.15632807 2.1535034
0.9573453 -0.24867977 -0.13504028 0.69744074 -2.071031 -0.5312507 0.7609775 0.12335624
-1.573178 -0.38783517 2.039804 -2.8776758 1.6376379 0.8398733 -4.2963123 -0.10270866
00000000: a69d 07be 3b66 f03d ffe4 50be aa12 a73f
00000010: acac b7bf 5f61 aa3e 0fe4 853f ec61 4b3e
00000020: a313 ce3f 9aca 01bf 738a 7340 900f 90c0
00000030: a567 533f 563a 71be cdf2 25c0 b4a2 d2bf
00000040: 6046 bdbf 0eea c5be 6add 6ac0 88f9 e6be
00000050: dee2 273f 2da5 e2bf 0bcf 9d3f 6837 51be
00000060: ee2c 9cbf 9672 ed3f 2a65 e1be d6bf 603c
00000070: 9ce2 223f ea8e e93e 29a9 dbbe 6a9e 7abf
00000080: 1f9b 383f e401 c03f ae78 163f 9acc 6c3f
00000090: 73b5 8ebf 50b3 e2be 8766 63bf 272b 823f
000000a0: 9c8a b03f bdc1 c3bc 2513 d8be b9a5 34c0
000000b0: dc0a 9c3c 89d3 92bf a01f 183f 1883 e3be
000000c0: 69ee afbd 983d 05bf 30f9 a7bf d012 8fbd
000000d0: b88e ffbf e62a 9ebf 35f9 1940 5dd9 4fbf
000000e0: b8c1 2abe 186d 7cbf 01ab f73f 2680 42c0
000000f0: 3fac 48c0 acdd e13f 2599 96be 6f3f db3f
00000100: 35e4 903f 739f 35bf 23b7 2640 5107 823f
00000110: ffc6 4ec0 3852 e4bc fdae cebd 24b6 bd3e
00000120: 85a2 de3e 54e3 c1bf 7c44 04c0 d261 d63f
00000130: bffa b9bf d272 a23f 29e0 a9bf f474 36be
00000140: 53fc 91be 2d5e 8f3f 4f2a d1be 4f13 fdbe
00000150: 3faf 7540 b0b0 63bd 3e0f 25c0 6804 4b3f
00000160: bdc7 d0be 4a8f a53f 3b3b ea3e 4d23 4fc0
00000170: 90b6 b8bf 524c ab3e 1978 febe 4271 07bf
00000180: 0217 10bf c15a 74be 55b2 59be defc 1d3e
00000190: 0e81 2d3e 109b 61be 4466 0cbf 309c 653e
000001a0: 9431 a4bb cd20 44be d6c5 51be e31d 02bf
000001b0: 9327 fcbd 20a1 17be fbed a0be 6b23 02bf
000001c0: c098 7abd 728d 06be a7e7 9dbe 0347 58be
000001d0: 3f74 8cbe 79f1 2fbe bd72 263e 40c3 7ebc
000001e0: cd45 74be 0141 1c3e 9c18 dfbd b017 99bd
000001f0: f882 b73d 6201 093e 871c e13b a17b a4be
00000200: fb5f 583f 9174 02be 20e7 1d3f bf9f 553e
00000210: d4d8 27bd bd84 2bbf 9039 b03d 405b 4ebf
00000220: b8a3 5440 900b 1940 9964 9fbf ef35 39bf
00000230: 6b77 0d3e 6473 173f 23b1 9c3e 201d 9ebf
00000240: 8ddf 233f 3927 e23f c29d c63e 849d 82bf
00000250: 7afb c2bf dd7c 16c0 85e4 cb3f 02e1 2e3f
00000260: f655 da3d 6975 f1bf 6448 0ac0 4bf7 fbbf
00000270: 9dda 13bf 0b0d 4d3f 98b1 2240 b154 8bbf
00000280: 6bdc abbf 11ab 55bf cbb0 4b3f 44da 673f
00000290: bbdf 6abf 3655 a2bf fb0b 55bf 7228 89bd
000002a0: 5981 5340 7a2a fd3f 0631 9fbe 8391 ecbf
000002b0: 2065 f23e 86e8 c0be cb98 d33f 585a 5ac0
000002c0: d9a0 c33e 0275 6c3f 0b5f 58c0 e9c7 5940
000002d0: 0287 1140 0dd7 78bf 84bc 1a3e ade3 713f
000002e0: 40ac 153e fbc3 a8bf 81c9 5e3f 6b9c d03e
000002f0: dfb9 703f b88a fcbe ca9f 993f 5e7b 413e
00000300: c1c9 f0be d2c9 b1be 2035 2ebc 1c04 9abd
00000310: 8ad9 dcbe 3f66 8ebe 3603 d5be 9011 64be
00000320: 2daf 08be 9093 bfbe 3484 0dbb ce2b 86be
00000330: 0fb7 94be 10fd 30be 7cf7 07bf 3f3f 8fbd
00000340: 5891 7ebf 418e caba 6852 553f f035 44bf
00000350: b225 c3bf a40d 2ebf fec1 0dbf a3b2 8d3f
00000360: 9c0e f1bf 32ff 633f 693d 52bf cc4f a93f
00000370: e72d aabd d011 b5be a7bd c1be 7605 103f
00000380: 0d05 a0bd 235a ffbe dce9 71bf 9da2 913f
00000390: b2ab a3bf 414f aa3f 1b87 8f3f ba89 2bbf
000003a0: 0688 de3e e618 11c0 adf8 003d 088f 70c0
000003b0: c231 1640 3f07 d43f 7714 203e 00d3 0940
000003c0: 9514 753f e9a5 7ebe 0048 0abe 7a8b 323f
000003d0: c68b 04c0 0c00 08bf 6ccf 423f 32a2 fc3d
000003e0: e65d c9bf 5592 c6be 268c 0240 d72b 38c0
000003f0: 1e9e d13f f001 573f 647b 89c0 eb58 d2bd

dense2.bias f4 [24]
-0.19104072 1.7504017 0.057838835 1.1600368 0.3471527 1.2495842 -0.5588432 -0.3030118
0.27019212 0.6091553 1.4382454 -0.9010778 -0.65380156 0.7929708 -0.0907444 0.89750206
0.63435656 0.52738345 1.8908161 1.8208578 0.6511442 1.8810297 1.489176 0.384769
00000000: 2ea0 43be 2a0d e03f 6ae8 6c3d 167c 943f
00000010: 00be b13e 60f2 9f3f 5910 0fbf 5d24 9bbe
00000020: 9f56 8a3e 9af1 1b3f 6d18 b83f 09ad 66bf
00000030: 8a5f 27bf 2200 4b3f 33d8 b9bd b2c2 653f
00000040: 3165 223f 9a02 073f 4306 f23f de11 e93f
00000050: 63b1 263f 95c5 f03f 529d be3f 7100 c53e

dense3.weight f4 [128, 24]
-0.5411823 -0.9960627 -0.82888967 -0.9852242 -1.0832145 -1.4979376 0.11816339 -0.118170306
-1.2251363 -0.69800824 -1.2158711 -0.4073566 0.03236386 -20.07424 -0.6999913 -0.7485051
-1.0317163 -1.5704924 -0.9007242 -0.78948474 -1.2653208 -0.9423352 -0.51879865 -1.4571139
0.5658501 1.48725 -1.7790012 -0.29350677 -6.116005 -2.4256415 -0.21153016 -0.27656618
-4.190388 -5.582016 -1.4061176 0.8738949 0.0825105 1.1814673 -1.4076524 1.5519462
-5.703637 1.2468686 0.71167773 0.8628833 -6.6831927 -0.6112564 -2.98571 -1.5344918
0.3874016 1.7257241 -0.39536268 -0.23361734 -6.3527565 -1.1144226 -0.24679515 0.06973054
-6.096042 -0.8538006 -2.6474657 -0.03211086 -0.06287113 -3.311896 -0.16495217 0.9258515
-1.6902575 -1.3071508 0.15634856 1.2466214 -2.6713116 1.0043485 -1.6401598 0.9839977
0.041644312 0.69802135 -1.6692816 -0.22366723 -11.093485 -3.6930366 0.04420768 -0.1411674
-5.6695695 -1.3889211 -1.9845188 0.6659659 0.006485006 -0.7088541 0.44125327 1.1374726
0.16412862 0.23670538 0.7718966 1.7552875 -2.4584355 -2.3331616 -0.0021311445 -1.9077294
1.1135575 0.9405027 -1.7351283 0.21178164 -7.8709664 -1.7412128 -0.0738235 -0.24072917
-7.2893324 1.4500077 -1.6009544 0.46906307 -0.16118409 -1.6856551 0.53746814 -1.582187
-0.98776305 0.110420495 0.18661681 1.6312056 -2.2706294 -1.9672401 -0.72253376 1.0163877
1.6545275 -0.23417136 -0.72245115 -0.17200752 -17.084782 -3.114734 -0.07417371 -0.06898468
-4.958562 0.7525291 -1.621302 0.4862741 -0.07570254 -2.041856 1.2847887 -0.6796743
-0.5864973 -0.8467202 1.0371671 0.7323645 -2.469725 -0.8097892 -1.760438 -0.8512045
-1.1630809 0.033705093 -0.72952545 -0.92204237 -5.4316025 -1.5567328 0.10861618 -0.081516884
-2.4616272 -0.09168498 -3.4074612 0.6932404 0.16035983 -0.0235307 0.5361747 -1.373003
2.6295469 0.45374742 1.2061768 -0.2519749 -3.0682976 -3.58369 1.0224897 0.54014415
-0.9298049 0.3476254 0.051356547 -0.3269918 -14.239669 -0.7294922 0.11690385 -0.06688325
-2.053794 0.9920739 -5.142088 0.07258517 -0.18855037 -1.608951 0.48076698 0.36432788
0.4478817 -0.68662983 0.69088596 -0.15382467 -0.3726148 -0.8833126 -1.0388038 0.2585961
-1.6582296 0.25435486 -0.57384354 -1.5733807 -3.1195986 -1.3754559 0.12794156 0.053452205
-0.28583875 -1.8536434 -6.403213 0.07674933 -0.12804943 0.12441297 0.24797033 -0.932479
0.7990635 0.001143619 0.85843396 1.7083822 -0.87027067 0.50169015 0.51292014 -0.507154
-3.8107376 1.1848382 -0.75314 -0.86647916 -18.832985 -2.1446004 -0.019560916 0.045465853
-2.1037319 -0.93177485 -3.4538422 0.15808555 -0.20054656 0.9118287 1.2118438 -1.0811905
2.2786283 -0.089270584 0.5358589 -1.1847464 -2.817992 -0.061090272 0.31701893 0.18688083
-3.0344925 1.8694786 -0.88367 -0.02344033 -5.376325 -2.401566 -0.10104177 0.011558947
-1.9968865 -2.963812 -4.75624 0.21000397 0.01461737 1.5389769 1.5050664 0.85066736
00000000: ec8a 0abf f7fd 7ebf 1d32 54bf a737 7cbf
00000010: c6a6 8abf 6bbc bfbf a6ff f13d 4603 f2bd
00000020: 44d1 9cbf abb0 32bf aaa1 9bbf 0b91 d0be
00000030: f88f 043d 0b98 a0c1 a132 33bf 089e 3fbf
00000040: 480f 84bf e505 c9bf dc95 66bf ac1b 4abf
00000050: 08f6 a1bf e13c 71bf fdcf 04bf b582 babf
00000060: 8ddb 103f 355e be3f 50b6 e3bf 8546 96be
00000070: 50b6 c3c0 b63d 1bc0 5d9b 58be 159a 8dbe
00000080: a917 86c0 e09f b2c0 a9fb b3bf 93b7 5f3f
00000090: 44fb a83d 523a 973f f42d b4bf 2ca6 c63f
000000a0: 3284 b6c0 6499 9f3f 8330 363f ece5 5c3f
000000b0: b7dc d5c0 4d7b 1cbf df15 3fc0 3a6a c4bf
000000c0: 8159 c63e 87e4 dc3f fa6c cabe 6239 6fbe
000000d0: c849 cbc0 66a5 8ebf deb7 7cbe e3ce 8e3d
000000e0: c712 c3c0 ad92 5abf 1470 29c0 ad86 03bd
000000f0: 94c2 80bd 1bf6 53c0 39e9 28be 9b04 6d3f
00000100: 5c5a d8bf b850 a7bf d619 203e 4a91 9f3f
00000110: c5f6 2ac0 7e8e 803f c2f0 d1bf 46e7 7b3f
00000120: 3a93 2a3d 87b1 323f 05ab d5bf 0609 65be
00000130: ea7e 31c1 b65a 6cc0 1d13 353d 308e 10be
00000140: 1d6d b5c0 2bc8 b1bf b604 febf be7c 2a3f
00000150: 2c80 d43b 7677 35bf f3eb e13e b498 913f
00000160: 5511 283e e562 723e 049b 453f 43ad e03f
00000170: 0257 1dc0 8552 15c0 acaa 0bbb 7a30 f4bf
00000180: 0d89 8e3f c9c4 703f af18 debf 49dd 583e
00000190: f5de fbc0 10e0 debf c630 97bd b581 76be
000001a0: 3642 e9c0 da99 b93f 13ec ccbf 0929 f03e
000001b0: 710d 25be 8cc3 d7bf 8397 093f 1b85 cabf
000001c0: 0ade 7cbf 2424 e23d 7a18 3f3e 58cb d03f
000001d0: fe51 11c0 86ce fbbf f9f7 38bf fe18 823f
000001e0: 8fc7 d33f 9eca 6fbe 8ff2 38bf bd22 30be
000001f0: a2ad 88c1 cd57 47c0 63e8 97bd d747 8dbd
00000200: 8aac 9ec0 bfa5 403f d386 cfbf ebf8 f83e
00000210: ef09 9bbd c5ad 02c0 f573 a43f 23ff 2dbf
00000220: b024 16bf a8c2 58bf e4c1 843f 3d7c 3b3f
00000230: f90f 1ec0 584e 4fbf 0856 e1bf 8ae8 59bf
00000240: d6df 94bf 5a0e 0a3d 2ec2 3abf f80a 6cbf
00000250: b0cf adc0 0543 c7bf 2972 de3d 53f2 a6bd
00000260: 4d8b 1dc0 56c5 bbbd d813 5ac0 3478 313f
00000270: 5e35 243e 74c3 c0bc bf42 093f 90be afbf
00000280: 7f4a 2840 9551 e83e 0064 9a3f db02 81be
00000290: fd5e 44c0 2d5b 65c0 f1e0 823f e346 0a3f
000002a0: b207 6ebf f5fb b13e 3e5b 523d 786b a7be
000002b0: afd5 63c1 00c0 3abf 496b ef3d 16fa 88bd
000002c0: 5c71 03c0 8ef8 7d3f fc8b a4c0 89a7 943d
000002d0: 5913 41be 1bf2 cdbf 1727 f63e 2f89 ba3e
000002e0: c050 e53e f9c6 2fbf e7dd 303f 3784 1dbe
000002f0: 5ec7 bebe c620 62bf 86f7 84bf b566 843e
00000300: de40 d4bf cd3a 823e 69e7 12bf 8a64 c9bf
00000310: 81a7 47c0 f00e b0bf 1d03 033e b3f0 5a3d
00000320: 7559 92be 3044 edbf 1fe7 ccc0 c12e 9d3d
00000330: 641f 03be 3acc fe3d efeb 7d3e f2b6 6ebf
00000340: 6d8f 4c3f 7ce5 953a 54c2 5b3f 45ac da3f
00000350: 0fca 5ebf c46e 003f bc4e 033f d8d4 01bf
00000360: 20e3 73c0 c7a8 973f c8cd 40bf 94d1 5dbf
00000370: f4a9 96c1 2241 09c0 373e a0bc 673a 3a3d
00000380: 8ba3 06c0 cc88 6ebf c00b 5dc0 2ee1 213e
00000390: 145c 4dbe 9b6d 693f b31d 9b3f 7364 8abf
000003a0: 0cd5 1140 7fd3 b6bd 0d2e 093f c5a5 97bf
000003b0: fb59 34c0 cb39 7abd 4e50 a23e b05d 3f3e
000003c0: 2035 42c0 134b ef3f 3238 62bf ef05 c0bc
000003d0: db0a acc0 42b3 19c0 fdee cebd bd61 3d3c
000003e0: fa99 ffbf 19af 3dc0 1e33 98c0 480b 573e
000003f0: b27d 6f3c 32fd c43f 04a6 c03f 56c5 593f

dense3.bias f4 [128]
-0.2650514 -1.1702516 1.1489828 -0.7311357 0.13706593 0.7166997 -0.937311 0.17654629
0.2577619 0.15400031 -1.5760772 0.643776 0.2279327 0.6778776 -0.80634457 1.1106626
-0.40572384 -0.42965332 1.678037 -0.8156892 0.676291 -0.7382078 0.009934097 2.1867208
1.7064005 0.29481256 -1.0975466 0.18969674 0.26495627 3.0046713 0.26263344 1.666936
-1.043736 -0.14877468 0.980474 0.24745809 0.23049773 -0.32492003 -1.4995106 1.2673523
0.60651547 -0.7296801 -1.6131263 0.19118932 -0.26423985 0.78723764 -0.68629605 -0.67426836
0.5858975 0.36271197 0.2159811 -0.11112634 1.1109529 -1.1963339 -0.8206301 1.210254
0.23135701 0.08954923 -0.55883193 0.177134 0.020684965 0.12175922 -0.87383246 -1.9303266
-0.34279814 0.85875565 0.76354367 0.32002106 -0.0556815 -2.0534654 -0.5599727 1.4652812
0.8152184 -0.81566983 0.35124645 1.1608517 -0.015522551 0.844457 -1.1152843 -1.1654884
-0.35993236 0.8478274 1.5900425 0.41087922 -0.4236238 -2.5722206 0.00187214 0.529923
0.5362262 -0.43019155 -1.1027331 -0.12349116 -0.015486023 -0.074333236 0.5602563 -1.069413
-2.4387937 0.48193592 1.238139 0.66957116 -0.36733544 -1.9634668 -1.3777311 0.66098183
0.811457 -0.5047326 -0.39529544 -0.7591977 -0.57953626 -0.72312486 -0.0076261912 1.5815995
-0.14952485 0.66805136 1.7550651 -0.19345087 0.00038725405 -0.5789175 -0.7008507 -0.5099511
-0.39579582 -0.7949807 -0.23182449 1.4853547 -0.108470134 -0.9820606 0.003374295 -0.1896171
00000000: d1b4 87be ceca 95bf de11 933f b62b 3bbf
00000010: 035b 0c3e a279 373f 9df3 6fbf 8dc8 343e
00000020: 5ef9 833e 42b2 1d3e e6bc c9bf 81ce 243f
00000030: 3167 693e 6389 2d3f 996c 4ebf 312a 8e3f
00000040: 09bb cfbe 85fb dbbe ebc9 d63f 02d1 50bf
00000050: 6821 2d3f 30fb 3cbf 9fc2 223c 3cf3 0b40
00000060: 556b da3f acf1 963e 687c 8cbf dd3f 423e
00000070: 59a8 873e 894c 4040 e477 863e 295e d53f
00000080: 2499 85bf 6458 18be 5800 7b3f a765 7d3e
00000090: 9907 6c3e eb5b a6be f7ef bfbf 9a38 a23f
000000a0: 9944 1b3f 51cc 3abf ec7a cebf 22c7 433e
000000b0: 724a 87be 6888 493f 19b1 2fbf da9c 2cbf
000000c0: 61fd 153f 62b5 b93e 262a 5d3e 3596 e3bd
000000d0: b433 8e3f 7821 99bf d014 52bf 9ae9 9a3f
000000e0: dae8 6c3e 9665 b73d 9c0f 0fbf 9e62 353e
000000f0: 8473 a93c e65c f93d 7cb3 5fbf f114 f7bf
00000100: 3d83 afbe 69d7 5b3f 9977 433f cdd9 a33e
00000110: 4912 64bd fa6b 03c0 5f5a 0fbf 568e bb3f
00000120: 27b2 503f bdcf 50bf 93d6 b33e ca96 943f
00000130: 4c52 7ebc 552e 583f a3c1 8ebf b92e 95bf
00000140: 0e49 b8be 370b 593f 8386 cb3f c35e d23e
00000150: 38e5 d8be 439f 24c0 9862 f53a 09a9 073f
00000160: 1f46 093f 1142 dcbe 5c26 8dbf efe8 fcbd
00000170: 17b9 7dbc 063c 98bd f56c 0f3f 86e2 88bf
00000180: 3215 1cc0 4ec0 f63e 577b 9e3f 0469 2b3f
00000190: 6413 bcbe e152 fbbf 7e59 b0bf 1b36 293f
000001a0: a5bb 4f3f 2836 01bf 2a64 cabe c85a 42bf
000001b0: 7d5c 14bf b61e 39bf 21e5 f9bb da71 ca3f
000001c0: 0b1d 19be 6a05 2b3f f9a5 e03f fc17 46be
000001d0: 5c08 cb39 f033 14bf f46a 33bf 288c 02bf
000001e0: c0a5 cabe db83 4bbf 6663 6dbe 1a20 be3f
000001f0: 9725 debd 5368 7bbf 4723 5d3b fc2a 42be
