Saved Models/Rosslyn_ULA_AMCF_6_beam_probing_codebook_128_beam_classifier.pt (torch, 13279 bytes, 6 tensors)

dense1.weight f4 [12, 6]
-0.22785252 0.6325091 1.3573053 1.3313537 -0.029036582 -8.555255 -14.770447 0.08328485
-0.08786226 0.9177105 0.5813873 0.12033935 1.155017 -1.0558016 0.011850095 0.94854414
-0.784352 -0.33093068 -0.06362749 0.053483564 -46.22505 0.6677863 0.11853677 0.015488307
-0.003134326 -0.04153753 -2.061872 0.46854946 -34.03202 0.09115026 -0.8565768 -0.38573515
-0.35948035 0.021182837 -3.4400163 0.78304464 -25.441364 -2.5202832 0.030865954 0.83967054
-0.034723524 -0.013776687 0.48031628 -24.642405 0.43540382 0.43610436 0.5466934 0.1218417
0.19272073 0.013759935 -2.0114956 -44.754574 -0.0934338 0.23392972 0.70868206 -0.000529815
0.041922797 0.0075847176 0.9289267 -21.935572 -0.15809542 -6.3481383 0.92313486 -2.557961
0.49392447 0.10196072 0.24685888 0.30271024 -11.121537 -0.12252373 -0.57653487 -1.2872838
00000000: 2c52 69be 1eec 213f 2ebc ad3f cc69 aa3f
00000010: 20de edbc 53e2 08c1 c053 6cc1 3f91 aa3d
00000020: 21f1 b3bd 13ef 6a3f ccd5 143f 7a74 f63d
00000030: 99d7 933f 8224 87bf e726 423c cad3 723f
00000040: 4bcb 48bf bf6f a9be 214f 82bd 9511 5b3d
00000050: 74e6 38c2 0bf4 2a3f 68c3 f23d abc2 7d3c
00000060: 4469 4dbb 4223 2abd b6f5 03c0 b7e5 ef3e
00000070: ca20 08c2 fdac ba3d 9e48 5bbf 147f c5be
00000080: cf0d b8be a187 ad3c 3a29 5cc0 9d75 483f
00000090: ea87 cbc1 524c 21c0 99da fc3c a6f4 563f
000000a0: 413a 0ebd 9db7 61bc 04ec f53e a523 c5c1
000000b0: 40ed de3e 1249 df3e 19f4 0b3f 2488 f93d
000000c0: 9558 453e 5a71 613c 58bc 00c0 af04 33c2
000000d0: 385a bfbd 468b 6f3e 306c 353f 48e3 0aba
000000e0: 3db7 2b3d 3989 f83b 24ce 6d3f 0d7c afc1
000000f0: c4e3 21be f323 cbc0 9152 6c3f a2b5 23c0
00000100: abe3 fc3e c8d0 d03d 93c8 7c3e d6fc 9a3e
00000110: d1f1 31c1 b9ed fabd ca97 13bf b7c5 a4bf

dense1.bias f4 [12]
0.33971277 0.23079695 0.81554776 0.10371881 0.19217277 0.88227993 0.14337224 0.32663423
0.17707369 0.10280432 0.7039472 0.806216
00000000: d5ee ad3e 0956 6c3e bdc7 503f 876a d43d
00000010: f0c8 443e 19dd 613f 2cd0 123e 9a3c a73e
00000020: ce52 353e 128b d23d e235 343f 2c64 4e3f

dense2.weight f4 [18, 12]
0.11341628 0.9500849 -0.7046576 -3.1837995 -6.000913 -0.09596187 1.4307688 2.585348
-0.59243524 0.35981277 1.036689 -0.66158104 -1.2946546 -0.17190425 -0.5587666 -0.6424296
-0.34881172 -0.42682254 4.1749463 -0.755683 0.50170875 -0.3019155 2.1627145 2.3983092
-1.5196534 -0.580932 0.6646654 2.8829043 1.1380987 0.22636656 0.57543534 2.7852504
-0.68980706 -4.3171973 0.1529137 -0.68266064 -1.028115 2.5350683 1.3377646 4.2598224
-1.9890397 -0.07896019 -0.80511504 -1.2045802 -1.7699434 -1.1388874 -0.45112136 -0.36339432
0.17805983 1.2363434 -0.69714034 -2.9172952 6.8254213 0.58165205 -1.4379511 -2.187922
-1.1778132 1.774354 -0.38636655 0.3998217 -1.8102268 0.48995763 2.1866875 -1.0898465
-0.2761117 -1.4684582 -1.7313075 3.0419466 -0.8960732 -2.0530534 0.44043624 0.9063824
-0.2071742 -1.0612584 -0.36160827 6.867135 -5.288253 0.080035485 -4.0692744 0.42898273
-2.238478 0.11229258 -0.9876286 2.0161703 -0.044927243 -0.83263624 1.1507323 -5.0487723
0.7573344 0.10502425 2.8629618 -2.6459508 0.8888621 -5.0078344 -0.50851893 -0.55627763
-1.0976721 0.44334325 -0.85600126 1.9409974 -0.7561237 1.9411043 1.7683314 1.354802
-1.414192 -1.0841141 0.5317875 1.5620463 -0.076011136 1.5529872 -0.17769699 -4.289912
-1.0561067 0.50841516 -1.6540778 -0.22788933 8.105288 -0.7638279 0.3758491 -1.5449474
-1.5274168 -0.77635545 0.3123892 5.975193 1.8917296 1.2115004 -1.1655606 -0.71980107
0.11480291 -4.6410675 -0.9087262 -0.68189293 -0.010834066 0.9857102 0.80351496 -3.2505782
-2.228755 0.4484915 1.0987318 -0.14383629 -5.2406173 -0.27512676 -1.5307255 -0.68023324
-0.14120436 -0.0049762237 -0.18095526 -0.22298743 0.05528739 -0.22091214 0.13394037 -0.17551613
-0.28950095 0.059738163 -0.006164951 -0.15447208 -1.1712009 -2.3943288 0.9989189 1.3737824
1.7393996 0.49615145 -7.2354727 -0.3788001 0.58297795 -2.519806 1.0446002 -0.07208687
1.1249484 -3.7071314 2.1561604 -3.1158388 1.634472 0.69347423 -1.4063107 -2.5726566
-3.5631695 0.6873198 -0.048315857 -0.024033833 1.1216094 1.8918865 0.08608097 -1.2164522
2.1369221 0.81117857 3.155194 0.66640127 -3.6750054 -0.8273971 -1.4980347 0.0327331
1.3633872 -0.82517135 0.26657403 -1.010695 4.167995 1.643241 0.63993984 -4.7259526
-0.5570726 0.43519342 -0.14182028 0.58856374 -0.98804617 -2.235291 0.56409824 1.2235863
-3.755722 0.98121727 -2.2213676 -1.9948452 -4.31814 -1.3192537 1.6135908 -0.20561118
00000000: cb46 e83d c438 733f 7164 34bf 5fc3 4bc0
00000010: 7b07 c0c0 a887 c4bd 6f23 b73f 5776 2540
00000020: d6a9 17bf 6139 b83e 3ab2 843f 605d 29bf
00000030: 3eb7 a5bf ab07 30be 540b 0fbf 4476 24bf
00000040: 7397 b2be 7c88 dabe 2999 8540 7174 41bf
00000050: fc6f 003f ab94 9abe ea69 0a40 e67d 1940
00000060: 0184 c2bf f6b7 14bf 8327 2a3f 8181 3840
00000070: 38ad 913f a3cc 673e bb4f 133f 8b41 3240
00000080: 3297 30bf 7b26 8ac0 6995 1c3e d9c2 2ebf
00000090: 4699 83bf 8f3e 2240 df3b ab3f 7750 8840
000000a0: da98 febf e1b5 a1bd 051c 4ebf af2f 9abf
000000b0: 818d e2bf 10c7 91bf 61f9 e6be d20e babe
000000c0: 5155 363e 8040 9e3f ca77 32bf f7b4 3ac0
000000d0: da69 da40 26e7 143f c80e b8bf ea06 0cc0
000000e0: 95c2 96bf 081e e33f d6d1 c5be 6eb5 cc3e
000000f0: 83b5 e7bf badb fa3e b0f2 0b40 1780 8bbf
00000100: 835e 8dbe 70f6 bbbf 7c9b ddbf 41af 4240
00000110: 0e65 65bf 3a65 03c0 dc80 e13e ad08 683f
00000120: 7925 54be 51d7 87bf b824 b9be 92bf db40
00000130: 5e39 a9c0 a5e9 a33d 7f37 82c0 a0a3 db3e
00000140: 3943 0fc0 a7f9 e53d 3ad5 7cbf ef08 0140
00000150: a105 38bd a627 55bf 324b 933f 8b8f a1c0
00000160: abe0 413f f416 d73d c43a 3740 4257 29c0
00000170: 778c 633f 2e40 a0c0 4c2e 02bf 3668 0ebf
00000180: 8580 8cbf e3fd e23e e622 5bbf 9a72 f83f
00000190: 5391 41bf 1b76 f83f af58 e23f 276a ad3f
000001a0: 3e04 b5bf 40c4 8abf 3a23 083f 22f1 c73f
000001b0: baab 9bbd 49c8 c63f 33f6 35be f646 89c0
000001c0: 812e 87bf 7f27 023f d2b8 d3bf d25b 69be
000001d0: 42af 0141 3a8a 43bf 4b6f c03e d6c0 c5bf
000001e0: 6582 c3bf 3bbf 46bf 7af1 9f3e c834 bf40
000001f0: 3224 f23f 7212 9b3f 1731 95bf e244 38bf
00000200: ca1d eb3d a083 94c0 48a2 68bf 8990 2ebf
00000210: 5e81 31bc 8157 7c3f 28b3 4d3f 7909 50c0
00000220: eca3 0ec0 aea0 e53e 3ea3 8c3f d249 13be
00000230: 23b3 a7c0 6add 8cbe d0ee c3bf c423 2ebf
00000240: e097 10be 970f a3bb 564c 39be d156 64be
00000250: 0875 623d cb36 62be aa27 093e 80ba 33be
00000260: 7839 94be 01b0 743d 5b03 cabb ee2d 1ebe
00000270: e9e9 95bf af3c 19c0 26b9 7f3f 1ad8 af3f
00000280: a5a4 de3f 9007 fe3e fe88 e7c0 16f2 c1be
00000290: 0b3e 153f 8044 21c0 76b5 853f 48a2 93bd
000002a0: 4ffe 8f3f a441 6dc0 88fe 0940 e769 47c0
000002b0: 6136 d13f 8787 313f fd01 b4bf 68a6 24c0
000002c0: f80a 64c0 31f4 2f3f d9e6 45bd 9ae2 c4bc
000002d0: e690 8f3f 5629 f23f 384b b03d b5b4 9bbf
000002e0: 55c3 0840 66a9 4f3f b3ee 4940 4699 2a3f
000002f0: 4a33 6bc0 4cd0 53bf 9abf bfbf 2513 063d
00000300: 7983 ae3f 6e3e 53bf 647c 883e 745e 81bf
00000310: 3760 8540 b955 d23f 19d3 233f 013b 97c0
00000320: 4f9c 0ebf acd1 de3e 5639 11be 1dac 163f
00000330: 98f0 7cbf 020f 0fc0 be68 103f 7a9e 9c3f
00000340: c05d 70c0 0e31 7b3f e32a 0ec0 1657 ffbf
00000350: 342e 8ac0 4edd a8bf 258a ce3f bd8b 52be

dense2.bias f4 [18]
0.29615864 -0.2652678 0.35714042 0.94314146 1.1882337 0.23618193 1.0376759 1.9201581
-1.0150139 0.17768121 0.60103256 1.7350166 -0.2084404 0.37381625 0.6339155 0.17925304
-0.320283 1.0657271
00000000: 1ba2 973e 2ed1 87be 1cdb b63e b871 713f
00000010: 0b18 983f add9 713e 90d2 843f bec7 f53f
00000020: faeb 81bf 10f2 353e 45dd 193f 0615 de3f
00000030: 6671 55be d864 bf3e 4948 223f 1c8e 373e
00000040: 22fc a3be bf69 883f

dense3.weight f4 [128, 18]
-1.4907866 -0.64531374 -1.2368141 -1.4905775 -1.3609309 -1.5673249 -0.5310814 -0.6426941
-6.1234345 -0.58528215 -1.0501733 -1.2967762 0.10985044 -0.8242913 -1.0788682 -5.2660832
-1.0137148 -1.0918512 -5.0784345 0.5263758 0.5121697 -2.438023 0.8022548 -2.053961
-0.31278023 1.2565571 0.85502046 1.4609343 -1.6808752 -1.9407653 -0.06526907 1.2740555
-3.6592712 -4.474854 -6.4678154 1.44509 -5.362538 1.2445418 0.3883422 1.58059
-0.9269531 -3.714867 0.4806955 0.119492665 0.56312406 0.6272816 2.452798 -3.1013694
0.12185713 0.26602152 -2.107777 -5.6586785 -5.5693955 0.28574204 -3.1806624 1.6595498
0.32979196 -1.6250284 -0.5810989 -2.8687963 0.1382313 3.5353978 0.34449166 1.3023314
-0.3474958 -3.3119583 -0.21917985 1.2874998 -4.6338644 -6.922086 -4.9611163 -0.074468516
-4.0904913 0.32116506 1.6006845 -1.9519104 -2.7318254 -2.9283838 1.0614383 -0.8118267
0.6564432 0.22208548 1.5790164 -4.72347 0.17831899 1.6927252 -4.066807 -4.75254
-3.7498477 1.064268 -2.152172 0.79805356 -0.7215042 -2.0650072 -1.4267452 -1.8458829
-0.39967445 2.10035 -0.6143279 1.2950686 -0.5130602 -1.9171718 0.14252423 2.0577803
-5.001116 -2.3890162 -2.3359466 1.5612017 -2.6564174 -0.43078503 0.7656009 -1.4832475
-3.7752986 -1.3912982 0.3416031 -1.8080934 0.5285413 0.29109213 1.9665337 -2.8185015
0.0994424 1.1438315 -4.300484 -4.3102164 -0.038090657 1.278615 -0.28857234 -0.44800583
-1.7467479 -1.697482 0.08381944 -0.44347292 0.63428116 0.25386685 -0.18556938 1.8198174
-0.14608532 -1.018777 0.08815095 0.43874627 -5.1001787 -3.067383 -0.2049214 1.9124007
-0.6267512 -0.17593804 1.0154445 0.24974446 -1.3655368 -2.3106909 0.9928636 -1.4425551
-0.60210407 0.061790757 0.91979414 -1.8366857 -0.029396143 0.99330837 -4.7903323 -3.8310049
-0.15366046 0.91966647 0.51635253 0.21787243 -0.7263323 -2.0488927 -0.12378467 -0.9603328
0.6437382 1.2605004 0.33329773 1.3683465 -0.60319775 -0.60574406 0.15277545 -0.24265203
-7.8637257 -1.1671411 -1.0402788 0.9876677 -1.8878969 -0.7158002 0.7181497 -0.6193699
-1.8978214 0.4269591 -1.4039809 -3.4688659 2.179905 0.42281693 2.2424884 -2.0682635
0.15823232 -0.10621379 -5.9432116 -3.088349 -2.269074 0.43567958 0.09327683 -1.8508807
-0.30294847 -2.6545548 -1.5997545 0.28318527 0.49196193 1.0139692 0.8512796 1.4147669
0.56431544 -1.1281501 0.14180042 -0.9241132 -5.288717 -0.8166955 -0.039755967 0.48016986
-1.1185999 -2.011189 2.1160564 -0.38600513 -2.6647608 -1.6105235 1.2313671 -1.0464009
-0.0068124933 -0.52482957 0.3815184 -2.675365 0.00046524504 1.0901499 -5.2800665 -3.087761
0.83561033 0.8236638 0.48996043 -1.278116 0.029383045 -2.552304 0.5180943 -0.7669933
1.72634 0.76072735 -0.68829733 1.2852542 -0.6595526 -0.33467323 0.036388043 -0.019946631
-6.792558 -1.4293038 -1.3411349 1.49874 -1.0679375 -1.3572432 1.4926194 -1.4033811
00000000: 18d2 bebf 4833 25bf ed4f 9ebf 3ecb bebf
00000010: fc32 aebf 1a9e c8bf f3f4 07bf 9a87 24bf
00000020: 2df3 c3c0 0dd5 15bf 146c 86bf c3fc a5bf
00000030: 44f9 e03d c104 53bf 5a18 8abf c183 a8c0
00000040: 68c1 81bf c8c1 8bbf 8982 a2c0 90c0 063f
00000050: 8e1d 033f 9208 1cc0 9260 4d3f 1974 03c0
00000060: bb24 a0be ddd6 a03f 9fe2 5a3f e5ff ba3f
00000070: eb26 d7bf ff6a f8bf caab 85bd 4014 a33f
00000080: 8031 6ac0 0132 8fc0 58f8 cec0 b6f8 b83f
00000090: e999 abc0 254d 9f3f cad4 c63e c650 ca3f
000000a0: cc4c 6dbf 62c0 6dc0 b81d f63e 92b8 f43d
000000b0: e628 103f 8795 203f a4fa 1c40 d67c 46c0
000000c0: 3b90 f93d f933 883e d2e5 06c0 e513 b5c0
000000d0: 7d38 b2c0 c84c 923e f98f 4bc0 216c d43f
000000e0: 7eda a83e ee00 d0bf e6c2 14bf 5c9a 37c0
000000f0: 828c 0d3e f543 6240 3661 b03e ccb2 a63f
00000100: f8ea b1be 20f7 53c0 af70 60be cbcc a43f
00000110: 9e48 94c0 ba81 ddc0 77c1 9ec0 f382 98bd
00000120: 4ee5 82c0 bf6f a43e 3be3 cc3f 33d8 f9bf
00000130: 3ad6 2ec0 a46a 3bc0 36dd 873f e0d3 4fbf
00000140: a90c 283f 606a 633e 361d ca3f ab26 97c0
00000150: 4199 363e 38ab d83f 4823 82c0 cf14 98c0
00000160: 81fd 6fc0 ef39 883f 30bd 09c0 3d4d 4c3f
00000170: 80b4 38bf 1429 04c0 969f b6bf e445 ecbf
00000180: 21a2 ccbe 226c 0640 9844 1dbf cfc4 a53f
00000190: ea57 03bf e365 f5bf dff1 113e acb2 0340
000001a0: 2409 a0c0 a4e5 18c0 2680 15c0 75d5 c73f
000001b0: be02 2ac0 db8f dcbe 6cfe 433f 0edb bdbf
000001c0: 7e9e 71c0 0f16 b2bf 9ae6 ae3e 9b6f e7bf
000001d0: 7c4e 073f 070a 953e 60b7 fb3f 5462 34c0
000001e0: 75a8 cb3d 1269 923f 919d 89c0 4bed 89c0
000001f0: f304 1cbd a8a9 a33f c1bf 93be 0561 e5be
00000200: 6f95 dfbf 1747 d9bf 87a9 ab3d e20e e3be
00000210: 4060 223f d6fa 813e e605 3ebe c7ef e83f
00000220: 6497 15be 4967 82bf 7c88 b43d 5aa3 e03e
00000230: aa34 a3c0 0150 44c0 ead6 51be 8cc9 f43f
00000240: c472 20bf 1a29 34be 16fa 813f 03bd 7f3e
00000250: e9c9 aebf 5ce2 13c0 4f2c 7e3f a5a5 b8bf
00000260: 7e23 1abf 4e18 7d3d a177 6b3f 8418 ebbf
00000270: 2ed0 f0bc 7549 7e3f 674a 99c0 2f2f 75c0
00000280: 2b59 1dbe 436f 6b3f ae2f 043f f319 5f3e
00000290: eaf0 39bf 0f21 03c0 d182 fdbd 5fd8 75bf
000002a0: 07cc 243f 1458 a13f 00a6 aa3e fa25 af3f
000002b0: 2b6b 1abf 0b12 1bbf 2b71 1c3e c679 78be
000002c0: a4a3 fbc0 e164 95bf db27 85bf cad7 7c3f
000002d0: 9ba6 f1bf af3e 37bf a9d8 373f 078f 1ebf
000002e0: d0eb f2bf 629a da3e a5b5 b3bf e601 5ec0
000002f0: 9083 0b40 767b d83e ee84 0f40 6e5e 04c0
00000300: a707 223e 9e86 d9bd ca2e bec0 83a7 45c0
00000310: 8238 11c0 6511 df3e ec07 bf3d a9e9 ecbf
00000320: 101c 9bbe 3ae4 29c0 c1c4 ccbf a9fd 903e
00000330: 6fe2 fb3e bec9 813f 76ed 593f 1517 b53f
00000340: fa76 103f 3967 90bf 2134 113e af92 6cbf
00000350: 2b3d a9c0 f512 51bf 27d7 22bd d3d8 f53e
00000360: 482e 8fbf 52b7 00c0 786d 0740 77a2 c5be
00000370: 718b 2ac0 a225 cebf 709d 9d3f 77f0 85bf
00000380: 563b dfbb 3b5b 06bf 6156 c33e 2e39 2bc0
00000390: 22ec f339 088a 8b3f 4ef6 a8c0 e09d 45c0
000003a0: 8fea 553f a1db 523f 18dc fa3e 4e99 a3bf
000003b0: b6b4 f03c f358 23c0 d4a1 043f ac59 44bf
000003c0: b6f8 dc3f 07bf 423f 4134 30bf 3683 a43f
000003d0: 70d8 28bf 4a5a abbe a10b 153d 1e67 a3bc
000003e0: a35c d9c0 6df3 b6bf 4faa abbf b6d6 bf3f
000003f0: 2db2 88bf 25ba adbf 270e bf3f fea1 b3bf

dense3.bias f4 [128]
-0.22923481 0.9554893 0.9529702 -0.062787 -0.0067274612 0.3011404 0.23772852 -0.08298406
0.6645473 -0.65162164 -2.8079333 -1.3855242 -0.28946263 0.08003971 0.22961177 1.0506752
-0.0090052895 -1.2843013 1.2107142 0.73485184 2.3762894 2.3309228 2.372484 2.1432412
0.6390652 -0.53949624 0.46069607 0.04524984 -0.5910454 0.18052103 0.2002952 -0.79704154
-1.3443898 0.47412223 0.13696563 -0.58072305 -0.0718448 -0.15998952 -1.4447056 -0.39310077
2.9556882 3.0536754 2.745232 1.4259883 1.0730954 -0.41130233 -0.77856725 -1.2378194
0.10177667 -2.8759108 -0.4600063 -3.0582764 -0.5070417 -1.0943542 0.77753973 -1.5627756
0.15202184 -0.6448271 -0.13871045 -0.6934387 0.02519969 -0.024622535 1.1275337 1.2024573
1.242936 1.3045176 1.3703884 0.0044144164 -0.11418178 0.5460818 -0.13156964 -0.41802996
-0.19008 -1.6774554 -1.4969857 -0.9631691 0.4000567 -1.0533228 -0.9671472 -1.7085738
-0.79475015 -0.49771345 0.30943626 -0.2565048 0.090629674 -0.65933937 2.0994923 0.50374186
-0.4217898 1.1241354 1.1547866 0.27251074 0.32241362 -1.310234 -0.42429322 -0.5177221
-0.36037263 0.081715845 0.6996362 0.4243516 0.6102178 0.33633798 0.018587256 -0.27054825
1.8854216 0.904247 2.121992 1.9940066 2.370677 1.8687829 -0.33696085 -1.5952733
-0.9206489 -2.307278 -0.71209735 -0.09700445 -0.60437113 -1.4468436 -0.7188047 -0.41835833
-1.7475721 -1.7340642 0.0439975 -0.30217323 -0.059518307 1.0710574 1.0595332 -0.6393382
00000000: 88bc 6abe f29a 743f dbf5 733f 7896 80bd
00000010: 0972 dcbb 132f 9a3e 1b6f 733e 8cf3 a9bd
00000020: c61f 2a3f add0 26bf 2eb5 33c0 db58 b1bf
00000030: 7234 94be dceb a33d 591f 6b3e 867c 863f
00000040: ec8a 13bc fc63 a4bf aff8 9a3f 401f 3c3f
00000050: 2015 1840 d72d 1540 c7d6 1740 dd2a 0940
00000060: c799 233f 6d1c 0abf 5be0 eb3e e557 393d
00000070: c04e 17bf 81da 383e 2f1a 4d3e ea0a 4cbf
00000080: f714 acbf 26c0 f23e b840 0c3e 44aa 14bf
00000090: 5e23 93bd 4bd4 23be 1dec b8bf 8144 c9be
000000a0: ff29 3d40 6b6f 4340 e2b1 2f40 c986 b63f
000000b0: 315b 893f 3896 d2be 2f50 47bf de70 9ebf
000000c0: 4970 d03d ec0e 38c0 f285 ebbe cdba 43c0
000000d0: 7ccd 01bf cc13 8cbf d80c 473f 0809 c8bf
000000e0: 9dab 1b3e 6413 25bf 1d0a 0ebe 3385 31bf
000000f0: 956f ce3c 33b5 c9bc 0653 903f 1fea 993f
00000100: 8718 9f3f 6ffa a63f e368 af3f cfa6 903b
00000110: 23d8 e9bd 04cc 0b3f 31ba 06be 0608 d6be
00000120: 55a4 42be dcb6 d6bf 3a9d bfbf 4092 76bf
00000130: 3bd4 cc3e 48d3 86bf f596 77bf 8cb2 dabf
00000140: bf74 4bbf 4cd4 febe 6e6e 9e3e 9954 83be
00000150: 0d9c b93d 77ca 28bf 155e 0640 3af5 003f
00000160: d5f4 d7be abe3 8f3f 0cd0 933f 8786 8b3e
00000170: 6613 a53e bfb5 a7bf f63c d9be 6f89 04bf
00000180: c382 b8be a35a a73d 5c1b 333f 9d44 d93e
00000190: 3c37 1c3f 7e34 ac3e 4d44 983c 4d85 8abe
000001a0: 7f55 f13f bb7c 673f b8ce 0740 9c3b ff3f
000001b0: 2cb9 1740 4734 ef3f 2286 acbe ea31 ccbf
000001c0: a5af 6bbf 71aa 13c0 034c 36bf 45aa c6bd
000001d0: 11b8 1abf 2c32 b9bf 9603 38bf 1033 d6be
000001e0: 71b0 dfbf d1f5 ddbf b936 343d 73b6 9abe
000001f0: 78c9 73bd 6918 893f c99e 873f abab 23bf
