Saved Models/Rosslyn_ULA_DFT_10_beam_probing_codebook_128_beam_classifier_noiseless.pt (torch, 21599 bytes, 6 tensors)

dense1.weight f4 [20, 10]
00000000: bf35 09c1 c950 043f a0cd 143f c687 0e3f
00000010: c339 363f c3ef 33c0 fe2a c9bf 5575 243e
00000020: 05a5 c4c0 dc4d 48bf d54f 91c1 530e e8bf
00000030: 3222 543e 72a1 6a3f 1476 c13d b6f2 733f
00000040: 0916 88bf f244 983e 0c86 8bbe bd24 d93e
00000050: 1b49 423f 562e ef3a cf8d c43d 42b6 d93e
00000060: 5485 a83e 6930 843f bd12 1fc2 1249 5ac0
00000070: 238e 0e3e 022f c53e 351e ad3e 8dc7 b2bf
00000080: dbc3 8e3e f74e 26be 47bc 173f 2e27 0bc2
00000090: 06f8 2f3e e82d 92be 4f98 1cc1 6cba 293e
000000a0: 7b80 23c2 af9d 603f 700a 0d3d 28de 123d
000000b0: 2c26 0a3e 94cc 903e 21ff a93d cd30 d53e
000000c0: 1875 9a3e 8419 0dbf 9423 adbd edef 74be
000000d0: ab45 cfc0 4938 013f 98e1 89be a23b 6cc0
000000e0: e3a5 ce3e abbd c03d 0101 24bf a6bf 193f
000000f0: 03a0 993e 1dea fa3b d85e cfbd b9d4 8ebe
00000100: b5f1 593e 2b91 e13c f645 23c0 304e 903e
00000110: 223a 843d 37e6 b7c1 82b2 a8bf f4c8 153d
00000120: 64ad 75be 8044 b2bf 1439 18be d0b2 a1bd
00000130: a5d4 3bbe 78c9 89be 762e 26bf 0c97 f1bd
00000140: 361c 9bbe ea8c b73f 6cb9 eb3e c035 0c3e
00000150: c146 543e 0f1e 01c1 8377 22c2 45e0 223e
00000160: 5807 45bf 6e0e 09be b5f4 f53e 944c f93c
00000170: 3069 df3e 8be4 fe3d a799 9cbd de73 803f
00000180: af8b 6c3e cb42 1ac2 a6b5 63bf 5baf 84bc
00000190: 45ba 56be 6488 dabe e910 ea3e 0593 98be
000001a0: 90db 17c2 d555 8d3d ed6a 7bc1 3e8d d93d
000001b0: 78d1 293f 96c6 dcbf 604c 373e 30a3 d0c0
000001c0: 2235 15c0 1f7a 54c0 9f95 22c2 f243 363e
000001d0: 7c5a 043b c1e9 d53d 3d3e f7be c7cf d4bc
000001e0: 4b80 63c1 92e4 a8c1 4406 533e 1a4b 663d
000001f0: c809 a1c0 8d75 d7c1 1128 ccc0 149f 213e
00000200: 3655 dd3c 9ca4 e73d fb87 3bbf e3bd 0fbf
00000210: 85e1 57be 4131 083f 3942 49c1 40b4 763f
00000220: e3e0 8ec1 1b5c 8b3e 609b 5a3f 3d92 73bd
00000230: 60d9 03c1 85bf 05c2 ae47 953e 98ab 163e
00000240: 2150 33be df28 333e 8fb2 5f3e 0382 f83d
00000250: a7ea b03d 6e8e 33bd 649e ce3d dc48 943f
00000260: 1c82 9ebe 847c 073f 1a78 55bd 2573 50c1
00000270: 203f adbf 649f 093f eaad 9ac0 310b 10bf
00000280: bafa f1bd 86f8 26bf dc89 e2bd d0bf 173f
00000290: 9168 ccbc 302b e43e 15d3 40c1 d64c b7c0
000002a0: f9f0 bebe 93eb 973d d56f 77c1 6656 bfbf
000002b0: 52ad d5bd 1ff0 de3d 439e 503d e84e 0ec2
000002c0: bf03 34c0 37ed ee3c 9d05 0b3f f4af 8cbb
000002d0: cf19 ca3d 3cc0 35be b7a8 783c 4ea8 b7c0
000002e0: da74 2f3e d0a6 d23d c7ae 553c 09b9 3cbf
000002f0: 35eb 02c2 5b1d e13d a5be 9ec0 1192 1abe
00000300: 9928 19c1 4bc2 c33e 97c5 833f af48 573f
00000310: a6e3 fa3e 9045 aac0 029c 9e3e 7288 47bf
-8.575622 0.5168577 0.5812626 0.55675924 0.7118189 -2.811509 -1.5716245 0.16060384
-6.145144 -0.78243804 -18.16398 -1.8129371 0.2071617 0.91652596 0.0944635 0.9529222
-1.0631725 0.297401 -0.27250707 0.42410842 0.758928 0.0018248062 0.0959736 0.42521864
0.3291422 1.0327274 -39.7683 -3.4107099 0.13921408 0.38512427 0.3381211 -1.3967148
0.278838 -0.1624106 0.59271663 -34.78826 0.17184457 -0.2855065 -9.787185 0.1657502
-40.87547 0.87740606 0.034433782 0.035856396 0.13491124 0.2828108 0.08300615 0.41638795
0.3016746 -0.5511706 -0.084540516 -0.2391965 -6.4772544 0.5047651 -0.26929927 -3.6911397
0.40360937 0.09411176 -0.6406403 0.6005806 0.30004892 0.007657303 -0.10125512 -0.2789667
0.2128361 0.027535042 -2.551145 0.28184652 0.064564005 -22.98741 -1.3179476 0.036568597
-0.23991925 -1.3927155 -0.14865524 -0.07895434 -0.18342836 -0.2691152 -0.64914644 -0.11796388
-0.3029496 1.4339879 0.46039903 0.13692379 0.20730115 -8.069839 -40.61671 0.15905865
-0.7696433 -0.1338441 0.4803826 0.030432023 0.4363494 0.12445935 -0.07646494 1.003536
0.2310016 -38.565228 -0.8894905 -0.016196897 -0.20969494 -0.42682183 0.45716026 -0.29799667
-37.964417 0.06901137 -15.713605 0.10622643 0.6633525 -1.7248104 0.17900229 -6.5199203
-2.331368 -3.3199537 -40.646114 0.17799357 0.0020195534 0.10444976 -0.48289672 -0.025977982
-14.218822 -21.111607 0.20607859 0.056223966 -5.032444 -26.932398 -6.379891 0.1578334
0.02701817 0.113106936 -0.73254365 -0.5614912 -0.21082123 0.53200155 -12.578668 0.9636879
-17.859808 0.27218708 0.85393333 -0.059465636 -8.24057 -33.43703 0.2915625 0.14713895
-0.17511036 0.1749606 0.21845458 0.12134173 0.086385064 -0.043837003 0.10088804 1.1584735
-0.3095864 0.5292437 -0.05211649 -13.028111 -1.3534889 0.53758836 -4.8337297 -0.56267077
-0.118154004 -0.65222967 -0.11061451 0.5927706 -0.024952205 0.445642 -12.051534 -5.7281294
-0.37293223 0.07417979 -15.464803 -1.4948242 -0.10433449 0.10885643 0.05093218 -35.577057
-2.8127286 0.029165847 0.5430544 -0.004293436 0.09868204 -0.17749113 0.0151769435 -5.739295
0.17134419 0.10285723 0.013042158 -0.7371984 -32.729694 0.10991927 -4.960772 -0.15094782
-9.572412 0.3823417 1.0294675 0.8409528 0.49001807 -5.3209915 0.309784 -0.77942574

dense1.bias f4 [20]
00000000: 2122 3c3f 0f1b d93e f945 9f3e e8ff 033f
00000010: 0af4 d23d 4fcb 723f f562 973e 8732 8e3f
00000020: 4d63 193e 74b8 723e e66c 4b3e 79ab cc3e
00000030: 70d3 433e b114 453f 4cf6 e73e 4f37 1d3f
00000040: 297a 673f 4869 da3e 826a 7f3e 390b 163f
0.73489577 0.42403457 0.31108072 0.51562357 0.10300453 0.94841474 0.29567686 1.110917
0.14979286 0.23703176 0.1986576 0.39974573 0.19123626 0.769847 0.45305097 0.6141252
0.90420777 0.42658448 0.24942973 0.58610874

dense2.weight f4 [30, 20]
00000000: d942 55be 681f cbbe e865 8b3e c2e2 9b3e
00000010: b705 c9c0 0e04 273f 72ea 9bc0 28fa 653f
00000020: da9a abbf e3fe aebf d207 abbf f640 e43f
00000030: 985a 3c40 2979 833f 08f9 a53e ddb2 05c0
00000040: 68ea d1bf c7f2 3fbd b71c cdbf 7d9a c63f
00000050: 939b 42bf b2c8 a2bf cfd6 c03f eb59 f53f
00000060: 4683 babb 5d1d 1b3f b182 84bc 2123 003e
00000070: a94d cabf 8aef 313f 7473 9e3f ece3 5abf
00000080: 872a 96c0 73fb cbbf 8bfe dabf 19d0 1540
00000090: 08cc 0240 b2c1 a6bf 388f bf3e 9135 d3be
000000a0: 9c87 0340 3820 6dbe 4c8c 09c0 de1e 8f3e
000000b0: 7b3e 13c0 a9b0 403f 5118 02bf 1d49 643e
000000c0: 3837 aebe 7a0f 02c1 b171 99bf d70c e23f
000000d0: 51e2 e23e 1b40 973f fa84 153f 8999 473f
000000e0: a40d d7be fab9 29bc 421c 46c0 0282 d0bf
000000f0: 051f aebe df7d 623f 3f75 183e 4877 333f
00000100: 2739 ee3f b78d 0fbf 55fe 903f 0739 92be
00000110: b6ad abbf 83e5 7a3f d5d7 12c0 dc95 653d
00000120: 39ea e83f 9a60 0dc0 3719 01bf 648c 033f
00000130: 8f55 d63e bf03 a140 ad7c 7dbf 6c13 3bbe
00000140: cb9f d8bf 2b74 f73d 948e b2bf 9aa6 b4be
00000150: 6664 e9bf 57dd fb3e 6537 793f 2d3d 66bf
00000160: 708a 02c0 88c3 8c3f 15fc fc3f 4554 ccbe
00000170: 37f5 04c0 6019 42bf 3999 7540 3c62 f13f
00000180: f7e5 133f 6c6d 383d b669 b33e fa21 27c0
00000190: 380b 90bf 7994 20c0 1084 00bf 9944 163f
000001a0: 45fa b4c0 b7e0 08be 0f51 a5bf 7124 593e
000001b0: caec 1fc0 399b 14be 8487 0940 4141 4340
000001c0: 6f39 96c0 1b4c 6fbe e957 883f 4059 fbbe
000001d0: 9192 e93e 4e13 3c3c 6cb7 07c0 d5d2 9d3f
000001e0: 7978 2ebe ccdd 4fbf f815 953f a191 40be
000001f0: 8f60 3ec0 f099 133e 2059 1e3f 0a01 603e
00000200: 45df f9bf a7da c83e e6c4 2e40 d218 2e3f
00000210: a21d 6abe 8abc e63e 5c40 2fbf bbd4 93be
00000220: b599 5f3f f9df 5cc0 6034 30c0 cc32 553e
00000230: 6e0e bbbf 7cc3 ecbe 5f3c e13f 55f9 5ebf
00000240: c16c 9fbf 81dc cfbf 33a2 fcbf 60fb 9a3f
00000250: 9460 e03f bd12 993e 280c 8a3e 3d5b fdbf
00000260: eb96 64bf 0a17 303f 1e0d 833f 21bf 103e
00000270: bb47 123f 7b52 3540 2a52 56bf f111 5fbf
00000280: 0147 e33f bf47 12c0 ff91 3e3f 396a 1c3f
00000290: 485c 83c0 b881 c5be 5d88 55bd e066 4c3f
000002a0: e2ee bb3f f3be 91bf 307e bfbf 5c66 b4bf
000002b0: 9fe2 43c0 5323 8b3f 6176 25c0 03c5 8ebe
000002c0: c524 d83f b62c e2bf f81d d3bf 26de a9bf
000002d0: 5acb 09c0 53ef a5bf 2972 04c0 dc67 c33f
000002e0: f7b6 a5bf 7adc f33f 60a7 08c0 a231 0fbf
000002f0: 4395 8cbe e890 d2c0 33ee dfbe 0569 a7bf
00000300: f92f f0bf 3c4c f03e 8abc 9dbf 0839 1640
00000310: 5b41 a03e c3b5 10be 4698 3dc0 bd2b f53f
00000320: 8358 21bf 4583 e9bf 226d 0f40 2ba0 43be
00000330: 857b 0dc0 4699 4e3f e385 4d3f 1250 123f
00000340: b6dc b73f 1938 7abd fcb3 0e3f 0038 c2bc
00000350: 59ad 1bbf 8e02 b7be 4f71 7cc0 8443 bc3e
00000360: 86bd 4540 0576 ba3f 7217 85bf 87b3 4fbe
00000370: 0bd8 2140 bdb2 403d b21a 6d3f 6bce 3abf
00000380: 942b 82bf 6be0 a4be 547e 0b3e 59a3 033f
00000390: 7dd5 4e3e 38e5 d7c0 baf3 1240 72ad b7bf
000003a0: bc4f 503e 330c 693e fc7f 4e3e 12c6 cbbe
000003b0: c40a 1e3f 16ca d83f 001e 15c0 7212 e3bf
000003c0: dc79 66bd d913 f93e ed4f 76c0 f3cc 7bbc
000003d0: f2bf 2e40 06e4 c63f 9f5b f23f f726 0a40
000003e0: 791b c3c0 16e7 22bf c61a 8dbe de98 a93f
000003f0: 8121 6ebf 29db 483f d1f4 b43f 5e3b 29c0
-0.20826282 -0.396724 0.27226186 0.3044644 -6.2819476 0.6524056 -4.872369 0.89834833
-1.3406632 -1.3671535 -1.3361762 1.7832325 2.9430294 1.027135 0.32416558 -2.089042
-1.639966 -0.04686239 -1.6024388 1.5515896 -0.7601864 -1.2717497 1.5065554 1.9168066
-0.0056919185 0.6059168 -0.0161756 0.125134 -1.580495 0.6950613 1.2378983 -0.8550403
-4.6926913 -1.5936111 -1.710893 2.3408263 2.043703 -1.3027861 0.37413955 -0.41251805
2.055152 -0.23156822 -2.149188 0.27953237 -2.3006885 0.7526956 -0.50818354 0.22293516
-0.34026504 -8.128778 -1.1987821 1.7660168 0.4431329 1.1816438 0.5840603 0.7796865
-0.42002594 -0.010359282 -3.0954747 -1.6289675 -0.3400804 0.88473314 0.14888476 0.70103884
1.8611192 -0.56075615 1.1327616 -0.28559133 -1.3412387 0.9800646 -2.2944233 0.05605112
1.8196479 -2.209021 -0.504291 0.51386094 0.4186215 5.0317073 -0.99018365 -0.18269128
-1.6923765 0.12082704 -1.3949761 -0.35283357 -1.8233764 0.49192306 0.9735015 -0.89937097
-2.0396996 1.0997171 1.9764429 -0.39908043 -2.0774667 -0.7581997 3.837477 1.8858104
0.57772774 0.045026228 0.3504159 -2.6114488 -1.1253424 -2.509062 -0.5020151 0.5869842
-5.6555505 -0.13366972 -1.2915362 0.21205308 -2.4988275 -0.14512338 2.1488962 3.0508578
-4.694511 -0.23368876 1.0651828 -0.4909153 0.45619634 0.011479212 -2.1205702 1.2329966
-0.17038144 -0.8119781 1.1647329 -0.18805553 -2.9746435 0.14414191 0.61854744 0.21875396
-1.9521261 0.39229318 2.7307677 0.6800662 -0.22862867 0.4506572 -0.6845758 -0.28873238
0.87343913 -3.4511702 -2.7531967 0.20820159 -1.4613779 -0.46242893 1.7596549 -0.870992
-1.2455064 -1.6239167 -1.9736999 1.2107964 1.7529473 0.2989711 0.269624 -1.9793469
-0.8929278 0.68785155 1.0238378 0.1413541 0.571407 2.8331592 -0.8371912 -0.8713675
1.7756044 -2.285629 0.7444152 0.6109958 -4.105015 -0.3857553 -0.052132 0.79844475
1.4682276 -1.1386398 -1.4960384 -1.4093738 -3.0607069 1.0870155 -2.5853503 -0.27884683
1.6886221 -1.7669895 -1.6493521 -1.3270919 -2.1530366 -1.2963661 -2.0694678 1.526607
-1.2946461 1.9051659 -2.1352158 -0.5593511 -0.27457628 -6.5801888 -0.4373642 -1.3078924
-1.876464 0.46933162 -1.2323163 2.347231 0.31299862 -0.14131837 -2.962419 1.9153973
-0.63025683 -1.8243185 2.241036 -0.19104068 -2.210664 0.80702627 0.8028242 0.5715343
1.4364231 -0.061088655 0.55743384 -0.023708344 -0.6081138 -0.35744137 -3.9444158 0.3677026
3.0896926 1.4567267 -1.039778 -0.20283328 2.5288112 0.047045458 0.9261886 -0.7297122
-1.0169549 -0.32202467 0.13622409 0.51421124 0.20198627 -6.746731 2.296126 -1.4349806
0.20342916 0.2275856 0.2016601 -0.39799553 0.6173518 1.6936672 -2.329956 -1.7740004
-0.056268558 0.48647955 -3.8486283 -0.015368688 2.7304654 1.5538337 1.893421 2.1586282
-6.0971036 -0.6363386 -0.2755949 1.3249776 -0.9301987 0.7845941 1.4137212 -2.6442485

dense2.bias f4 [30]
00000000: 93ef c83f aec2 d43d 9506 833f af0a 9f3d
00000010: d524 ad3f 72a8 923f 43c1 763f 1217 533f
00000020: 37c8 d63f ecfd 903f 98d3 12bf 39e9 6f3e
00000030: 95c4 0b3e a467 06bf 259d 0740 744e da3e
00000040: 3aa6 423f e4ed b83f 5e9e ff3f d7e8 903b
00000050: 6b97 8c3f 05b7 283f 5ae4 cf3f 4969 f63e
00000060: 3d4c bd3f 6ed8 b73f 67e6 0840 66bc 2dbf
00000070: d07b 37bf 818a b03f
1.5698112 0.10388695 1.0236384 0.077657096 1.3526865 1.1457655 0.96388644 0.8245708
1.6779851 1.1327491 -0.57354116 0.23428811 0.13649209 -0.52501893 2.1189663 0.4263798
0.7603489 1.4447598 1.9970205 0.004422288 1.0983709 0.65904266 1.6241562 0.481272
1.4788891 1.4362924 2.1390626 -0.678656 -0.716733 1.3792268

dense3.weight f4 [128, 30]
00000000: 1fa2 10bf d266 86bf 06de c7be 8716 79bf
00000010: 9793 17bf 71c6 04bf 1b0c d9be bfaa 06bf
00000020: dda7 b1bf dbed d8be 735d 11c0 54f7 48c0
00000030: 11c7 8bc0 b7b6 fbbe ac8f e3be 9436 bebe
00000040: f20a eabe d622 f8be 6564 46bf 3e83 50bf
00000050: 6a20 c9be b887 0dbf a7ac 3bbf a45e acbf
00000060: be19 ecbf 3eca 42bf f69e efbe 0f19 23bf
00000070: 9f09 f7bd 924c 97bf d6f3 ccbf 7f9b 18bf
00000080: d789 36c0 2c53 b23f 36c2 613f 91a9 0140
00000090: 5554 b6be f477 85bf bb37 f7be b269 45c0
000000a0: c8d2 4dbf 84a0 a33f 754b e3c0 b4f7 19be
000000b0: 5a16 3f40 67a4 1240 0097 b33d 0dc5 8abe
000000c0: 8566 99c0 ff16 1bbf d687 b83d 24b7 673f
000000d0: fde7 e03f 7b99 a1c0 d266 42c0 f7e6 9ebe
000000e0: 24c8 3840 727a 28bf f252 46be 76d6 c7c1
000000f0: dfac fbbf d259 05be 8ed7 c7be e87b 86bf
00000100: 4285 1b3f f2d2 933f 8962 bfbd 4ca0 063f
00000110: 2725 45be 6eee 9cbf 132b 2fbf 5b92 8540
00000120: 14e9 d0bf 8c3f 0abe ceb5 0940 f060 2540
00000130: 162a debf 1f2e 0e40 d3d5 37c0 9939 bf3f
00000140: ddad 803f 0f40 533f f1dd 4fc0 39c9 97c0
00000150: 3f99 abc0 5507 03c0 aaec fd3f 846a c6bf
00000160: 711e b9bb 57c9 99c1 198f 4fc0 eaa8 833e
00000170: c0cf 2240 8417 cebf 0e26 a33f 1352 3e40
00000180: ac20 af3f 67ce 223f 018c 1d3f 8d21 013f
00000190: 8581 b6be 005c 54bf 6559 54c0 72c7 d9be
000001a0: c25e babe 7077 ce3f db0a b13f f1b7 5840
000001b0: 7b14 b4c0 bdb3 87bf 97e6 c8be f8ce 3c3f
000001c0: abd3 83c0 a96a 4ac0 2a65 283e 6cf8 3bc0
000001d0: 4646 5f3f a35a 59bf ee61 2ebe 5f5e 87c0
000001e0: fded 7ec0 4681 923f b687 1dbf 9ffd 2fc0
000001f0: 1b8b 8c3f 02df 00bf fad3 473f a29a 473f
00000200: e7b7 c4bd 3a1b 893f 68b2 99bd 3d87 5640
00000210: 76f9 39c0 5843 30be e00c 903f d2ce cd3f
00000220: d91a 00c0 aa09 de3f 2448 acc0 6b19 f93e
00000230: 492a 0a3f b97b 303f 0c4c 1fbf 9649 b7c0
00000240: 0d4a e5bf 8463 f8bf 06dc d03f 31a3 fbbf
00000250: e717 41bc 7fb8 16c0 d857 69c1 d84a ce3e
00000260: a368 a4bf 1789 563e fdc2 d93e cbd4 453f
00000270: 0184 133f 74d6 f2be 6de1 373f 4ddc a2bc
00000280: 970d 853e 87d3 b2c0 ed0e a0c0 62da 5e3d
00000290: 280d 1a3f 276c 443f b4e4 ecbe 964d c3c0
000002a0: 8496 9cc1 7550 58bf 1535 d83f ddd1 b03d
000002b0: 0668 73c1 7b84 07c0 0436 f5be 8dfe fabf
000002c0: 9048 dabf bd38 a9be 7459 b63d 8c0b bbbf
000002d0: 431c ddbf 3a03 f83e 80c2 a0bf 4ee8 88bd
000002e0: b8b7 0d3f abc0 2bc0 2547 783e 000d 053f
000002f0: dc97 a43e 71b6 86bf 2fb3 f23e 28b0 c5c0
00000300: 4f26 2ac0 9f31 70be d217 f93e dfdd 4d3f
00000310: 6e8b 5ec0 f278 70bf 0b09 63c0 edd3 e93e
00000320: 6d17 24bc 5e36 de3e 42c4 40c0 21dd 85c0
00000330: aa3d 09c0 afa7 9abf 3a93 95c0 b374 5ebe
00000340: 2f61 32bd da46 8fbf 84f0 01c0 ff41 c43e
00000350: 14b9 58c1 9e62 11be 2497 553d 1b1b 51c0
00000360: d97b 1b3e a442 ea3d 8e86 853e e290 04c0
00000370: c7f7 a33e 1ee8 9cc1 b12d 25c1 8bc5 2fbe
00000380: aed5 a83f 2bcf 93bd cea0 adbe bc5d 6abf
00000390: fa8e 9ac0 97ca fa3e d269 a13d 9234 3c3f
000003a0: 8dd2 c2c0 61f4 5abf 05ea 123f 0f08 023e
000003b0: a2cc 1840 f32b 4f3f ed57 5fbc 4b54 28c1
000003c0: ec9a 9dc0 277f b43f db3d 16bf 4faa 0ec0
000003d0: 6302 b63f e63b f5bf 5515 42be abd5 0e3f
000003e0: 3b3b 663f c1b4 d23f 32f5 e53e ad10 2840
000003f0: 6c13 77c0 1d4c 563e bb15 e83f 5a66 d43e
-0.5649738 -1.0500128 -0.39036578 -0.973 -0.5920958 -0.518653 -0.42392048 -0.5260429
-1.3879353 -0.4236897 -2.2713287 -3.1400957 -4.36805 -0.49162838 -0.4444555 -0.37151015
-0.45711476 -0.48464078 -0.7749694 -0.8145026 -0.39282542 -0.55285215 -0.7331032 -1.3466382
-1.8445356 -0.7608985 -0.46800965 -0.6371011 -0.12062382 -1.1820242 -1.6011913 -0.5961227
-2.852163 1.3931632 0.8818697 2.0259745 -0.35611215 -1.0427232 -0.48284706 -3.0845761
-0.8039975 1.278336 -7.102961 -0.15035897 2.9857392 2.2912843 0.08769035 -0.27103463
-4.7937646 -0.60581964 0.09010284 0.90513825 1.7570797 -5.0499854 -3.0375257 -0.31035587
2.8872156 -0.65811837 -0.19367579 -24.979717 -1.9662131 -0.13022545 -0.39031643 -1.0506563
0.6075021 1.154875 -0.09344966 0.52588344 -0.19252454 -1.2260263 -0.684251 4.1741157
-1.632113 -0.13500804 2.1517215 2.5840416 -1.7356594 2.221565 -2.8724258 1.4939452
1.0053059 0.8251962 -3.2479212 -4.7433133 -5.362457 -2.0473225 1.9837849 -1.5501256
-0.005649381 -19.22331 -3.243109 0.2571481 2.54393 -1.6100926 1.2745988 2.9737594
1.3681846 0.63596195 0.61541754 0.5044182 -0.3564569 -0.8295288 -3.3179562 -0.42534977
-0.3640042 1.61302 1.3831438 3.386227 -5.6275 -1.0601727 -0.39238426 0.7375331
-4.1195884 -3.16276 0.16444841 -2.9370375 0.87216604 -0.84903926 -0.17029545 -4.23027
-3.9832757 1.1445701 -0.61535203 -2.7498548 1.0979952 -0.5034028 0.78057826 0.77970326
-0.09605389 1.0711434 -0.075047314 3.3520043 -2.905851 -0.1721319 1.1253929 1.6078742
-2.0016387 1.7346699 -5.383806 0.48652205 0.5397077 0.68938786 -0.62225413 -5.7277327
-1.7913224 -1.940537 1.6317146 -1.9659177 -0.011785484 -2.3550107 -14.583946 0.40291476
-1.2844433 0.20950733 0.42531577 0.7727782 0.57623297 -0.4742924 0.7182835 -0.019880438
0.2598693 -5.588321 -5.001822 0.054407485 0.60176325 0.7672753 -0.46268237 -6.103221
-19.573494 -0.8449777 1.6891199 0.08633778 -15.212896 -2.117461 -0.47892773 -1.9608933
-1.7053394 -0.330511 0.089037806 -1.4612899 -1.727425 0.48439962 -1.2559357 -0.066849336
0.5535846 -2.6836345 0.2424589 0.5197296 0.3214711 -1.0524427 0.4740233 -6.1777534
-2.6585882 -0.23456429 0.48650986 0.80416673 -3.47726 -0.9393455 -3.547427 0.456695
-0.010015351 0.43400854 -3.0119786 -4.1832433 -2.1443887 -1.2082423 -4.674222 -0.21724205
-0.043549713 -1.1193497 -2.030305 0.383316 -13.545185 -0.14197776 0.052146092 -3.2672794
0.15183963 0.11438492 0.2607922 -2.071343 0.32024977 -19.613338 -10.323655 -0.171652
1.319021 -0.072172485 -0.33911747 -0.9154928 -4.829953 0.4898269 0.07881512 0.73517716
-6.088202 -0.8552914 0.57388335 0.12698387 2.3874898 0.80926436 -0.013631803 -10.520579
-4.9251614 1.4101304 -0.58688134 -2.2291448 1.4219478 -1.9158905 -0.1895345 0.5579478
0.8993413 1.6461412 0.44913632 2.6260178 -3.8605604 0.20927472 1.8131632 0.41484338

dense3.bias f4 [128]
00000000: 97cc b2be 985a c6be c42a 1e3f 008f da3d
00000010: 5805 89bf 9fdb 9e3f 5953 c8bf 9917 ba3e
00000020: ceea 063f 7c9e 913d bb76 b23e d2bd f73e
00000030: 3285 e73c a2b4 a4be e3f4 2a3f 3d20 843e
00000040: a054 173f bfb5 953e ede4 43bf e12b cabf
00000050: 00a6 9a3f 496a aa3e ca37 0abe 04b0 90bd
00000060: 40fc 5dbd 9434 f8bd 80f1 ba3d cd6f 23be
00000070: 3b2f 03bf 8f0d 683f 8882 2140 baf1 f5bf
00000080: ab36 90bf e92f 843f 24b3 3240 05dd 7a3f
00000090: 25f6 92bd 0f71 c8bd a445 c9bf 0e4d b23d
000000a0: a1e6 21bf f88c 7d3e bef2 cabe 983f 523e
000000b0: 629b e7bf 0cda 92bf a6ed 0bbf 1825 093f
000000c0: f769 c53f e296 683f 22aa 48bf a4d1 9b3f
000000d0: c282 cabe b6d2 63bf bf0a 9d3f cff3 19be
000000e0: cc55 e9be 083e 94bf 6f65 5fbf c6cc b13f
000000f0: fdb7 1e3e 9b53 ad3c 211f 34bf 1237 f03b
00000100: 1936 dbbf 2a66 1a3d 2d11 c63e ccab 963f
00000110: 78b8 793f 0896 12bf b75e dfbb e619 403f
00000120: b954 0abf b77b c03e 6026 4b3e 4f14 36be
00000130: adeb 4bbe 94cf 0b3c 39a2 993e c76e 88be
00000140: 57fe 543e 8253 08bf 582f 193f d514 c9bf
00000150: 77c5 ac3f 73c9 86be 392b fc3d 2026 a13d
00000160: d4ec a93d d193 b33e 7db3 babe c112 bd3e
00000170: cf45 9e3d 36a2 cbbe 6e90 0bbe 7783 9cbf
00000180: bf5e 8d3e 7729 aabf 45d8 873e 0385 b93d
00000190: 6cd0 c73f 22b1 423f f9ce 263f fa90 0840
000001a0: 7396 7b3f 8eb8 2f3f d9f3 893e 8753 1fbe
000001b0: bd36 e1be 50f7 8f3c 7d5b 9fbf 1668 4abe
000001c0: 0577 163e a051 463e 0975 8d3e 9d0f bdbe
000001d0: f27b 0dbe e2ae 30bf 2e9b e13e cb26 533e
000001e0: 4471 fb3e 1430 a6bf f910 77be fcdc 193f
000001f0: 67c2 aabf 732b 2fbf ce40 2bbf c6aa 4fbe
-0.34921715 -0.38740993 0.61784005 0.10671806 -1.0704756 1.2410773 -1.5650436 0.3634613
0.52702034 0.071103066 0.3485621 0.4838701 0.028261755 -0.32169062 0.6677992 0.25805846
0.591135 0.29240224 -0.7652119 -1.5794641 1.2081909 0.33284214 -0.13497844 -0.07064822
-0.054195642 -0.121194035 0.09128094 -0.15960617 -0.5124394 0.9064569 2.523592 -1.9214394
-1.1266683 1.0327121 2.7921839 0.979935 -0.071758546 -0.09787189 -1.5724378 0.08706103
-0.63242537 0.24760807 -0.39638323 0.20532072 -1.8094294 -1.1472793 -0.546595 0.53572226
1.5422963 0.9085523 -0.783846 1.2173352 -0.39552885 -0.88993394 1.2268904 -0.15034412
-0.4557327 -1.158143 -0.8726415 1.3890617 0.15499873 0.02115803 -0.7036 0.0073307836
-1.7125884 0.037695087 0.3868498 1.1771178 0.975471 -0.5726018 -0.006816711 0.7503952
-0.54035527 0.37594387 0.19838858 -0.17781185 -0.19914122 0.008533377 0.3000658 -0.26647016
0.20800148 -0.5325242 0.59837866 -1.5709482 1.3497761 -0.2632557 0.123129316 0.078686
0.082971245 0.35073712 -0.36465064 0.3692837 0.07728159 -0.39772195 -0.13629314 -1.222762
0.27611348 -1.3293904 0.26532188 0.09058573 1.561048 0.76051533 0.65159565 2.1338487
0.9827644 0.68640983 0.26943853 -0.15559207 -0.43987074 0.017573982 -1.2449795 -0.19766268
0.1469384 0.19367075 0.27628353 -0.36925974 -0.13816813 -0.6901685 0.44063705 0.20620267
0.49109852 -1.2983422 -0.24127568 0.6010282 -1.3340577 -0.68425673 -0.6689576 -0.20279989
