Saved Models/Rosslyn_ULA_trainable_8_beam_probing_codebook_128_beam_classifier_noise_-94_dBm.pt (torch, 19751 bytes, 7 tensors)

codebook.theta f4 [64, 8]
00000000: 6cdb 7a3f a54e 883f 76b9 9a3f 1922 5f40
00000010: 547c c13f 9bce 4940 f63e a040 3e9b 9740
00000020: 587e 7140 2bcf 6240 c5c6 a4be 898d 1d40
00000030: 89d2 6340 e7be af40 43f5 3a40 1b75 0d40
00000040: e66d 5140 7d54 b640 3862 8240 a2c4 bfbe
00000050: f0f2 923e 172f 9040 a41f 853f 4826 9c40
00000060: 364d d640 8569 a940 69de ef3f c5e3 9d40
00000070: 50c6 d740 c741 843f f71f fabe 1cdc 5140
00000080: 81dc 9d3e e6bb 05bd fe69 bb40 ce4f 5a40
00000090: 0b09 fe3f feb4 0540 144c 2040 3359 0a40
000000a0: 78b8 8a40 3fe3 4d40 d53d 7940 0d9e 6340
000000b0: 4815 9240 87bc 7040 eb70 8740 10b4 c140
000000c0: 2448 5040 04c4 a640 6953 2640 fdfd 4240
000000d0: cf18 a540 046e a440 49de d1bb 69a5 4540
000000e0: 5fef db3f 6fbf 6d40 052a f040 b9b2 3240
000000f0: bff5 b93f 6a0a 1940 c4a3 3f40 d09e e63e
00000100: bebb 3e3f 36bb b440 7bf6 8e3f 999a 4840
00000110: d137 4240 ee31 fb3f 0e91 d940 8d00 4340
00000120: d6a1 cb40 bb25 1440 988d 73bc ad78 0140
00000130: 6b40 ec40 6375 0fbf fcca db3e ac54 ac40
00000140: f366 9c40 0928 7140 7d6c a440 15db 993f
00000150: c9ff ab40 bb7b 0a40 d1a7 8a40 08a4 4c3f
00000160: 0165 9640 ee75 b43f 68dd 9540 c8af 4f40
00000170: 84ef d640 f3e2 0340 19a6 7940 6cf7 5540
00000180: 1d8a c740 9c9d 2f40 2690 2540 a23f b73f
00000190: 6699 3040 b49e 0640 43f4 aa3f e3d5 ac40
000001a0: afd5 a63f 53e9 a340 dc72 c6be ccfc 183f
000001b0: 548c 0940 96b8 c0bd b347 2740 2dc2 c240
000001c0: 781a 9540 2455 983f 6d55 5740 5310 7740
000001d0: 4dfb b240 b369 ab40 a3e7 c140 2e06 6740
000001e0: 1045 98bf 6714 9e40 8e3f e93f 00d1 ee3f
000001f0: 1ebd be40 129f c23f c2d5 0240 c614 3f40
00000200: b3c7 0040 9130 8940 eef6 763f ed8e 2a3e
00000210: c07f 5440 1617 be40 0eeb cf40 9761 0e3d
00000220: dcb3 b83f 86a4 4240 be30 a040 2bc2 5840
00000230: ae85 4240 b5c8 55bf 612a 76be 930c 0840
00000240: e1a2 fd3f 888f 2340 4d8f 4f40 ff1d 4240
00000250: f1de bf3f a432 da3f 6d6f dc3f 09c7 e93f
00000260: 1462 ae40 4daf 4940 9a90 3f40 6b67 3c3f
00000270: efc4 e140 5c11 b240 d9ab b340 9740 79bf
00000280: 7992 9940 a056 d43f 7796 8a3f 9312 ac3f
00000290: 25aa 9c3f 220c a140 9490 0fbf f2d7 0d40
000002a0: 887e 8440 e8b5 de40 5a55 a340 8bb4 253f
000002b0: 0e5e b440 5bee 9040 f960 0f40 acf9 583f
000002c0: 7172 1640 24a6 eb3f 268b 6640 ee2b e140
000002d0: a3f0 4140 98fe 3e40 9b98 b640 6cef 9140
000002e0: 2289 2d40 f696 2040 c6df ff3f ebc3 df40
000002f0: 30fa 8740 e24e a13e 6f0e f93f 1527 ea40
00000300: cbb1 f940 f5af 84be 6048 5ebd 43c9 3b3f
00000310: ebef 1740 6003 8940 88e4 a0be c293 ed3f
00000320: 5012 5e3f 3e5e 0140 6c7e 4840 4800 a140
00000330: 690a ee3f 908c 4440 282a 7940 d552 91bf
00000340: 668f d9bd 5660 ca3f 44ae 343f 4684 05be
00000350: c8db e840 5ac2 0540 2db0 6240 8d48 813f
00000360: 37b9 5440 391c 8e3f 21cb 7a40 ccbf 6140
00000370: b059 9b40 23bc ae3f af02 1d40 9759 8a40
00000380: 0d90 2540 2f57 c2bf e8de 1140 dabc 9540
00000390: 1064 c640 3fa9 bd40 cb5c 4d40 49b6 2f40
000003a0: bb1d 893f b4bf 9d3f 0927 ed40 dc8e e03f
000003b0: 7a84 3b40 cb1e 9d40 bb31 4e3f 8122 e23f
000003c0: 7748 d440 3d4f 9840 2b67 a940 52db 103f
000003d0: df2d 823f bd32 1d40 d58f af40 57a9 d340
000003e0: 54cb b340 509a 9940 620b 1540 ed81 7a3e
000003f0: 94d6 4340 9d7b 903f 26a3 e93f 3cb5 9540
0.9799106 1.0649 1.2087848 3.4864562 1.5116067 3.1532352 5.0076857 4.7377005
3.7733364 3.5438945 -0.321829 2.4617636 3.559725 5.4920535 2.9212196 2.2102726
3.2723327 5.6978135 4.0744896 -0.37454706 0.28700972 4.5057483 1.0400281 4.879673
6.696925 5.294131 1.8739749 4.934054 6.742958 1.0332574 -0.48852512 3.2790594
0.30832294 -0.032649897 5.8566885 3.411121 1.984651 2.089172 2.5046434 2.1616943
4.335018 3.216995 3.894399 3.5565217 4.565098 3.7615068 4.232534 6.0532303
3.254403 5.2114277 2.598841 3.0467522 5.1592784 5.1384296 -0.0064046723 3.0882208
1.7182425 3.7148092 7.5051293 2.7921584 1.4528121 2.3912606 2.9943705 0.4504304
0.7450522 5.647853 1.116897 3.134436 3.0346568 1.9624612 6.798957 3.0469086
6.3635054 2.314803 -0.014865302 2.0229905 7.3828635 -0.5603849 0.42928302 5.385336
4.887567 3.7680686 5.138243 1.2019984 5.374974 2.163802 4.3329854 0.7993779
4.6998296 1.4098489 4.683277 3.2451038 6.7167377 2.060727 3.9007628 3.3432264
6.2356095 2.7439947 2.5869231 1.4316294 2.7593627 2.1034365 1.3355793 5.401109
1.3033961 5.122232 -0.38759506 0.5976074 2.14919 -0.09410207 2.6137512 6.086203
4.659481 1.1900983 3.364589 3.8603714 5.5931764 5.3566527 6.059526 3.6097522
-1.1896076 4.9399905 1.822252 1.8657532 5.9605856 1.5204794 2.0442967 2.985643
2.0121887 4.2871785 0.96470535 0.16656084 3.3202972 5.940318 6.497443 0.034761038
1.4429889 3.0412917 5.00595 3.386851 3.0394092 -0.8350938 -0.24039604 2.1257675
1.9815332 2.5556355 3.2431214 3.0330808 1.4989911 1.7046704 1.7221504 1.8263866
5.4494724 3.1513245 2.9932008 0.73595303 7.0552897 5.564619 5.6147275 -0.9736418
4.79913 1.6588936 1.0827168 1.3443168 1.2239424 5.032731 -0.56079984 2.2163053
4.1404457 6.9597054 5.104169 0.6472861 5.6364813 4.529096 2.2402937 0.8475597
2.350735 1.8410077 3.602243 7.0366125 3.0303123 2.9842892 5.7061286 4.5604763
2.711495 2.509214 1.9990165 6.992666 4.2492905 0.31505495 1.945753 7.3172708
7.8029532 -0.25915495 -0.05426824 0.73353976 2.3740184 4.281662 -0.31424356 1.8560717
0.8674669 2.021377 3.1327162 5.0312843 1.8596927 3.0710793 3.893198 -1.1353403
-0.10623054 1.5810649 0.7057841 -0.1303874 7.276829 2.0899873 3.542003 1.0100266
3.3238046 1.1102363 3.918648 3.5273314 4.854698 1.3651165 2.4532888 4.3234363
2.5869172 -1.5182856 2.27923 4.679303 6.1997147 5.92691 3.2087886 2.7455008
1.0712198 1.2324128 7.411015 1.7543597 2.9299607 4.910009 0.8054463 1.766678
6.633846 4.7596726 5.2938437 0.56584656 1.0170249 2.4562218 5.4863076 6.6144214
5.6185703 4.800087 2.3288198 0.24463625 3.0599718 1.1287724 1.8252914 4.6783733

dense1.weight f4 [16, 8]
00000000: 784f 5d40 51dc 45c0 eb2b c13e d456 babe
00000010: 7dfd 323f 6c1b 983f c8c9 2dbe 2122 f23e
00000020: d272 283f e661 a63f 96fc b63f 7f4c 6540
00000030: 3d84 1740 de91 3ac0 98ab 4cbe 1dc8 b3be
00000040: 8477 6e3e 521f 41bf 902b 613e 7d17 3640
00000050: 958c 96bf d75b 0540 c722 46bf 292a 2d40
00000060: fcb4 a1be 956a ea3f 3072 0cbe f1ed 5b3d
00000070: 1753 2e40 d8be ce3f 8ed6 4bbe 2438 52bf
00000080: f216 4dbe b21d 0740 083d 843f d946 38bf
00000090: 73c7 41bd dee1 4bc0 4f57 6440 f875 b93f
000000a0: 8c30 763e d87e 1d3c 6e67 1540 a830 0c40
000000b0: d55f b4bf cf27 fdbe 41fa 5d40 5311 783e
000000c0: 1783 d33e 3469 b73f 7c5b 7cc1 6f2c eb3e
000000d0: 9b1d 2b3f 44e8 433f f6ba 5a3c f8c3 cb3d
000000e0: ff95 5c3f a0f1 fc3f 0d50 04c0 bdbf 903f
000000f0: 1243 29bf 55b4 cabe b9d0 363f 396a f13f
00000100: 0c9a 22be 2a7f f2be e079 1040 66f7 003e
00000110: beed d83f 554b 0dbf f586 fdbf 2d6a 4540
00000120: f18a a4be cd75 973f fa9f 5e3b ff5b e7c0
00000130: 1288 ce3f 825e 643f aa62 4640 d2a5 763f
00000140: ad86 4a40 4675 4bbd 944b 5bc0 d0f1 36bf
00000150: 030f 533f b7bc 7c3f 7336 1040 4c68 c03f
00000160: 4b0b 8340 0c0c 60be 6e01 f4bd b1f2 983f
00000170: 262f a5be 14ae 9e3f 4db9 1d40 27b9 1cc0
00000180: 231d b9bd 52fb 4fbe f429 183e 648c dcbe
00000190: a644 26be 6b93 6abd 9e4f b03d f51a eebd
000001a0: c274 42bf 2f87 3e40 7f69 d13f b4d6 fabe
000001b0: bdb1 f9be de92 0e40 62c4 79bf d479 29c0
000001c0: dcac aebf b56f 5dc0 e797 0840 ae56 54bf
000001d0: af8b e7bd d8f9 c53e 195c 3040 f504 e13f
000001e0: 4581 50c0 35bb 9d3d cb84 46bf a402 1440
000001f0: de78 48bf 22f5 0740 c292 f03e 600e 763f
3.4579754 -3.091572 0.3772882 -0.3639437 0.6991804 1.1883368 -0.16971505 0.47291663
0.658002 1.2998626 1.4295833 3.582794 2.3674462 -2.915153 -0.19987333 -0.35113612
0.23287779 -0.75438416 0.21989274 2.8451836 -1.1761652 2.0837305 -0.77396816 2.7056983
-0.31583393 1.8313776 -0.13715434 0.053693715 2.7238214 1.6151991 -0.19906065 -0.82116914
-0.20028284 2.1111875 1.0331125 -0.71983105 -0.04730935 -3.1856608 3.567829 1.4489126
0.24041957 0.009612761 2.3344378 2.1904697 -1.4091746 -0.49444434 3.4683993 0.24225359
0.4131095 1.432898 -15.772335 0.45932338 0.6684205 0.76526284 0.013350239 0.099494874
0.86166376 1.9761238 -2.067386 1.1308514 -0.66117966 -0.39590707 0.71412235 1.8860542
-0.15879077 -0.47362643 2.2574387 0.12594375 1.6947553 -0.5519307 -1.9806811 3.0846055
-0.32137254 1.1832825 0.0033969865 -7.22998 1.6135275 0.8920671 3.099772 0.9634677
3.16447 -0.049672388 -3.426488 -0.71462727 0.8244478 0.98725456 2.2533233 1.5031829
4.0951285 -0.21879596 -0.11914335 1.1949064 -0.32262534 1.2396874 2.4644349 -2.4488008
-0.090387605 -0.20310715 0.14859754 -0.4307586 -0.16237125 -0.057269495 0.08608936 -0.116262354
-0.7595941 2.977001 1.636032 -0.4899193 -0.48768416 2.227714 -0.9756528 -2.6480608
-1.3646502 -3.459943 2.1342714 -0.8294476 -0.113059394 0.38667178 2.7556212 1.7579638
-3.25789 0.077017225 -0.77546376 2.3126612 -0.7830943 2.1243367 0.46986967 0.96115685

dense1.bias f4 [16]
00000000: ab14 a83e 1e02 053e e3d9 2a3e c029 d63e
00000010: 60ac 8a3e 763e 113e 92ca 263e 7afa a43e
00000020: aa45 a33e ff95 493d 8080 103e 37f4 d33e
00000030: fb80 bfbe 228b 973e 6454 fb3e 430d dc3e
0.32828268 0.12989089 0.1668468 0.41828728 0.27084637 0.14183983 0.16288212 0.32222348
0.31889087 0.049215313 0.14111519 0.4139726 -0.37403092 0.29598337 0.49087822 0.42978868

dense2.weight f4 [24, 16]
00000000: 67b4 d4bd 42f6 5dbe c24d 30be 6a0e 55be
00000010: 6452 0bbe 789d f33d d2db 13be ac27 99be
00000020: 5012 47be 41eb 053e 551f 9fbe 620b 77be
00000030: 5a9f 013e f42a c13d f93a 28bd 40a4 fa3d
00000040: 2429 b8bf 2df8 1f3f bcbb 4c3e 3062 bc3f
00000050: 7976 893f 4786 63bf 3d69 ab3f b08c 9a3f
00000060: 8e62 babe 8a14 58be 35e9 ce3f da41 4bbf
00000070: 90cf 3fbd 41bb 533f 33a7 acbf 78b5 a6be
00000080: cb15 39bf ed5a 31be 1a1f 60bf c9c1 1ebf
00000090: abed fa3f ff1b b43f d71f f63d c248 6a3f
000000a0: f6a0 e6bf b82d 4f40 9324 b83f 77ad 2f3f
000000b0: d6c4 0f3d 1d72 83bf 66fd b03f 4344 f03d
000000c0: d3fb 573f 4e01 273f fec7 593e a068 f1bf
000000d0: 5317 0040 46ef b73e cccc cebf 966c 0040
000000e0: adf4 bc3f f2db 0ebe 6692 7b3f 393e a7bf
000000f0: 2882 4cbe 8451 dbbf 3df2 fa3e 9b26 e2bf
00000100: d3bb c93f 96b0 813f f02d 00bc 7257 3ebe
00000110: 9c54 c0be 9401 a13f 37bc cfc0 4359 a6bf
00000120: 110c 453f d586 a3be b3f4 a5bf 79a3 1f3f
00000130: f332 503e a623 353e 6c2b 0640 c9ae c3bf
00000140: b52c 07c0 2feb 633f 562d 3abe 17bf 0e40
00000150: e592 f83f 9df0 813f 82f1 58be 2f79 b43f
00000160: 21b9 56bf d1f4 bdbf 8f4d 7bbf b300 743e
00000170: 3977 54bc ce77 be3f 78e0 c7bf 6f78 4d3e
00000180: cdbb 8ebe 089a 86be 1b78 bfbd c77c be3d
00000190: 496d 46be 42ef 7dbc db53 f8bd 9ae3 81be
000001a0: 4591 30be 9666 3fbe 8dd6 86bd 5f4b ecbd
000001b0: 2096 6ebe 2f3f 003e e2d9 49bd 84e9 9dbe
000001c0: a11c d8bf 470c a4bf 9664 78bf 95c4 903f
000001d0: d52f 013f 0b1f 9fbf 16a6 28bf 12ca 20bf
000001e0: 3d85 473f 79c3 1c40 b66d 37c0 54b4 16c0
000001f0: 57cf a93c c81f 1240 0eb4 ed3f 7570 9b3f
00000200: 7a60 aebe 1b8d 1cbe f318 22c0 64b2 613f
00000210: eab4 923f 3da6 d63f a166 83bf 4cdd 0cc0
00000220: c3aa d1bf adc7 413f aba2 58bf 3d8b 0240
00000230: f4f9 593e 0a51 163f 8b22 173f 0f01 103f
00000240: 1116 1f3e 1a90 8b3f 77d0 1fc0 e7b9 893f
00000250: 6996 e23f 4370 4bbf f4b6 82c0 7ca2 d3be
00000260: c148 ca3f daa4 9a3f 534d 983c 06e5 b1be
00000270: 73e4 b43d 3759 5fbe a734 243f e748 0dbf
00000280: 9e20 bb3f 2bfb d6bf 1b29 73bf b8dc 0d40
00000290: ba2a 903d 7b9a abbf 078d 413f 5d02 3cbf
000002a0: ee59 263f b96f 1840 ce60 a4bd aba2 debe
000002b0: 9256 4abd f3fa 963e 93a3 36bc 0537 3cbd
000002c0: 4119 d4bf e4f3 3cc0 1af1 963f 7265 97bf
000002d0: 1985 a23f c784 5340 a7f5 2abf f492 2bbf
000002e0: cfc1 4fbe 8e06 93bf 44f4 01c0 4808 52bd
000002f0: 7652 2b3e 98d4 0840 539b 733f bcd6 ed3e
00000300: 94d5 fb3e 7777 0dc0 505a 8b3f 7095 403f
00000310: 5ec3 dabf c798 24bf 3928 2c40 d3e3 33bf
00000320: 1faa 8abe 5559 0740 74d0 d83d 6929 353f
00000330: 40ab 213e ad0b c13e 3894 a73f ab9e 3d3e
00000340: 956c ab3e 3d5e 823f ecfc 8f3f 2602 81be
00000350: cfdb 323e b358 55bf 00d3 a940 813a fbbe
00000360: 8937 463e d2c8 1dbf ab07 923f 62c6 d2be
00000370: 4011 3fbe b84a 03c0 a663 a53e e76d 93bf
00000380: 1022 ccbc 5098 98be 708c 1dbe c292 6f3d
00000390: 3afc 4cbe ad19 093e 7477 7dbe 1f19 bb3d
000003a0: 1c17 2bbe 57ab cbbd 6df6 f43c 88aa 19be
000003b0: 0073 4d3b 5245 96bd 2052 afbd 13d7 533d
000003c0: a0bd 1ebf 01d5 99bf ff87 dd3e b0a7 2e3f
000003d0: ba7d 03bf e477 6a3f 6931 f0bf f310 443f
000003e0: 1972 8cbf 46d9 0dbf f4b6 12bf 7064 5b40
000003f0: 60f4 463c 4226 1940 ecce eabf 263a 2bc0
-0.103859715 -0.21675971 -0.17217162 -0.2080628 -0.13605648 0.11895269 -0.14439324 -0.2991308
-0.1944058 0.13078023 -0.31078592 -0.24125436 0.12658444 0.09432021 -0.041071866 0.122383595
-1.4387555 0.6248806 0.1999349 1.4717464 1.073928 -0.88876766 1.3391491 1.2074184
-0.36403316 -0.21101585 1.6164919 -0.79397357 -0.046828806 0.827076 -1.3488525 -0.32560325
-0.7229888 -0.17319842 -0.8754746 -0.6201444 1.960378 1.4071044 0.12017792 0.9151727
-1.8017871 3.2371655 1.4386162 0.6862406 0.035099827 -1.02692 1.3827331 0.1173177
0.8436863 0.65236366 0.21267697 -1.8860054 2.0014236 0.3592474 -1.6156249 2.0066276
1.4762169 -0.1395109 0.9827026 -1.3065864 -0.19971526 -1.7134252 0.49012938 -1.7668031
1.5760444 1.0132015 -0.007823452 -0.18588045 -0.37564552 1.2578607 -6.4917254 -1.299599
0.76971537 -0.31938806 -1.2965301 0.62358814 0.20331936 0.1768938 2.0964003 -1.5287715
-2.1121037 0.89030737 -0.18181357 2.2304132 1.9419829 1.0151554 -0.21185878 1.4099482
-0.83876234 -1.4840337 -0.9816522 0.23828392 -0.012967878 1.4880311 -1.5615377 0.20065473
-0.27877656 -0.26289392 -0.0934908 0.09301143 -0.19377626 -0.015498938 -0.12125369 -0.2536896
-0.17242916 -0.18691477 -0.06583891 -0.115378134 -0.23299456 0.12524103 -0.049280055 -0.3084222
-1.6883737 -1.2816247 -0.9702848 1.1309992 0.5046361 -1.2431349 -0.6587843 -0.62808335
0.7793768 2.4494307 -2.8660712 -2.3547564 0.02072875 2.2831898 1.8570573 1.2143694
-0.3405798 -0.15288202 -2.5327728 0.8816283 1.146146 1.6769482 -1.0265695 -2.201007
-1.6380237 0.75695306 -0.8462321 2.0397484 0.21286756 0.58717406 0.59037083 0.56251615
0.15535761 1.0903351 -2.4970987 1.0759858 1.7702152 -0.7946817 -4.084833 -0.41334903
1.5803453 1.2081559 0.018591559 -0.34745044 0.08832636 -0.21811377 0.6414284 -0.55189365
1.4619329 -1.67954 -0.94984597 2.2165966 0.070393994 -1.3406519 0.75605816 -0.73441106
0.6498097 2.381819 -0.080262765 -0.4348348 -0.049398966 0.29488334 -0.011147398 -0.04595091
-1.6570207 -2.952386 1.1792328 -1.1827834 1.2696868 3.304979 -0.66781086 -0.6702111
-0.20288776 -1.1486375 -2.0305338 -0.05127743 0.16730675 2.1379757 0.9515888 0.46452892
0.49186385 -2.2104166 1.0886936 0.75228024 -1.7090871 -0.6429562 2.689955 -0.7026951
-0.27082917 2.1148274 0.10586634 0.7076631 0.15787983 0.3770422 1.3092108 0.18517558
0.3348128 1.0185009 1.1249061 -0.25196952 0.17466663 -0.8333847 5.307007 -0.49068072
0.19357122 -0.6163455 1.140859 -0.4116698 -0.18658924 -2.0514355 0.32302588 -1.1517915
-0.024918586 -0.29803705 -0.15385604 0.05848957 -0.20018092 0.13388701 -0.24752599 0.09135651
-0.16708034 -0.0994479 0.029902661 -0.15006459 0.0031349063 -0.073374406 -0.08560586 0.051718783
-0.62008095 -1.2018129 0.4326782 0.6822462 -0.5136372 0.9158919 -1.8765079 0.7658836
-1.097232 -0.5540966 -0.57310414 3.4280052 0.0121432245 2.39296 -1.8344398 -2.675424

dense2.bias f4 [24]
00000000: cc03 4ebe 80e7 1a3f e399 c13e 5c6e 583f
00000010: 0175 a83f 4539 c53e babe adbe 8ca5 a53f
00000020: 62d2 773e 59e5 58bd e6b6 e2bc e020 163f
00000030: 547b 7a3f b838 843f 1498 9abe df54 793f
00000040: fccc 9b3f f48d b43e 2562 cc3f 942f 953e
00000050: eee8 98be 7c14 6bbe 7f76 c83f 2c9f 973e
-0.20118636 0.6050949 0.3781272 0.84543395 1.3160707 0.38520256 -0.33934575 1.2941146
0.24201348 -0.052953098 -0.027675103 0.58643913 0.97844434 1.0329809 -0.3019415 0.9739513
1.2171931 0.35264552 1.5967451 0.29137862 -0.2986521 -0.22957033 1.5661162 0.29613626

dense3.weight f4 [128, 24]
00000000: ad0f 9a3d 6aad 92bf e924 06c0 e931 08bf
00000010: ac67 bdbe 3c63 09bf acbf e93d 553e 2abf
00000020: 4f58 a7be 281f 98be 51f9 5bbf 0993 15bf
00000030: fccb 5ac0 5f0f 77bf 47b4 2a3e 4594 aec0
00000040: 73b0 1fbf 843c 22bf 62fe 22bf ce62 64bf
00000050: 49d1 3fbf 7c50 c63c 2c84 88bf be47 31bf
00000060: e93e 1a3d 9292 cdbf a126 683f d211 6e3e
00000070: 38f2 b63e e3b5 963e 772b 633d f56e 843d
00000080: 412d 413f 6310 383f d3e9 003f 8f6d a03e
00000090: c825 b9bf 6c9d 1dc0 f4d1 46be 7157 18c0
000000a0: bc88 093f 42b9 843f 4069 313d 75cd 7bc0
000000b0: 0903 4ec1 cd0e 153d 70e9 78c0 6ef2 493e
000000c0: 7a84 bbbc 9391 04c0 2d7a 863e fa4e f03e
000000d0: 7aea b53e 35f6 2b3f d462 44bd 809e 193f
000000e0: e4e2 683f 34c6 a63f ec44 473d 7827 6cbe
000000f0: d887 25c0 8a2b 21c0 6581 99bc 2e93 61c0
00000100: b8dd 253f 3d8b 3e3f e506 313f 785f 4cc0
00000110: 0ebc aac0 3125 ec3c b671 39c0 1b72 853f
00000120: 530f 58be 48ad 83bf a40e 59bf be4d 453f
00000130: 80bf 403f 9c4e 033f 3869 09bd 364e 343f
00000140: b649 0c3c af82 8d3f cfdd 1abd 6685 9a3e
00000150: 4818 9bc0 e309 0fc0 b66b 363d fd97 75c0
00000160: d36a 543f a9f7 16bf 10e0 1ebf 689d d73e
00000170: 972b 17bf 26d6 84be 47be 4bc0 0d4a 503f
00000180: bb3b 5a3d c675 3f3f e28c 623e cf81 4d3f
00000190: 924e 083f df32 d7be 8f5d 283e 3bb1 aabe
000001a0: c9bd 0a3f 02d7 733f b0f4 ab3e 1b3f 50bf
000001b0: 3bda a3c0 2ba6 02bf bd35 18be 8cfb 22c0
000001c0: 72df 7b3f 79be 9abf e343 ca3e 62c5 8bc0
000001d0: 6a77 46bf f4ac 72be 6094 38c0 cee5 6c3f
000001e0: 15c9 64be 5cd3 3d3f d478 aa3d ba60 823f
000001f0: 6466 86bf ce67 2dbf 98e1 f53d 8d4c 7fbf
00000200: 1826 9abf a429 3d3f 6e00 363f 7952 c7c0
00000210: 4cba 49c0 e61a 623f a4cb dfbb 84df 7dc1
00000220: 11f9 bb3f 41bb b5bd 2660 d93e 76c3 10bd
00000230: 39d4 b7bf 774f e8bd 67dc 6fbf a3cc 593f
00000240: a932 823d 9b1f bb3e 9676 b9be df65 6f3f
00000250: 7d2f 39bf 74a1 753f d71f e1bd ebeb 92bf
00000260: f6aa 95c0 f405 b53f 89ac 17be 609c a9bf
00000270: c3b8 40c0 b766 843e 8c11 48be b6c7 4abf
00000280: 112d 793e 4746 8bbc 663e 72bf 4aac 69bf
00000290: 2673 2dc0 07b7 cabc e4b6 0c3f 3763 843f
000002a0: 334e a23d 951a 4d3f 9382 423f 0e73 89be
000002b0: b3b7 00c0 6a08 a43f cc69 443e 65e1 21c0
000002c0: a871 6ac0 5598 b63d f2e6 e6bf 1083 61be
000002d0: d468 33bf 4256 4b3e 5df7 31be 1d82 febe
000002e0: 1a7c 6bbf 92f2 3fbe 8ba9 25bf 4c3e b73e
000002f0: 6328 a6c0 517b f03d 0e74 023f c650 21bf
00000300: 212e 383c d5c6 9dbe 6c13 e43d 4f00 2a3f
00000310: 44df 523e 7f46 5a3f 4aa6 49be 4db1 0dc1
00000320: fd9e 46c0 8209 5dbf ecc0 5c3e d76a 1bc0
00000330: 55f0 2ac0 9f9a 303e 6d4b 94bd 8765 57bf
00000340: 3d4b dcbf 39c7 db3e b018 a9bc 3c38 5f3f
00000350: 8318 6dc0 5fcc f93c 187b a83f 8d98 17bf
00000360: 59d0 42be 8cad 3f3f 5da2 b6bf 8e69 813f
00000370: 075f 46bf 78a0 863f 0ce7 343e 30d8 e3bf
00000380: ddde 5cc0 a5d7 02bf b796 813d 8dc6 e2c0
00000390: 0cb4 e7bf b579 d63e 9672 1a36 6414 4bbf
000003a0: 3c49 4bbf 6667 e33d d1b9 993e 68de a13e
000003b0: f6fb 10c0 c3ba e93c 9beb b53e 9629 753f
000003c0: d143 b1bd 32b7 e63e 8b06 08c0 5155 233e
000003d0: a6e8 1dc0 7e7a 173e d079 773d 3163 bcbf
000003e0: 4fd7 09c0 e8c5 41bf 441a fbbd d727 1ac1
000003f0: 86fe 0abf 019d b33f b872 a33d 64bc 80bf
0.07522521 -1.1459172 -2.0960028 -0.53201157 -0.36993158 -0.53667045 0.11413512 -0.6650136
-0.32684562 -0.2971127 -0.859273 -0.5842748 -3.4187002 -0.9650783 0.16670333 -5.4555993
-0.62378615 -0.6337359 -0.6366941 -0.89213264 -0.7492872 0.0242083 -1.0665336 -0.69250095
0.037657652 -1.6060355 0.90683943 0.23248985 0.35731673 0.29435644 0.055461373 0.06466476
0.75459677 0.71900004 0.5035679 0.31333587 -1.4464655 -2.4627333 -0.19416028 -2.380337
0.53724265 1.0369036 0.043313265 -3.934415 -12.875741 0.03639107 -3.889248 0.19721386
-0.022890318 -2.0713851 0.26265088 0.46935254 0.35530454 0.6717256 -0.047945812 0.60007477
0.9097121 1.3029237 0.048649713 -0.23061931 -2.5864162 -2.5182824 -0.018738458 -3.5246081
0.6479144 0.7443121 0.69151145 -3.193327 -5.335456 0.028826328 -2.8975654 1.0425447
-0.21099596 -1.0287256 -0.84787965 0.7707175 0.75292206 0.51291823 -0.03354761 0.7043184
0.008562496 1.1055506 -0.03780919 0.301799 -4.846714 -2.2349784 0.044536315 -3.8374016
0.829755 -0.5897165 -0.6206064 0.4211228 -0.5905089 -0.25944632 -3.1834886 0.8136299
0.05327962 0.74789083 0.22124055 0.802762 0.5324489 -0.42031 0.1644194 -0.3333834
0.5419584 0.9524995 0.3358512 -0.8134629 -5.1203895 -0.510348 -0.1486425 -2.5466032
0.98387825 -1.2089378 0.39504918 -4.3678446 -0.7752596 -0.23698789 -2.884056 0.92538154
-0.22342332 0.74150634 0.083238274 1.0185769 -1.0499997 -0.6773652 0.12005919 -0.9972618
-1.2042875 0.73891664 0.71094406 -6.2288175 -3.1519957 0.88322294 -0.006829696 -15.867069
1.4685384 -0.088736065 0.42456168 -0.035342656 -1.436164 -0.11343282 -0.9369568 0.85077876
0.06357319 0.3654755 -0.36223286 0.9351482 -0.72338086 0.9594948 -0.10992401 -1.1478246
-4.6771193 1.4142442 -0.1481191 -1.3250847 -3.011277 0.25859615 -0.19537944 -0.79210985
0.24333598 -0.017001284 -0.9462646 -0.9127852 -2.710153 -0.024745477 0.5496657 1.0342778
0.079250716 0.80118686 0.7598049 -0.26845592 -2.011212 1.2815068 0.19180983 -2.529382
-3.663187 0.08915774 -1.8039229 -0.22022653 -0.7008183 0.19857123 -0.17379518 -0.49708644
-0.9198624 -0.18744877 -0.6471183 0.35789716 -5.19243 0.11742271 0.50958335 -0.63013875
0.011241467 -0.3081576 0.11136517 0.6640672 0.20592982 0.8526382 -0.1969234 -8.855786
-3.1034539 -0.8634263 0.21557969 -2.428396 -2.6709187 0.17246483 -0.07240949 -0.84139293
-1.7210461 0.42925432 -0.020641655 0.8719518 -3.704621 0.03049296 1.3162565 -0.5921715
-0.19024791 0.74874187 -1.4268299 1.0110338 -0.7748875 1.0517721 0.17666262 -1.780035
-3.4511025 -0.511103 0.06327575 -7.086737 -1.8101821 0.4188973 2.3014486e-06 -0.7932799
-0.7940862 0.11103706 0.3002458 0.31614995 -2.2653785 0.028531438 0.35531315 0.9576658
-0.08655513 0.45061642 -2.1253994 0.15950514 -2.4673247 0.14792821 0.060418904 -1.4717771
-2.1537664 -0.75692606 -0.12260869 -9.634727 -0.5429462 1.4032289 0.07980865 -1.0057492

dense3.bias f4 [128]
00000000: ef02 abbe 1a68 fabe 72dc b7bf 6aff 16c0
00000010: 728f 2b3e cbf7 09c0 8b6f f4bf ce1d 85be
00000020: fdf5 863f 7dd4 863e 1f2e ebbe 27d5 913f
00000030: 96d0 ac3e 9349 ca3f a56f 4d3e 7abf c9bf
00000040: 0bcb 0abf 8505 bbbd ecba 15c0 192b f73e
00000050: ffe9 cb3f 5e78 9f3e 1a1f f93e 9661 93bf
00000060: 8513 103f 4bc1 19bf d4ff a7bd d2be 13bf
00000070: 193a edbe 4914 eabf 5b5e 04c0 9efe 15bf
00000080: 6450 79be 2f90 2bc0 f29c d3bd b1db 6f3f
00000090: baf7 04bf cc4e a03c f92c 933f 004b 5640
000000a0: b799 38bf 5933 b93f 84db b83f f61f 5740
000000b0: 9c15 dc3f e56a bc3f 43a9 1640 d735 4240
000000c0: 7594 0a40 fea1 f33f be89 7540 bbfd 02be
000000d0: 3d9b 1740 ece2 2f40 5e2c 9a3f 9f04 0940
000000e0: 6915 673f a38b ba3f 1916 963f 1341 513f
000000f0: a9f0 1940 b260 2e3f d32e 0abf 7c57 823e
00000100: 6c4f b4bd 457e 823e df3f b33c 2be0 0f3e
00000110: cab3 efbf 0e9b cfbe 2aeb 8cbf f9db 6d3d
00000120: 0255 193f 2670 493f cbaa 1a3e 3fe3 36c0
00000130: b21a c5bf b399 153f 7fb2 53bf fe6b 073f
00000140: 0b29 c3bf 761b f5bd 5e48 12be df4e 14bf
00000150: f3cd e2bc d4bc 0440 0cb0 15c0 c969 cac0
00000160: 579a e2bd 91f3 ebbf d426 3cbe 72b2 263e
00000170: b9dc a83f 8b5c febe f58f 833f 3f1f 5ebf
00000180: 4ef2 63bf d812 bcbf 2d37 9b3f 5838 80bf
00000190: ea70 b63f 123a 593f 2758 a73d 762c f53e
000001a0: 275d e0bd b55b d8bf f0ea e2bf 57fe d5be
000001b0: a89a cc3e 0cb5 36bd 07c5 95be f393 06bf
000001c0: 59ce 2f3f 805b eabf ec31 c2bf c700 eb3d
000001d0: 5c8d 393e 85ac b73e c142 bebe 8f59 d83f
000001e0: fdf5 243f 3002 2740 2870 453f ded6 9c3f
000001f0: 910a e73e 55d1 fc3f dd63 c03e 0873 12be
-0.33400676 -0.48907548 -1.436415 -2.3593392 0.16753939 -2.155749 -1.909654 -0.25999302
1.054382 0.2633399 -0.45933625 1.1393174 0.33752888 1.5803703 0.2006212 -1.5761559
-0.5421607 -0.09131912 -2.3395338 0.48275068 1.5930785 0.3114652 0.4865654 -1.1514156
0.56279784 -0.60060567 -0.08203092 -0.57713044 -0.46333387 -1.828744 -2.068259 -0.5859164
-0.24347073 -2.6806753 -0.10332669 0.936946 -0.519405 0.019568823 1.14981 3.3483276
-0.7210955 1.4468795 1.4441991 3.3613257 1.7194095 1.4720122 2.354081 3.0345361
2.165311 1.9033811 3.836532 -0.12792103 2.36885 2.7482252 1.204479 2.140907
0.90267044 1.4573864 1.1725494 0.8173992 2.4053137 0.68116295 -0.539777 0.2545737
-0.08804211 0.2548696 0.021881042 0.14050357 -1.8726742 -0.40547985 -1.1009266 0.05807111
0.59895337 0.7868675 0.15104215 -2.85762 -1.5398772 0.5843765 -0.8269424 0.5289916
-1.52469 -0.119681284 -0.14285418 -0.5793285 -0.027686095 2.0740252 -2.33887 -6.325413
-0.11064594 -1.8433706 -0.18374187 0.16279009 1.3192359 -0.4967998 1.0278307 -0.8676643
-0.890416 -1.4693251 1.2126213 -1.0017195 1.4253209 0.84854233 0.081711106 0.47885484
-0.109552674 -1.6902987 -1.7727947 -0.41795608 0.39961743 -0.044606254 -0.29251882 -0.525695
0.68674237 -1.8309174 -1.5171485 0.11474758 0.1812033 0.3587381 -0.37160304 1.6902331
0.6443785 2.6095085 0.7712426 1.2253072 0.4512525 1.9751383 0.3757619 -0.14301693
