Saved Models/Rosslyn_ULA_DFT_16_beam_probing_codebook_128_beam_classifier_noiseless.pt (torch, 35999 bytes, 6 tensors)

dense1.weight f4 [32, 16]
000000 41 57 04 3f 67 0d b0 c0 19 b2 51 3f ec d9 db be
       0.5169564 -5.501636 0.8191238 -0.429397
000010 92 ec 25 be 67 2e 95 bd 21 ec a1 bd e6 0a 0a bd
       -0.16203526 -0.07284241 -0.07906366 -0.0337018
000020 e0 ae c3 3e c8 0b af 3e d6 c6 25 c1 20 e0 ac 3f
       0.38219357 0.34188676 -10.361044 1.3505898
000030 ab a1 a9 c1 1d 22 d8 3e 9e a4 cc bf c0 c1 98 bc
       -21.20394 0.42213526 -1.5987737 -0.018647075
000040 da a6 32 c1 bf a3 42 c1 41 94 c9 3e c6 e9 48 3f
       -11.165735 -12.164977 0.3937092 0.7848171
000050 e4 51 af be 6e 1e 39 be 0c e4 c3 3e c0 3a 08 3f
       -0.34242165 -0.18078014 0.38259923 0.53214645
000060 20 1a d9 be 89 67 40 3f 16 09 4a 3f 01 0e 80 c1
       -0.42402744 0.7515798 0.78920114 -16.006838
000070 d8 36 c0 be 22 9c 20 3e 82 86 66 3e f8 4c 53 3f
       -0.37541842 0.1568456 0.22512248 0.8253932
000080 f2 52 92 bd 02 d1 17 3f f3 85 2e 3e ec 54 af 3f
       -0.07144727 0.59303296 0.17043285 1.3697791
000090 81 fb f1 c0 63 85 83 c0 e2 01 e5 3d 3c 33 8f 3e
       -7.561951 -4.1100326 0.11182 0.27968776
0000a0 cd af 82 3f ec f1 95 bf 65 68 90 3f 4c 65 0c c1
       1.02099 -1.1714454 1.1281859 -8.774731
0000b0 d6 82 f5 3e 0a 5a 75 c1 2a 4d 5d c0 22 77 a0 3e
       0.47951382 -15.334482 -3.4578347 0.3134089
0000c0 a1 89 8b c1 bb d3 0b 3e 43 a8 03 c0 0b c3 1c 3f
       -17.442202 0.13654988 -2.0571449 0.6123511
0000d0 3f 8d 3f bf 1a ca 58 bd 55 67 8b 3e cc 36 d2 3e
       -0.748249 -0.052927114 0.27227274 0.41057432
0000e0 55 7e 11 c0 94 11 db bc f4 44 1e c0 58 a6 40 3f
       -2.2733357 -0.02674178 -2.4729586 0.7525382
0000f0 82 1c 32 3f 37 6a 0e 3f 47 4a 27 3f 69 17 a7 3e
       0.6957475 0.5563082 0.65347713 0.32635048
000100 d4 dc ba be b0 e7 c9 3d b8 3c 74 c0 70 b0 7d c0
       -0.36496603 0.09858644 -3.816206 -3.963894
000110 70 c4 9e 3e 87 84 06 be 63 c7 21 3f b6 6e 09 3e
       0.31009245 -0.13136493 0.63194865 0.13421139
000120 dc df 53 3f dc fd 8e 3e 00 04 93 3e 00 9f 56 3e
       0.8276346 0.27928054 0.2871399 0.20959091
000130 29 86 7c 3e 74 15 43 c0 5f ca b4 bf bd f0 a8 3f
       0.24660553 -3.0481844 -1.4124259 1.3198467
000140 b8 c0 40 3f f3 de 56 bd 87 13 09 3e d3 f8 cc 3d
       0.75294065 -0.052458715 0.13386355 0.10008397
000150 d5 9b 4a 3e ee ac 6e 3e f0 ba 45 c1 8c 0a 52 c1
       0.19786008 0.23308155 -12.358139 -13.127575
000160 a1 a8 53 c1 85 5d c0 bd ad 01 f3 3d 05 49 eb c1
       -13.228669 -0.093928374 0.11865554 -29.410654
000170 f7 c2 ca 3e 89 62 f0 c0 2c 48 3f 3f 1f 04 25 3f
       0.3960187 -7.512028 0.747195 0.64459413
000180 75 1f 54 be 20 b2 c1 be f5 1b 37 3f 4f 6f 2b be
       -0.20715125 -0.3783121 0.71527034 -0.1674168
000190 de e3 49 3f 11 e9 1f 3d 04 46 71 3e e2 b6 52 bf
       0.7886332 0.03904063 0.23561865 -0.8231031
0001a0 71 af 47 3f da fe 40 c0 1f e1 02 3e e7 cc 0d 3f
       0.7800208 -3.015555 0.1278119 0.5539078
0001b0 cb a2 8b c0 54 3a b6 be b7 d0 8f 3f 6a 9b 7e 3f
       -4.363622 -0.35591376 1.123557 0.99455893
0001c0 4e 26 b1 c0 02 f9 78 3e fe 04 81 c0 bc 5b d1 bd
       -5.535926 0.24313739 -4.0318594 -0.10222575
0001d0 8a cf 92 3e 38 df be 3e 73 4e fd bc 67 de 0d be
       0.28673965 0.37279677 -0.030921197 -0.13854371
0001e0 5b 3f 26 be b4 a8 87 3f 1b 6b 1f 3f 08 a3 a9 c1
       -0.16235106 1.0598359 0.62272805 -21.204605
0001f0 d0 2d 11 40 bf 2b 2b c0 f6 e0 65 3f 7a 61 4e be
       2.2684212 -2.674545 0.8979639 -0.20154372
000200 7a af 55 3f 24 d2 bc 3e 91 13 5f c1 d3 dd 04 3f
       0.8347088 0.36879075 -13.942277 0.51900977
000210 27 09 3d 3e 24 93 02 c1 50 61 35 3f 80 19 cc 3e
       0.18460523 -8.160923 0.7085161 0.39863205
000220 10 7a ca c0 6f d3 51 3f 4d 83 0f bf 19 fa 17 3f
       -6.3274 0.8196325 -0.56059724 0.59365994
000230 ac ba 87 c1 a0 37 5f c1 a8 3d ad 3e f9 74 67 3e
       -16.966148 -13.95108 0.33836102 0.22603215
000240 53 da 4b 3f 0a e3 db 3e 66 5c 53 be d4 60 29 be
       0.7963001 0.42946655 -0.20640716 -0.16540843
000250 e2 3d 7d 3e c9 cd 44 3f 94 36 66 3f af db 71 c0
       0.24730638 0.76876503 0.8992703 -3.7790334
000260 06 fd dd bf a8 0c 7c be f2 2d a9 bf ff 40 02 c0
       -1.7342842 -0.24614203 -1.3217146 -2.035217
000270 c2 b0 9d 3f 9d a6 46 c0 ab 40 ce bf fb 97 a0 3d
       1.2319567 -3.1039193 -1.6113485 0.07841488
000280 e4 34 b0 c1 3a e1 85 bd 72 fe d4 c1 59 ef 88 c0
       -22.025826 -0.06537099 -26.62424 -4.2792172
000290 29 13 5e c0 00 e2 0a c0 aa 36 25 3f 4f dd 64 c1
       -3.4699194 -2.170044 0.64536536 -14.30403
0002a0 10 50 4f 3f 33 09 07 3f dd 56 dd c0 21 1c 39 3f
       0.8098154 0.5274841 -6.9168534 0.72308546
0002b0 3c fe 03 3f 01 d5 d9 3e 51 50 19 3e b7 25 1e 3f
       0.51559806 0.42545322 0.14972045 0.617763
0002c0 78 bd f8 3c 12 8f 65 3e 66 43 37 c1 d1 1a a1 3e
       0.030363783 0.22417858 -11.453955 0.31465772
0002d0 5b de ec 3d 51 dd 91 3e 2e bb 97 3e 7f e3 a7 bd
       0.115658484 0.28489164 0.29634994 -0.08197688
0002e0 e0 38 4e 3f 58 76 f1 c0 56 40 cd 3d e4 aa 67 3e
       0.80555534 -7.5456963 0.10022037 0.22623783
0002f0 82 04 48 c1 3d 33 80 3f 0c ba b2 3c d2 7e 21 c0
       -12.501101 1.0015637 0.02181723 -2.5233655
000300 ac b3 cd c0 e9 50 a9 3e 08 c6 42 3e 35 f2 5f 3e
       -6.4281826 0.33069542 0.19020855 0.21869738
000310 0e b5 f6 c0 3c 31 35 3f 2f d7 ab 3d 59 23 4f be
       -7.7096014 0.7077825 0.083906524 -0.20228328
000320 a2 6a 17 3f 59 19 d4 3d 2c b5 39 c1 36 c7 52 3e
       0.59147084 0.10356397 -11.606731 0.20583805
000330 a6 2b 1e 40 94 ad 73 3f ef 1c 47 c1 bf ea 23 3e
       2.471414 0.95186734 -12.444564 0.16007517
000340 e3 da b4 c1 02 ad b8 3e dd 51 3c 3f 17 55 02 3f
       -22.606878 0.36069494 0.73562413 0.50911087
000350 72 8e 87 3e 20 d8 ec 3d 0d 2d ed be d6 18 cf 3e
       0.26475865 0.1156466 -0.46323434 0.40448636
000360 8a 10 e3 3d 5d 57 36 c1 60 96 a3 3e f8 f5 da c0
       0.11087139 -11.396329 0.31950665 -6.8425255
000370 f8 0d df bd bd 47 38 3f aa 8a 93 3f 8c e3 bd c0
       -0.10891336 0.71984464 1.1526692 -5.9340267
000380 39 00 5f 3f b4 52 4a be 71 d1 5c 3e 93 33 1f c1
       0.87109715 -0.19758111 0.2156427 -9.950091
000390 6c c0 81 3e 42 96 9d 3d e2 9c 50 3e cd 85 9a 3f
       0.2534212 0.07694675 0.20372346 1.2072083
0003a0 52 1c 7c bf 35 1f 19 c0 a7 97 9b 3f e7 ad e9 3f
       -0.98480713 -2.3925297 1.2155656 1.8256196
0003b0 f5 ab c9 c0 0c 79 fb c0 47 05 a2 3d 75 2e cc be
       -6.302241 -7.858526 0.07911163 -0.39879194
0003c0 c9 b1 2e bd 56 17 cf 3e d3 0c 8c c0 54 6d cf 3e
       -0.042650018 0.4044749 -4.3765655 0.40513098
0003d0 44 18 e6 3d 47 91 27 3e 51 34 1c bf 65 5a 0f 3f
       0.11235097 0.16364013 -0.6101733 0.55997306
0003e0 c8 c8 3b c1 a3 5b a2 3e 8f c8 88 bf 4c 07 d6 3e
       -11.736519 0.31710538 -1.0686206 0.41802442
0003f0 0e d6 b6 c0 23 a6 f5 be dc 62 04 3f f6 28 d7 bd
       -5.7136297 -0.47978315 0.5171335 -0.105058596

dense1.bias f4 [32]
000000 c8 2f 6b 3e f3 ff 4e 3e 09 0b 01 3e 8e f2 d7 3e
       0.22967446 0.20214824 0.12601866 0.42177242
000010 b5 ac b5 3e 68 73 56 3e 7b f4 17 3f c1 33 59 3e
       0.35483328 0.20942461 0.5935742 0.21211149
000020 7a 01 f5 3d 0e c0 31 3f a5 40 e4 3d 7e 5c c5 3e
       0.11963172 0.6943368 0.111451425 0.38547128
000030 7e 99 b7 3d 5c 93 0e 3e 4c 75 b1 3e 52 ab 05 3f
       0.08964823 0.139234 0.34659803 0.5221454
000040 ff 15 11 3f be 5b dd 3e 36 8b 0f 3e f3 6d 8d 3e
       0.5667419 0.43234056 0.14017949 0.27622947
000050 6a 40 a9 3e bd 34 18 3e 27 9f eb 3e 86 31 05 3f
       0.33056957 0.14863868 0.4601986 0.5202869
000060 f4 39 61 3e 9c 29 1c 3e 7c 28 b8 3e 11 a0 94 3e
       0.21994764 0.15250248 0.35968387 0.2902837
000070 68 16 27 3f c8 64 4f 3e 16 8a 8a 3e d1 f8 33 3f
       0.65268564 0.20253289 0.27058476 0.7030154

dense2.weight f4 [48, 32]
000000 b7 fe 0f bf f1 e3 d2 bf c2 9d 1c 40 ff 22 30 be
       -0.5624804 -1.6475812 2.4471288 -0.1720085
000010 29 c2 07 40 86 43 3f c0 50 ae cf be 8b d2 54 bf
       2.1212256 -2.9884963 -0.40562677 -0.83133763
000020 d5 52 2f bf 29 bb f3 3f 61 a0 10 c0 83 d6 ac bf
       -0.68485767 1.9041492 -2.2597888 -1.3502964
000030 b8 8b 8a be 16 f4 15 c0 5c f9 46 3f cb 1e c4 be
       -0.27059722 -2.3430228 0.7772424 -0.38304743
000040 ba c3 d4 3e 93 a0 a0 3e 72 62 51 3e 68 d8 b1 3f
       0.41555578 0.31372508 0.2044771 1.3894167
000050 73 8a 04 c0 3a 45 76 c0 f4 a3 d5 3e 9a 23 41 bf
       -2.0709503 -3.8479753 0.4172665 -0.7544495
000060 6e 66 c4 bf e2 cf bd bf 2a 1b 68 bf a3 63 80 bf
       -1.5343759 -1.4829066 -0.9066645 -1.0030407
000070 ec d8 a9 3b 6a 6f f3 be 77 d2 cb bf 0f df 41 3f
       0.00518333 -0.4754594 -1.5923604 0.75730985
000080 78 30 0e c0 6f 92 d4 bf df 69 f3 be 47 e5 11 be
       -2.2217083 -1.6607188 -0.4754171 -0.14247619
000090 51 d8 4b bf ed f0 7f bf 11 f6 24 3e e9 ed 83 c0
       -0.7962695 -0.99977 0.16109492 -4.122792
0000a0 9d 7d 38 c0 50 81 30 3f 5a 53 3e bf e5 ef 8d be
       -2.8826668 0.68947315 -0.74345934 -0.27722088
0000b0 df 23 a5 bf d5 5b 5c bf 1b 24 0d be af e7 3c be
       -1.2901572 -0.86077625 -0.13783304 -0.18447755
0000c0 99 fd 31 3f 92 50 90 3f 38 c8 5c bf 0d 02 f9 3f
       0.69527584 1.1274588 -0.8624301 1.9453751
0000d0 1d cc 2f be 36 23 d2 bf f2 e9 88 3e 9e 11 9b 3e
       -0.17167707 -1.6416996 0.26740986 0.30286878
0000e0 cf dc 05 bf 63 0a 1d 40 36 2d 5a bf 95 74 57 bf
       -0.5229005 2.453759 -0.85225236 -0.84162265
0000f0 51 fb 96 be 06 06 e2 3f d9 89 16 3f e0 5f 9f 3e
       -0.29488614 1.7658088 0.5880409 0.31127834
000100 8a b7 87 bf 9f 4f 37 bf 8d 41 83 bf 92 1a a7 3f
       -1.0602887 -0.7160587 -1.025438 1.3054984
000110 26 8f 8a bf 2f 61 47 c0 db 1d d8 bc 05 54 90 bf
       -1.0824935 -3.1153066 -0.026381424 -1.1275641
000120 46 0c 34 c0 c9 47 bb be 4e 0c 3b 40 ed a2 25 bd
       -2.813249 -0.36578205 2.922626 -0.04043858
000130 23 9d 56 bf 4c 9b 65 bf 36 b2 16 bf e2 9c 8a 3f
       -0.8383352 -0.8969009 -0.5886568 1.0829127
000140 4c 91 6e 3f c0 c8 c4 bf 4a 83 5a bc 2a b4 e8 3f
       0.93190455 -1.5373764 -0.013336966 1.8179982
000150 4c bd f6 bf 79 68 11 3d 9e 73 05 c0 09 e2 c1 3f
       -1.9276519 0.035500024 -2.0851817 1.5147105
000160 70 70 f4 bf 62 46 96 bc fb b8 ba 3f 51 67 ed 3e
       -1.9096813 -0.018344108 1.4587702 0.46367887
000170 db 4a 07 bf 88 bd 9e 3e 93 f4 06 bf 39 ea b8 3f
       -0.52848595 0.31003976 -0.5271694 1.4446479
000180 b1 f4 1d bf 51 aa e7 3e 6a e0 46 bf fa 96 0c 40
       -0.61701494 0.4524713 -0.7768618 2.1967149
000190 ef e4 c4 3d 9a 21 97 3f fb 29 c5 bf cb 35 99 bf
       0.09613978 1.1807129 -1.5403436 -1.1969541
0001a0 1f 1d a9 3f af 82 cb 3e 4e 89 6e 3f 75 92 98 3f
       1.3212012 0.3974814 0.9317826 1.1919695
0001b0 58 8e 03 3e df 4d ce be dd a5 c4 bf b5 49 45 3f
       0.12847269 -0.40293786 -1.5363117 0.77065593
0001c0 0f 70 be 3d a1 8c 33 bd ff 71 2c bf fa 2b 40 c0
       0.09298717 -0.043835286 -0.67361444 -3.002684
0001d0 72 b5 d6 3f 96 30 1e c0 d8 75 11 be d0 f0 d6 be
       1.6774123 -2.4717155 -0.1420511 -0.419806
0001e0 a7 7d ff 3d cf ea 05 c0 a7 3d 04 3e 5b 19 8f 3e
       0.12475138 -2.0924566 0.12914144 0.27949032
0001f0 45 6b 98 3f df a2 89 bf ff 0a 0f 3f 22 02 74 be
       1.1907736 -1.0752829 0.55876154 -0.23828939
000200 b7 30 61 bf a0 55 c1 bf de 31 2b bf 49 8d e1 3e
       -0.8796496 -1.5104256 -0.66872966 0.44053105
000210 df c6 c7 bf 78 c4 2a 3e 32 da 56 3f 3d 20 e5 bf
       -1.5607566 0.1667651 0.8392669 -1.7900463
000220 61 43 fa be e7 89 29 bf dc e3 de be 6e 54 d3 3f
       -0.4887953 -0.6622605 -0.43533218 1.6510141
000230 13 ce 00 c0 35 7d 8e be ee 3a 19 c0 6f 9b b8 3e
       -2.0125778 -0.278299 -2.3942218 0.36056086
000240 32 33 8b 3e f0 ab bc 3e 97 98 64 c0 e0 b7 48 3e
       0.27187496 0.36849928 -3.5718133 0.19601393
000250 94 c9 e3 3e bb e0 77 c0 02 ee 5f 3f 2f 41 26 c0
       0.4448973 -3.8730915 0.87472546 -2.5977285
000260 61 fb 54 3e e0 63 b4 3f 1b f4 76 3f 25 dd 2b 3f
       0.20799018 1.409298 0.96466225 0.67134315
000270 f4 11 89 bd ed 50 46 3f de e4 2a bc 0b 71 85 3f
       -0.066928774 0.7746723 -0.010430543 1.0425123
000280 1f 5f e9 be 63 0e 93 be 73 4a 53 be b1 1d 9b be
       -0.45580384 -0.28721914 -0.20633869 -0.3029609
000290 d5 68 f4 3e 5b 34 aa be 0f 4d 4f bf 76 29 eb bf
       0.4773623 -0.3324307 -0.8097696 -1.8372028
0002a0 03 06 ae 3d 70 96 b1 be 09 20 f1 be 3e 1d c4 3e
       0.084972404 -0.34685087 -0.47094753 0.3830356
0002b0 80 88 79 bf fe 9a 4e c0 20 22 16 be 96 0f 6b 3f
       -0.9747391 -3.22821 -0.14661455 0.9182066
0002c0 b5 d6 cc 3f 95 28 25 3f 39 a6 26 bf 4f 76 e1 3f
       1.6003023 0.6451505 -0.65097386 1.761423
0002d0 5b d1 ed 3f 12 31 9d c0 5a ca ae 3f 51 c9 e4 be
       1.8579515 -4.91224 1.3655503 -0.44684842
0002e0 94 c7 3c be ef bf ba bf 3e e1 76 bf 41 f9 46 c0
       -0.18435508 -1.4589823 -0.9643744 -3.1089633
0002f0 75 bf 2f 3f 83 8d de 3f 35 d3 30 c0 72 c6 71 bd
       0.68651515 1.7386936 -2.762891 -0.059027143
000300 0b 17 e9 be 95 9f a6 be 0f a0 5b be c3 e6 7d be
       -0.45525393 -0.32543626 -0.21447776 -0.2479506
000310 56 46 35 3d 02 1c 16 be 3b c8 ef 3c 53 00 ad be
       0.04425653 -0.14659122 0.029270282 -0.3378931
000320 da fd 1e 3e a2 4b 2f bd 3c c8 60 bd a3 c0 a7 be
       0.15526524 -0.04279674 -0.05487846 -0.32764158
000330 20 87 47 be 38 48 97 bd 4c b1 c0 bd 01 7c 64 be
       -0.1948514 -0.073868215 -0.09408817 -0.22312929
000340 d1 a8 ab be a1 56 67 be 9e 20 c4 be 7c 7d cb be
       -0.33527234 -0.2259164 -0.38306135 -0.39744174
000350 e5 c1 8f be 93 d9 8d be 46 80 bf bd 36 6d da be
       -0.28077617 -0.27705058 -0.09350638 -0.42661446
000360 5a ac 43 be 78 ef aa 3c b1 54 3c bd 7b c1 ae be
       -0.19108716 0.02086614 -0.045979206 -0.3413199
000370 68 dd b7 be 89 21 01 bf 50 40 f4 bd 70 a7 ab be
       -0.35911107 -0.50441796 -0.11926329 -0.33526182
000380 95 cd eb be d7 64 78 3e 36 0b 94 bf cc 59 43 3f
       -0.46055284 0.24257217 -1.1565921 0.76308894
000390 9c 27 d7 bd 9c b7 08 40 30 50 85 3e 42 e7 82 c0
       -0.10505602 2.1362066 0.2603774 -4.0907297
0003a0 fa c5 8f 3f 7a 8a 19 bf b1 93 38 be 73 c3 03 c0
       1.1232293 -0.59976923 -0.1802509 -2.0588043
0003b0 f9 b1 3d bf 4c 7f 03 bf 13 ba 8b be 97 84 b7 3f
       -0.7409969 -0.51366115 -0.272904 1.4337338
0003c0 4d 34 c4 3f 22 99 1f 3f 79 f2 a9 3f 82 f7 02 40
       1.5328461 0.6234304 1.3277122 2.0463567
0003d0 63 c8 3f bf bc 06 c3 be 06 2b 28 bf a2 4c b9 3e
       -0.7491514 -0.38091075 -0.6569065 0.3619128
0003e0 5c c5 18 c0 f0 a9 96 bf 91 8a 39 bf 65 8f f2 be
       -2.3870459 -1.1770611 -0.7247706 -0.47375026
0003f0 fa 39 44 bf 8f 75 4d bf b3 2c 4d bf 40 0c d0 3e
       -0.76650965 -0.80257505 -0.8014633 0.40634346

dense2.bias f4 [48]
000000 88 c0 a4 3f 68 f2 92 3f 2e 37 45 3f 9f 75 fd bd
       1.2871256 1.1480227 0.7703732 -0.1237595
000010 9f 61 ed 3f ad e8 71 3f c7 db ad be e0 54 4f 3f
       1.8545417 0.9449566 -0.3395674 0.80988884
000020 5a d3 c8 3f d1 8f ba 3d 54 df 84 3f b0 86 b0 3e
       1.5689499 0.09109462 1.0380654 0.34477758
000030 20 99 00 3e 61 e8 7f 3f 58 9a cf 3e c5 7d c0 3f
       0.12558413 0.9996396 0.40547442 1.5038382
000040 30 17 f0 3f 80 5e f3 3f 04 6d b9 be 21 82 f6 3e
       1.8757076 1.9013214 -0.36215985 0.48146155
000050 c9 4e bc 3f c0 1a 65 3f 1e 74 c0 3d ec 4b 5b 3f
       1.4711543 0.8949394 0.093971476 0.8566272
000060 68 25 b2 3e 06 0b a0 3f 4a bc d2 3f fd 3a 03 3c
       0.34794164 1.2503364 1.6463711 0.008009669
000070 fb 50 81 3f e0 69 29 3f 3e b5 6b 3f bc 41 63 3e
       1.0102838 0.6617718 0.9207343 0.22193044
000080 94 67 1e 3c 90 90 8e 3f b3 cb 67 3f 66 4c f6 3e
       0.00966825 1.1137867 0.90545195 0.48105162
000090 1b 0b b6 3f c6 9a a4 3d c5 96 c9 3f 37 a0 15 bb
       1.4222139 0.08037333 1.5749136 -0.0022831091
0000a0 51 22 ca 3e b1 b4 67 3c 7d 3f a4 3f 80 76 32 3f
       0.39479306 0.014142201 1.2831875 0.69712067
0000b0 5a 83 db be 47 2d cd 3f be 80 b7 3f 0f 7d 33 3e
       -0.4287365 1.6029443 1.4336164 0.17528175

dense3.weight f4 [128, 48]
000000 16 09 2c c0 92 39 35 c0 e3 c1 7f bf cb a0 19 bf
       -2.6880546 -2.8316388 -0.9990522 -0.60010976
000010 46 ae ba bf 0f 7a 9b c0 1f ba 1e bd db b0 65 c0
       -1.4584434 -4.8586497 -0.038751718 -3.5889194
000020 e9 ec 54 bf 2f b2 4d bf d1 2c d7 be d9 dd 31 c0
       -0.83173996 -0.8035001 -0.4202638 -2.7791655
000030 23 71 f7 be 17 87 b7 c0 3d e2 70 bf b7 e5 55 bf
       -0.48328504 -5.7352405 -0.9409521 -0.8355364
000040 89 b1 b1 be 1a f9 1e c0 7b 38 1a be 76 ad 3b c0
       -0.3470576 -2.483954 -0.15060608 -2.9324622
000050 b3 dc 99 c0 ae b8 56 c0 03 c1 dc be 6e 1f 05 bf
       -4.808191 -3.355022 -0.43116006 -0.5200108
000060 54 e1 ac bf ca 82 88 bf a5 87 7e bf 63 ba e3 bf
       -1.3506265 -1.0664914 -0.9942573 -1.7791256
000070 7b 59 65 bf 7b f4 7f bf c9 21 1a bf 9e b9 84 bf
       -0.8958966 -0.9998242 -0.602078 -1.0369146
000080 88 d1 4f bf db 69 e4 bf d0 d6 b0 be 3a 6f 9c bf
       -0.81179094 -1.7844805 -0.3453889 -1.2221444
000090 34 11 ee be ed a1 a3 be e2 7d c9 c0 2b 3d 66 bf
       -0.464975 -0.31959477 -6.2966166 -0.89937085
0000a0 88 28 92 bf 85 45 a6 be 84 b1 c3 be dc 0f 10 bf
       -1.1418619 -0.32474914 -0.3822137 -0.562742
0000b0 3a 8c df bf 69 30 2b bf ba 91 04 bf d4 3a 98 c0
       -1.7464669 -0.66870743 -0.5178486 -4.757181
0000c0 b0 c7 a6 3f a8 e8 55 c0 8b ce 6a c0 04 90 e0 3e
       1.302969 -3.3423252 -3.6688564 0.43859875
0000d0 55 28 ac 3d d1 74 bf be 02 c1 b1 bd b6 d2 c9 c0
       0.0840613 -0.3739381 -0.086793914 -6.3069715
0000e0 dd 6a 05 3e 57 01 2c 3f c7 cd 93 bf 17 dc 5b bf
       0.13029046 0.67189544 -1.1547173 -0.85882705
0000f0 c2 98 0a c1 44 76 4f c0 ab a0 c5 be 97 67 bc bf
       -8.662294 -3.2415934 -0.38599142 -1.4719113
000100 a9 be 3b 3f 8a 30 33 3b bc 9e 09 be 25 05 55 3e
       0.733378 0.0027342164 -0.13439459 0.20802744
000110 e5 2f 63 c0 fd bb fb c0 fe 57 d9 3e 0d 99 d2 bf
       -3.5497983 -7.866698 0.42449945 -1.6452957
000120 d0 8a 2e 3f 46 1d 85 c0 e7 cd f1 3e 66 44 36 bf
       0.6818056 -4.1598234 0.47227404 -0.7119812
000130 d8 ed 5f c0 1a ee a3 bf 35 c6 cb bd 54 f0 26 3d
       -3.4988918 -1.2807038 -0.09949914 0.04075654
000140 c9 34 36 bf 71 d0 07 3f 0e 1c 3e 3f e5 b3 14 bf
       -0.71174294 0.5305243 0.7426156 -0.58087
000150 09 d5 ab bd 4e 96 34 3e 0d 86 d4 3e 55 c4 2b c1
       -0.083902426 0.17635462 0.41508523 -10.735433
000160 12 23 c5 3e 38 a4 47 40 d5 2f 9e bd a1 3a 97 3f
       0.3850332 3.119398 -0.07723967 1.1814767
000170 06 08 63 bb 24 b4 01 3f a9 a0 1e c0 ec 56 29 c0
       -0.0034642234 0.506655 -2.478556 -2.6459303
000180 d1 0b 57 3d 81 0c 57 c0 a1 f6 aa 3f e8 f7 79 3f
       0.052501503 -3.3601382 1.3356515 0.976439
000190 3f c3 af 3f 82 60 9f bf 7f 32 13 be e0 7e c3 3d
       1.3731459 -1.2451327 -0.14374731 0.09545684
0001a0 3a 30 bd 3d 03 e0 01 3f 0d ff 4e 3f f0 8f 89 bf
       0.09237714 0.5073244 0.80857927 -1.0747051
0001b0 bb 9d 1a 3e 3e c9 4e c0 d6 83 96 bf a8 03 32 3f
       0.15099232 -3.2310328 -1.1758983 0.6953683
0001c0 13 ee 95 bf d6 5e d0 be 31 60 8c ba 6f 86 40 3f
       -1.171328 -0.40697354 -0.001070982 0.7520513
0001d0 5e ae a2 c0 93 87 5d bf 20 0e 32 3e 4f f7 26 c0
       -5.083785 -0.86534995 0.17388201 -2.6088445
0001e0 6d 09 14 be d7 01 1b c0 e1 0c b2 be b8 41 e1 be
       -0.1445672 -2.4219873 -0.3477545 -0.43995452
0001f0 ce 08 8c c0 90 28 81 bd f1 c7 54 3f 11 4e c1 bb
       -4.376075 -0.06306565 0.83117586 -0.005899199
000200 9d fb 0b bf 83 f3 b8 3e 75 94 cf 3e 8a d0 51 bf
       -0.54680806 0.36123285 0.4054295 -0.8195883
000210 81 c4 6e 3f 4a c3 af 3f 2a b3 bc 3d 3e d5 a6 bf
       0.9326859 1.3731472 0.0921386 -1.3033826
000220 24 a4 82 bd 80 9e 8f 3f 11 25 14 bd ce 56 8d 3f
       -0.063789636 1.1220245 -0.03616816 1.1042116
000230 3c e0 a0 be 7e f2 8b 3f 39 a9 bb c0 44 48 85 c0
       -0.31421077 1.0933378 -5.864407 -4.1650715
000240 3a fa f7 c0 72 da 19 c1 59 4c 88 bf 22 29 dc 3e
       -7.749295 -9.615831 -1.06483 0.43000132
000250 77 eb 07 c1 fd 14 5d bf e0 bd 24 be fe 07 b2 bd
       -8.494987 -0.8636015 -0.16088057 -0.08692931
000260 bc 3f 82 c0 06 43 64 3e d7 25 c2 3f 01 05 5c bd
       -4.07028 0.22291192 1.5167798 -0.05371571
000270 96 69 8b c0 bb 63 64 c0 ab f6 d3 3d 87 12 f2 bf
       -4.356639 -3.568587 0.103497826 -1.8911904
000280 02 43 b3 be 03 85 2f c0 d1 75 34 bd 8a 79 43 bd
       -0.3501206 -2.7424934 -0.04405767 -0.04772333
000290 99 70 72 c1 19 8a 0d c0 5c 60 5a bf 67 5b 0c c0
       -15.15249 -2.2115538 -0.8530328 -2.1930788
0002a0 a6 46 0c 3d 97 86 06 c1 1c 12 1d bf 55 f9 2a 3f
       0.034247063 -8.407859 -0.6135576 0.667867
0002b0 1d 87 c4 c0 a6 d0 a1 bb 97 64 24 40 8b 81 8d 3e
       -6.1414933 -0.004938203 2.5686395 0.27637896
0002c0 16 52 86 bd d6 5c 96 bd 3e 0d 8a bf 12 17 25 3e
       -0.065586254 -0.07341926 -1.0785291 0.16122082
0002d0 a6 a3 6b 3f 7a 69 8c 3c d4 8f 41 3d 17 35 0b c1
       0.9204658 0.017140139 0.047256306 -8.700461
0002e0 e9 e3 ea 3c 1d e7 ed bf 24 e0 6d 3e 98 60 22 be
       0.02867313 -1.8586155 0.23230034 -0.1585716
0002f0 5f 74 0a 3e 88 19 69 bd 67 d6 15 c0 64 bc 18 c1
       0.13520955 -0.056909114 -2.341211 -9.545994
000300 e6 94 a7 c0 a0 dd fc c0 9d 3a 78 bf 8d 78 96 bd
       -5.236926 -7.902054 -0.96964437 -0.07347212
000310 e1 f6 97 c0 74 dd d7 3e 1a 2d 2e be 0d 7a f4 be
       -4.7488866 0.42161143 -0.17009392 -0.47749367
000320 e2 4e a2 c0 b1 e1 c3 3e 7e 73 2e bf 6b e5 40 bc
       -5.0721292 0.38258126 -0.6814498 -0.0117734475
000330 a1 7e 04 c0 80 93 8f be fa 32 40 3f 4e b4 f7 bd
       -2.0702288 -0.2804222 0.75077784 -0.12094937
000340 56 57 a5 3e 16 22 8b c0 65 f5 39 ba 9a 04 e5 be
       0.32293195 -4.347911 -0.00070937566 -0.44730073
000350 34 ce 2a c1 62 09 0a c0 84 87 70 be f2 c9 e3 bf
       -10.675343 -2.1568227 -0.23489195 -1.7796004
000360 13 6f 8a bd 31 f6 5b c0 4a 55 7a 3f 3f 5a ac bd
       -0.06759467 -3.4369013 0.9778639 -0.084156506
000370 6f 9a 7e c0 de 27 66 3e fc 08 c6 3f ea 44 72 3e
       -3.9781759 0.22476146 1.5471492 0.23659101
000380 d2 05 3d bf e4 56 bf 3e e7 71 50 bf ce ec 0b 3f
       -0.73837006 0.3737098 -0.814238 0.5465821
000390 f8 a7 55 3e 9b d7 29 bf 3f f0 9c be 0b 5d 48 c0
       0.20864856 -0.6634461 -0.30652043 -3.130679
0003a0 78 f4 df bf b5 43 89 bf d2 18 04 3f c0 52 ea 3e
       -1.7496481 -1.0723788 0.5160037 0.45766258
0003b0 7a 31 86 3e 0f e7 a3 be 62 d9 f4 bf 30 90 df c0
       0.26209623 -0.3201222 -1.912884 -6.986351
0003c0 04 ce cd c0 48 a3 b9 bf e5 dc 83 c0 a1 1b 07 c0
       -6.4313984 -1.4502954 -4.1207147 -2.1110613
0003d0 58 97 5d 3f 22 ec 2e bf 38 bd 3f be e9 a9 cb bf
       0.8655906 -0.6832906 -0.18724525 -1.5911227
0003e0 39 e1 8a c0 6e 04 dd 3e 30 3f e6 bb 21 c2 ba 3e
       -4.339993 0.43167442 -0.0070265755 0.36476234
0003f0 51 5f 77 c0 3c 07 1f 3f 73 81 3d 3d 52 0b 20 3f
       -3.8651927 0.62120414 0.04626603 0.62517273

dense3.bias f4 [128]
000000 d5 4d 4b bf a6 79 58 bf 0a ae bd bf f1 e6 96 be
       -0.7941564 -0.8456062 -1.4818738 -0.2947307
000010 03 c9 9d bf 9f d0 c1 3e 7b d3 fa be 53 68 9f be
       -1.2326969 0.37854478 -0.48989472 -0.3113428
000020 37 41 c8 bd 13 9a 2b 3f 5b 42 a4 3e 71 33 ca be
       -0.09778064 0.67031974 0.32081875 -0.39492372
000030 1a ca 10 3d 00 a3 85 3f 07 71 ef 3f cd 1d d5 3e
       0.03534899 1.0440369 1.8706368 0.416243
000040 4d 93 c9 3e d8 03 70 bf 1c 7a 6d be e3 8e 15 3f
       0.39370194 -0.93755865 -0.23191112 0.5842115
000050 16 a4 80 3f a7 73 ab be 7f 41 80 3f 57 8f 6b be
       1.0050075 -0.33486673 1.0019988 -0.23003899
000060 0f e5 03 3c 10 22 25 bf 21 e8 27 be 46 65 98 bf
       0.008050217 -0.645051 -0.16397144 -1.1905906
000070 2f 03 92 bf a4 ab af bd 73 57 b6 3f a3 2b 65 bf
       -1.1407222 -0.0857766 1.4245437 -0.8951971
000080 4a 6b e1 3f 1f 97 7d 3d 36 38 9d bd 5e 38 46 be
       1.7610867 0.0619117 -0.07676737 -0.1935744
000090 73 77 11 bf 4e 8f 86 3e 4b 5e 82 3f 6d 91 06 40
       -0.5682289 0.26281208 1.0185026 2.102626
0000a0 d4 83 82 3f 78 49 6e 3c 99 ce 16 c0 81 91 00 bf
       1.0196481 0.0145438835 -2.3563597 -0.5022202
0000b0 b8 b6 02 3e d7 94 63 bf 46 96 71 3e 77 15 5a bf
       0.12765014 -0.88898987 0.23592481 -0.85189
0000c0 6e 62 1f bf 68 61 93 3f 7d 98 ac 3f ff aa 94 3e
       -0.62259567 1.1514101 1.3484036 0.2903671
0000d0 75 dd 5b be 7e 23 a9 bf af 65 a3 be 87 fb e1 3e
       -0.21471198 -1.3213956 -0.31913516 0.44137213
0000e0 6a 3f bf 3f c1 c5 d3 3f c5 aa 07 40 d3 65 8f bf
       1.4941227 1.6544725 2.119798 -1.1202949
0000f0 4e c7 21 bf a6 2a 9e 3e 9a 4d 3b bf c8 d1 1d bf
       -0.6319474 0.30891913 -0.73165286 -0.61648226
000100 38 de d2 bf 1d c6 8d be b4 6f de be 98 21 cd 3f
       -1.6474066 -0.2769021 -0.43444598 1.6025877
000110 d3 78 9f 3f 65 24 9d 3e 15 02 62 3f 4b a8 ac 3f
       1.2458748 0.3069183 0.88284427 1.3488859
000120 50 25 ac 3f a2 d8 05 3f 77 8f 48 3e ae b1 d5 3e
       1.3448887 0.5228368 0.19585977 0.4173712
000130 3a db ea be 72 86 39 3f ca d9 08 3f cd e7 a7 3f
       -0.45870382 0.7247077 0.5345732 1.3117615
000140 00 58 95 3f 10 8f ab 3f 42 72 fb 3d 76 bf 9d 3e
       1.166748 1.3403034 0.12277652 0.30810136
000150 d7 13 ea 3e 05 dc ed be d0 77 d5 3e a7 88 09 bf
       0.45718262 -0.46456924 0.41692972 -0.5372414
000160 95 24 92 be 0b ee 6f bf 20 14 43 bf f8 aa 02 be
       -0.28543535 -0.937226 -0.76202583 -0.12760532
000170 9b 06 90 be 14 f5 0f bf 35 c3 96 be bf 45 67 bf
       -0.2813004 -0.56233335 -0.29445806 -0.903408
000180 9a 27 da 3d 7e c2 74 3e 35 ae 90 bf b6 d1 33 3e
       0.10652085 0.23902318 -1.1303164 0.17560467
000190 3a f6 b8 be 43 6e cf bf 82 ac 7a bc eb 32 d4 be
       -0.36125356 -1.6205524 -0.015299918 -0.41445097
0001a0 00 0c bb 3d c0 b1 0b 3d 25 7f f2 bd b1 e2 a7 be
       0.09133148 0.034105062 -0.11840657 -0.3279014
0001b0 32 3d 30 bf 23 d3 57 bf 61 79 04 bf f0 0d 29 3f
       -0.68843377 -0.84306544 -0.5174771 0.6603689
0001c0 5d 6e 41 bd 1e 07 03 bf a6 d0 f2 be dc 6d 55 3e
       -0.04722439 -0.51182735 -0.4742481 0.2084269
0001d0 53 fb bf be e9 ce 68 bf 6c dc 2a 3e 8c cd 5c 3e
       -0.37496433 -0.9094072 0.16685647 0.21562785
0001e0 da c8 ab 3f 01 c2 4d 3f 46 46 f5 be 41 6f 0a 3f
       1.342067 0.8037415 -0.47905177 0.5407601
0001f0 cd 0c fb 3e b7 2a a1 3f 52 74 ad 3f 66 5d 3f bf
       0.49033204 1.259116 1.3551123 -0.7475189
