Saved Models/Rosslyn_ULA_trainable_12_beam_probing_codebook_128_beam_classifier.pt (torch, 29543 bytes, 7 tensors)

codebook.theta f4 [64, 12]
00000000: eca2 cf40 3168 3040 bc8a a43f ae1d cd40
00000010: d244 cb3e c719 0640 fe5d 133f 581d b140
00000020: 5da5 3240 a66c 8e40 9edb 183e 7a9a 5fbf
00000030: 41b9 9f40 b613 8040 4b62 8140 15f2 8e40
00000040: 1ef1 b540 22fb 0240 798f 7d40 a57e bf40
00000050: b9a2 9940 750c 1640 b4ac fe3f 0d74 0a40
00000060: 18f4 8840 6987 2e40 3344 343f 06ea 6840
00000070: edc0 9540 9108 5c40 0864 b93f 81f6 8d40
00000080: 3ada f03f 9b55 8540 3c9d a63e ced4 b13f
00000090: 3c6e 0140 3d62 de40 bf3a 7440 5feb de3f
000000a0: 9514 d240 476c f33f 4aff 8740 e3e7 9340
000000b0: 836b c140 cda4 1e40 d351 d1be 79a4 c940
000000c0: 68b1 cf40 dd95 3840 edeb 2940 b267 c840
000000d0: c604 8240 bbce bc40 cde9 413f ffec 93bd
000000e0: 6e6c 7d40 f10e fdbd 1ec7 3abf 6781 1f3d
000000f0: cce1 c9be c704 b640 240a 8b3f 65c0 6b40
00000100: ed9e d740 80a9 7940 92e4 d6be f912 6f3f
00000110: 3280 ab40 ab6c 7a40 851f 8c40 daaf af40
00000120: ba01 9a3f 6ca1 f340 e98b a13f 97b4 b640
00000130: 73b9 8140 4338 3c40 e73a 3540 7e72 3b40
00000140: 1b2c ca3f 9c0e febf ad52 8240 015e d6bf
00000150: 86c3 663e b6f9 5240 ee69 2d40 d799 8140
00000160: 45c5 2940 4505 e53f 9913 d13f ffce 9340
00000170: c31f 9b40 9972 0440 e0ef 0940 8430 0940
00000180: 204d 71bf 20d4 f43e 3869 013f 60d1 f73f
00000190: 5cbb e040 cf7c b13d 3742 bf40 3088 0f40
000001a0: 09a5 e63f feea 0d40 af9b 85be 0068 8040
000001b0: 7911 6340 56ac 3b40 6278 cc3f b2b1 2740
000001c0: f48d b140 bbc7 8240 2b7e 3d40 7b94 f53f
000001d0: 9d0c b040 2b4d 043f e6e4 8640 9003 3940
000001e0: 8680 1040 b82c 3e40 d7ab a1bf 797d f93e
000001f0: d776 4440 91a6 8a40 2924 5b40 8f0c 9940
00000200: 3d63 0840 d225 813f 6d73 8840 d8f9 2440
00000210: 0622 7c3f 11e6 da40 e350 e73f 9942 243e
00000220: 4ba2 b040 3b70 2440 4278 1340 b731 a840
00000230: edc1 c340 9601 cd40 1080 853f 2dce be40
00000240: 45dd 933f e258 c040 f447 ba40 8f1f debe
00000250: dfaa 0740 08c6 1440 3757 df40 bf89 2d40
00000260: c823 4a3f f2c1 7340 f224 a340 5d04 0f40
00000270: f9b8 923f 1304 5b40 55ae d53f 8f7d 4940
00000280: c1a4 823f 56f7 3940 2909 403f ea10 853f
00000290: 2c73 8a40 5839 6a40 fcd3 8140 a358 3e40
000002a0: 5bd6 a13f 2675 8240 9b42 c940 f48e 8b3d
000002b0: b6bc bc40 2306 243f ae10 8e40 8034 d1be
000002c0: 01a8 c940 a75b cf3f 3c8b babe 6eda 5c40
000002d0: f78b 9a40 c362 9a3f 6a41 ac40 cc8b d93f
000002e0: c664 9f3f 54ee 403f 1e47 3b40 533b be40
000002f0: 7047 1fbf b426 0840 0516 2740 a411 7d40
00000300: 4830 243f fe3c 3240 9543 5e40 38ef e040
00000310: 2056 a140 8d49 5940 e250 f63f 5683 a240
00000320: 705f 0dbe 16c6 a63e 0470 7240 4799 3940
00000330: b8b3 0740 49a2 c93f 46e0 373f c9f0 aa40
00000340: e968 72bf 1cb4 b13f dd37 0940 5656 8440
00000350: 6725 7140 78a4 0a40 7938 2e3f 54f1 7240
00000360: 3f8b 833f b50c f43c ad00 a140 7c82 a440
00000370: 8b65 4540 78c1 b740 3d20 2140 ff21 4740
00000380: d4f8 1c3f d316 b040 f670 b43f 2f5f 943f
00000390: d669 9a3f 26c2 7940 b942 fd3e c051 c640
000003a0: 1353 b640 7755 8b40 29fd b040 90ab a140
000003b0: 9e91 80be 73bb a340 bfd7 963f 7ed3 8e3f
000003c0: d5f3 7640 98e3 1740 9fbe 8b40 f561 6940
000003d0: 7dd2 a540 3b01 5140 27d7 9840 5f75 9540
000003e0: f4e0 9840 0903 de3f 37ad 0b3e a5b8 9e40
000003f0: a451 2dbc e5d6 db40 fc7c 9040 a8f9 5140
6.488638 2.7563593 1.2854838 6.409873 0.39700943 2.0953233 0.57565296 5.534832
2.791343 4.4507627 0.14927527 -0.8734509 4.991364 4.002406 4.0432487 4.467051
5.6856833 2.046578 3.9618819 5.9842095 4.8011136 2.3445103 1.9896455 2.1633332
4.2797966 2.7270148 0.70416564 3.6392837 4.6798005 3.4380229 1.4483652 4.436341
1.8816597 4.1667 0.32541835 1.3893068 2.0223532 6.949492 3.8160856 1.741558
6.5650125 1.9017419 4.249913 4.6220565 6.044374 2.4788086 -0.4088274 6.301327
6.490406 2.884147 2.6550248 6.262658 4.0630827 5.9002357 0.75747377 -0.07222938
3.959743 -0.123563655 -0.7296008 0.038941767 -0.39430082 5.688083 1.086247 3.6836178
6.73815 3.9009705 -0.4197126 0.93388325 5.359399 3.9128826 4.3788476 5.4902163
1.2031777 7.613455 1.2620822 5.7095447 4.053888 2.940934 2.83172 2.928863
1.579471 -1.9848208 4.0725923 -1.6747438 0.22535524 3.2964911 2.7095904 4.0500293
2.6526654 1.7892233 1.6334106 4.619018 4.847627 2.0694945 2.1552658 2.1435862
-0.9425831 0.4781809 0.50551176 1.9360771 7.022871 0.086663835 5.976833 2.2426872
1.8019115 2.2174678 -0.2609534 4.0126953 3.5479414 2.9323936 1.5974238 2.6202207
5.5485783 4.086881 2.9608257 1.9185938 5.5015397 0.5168025 4.2154417 2.8908424
2.2578444 2.9714794 -1.2630566 0.4872854 3.0697534 4.332833 3.424082 4.782783
2.131057 1.0089667 4.26409 2.5777493 0.98489416 6.8405843 1.807156 0.1604103
5.519811 2.56935 2.304215 5.2560687 6.1174226 6.4064436 1.0429707 5.962668
1.1551901 6.01085 5.8212833 -0.43383452 2.1198041 2.3245869 6.9793963 2.7115324
0.7896085 3.8087125 5.09826 2.2346413 1.1462699 3.4221237 1.6693827 3.1482885
1.0206529 2.9057212 0.7501398 1.0395787 4.326559 3.65975 4.057127 2.97416
1.2643541 4.0768003 6.2893806 0.068143755 5.898036 0.64071864 4.439536 -0.40860367
6.3017583 1.6199845 -0.36434352 3.450832 4.8295856 1.206139 5.382985 1.6995788
1.2452629 0.7536366 2.9262156 5.9447417 -0.6221838 2.1273623 2.610719 3.9542017
0.6413617 2.7849727 3.4728749 7.0292015 5.0417633 3.3951142 1.9243433 5.078532
-0.13805938 0.32573003 3.788087 2.8999803 2.1203442 1.575265 0.7182659 5.3418927
-0.9469133 1.388309 2.1440346 4.135539 3.7679079 2.1662884 0.6805492 3.7959795
1.027687 0.029791215 5.0313325 5.1409283 3.0843227 5.742367 2.5175927 3.11145
0.6131718 5.502786 1.4096973 1.1591548 1.2063549 3.9024749 0.49464968 6.1974792
5.697641 4.3541827 5.5309033 5.0521927 -0.25111097 5.116632 1.178459 1.1158292
3.8586323 2.3732662 4.367019 3.6466038 5.1819444 3.2657 4.7762637 4.6705775
4.77746 1.7344676 0.13640295 4.9600396 -0.010578547 6.8699822 4.515257 3.2808628

dense1.weight f4 [24, 12]
00000000: 726d 2bbf 7652 75bf 0889 d53f 24fe 5d3f
00000010: 7e30 af3f 2d44 90bf e8d6 773f f60b fcbf
00000020: 0ed8 d73f 28e7 593f 9312 1d3e d261 16be
00000030: 79fa 89bf a589 2840 b99e d93f 8166 873f
00000040: a7e4 8d3e 6156 14bf 88d9 6fc0 c0c2 8c3f
00000050: 2f26 133f 7766 5cbf 7e2b 83bd ff24 ad3f
00000060: 794e bf3f 32f9 983f d02c 7fbf 157e 8b3f
00000070: 4214 183e a923 913f ee5c 82bf ad43 e8bf
00000080: b659 04c0 ec40 0fbf b59e 443f 273b 2040
00000090: 0306 88be d438 0b3f a1a7 473e bb20 a83f
000000a0: 0106 87bf 1a26 123f dc9e 6a3f cc78 e1be
000000b0: 2fd4 fc3f 5deb 723f 9d68 0c3e 6e2c 79c0
000000c0: a5f8 72bf 54ee ac3f 4894 d5bf e192 1cbf
000000d0: 6621 243f 601e 8c3e d682 b53f e909 c83f
000000e0: 06ce 81bf 0b4d 0bbf a660 89bc d197 0040
000000f0: eff6 00bf eb2c 1ac0 5e72 efbd af7e 6e3d
00000100: b118 0a3f 269c 0240 b65b 0abe 4105 a33f
00000110: 4895 ca3f 1157 acbf fd5f 12c0 e0ea ea3f
00000120: aee1 82be 7083 4dbf 07e4 243f 3885 3ebf
00000130: ac0e 3f3f d826 49bf 339f b73f f861 873e
00000140: 7dc6 543f 9a8d 56c0 fc7d ee3f 5b26 21bf
00000150: 019f 6a3f cc35 313e e297 31c0 c41f ad3f
00000160: 295e 0040 7b00 1ebf 2471 013f 5ba9 cb3e
00000170: 668a a93d 4de6 f83f 7d59 6ac0 cdec 2d3f
00000180: 0a21 56bd bcad b43e 1d3d 14bd 2942 a03d
00000190: 9c49 273e 7752 ef3e 0a88 b13f ff33 2340
000001a0: 3c28 86c0 edbb c63f 5e5a 0ac0 df58 73bd
000001b0: 07b2 e23d 4e43 bfbf d3f8 933d 1d78 87c0
000001c0: d689 0a3f 6415 3f3f c3b6 973f 1670 8f3f
000001d0: 9fef 2340 b5fd 3a3f 7f7c 853f 64b6 9f3f
000001e0: 22f8 c0be bb16 63bf 854f 8c3f 23e0 603f
000001f0: e873 7bbe 3ede 14bf 947d 9d3f c254 60be
00000200: 1eb4 ae3f 03ba 4cbf cf89 b4bf 1147 103f
00000210: 3cf9 0d40 3cc4 0ebe 11f2 dfbe 0f37 e0bf
00000220: 0207 3f3f 32cc 0540 ea42 f9bf b88f ccbe
00000230: d137 e93e f174 d53f 9f60 dc3f 3807 0abe
00000240: 1638 1940 9fe9 d5bf 0c53 11c0 fde6 1940
00000250: a88e 763f 4a3c 9e3e 53ee c0bf eb69 1d40
00000260: a485 b03f 144b 80bf eafd 9e3e 41e2 023f
00000270: f3c6 06bf 236d 3740 6430 62bf ecb3 683f
00000280: 6d96 553e f2c4 103f 0a2f 373f 2af5 953f
00000290: 2254 0540 62e0 123f 67cd adbf d6b7 24bf
000002a0: ce86 3e40 17d9 9dbe 9951 8a3f 0f53 c23f
000002b0: a1f8 04c0 c75b 983f 17a1 1040 8015 953d
000002c0: e278 22bf 8c47 d0bf dad3 983f 126a 3f3f
000002d0: d7a4 b33f d68e b33f 1106 d4be d200 01bf
000002e0: d08f 623f 05da 02c0 01dc f43f c5d2 54bf
000002f0: 1f58 dcbf 06b4 e33e a66d 933f cfe4 8abd
00000300: 3796 edbd 5d66 c2bf b2b5 143f a2d3 883f
00000310: 20dc 06c0 2de4 debf 3ff3 77be d02d ac3f
00000320: 0748 c63f f358 bb3f d705 0140 de19 0640
00000330: fec3 9a3e 5e08 473f 4a22 48bf 46d0 0e3f
00000340: affa 2440 a1c2 82bf 8b4f 47bf 7304 53bf
00000350: 2616 823f 0e85 d3be f793 f53f 04cc cbbe
00000360: 4790 97be 091a 86be c2c1 b1be 38ca 8bbd
00000370: e709 a2be 02ad 00be 4dcd 83bd 4a07 66be
00000380: c0dd 65bb d3c9 60be f45c bf3d f498 0f3d
00000390: 8a74 0ebf 4181 ae3f bc3e bebe 0711 83bf
000003a0: fe8c e33f cbba 1440 fa50 2f3f 7ae3 70be
000003b0: f4d0 4f3f 7f0f 8ac0 aab3 cebd efdb 893f
000003c0: f1db c23f 4ddf 193f 7a71 8c3f dce6 7a3e
000003d0: 025c 4cc0 eeff e23c 4877 b33e 48f8 9d3e
000003e0: 6964 803f 812b cf3f f805 14c0 1eb4 18c0
000003f0: 9dd1 1040 0601 873d c66d 763f c22e 6c3f
-0.66963875 -0.9582895 1.6682444 0.8671591 1.3686674 -1.1270806 0.96812296 -1.969115
1.686281 0.8511834 0.15339117 -0.14685753 -1.0779563 2.6334012 1.7001563 1.0578157
0.2771351 -0.57944304 -3.747652 1.0996933 0.5748014 -0.8609385 -0.0640478 1.3526915
1.4945823 1.1951048 -0.99677753 1.0897852 0.14851478 1.1339008 -1.018461 -1.8145653
-2.0679755 -0.5595844 0.7680467 2.5036104 -0.26567087 0.5438359 0.19497539 1.3134989
-1.0548707 0.5708939 0.9164865 -0.44037473 1.9752253 0.94890386 0.13711782 -3.8933368
-0.9491065 1.3510232 -1.6685877 -0.6116162 0.6411346 0.27366924 1.4180553 1.5628024
-1.0140998 -0.54414433 -0.016769718 2.0092661 -0.5037679 -2.4089916 -0.11691736 0.058226284
0.53943926 2.0407805 -0.13511547 1.2735978 1.5826807 -1.346407 -2.2871087 1.8352928
-0.25562805 -0.8027868 0.6441044 -0.74422026 0.7463176 -0.78574896 1.4345459 0.26441932
0.8311537 -3.3523927 1.8632197 -0.6294915 0.9164887 0.17305678 -2.7748952 1.3525319
2.005747 -0.61719483 0.50563264 0.39777645 0.082783505 1.9445282 -3.661712 0.67939454
-0.052277602 0.352888 -0.036191095 0.07825119 0.16336673 0.46742603 1.3869641 2.5500486
-4.1924114 1.55261 -2.1617656 -0.059410926 0.11069112 -1.4942415 0.07225194 -4.2334123
0.5411657 0.74642015 1.185265 1.1206081 2.5615003 0.73043376 1.0428618 1.2477536
-0.3768931 -0.8870656 1.0961767 0.87842005 -0.24555933 -0.58151615 1.2303948 -0.21907333
1.3648717 -0.7997133 -1.4104556 0.5635844 2.218337 -0.13942045 -0.4373937 -1.7516803
0.7462007 2.090588 -1.9473546 -0.399534 0.45550397 1.6676313 1.7216986 -0.13479316
2.3940482 -1.671192 -2.2706938 2.4047234 0.96311426 0.30905372 -1.5072731 2.4595897
1.3790784 -1.0022912 0.31053096 0.51126486 -0.5264732 2.8660362 -0.8835509 0.9089954
0.20858164 0.56550515 0.7155615 1.1715443 2.08326 0.5737363 -1.3578309 -0.6434301
2.9769778 -0.3082969 1.0806152 1.5181597 -2.077675 1.1903008 2.2598321 0.072794914
-0.634657 -1.6271834 1.1939652 0.74771225 1.403468 1.4027965 -0.41410878 -0.50391877
0.8850069 -2.0445569 1.912964 -0.8313411 -1.7214392 0.44473284 1.1517837 -0.06781923
-0.11600917 -1.5187489 0.58089745 1.0689585 -2.1071854 -1.7413384 -0.24213885 1.3451481
1.5490731 1.463652 2.0159814 2.0953288 0.30227655 0.7774714 -0.7817732 0.5578655
2.5778005 -1.0215646 -0.7785575 -0.82428664 1.0163009 -0.4131245 1.918578 -0.3980409
-0.29602262 -0.26191738 -0.34718138 -0.068256795 -0.3164818 -0.12565997 -0.064356424 -0.22463718
-0.00350748 -0.2195199 0.09343901 0.035057977 -0.55646574 1.3633195 -0.37157238 -1.0239571
1.7777402 2.323901 0.68482935 -0.23524275 0.8117821 -4.3143916 -0.10092862 1.0770243
1.5223371 0.60106355 1.097213 0.24502128 -3.1931157 0.027709927 0.35051942 0.30853486
1.0030643 1.6185151 -2.3128643 -2.3859935 2.2627938 0.06591992 0.9626125 0.92258847

dense1.bias f4 [24]
00000000: e30a c93e 285e d73e 47ec c23e d94d 2d3e
00000010: 9f58 af3e e2b8 993e 5838 e73e 270d 4f3e
00000020: cf6a 943e 5a26 003e 3b65 d03e 44e8 aa3e
00000030: 62b9 973e 33ef 493d dcd1 8a3e c703 a53e
00000040: a5cc 963e e5b1 8b3e 8896 39be f50a ec3c
00000050: 5654 8a3e b290 e93d 0aa4 e83e d827 093f
0.39266118 0.42064023 0.3807089 0.16924228 0.342473 0.30023867 0.45160174 0.20219861
0.28987738 0.1251463 0.40702233 0.3338033 0.29633623 0.049300384 0.27113235 0.32229444
0.29453006 0.2728416 -0.1812383 0.028813818 0.27017468 0.114045516 0.45437652 0.5357642

dense2.weight f4 [36, 24]
00000000: bdc1 dbbc 2c27 253f f8f9 b4be 3bdd 0d3f
00000010: 025b 593f 5e3c f3bc 8a33 1cbf 79c7 82bd
00000020: 2078 693f 682a 6e3f 8971 6fbe 6161 98bf
00000030: d36d adbf c75e 983f ae23 b3bf e332 52be
00000040: 2f7b cd3f 098c c7bf dcba 0dbd 0b42 d0bf
00000050: bf04 643f e3a7 79bd 0ca9 85be d796 aa3f
00000060: 0d83 13be cc42 573f 36a6 073f e7bb d9be
00000070: ba7d 25bf f1c3 f03f 523c 443f f2e8 9a3f
00000080: 3e85 7abf 832a 823f d02c 0cbf 0192 933f
00000090: d4ca d43f fac9 1dbf d5d6 2fc0 2519 aa3e
000000a0: fe47 debe 7381 503f 0d43 f2bd 36e5 f03e
000000b0: c00a 78bf 6926 873f 238f ab3e 84c4 9ebf
000000c0: 58c1 cc3f 9c3b 81bf 6c9e 993e d89f 91bd
000000d0: 2461 63bf e904 773d 03e0 d0be 553a c43f
000000e0: 0e91 123f b338 99bf 0c37 653f bf58 1cbe
000000f0: fbbc 54be 669e 0cc0 8b8f a13f 3ed7 723e
00000100: a6cc b63e 6e6f bfbd 1c5c 413e 5414 783e
00000110: d4a4 f73e 68ee 2d3f 4638 c3bf b088 163f
00000120: d7e9 713c c376 a7be 880c 9dbe ec36 213d
00000130: 7c9e 37be 0e0b 6cbe f862 e0bd 8007 00be
00000140: 863a 78be bb54 a4be 37b3 d2bc 6fa5 06be
00000150: df80 853d a959 383b 0938 0ebe 063e 2e3e
00000160: dcdf 5bbe f5ff 653b 001e 59bc 481b 03be
00000170: 6c03 9abd 603a 4fbd a951 4ebe 8823 6abe
00000180: b20e 03bf 1e05 d3bf b2e4 023f ddf6 4abf
00000190: 0dc0 203f fe7d 053f 89c7 e9bf 5260 673f
000001a0: c2d1 6a3f fd8a f73d 42cb d7be 374f af3f
000001b0: b157 d7be 067d a6bf baac cb3e 3f91 733f
000001c0: d40a bd3f 95cb 8ebf f567 1e3e 9653 b5bf
000001d0: f90a 623f ca71 36bf 641f b1bf 117f 1f3f
000001e0: fa31 09bc bb9d aabf f934 9dbf 9b9b 0840
000001f0: dfe5 3cbf 7106 16c0 6fe1 d53f 57f3 cebf
00000200: ca7c 343f 4f5b 48bf aaae 19bf 9b97 9c3f
00000210: 33db a6bf 5abf 223d 1647 8d3e 1f14 aa3f
00000220: b620 edbd 61f7 1d3f 620e 45be c9d3 123e
00000230: 1697 0abe 46d3 b8bf 0810 993f 1cbd 5e3f
00000240: c866 b73f 67dd 0f3e 37ac 403f ac43 883f
00000250: 2444 5f3d 5005 78bf ae43 71be ad9d b83e
00000260: 30a2 ffbe 5f7f 2dc0 06d6 823f ab44 87bf
00000270: 7eb3 84bf 80a5 ab3f ba33 843e c04b 86bf
00000280: f641 e4be 80c5 723f c8ac 253e 5503 793f
00000290: 85f4 9c3f 7e4e 0ebf 2c08 67c0 b4e4 1e40
000002a0: 2943 cc3f 8b10 8b3e 8f4f f2bf e313 5a3f
000002b0: 813a 19bf bc0b 46bf ea8f 933f bf30 713f
000002c0: 1728 2d3e c8cc acbe 2847 a83f dc5f 38c0
000002d0: 3287 d73e 4f9f 983f 31f3 c9bf 2406 883f
000002e0: e0b0 6a3f 2d4d a43f 31fe f3bd 6f19 ebbf
000002f0: f6f6 95bf eb70 fe3f 68df 663e 0a93 77be
00000300: 183a 933f a996 1ebf cad2 ca3f b8d4 633f
00000310: e630 88bf 0767 14c0 0a2a ae3f f871 1a3f
00000320: ea2b f5bf 1cef 96bd b7b1 86bf a601 1e3f
00000330: 7dfc 89bf 59c3 29bf 840f 813e e9aa 863f
00000340: 9bc9 143f 0513 a73f d78d 0f3e db89 aebf
00000350: a48b 29bf 1fe2 a93d 67ba 7abf ce42 a1bb
00000360: b13d 9fbc aa24 8ebd b41f 33bd 3806 823c
00000370: 60ac 77be 9e47 3bbe 74e5 973d 3449 3dbc
00000380: 578d f73c edb5 51bc 0029 bb3a b1f3 83bc
00000390: bc70 54be 6102 abbd 13bb c6bd 26db 98bd
000003a0: 282a 29be 0631 a6bd 8c85 9bbd 702a 49bd
000003b0: 5672 b13d 923c 0cbe 994b 1dbe fbb8 84bd
000003c0: 2c8b f13d a145 d33e 053a 3f3f ffe8 c8bd
000003d0: 7daf 4abf d116 e4be a4d4 e1be 67a3 583f
000003e0: 2059 ab3d 0375 98be 0fa8 3abf 06a6 863f
000003f0: 9b63 9bbf f67b ad3f a502 3dbf 241e 123e
-0.02682578 0.64512897 -0.3534696 0.55415696 0.8490449 -0.029691871 -0.6101614 -0.06385703
0.9119892 0.93033457 -0.23383154 -1.1904718 -1.3549141 1.1903924 -1.3995264 -0.20527224
1.6053218 -1.558961 -0.03460203 -1.6270155 0.8906974 -0.060951125 -0.26105535 1.3327283
-0.1440546 0.840863 0.5298799 -0.4252617 -0.6464497 1.8809797 0.7665454 1.2102339
-0.9785956 1.0169224 -0.5475588 1.1528932 1.6624398 -0.61636317 -2.7474873 0.3322231
-0.434143 0.81447524 -0.11829195 0.47049874 -0.96891403 1.0558597 0.33507642 -1.2403722
1.5996504 -1.0096316 0.3000368 -0.07110566 -0.888201 0.060307417 -0.40795907 1.5330302
0.57252586 -1.1970428 0.8953712 -0.15268229 -0.20775215 -2.1971679 1.2621931 0.23714921
0.3570301 -0.093474254 0.18882793 0.24226505 0.4836794 0.67941904 -1.5251548 0.5880232
0.014765224 -0.32707796 -0.30673623 0.03935902 -0.1793155 -0.23051092 -0.10956377 -0.12502861
-0.24241075 -0.32095894 -0.025720222 -0.13149045 0.06518721 0.0028129613 -0.13888563 0.17015848
-0.21472114 0.003509519 -0.013251781 -0.12803376 -0.07520184 -0.05059278 -0.20148338 -0.22865117
-0.511943 -1.6485937 0.5113021 -0.79282933 0.62793046 0.52145374 -1.8264018 0.9038135
0.91726315 0.12087057 -0.4214726 1.369605 -0.4205909 -1.3006904 0.39780217 0.951435
1.476893 -1.1155878 0.15469344 -1.4166133 0.8829799 -0.7126738 -1.3837705 0.6230326
-0.008373732 -1.3329386 -1.2281791 2.1344974 -0.73788255 -2.3441432 1.6709422 -1.6168011
0.70502913 -0.78264326 -0.6003214 1.2233766 -1.3035644 0.03973327 0.27593297 1.328739
-0.11578505 0.61705595 -0.19243768 0.14338602 -0.13534197 -1.4439476 1.1958017 0.8700731
1.4328241 0.14049302 0.7526278 1.0645652 0.054508343 -0.96883106 -0.23560974 0.36057797
-0.49928427 -2.710899 1.0221565 -1.0567831 -1.0367277 1.3409882 0.25820714 -1.0491867
-0.44581574 0.9483261 0.16179192 0.9727071 1.2262121 -0.5558852 -3.6098738 2.482709
1.5957996 0.2716106 -1.8930529 0.85186595 -0.59854895 -0.77361655 1.1528294 0.94215006
0.16909824 -0.33749986 1.3146715 -2.8808508 0.42095333 1.1923617 -1.5777341 1.0626874
0.9167614 1.2836052 -0.119137175 -1.8367137 -1.1715991 1.987821 0.2254616 -0.24177185
1.1502104 -0.6194864 1.5845578 0.8899646 -1.0639923 -2.3187883 1.3606579 0.6033015
-1.9154027 -0.07369825 -1.0522984 0.61721265 -1.0780178 -0.663137 0.2520715 1.0520908
0.58120126 1.3052679 0.14018951 -1.363582 -0.662287 0.08295082 -0.9794068 -0.004921294
-0.019438596 -0.06940587 -0.043731406 0.015872106 -0.2418685 -0.18289039 0.074168116 -0.0115530975
0.030218763 -0.012799722 0.0014279187 -0.016107412 -0.2074613 -0.08350063 -0.0970365 -0.07463674
-0.16519988 -0.08114819 -0.075938314 -0.049112737 0.08664386 -0.1369498 -0.1536087 -0.06480595
0.11794123 0.4126406 0.74697906 -0.098100655 -0.79174024 -0.44548658 -0.44107544 0.8462433
0.083666086 -0.29776773 -0.7291269 1.0519416 -1.2139772 1.3553455 -0.7383216 0.1426931

dense2.bias f4 [36]
00000000: 40d2 9c3f 6307 8b3e 0789 823f 6e0e 53be
00000010: 9265 b63f 72ec 0e3f 6f71 1c3f 2d6a ca3e
00000020: ee1d 1c3f e0b7 2cbe 8114 c53e cd53 90bd
00000030: f847 633f 09fa 863f 3bc9 933f 354f b0be
00000040: eb7e b33f ee54 8cbd e7a3 593f 902a 1abf
00000050: ff0b f33e f14c 923f da26 373e 7288 d33f
00000060: 477c bc3f a4f8 e13e 9400 923f ce09 c4be
00000070: f083 c13f 9a5f ff3e 5360 0fbe c863 b03f
00000080: d58b 3e3f 84c6 ee3e a52b 6b3f d201 d53f
1.2251663 0.27154073 1.0198067 -0.20610973 1.4249747 0.55829537 0.61110586 0.3953413
0.6098317 -0.16867018 0.38492206 -0.07047234 0.8878169 1.0545055 1.1545786 -0.3443543
1.4023107 -0.068521366 0.8501572 -0.60221195 0.4747009 1.1429731 0.17885914 1.6526015
1.4725426 0.4413501 1.1406426 -0.3828873 1.5118389 0.49877626 -0.14001589 1.3780451
0.74432117 0.4663583 0.9186347 1.664118

dense3.weight f4 [128, 36]
00000000: c071 b5be fed7 a2bf bc55 c4bf 95b9 a03c
00000010: 0ede 43bf c53d cabe eb5e 71be 066a fbbe
00000020: b43d a9be b540 cfbc c023 9ebf 168a 6fbd
00000030: a9df bdbe 6d9d 1ebf bb3e ccbe e0d3 08be
00000040: e973 57bf 7e46 a1be a865 f3be 6fde e2bf
00000050: 7004 26bf 23e7 7abf e125 4bbf 4055 30bf
00000060: f767 00c0 09d2 22bf a3e9 35bf 2f70 bbbe
00000070: 1f60 53bf d66d 20c0 ff87 23bf 6f36 fbbe
00000080: d2fd 0abf e893 50bf d92c 80be 52f1 13c0
00000090: 2ae3 94be 17a1 533e 556d 0dc0 534d 6fbd
000000a0: 2ff6 5040 dc6f e33f 7b28 c53e 9ea2 663f
000000b0: 3d76 2abf dbb6 65bd 6a30 3fc1 0f50 0d3c
000000c0: a813 4f3e 662d 9fc0 83ec 923f 5c67 fabd
000000d0: 94b2 a4c0 666a 7a3e a9c1 33be 2fb9 07bf
000000e0: 28db ac3f 8e81 9ebe 7f58 633f 79de 2f3f
000000f0: 8e4d 44bf 2c2a 52bf fe87 4a3f bfab 1b3f
00000100: becd dcbf 3d60 4dbe aa44 eabf b502 58bf
00000110: a757 e1c0 9d8a 9c3e cad6 453f 16eb 1fc1
00000120: ea5a 1a3f 30f8 ccbe 6221 d2bf d821 e7bd
00000130: 5611 f4c0 0c82 bf3c c83a 913e 83d8 593f
00000140: fe62 6ac0 3563 3cbe f466 c4c0 6cff 8d3c
00000150: 8f38 0c3f 9248 80bf d3b9 48be 65ec 62bc
00000160: 4e1c 8ac0 6148 ccbd b49f 963c c9a8 48bf
00000170: b4ba 96be b95b bf3f 3ab7 7cbf 4d2b 533e
00000180: c42b cdbe 3b4e 183f a165 2f3f 215d 793f
00000190: b8d9 09c0 9b38 433f 68fc d5bd 1f01 9b3e
000001a0: ae3c 21c0 d5e0 d8bf e0f3 053f d34e 29c1
000001b0: b21b 773e 03bd 28c0 8aad fcba 8b6f 18bd
000001c0: b223 a6bf 99f2 0e3f 9033 2a3f c9c1 843f
000001d0: f711 c0bf 9dfb a5bc 33f0 00c1 93dc d7bd
000001e0: 813f 1f3f 088a c2bf b3be 083f 24cd 09be
000001f0: 5d1b 2ac1 7d25 1d3d 2c69 2f3e 128f 3e3f
00000200: ebab 583f df88 87be a902 02bf e4fa b6bd
00000210: 168f 9c3e bc31 e4be 725b 25be 43b9 d0bd
00000220: 8889 52bf 6c1f 55bd 3c0e a33e 43ca 933f
00000230: 8756 76c0 1a1e 50c0 ba73 45bd a004 aac0
00000240: d924 513f 9f58 c9be 2ccf 023f e098 bbbd
00000250: 7993 88bf 273c 6cbe f662 373e 36e4 963f
00000260: a344 28c0 6c5c 53be e022 89c0 c368 bc3d
00000270: 9f5e 41bf 46dd 8f3d b681 543f e6bc 81be
00000280: dc35 adc0 2c91 bbbe 800e 303e eddf 3f3f
00000290: ff1b 963f 464f dc3c b929 553e be0e 413f
000002a0: 288f 3d3e fba3 0c3e 90ae c5bf bcda 74be
000002b0: a27a 39bf dd5b 86bf 4401 433f 84c2 61bf
000002c0: c47e d7c0 7870 cdbf 1d67 fcc0 b90c d7bf
000002d0: 5b7b 603f 18b6 183f e2e7 633f 3264 bbbd
000002e0: dd2b 3d3f 22fa 4ac0 2e3a d93e 9df6 143f
000002f0: 8985 d2bd dcc6 b53d 218d a6bf cd61 eabd
00000300: b652 88c0 795a f3bd 4601 273f 1414 873e
00000310: 0475 17c0 74b4 d2be e230 1bbf a606 afbf
00000320: 415b 203f a727 56bf 6d91 563f 67f9 99c0
00000330: 458c db3e 1ce0 30be f8ab 3cbe 4d0d 583f
00000340: 7f60 2fbf 3b1d 3ac0 9c8b 3f3f 85f1 bdbf
00000350: bdfd 803e 5f23 c5c0 6a40 51bf 5e05 9abf
00000360: f7ac 823f adcd 873f 8a00 ad3e 909e c2bd
00000370: 742d 193f e756 9ac0 9880 823f 97c2 413f
00000380: 0385 13bf 57fd 5c3d c5f1 0e3f 2a9d f8bd
00000390: ba90 b73f c0df cabe 215f 69c0 e072 0bbe
000003a0: 8c14 1a3e aaf0 8b3d cc62 8fbf 2ebb f7bd
000003b0: ab99 05bf 7763 80c0 4ba2 183f a5a5 3bbf
000003c0: 79a0 98bf 34aa 853f 8528 b6c0 0360 0abf
000003d0: 9233 cf3e c576 bfbf 0122 d63e ac54 d5bf
000003e0: 9a30 1cbe 292b 32c0 24d2 59c1 dc1e b6bf
000003f0: 72df 38bc b81a f2bf 508e bb3e bd36 33bd
-0.35438347 -1.2722166 -1.5338664 0.019619742 -0.76510704 -0.3950025 -0.23571365 -0.49104327
-0.33054888 -0.02529941 -1.235466 -0.0584813 -0.37084702 -0.6195896 -0.3989161 -0.13362074
-0.8416124 -0.31499094 -0.47538495 -1.7724131 -0.6485052 -0.98008937 -0.79354674 -0.6888008
-2.0063455 -0.6360174 -0.71059626 -0.36609027 -0.82568544 -2.5067039 -0.6387939 -0.49064967
-0.5429355 -0.8147569 -0.25034216 -2.311604 -0.29079562 0.2066692 -2.209798 -0.05842335
3.2650259 1.7768512 0.38507447 0.90091884 -0.6658667 -0.056082588 -11.94932 0.0086250445
0.20222342 -4.974292 1.1478428 -0.122267455 -5.146799 0.2445465 -0.17554344 -0.5301694
1.3504381 -0.30958217 0.8880691 0.6869884 -0.7668084 -0.820956 0.7911376 0.6080894
-1.7250288 -0.20056243 -1.8302205 -0.8437913 -7.0419497 0.30574504 0.7728087 -9.994894
0.60294974 -0.40033102 -1.6416438 -0.11285752 -7.627116 0.02337744 0.2836516 0.85095996
-3.662292 -0.1839722 -6.1375675 0.017333709 0.547738 -1.0022147 -0.19602136 -0.013850306
-4.315955 -0.09974743 0.0183867 -0.78382546 -0.29439318 1.4949867 -0.9871708 0.20621987
-0.40072453 0.5949437 0.6851445 0.9740773 -2.1539135 0.7625825 -0.10448533 0.30274293
-2.5193286 -1.6943613 0.5232525 -10.581744 0.24131659 -2.6365364 -0.0019277793 -0.03721575
-1.2979643 0.55838925 0.6648493 1.0371639 -1.5005482 -0.02026158 -8.058642 -0.10540118
0.62206274 -1.5198374 0.53415984 -0.13457161 -10.6316805 0.03836583 0.17129964 0.7443706
0.84637326 -0.26471612 -0.5078531 -0.08934572 0.30577916 -0.44569194 -0.16148165 -0.10191586
-0.82241106 -0.05203192 0.31846797 1.15461 -3.8490312 -3.2518373 -0.04820607 -5.3130646
0.8169685 -0.39325425 0.5109737 -0.09160018 -1.0670005 -0.23069821 0.17908844 1.1788394
-2.6291893 -0.20640725 -4.285507 0.09199669 -0.75535005 0.070246264 0.83010423 -0.2533943
-5.4128246 -0.36634195 0.17193031 0.7495106 1.1727294 0.02689327 0.20816697 0.7541312
0.18511641 0.13734429 -1.5443897 -0.23911566 -0.7245275 -1.0496784 0.76173806 -0.8818743
-6.7342243 -1.6049948 -7.887587 -1.6800758 0.87688226 0.59652853 0.890257 -0.0914997
0.73895055 -3.171517 0.424272 0.581888 -0.10279376 0.0887582 -1.3011819 -0.11444435
-4.2600965 -0.11882491 0.6523632 0.26382506 -2.366517 -0.411533 -0.60621464 -1.3673904
0.6263924 -0.83654255 0.8381565 -4.8116946 0.42880455 -0.17272991 -0.18424976 0.84395295
-0.68506616 -2.908034 0.748224 -1.4839331 0.25193587 -6.1605678 -0.81738913 -1.2032888
1.0209035 1.0609642 0.33789474 -0.095029 0.5983498 -4.823108 1.0195494 0.75687546
-0.57624835 0.05395254 0.5583766 -0.12139352 1.4341042 -0.39623833 -3.6464312 -0.1361804
0.150469 0.068330124 -1.1202025 -0.120962486 -0.52187604 -4.0121417 0.5962264 -0.7329963
-1.1923972 1.0442567 -5.692446 -0.5405275 0.40469033 -1.495812 0.41822818 -1.6666465
-0.15252915 -2.7838843 -13.613804 -1.4228168 -0.011283742 -1.8914404 0.36632013 -0.043753374

dense3.bias f4 [128]
00000000: 0f52 e0be cdbb 303f c208 1bbf 3ad1 90bf
00000010: 95a5 b43c 39cf 37bf febd a13e 2704 e23d
00000020: fcff 903f 690d ebbe 7651 9f3f 4108 563f
00000030: 95e0 713f ca79 8c3e c01a 4b3f 9958 1f3f
00000040: 097f 88bf b06b b53e cd3a 1ebf 7172 65bf
00000050: 9d3a bcbe 53fb 653f 72a5 46be aea4 89bf
00000060: aaec 7c3e 5378 9abf f32c f53e 6b35 b63f
00000070: a0c2 94bf 6d43 323f 7bf0 ee3f 66e0 943f
00000080: 32ed bf3e 0bed 543f 8fa7 a6be 8644 183e
00000090: d8b3 febe 2135 143f fae9 c8be ae28 fdbe
000000a0: d839 2b40 913a 093e e2bf d83f b510 863f
000000b0: 16f4 3abf d66f 6e3f b4f2 a43f 6b39 1c3e
000000c0: 1d54 02bf 1246 3bbf 79ba 1440 2c38 de3e
000000d0: b8c2 1a40 da7a 193f 2c21 8abf 2312 973f
000000e0: 25f7 b13e 237b 09c0 3038 313f 75d0 803f
000000f0: fbad cabe d6bb d53f 7251 9a3f 5cc6 29bf
00000100: d418 0bc0 5454 b43e b1bd a6be 76dd c2bf
00000110: c3ef f5be 2270 00bf 6b22 833b 320b 9ebf
00000120: 62f4 60bf b920 e3be 3aad 113f 7157 fc3d
00000130: adea c6bf 2495 ec3e 0605 42bf 76a3 8abd
00000140: 2489 5e3f 17f9 303e 6ed1 3dbf 82a9 87c0
00000150: 44ca e0be 933f 52bf 601c 80c0 e383 813f
00000160: e2df a0be 1f14 703f 0a33 00c0 91bd 3a3f
00000170: 75c9 cdbd 31d6 b9bf 98f0 b33e b0e9 cbbe
00000180: 7b75 d03f 55fd 283f 9691 f43b b8d9 dc3e
00000190: 68f6 a8bd 02f7 7bbe fece c63f eae9 dd3d
000001a0: 84c4 d3be beb7 2abf 8ab8 c33f 1256 c3bf
000001b0: 856e 18bf c80e cfbe 4754 df3e 46c7 34bf
000001c0: cf87 03bf 0511 053f 2236 d93d 230b 96be
000001d0: 7854 ab3f 7a4e d0bf efed 473e d6b5 173f
000001e0: 759d 54be 1726 343f b8db f83e 866c cfbd
000001f0: fffb af3e cbf5 153f eef1 643f cb1f cabe
-0.43812606 0.6903656 -0.6056024 -1.1313851 0.022051612 -0.7180057 0.31590265 0.11035948
1.132812 -0.4590867 1.2446735 0.83606344 0.9448331 0.27436668 0.7933769 0.62244564
-1.0663768 0.35433722 -0.6180847 -0.8962775 -0.36763468 0.89836615 -0.1939905 -1.0753381
0.24699655 -1.206797 0.47885856 1.4235052 -1.1621895 0.69634134 1.8667139 1.1630981
0.37485653 0.831742 -0.32549712 0.1486989 -0.49746585 0.5789357 -0.3924101 -0.494451
2.6754055 0.13401248 1.6933558 1.0473849 -0.73028696 0.931394 1.2886567 0.15256278
-0.50909597 -0.73153794 2.3238814 0.4340223 2.4181347 0.5995308 -1.0791373 1.180241
0.3475887 -2.1481407 0.6922636 1.0063616 -0.39585862 1.6697948 1.2056105 -0.663183
-2.1733904 0.35220587 -0.32566598 -1.5223835 -0.48034486 -0.501711 0.0040019057 -1.2347167
-0.878729 -0.44360903 0.5690495 0.123213656 -1.5540367 0.46207535 -0.75788915 -0.06769459
0.8692801 0.1728252 -0.7414769 -4.239442 -0.43904316 -0.82128257 -4.0034637 1.0118374
-0.3142081 0.937807 -2.0031152 0.72945505 -0.100481905 -1.4518491 0.35144496 -0.39826727
1.6285852 0.66011554 0.0074636443 0.43134856 -0.08250123 -0.24605945 1.5531919 0.10835631
-0.41360867 -0.6668662 1.5290692 -1.5260642 -0.5954364 -0.40440965 0.43618986 -0.7061657
-0.513791 0.51979095 0.10606028 -0.29305372 1.3385153 -1.6273949 0.19524358 0.59261835
-0.2076319 0.7037062 0.48605132 -0.10128121 0.34371945 0.58578175 0.89431655 -0.3947738
